_train/_models/20250924/HD현대인프라코어(042670)_20250924.pt (torch, 831847 bytes, 20 tensors)

enc_p.lstm.weight_ih_l0 f4 [384, 6]
00000000: c175 2b3d 8877 b03d 8bde 673d f171 9d3d
00000010: 51de d03d 6c7a 8abb cd94 9abd c705 afbd
00000020: 3ee6 bcbc 6d7f 31bb 1e30 eabb 6c37 83bd
00000030: f1c1 35bc 916b 813d dc33 3cbd 2ec1 a93d
00000040: 63a7 51bd 9d13 803d 887e 48bd 8ccd 41bc
00000050: ec93 cb3c 697d b3bc 4777 bf3d 1d38 ecbc
00000060: af44 99bd 8eba cbbc 874f b93d 3fa0 b23c
00000070: 8e73 9f3d 9127 8a3d 0864 cdbd 6d45 7fbb
00000080: 1890 9d3d 3c4a 2a3d 93c3 133d 3c44 96bc
00000090: 1dad 523d cb9b 2fbc ce98 b8bc b62c b8bd
000000a0: a6fe 90bc 9604 9c3c 7c09 bebd 019f bbbd
000000b0: f9cf 6abc 2e6a 473d af1b dc3c 4222 c2bd
000000c0: 017c 13bd 6647 8dbd c0ce 8ebd 2d7c 94bd
000000d0: d017 3abd a8f9 86bd 7109 a73d d274 2e3d
000000e0: 448a 3b3d 2b77 adbd a5c2 853d 0cd2 2b3d
000000f0: a635 22bb 00f2 5f3d 3ba9 893d ff26 08bd
00000100: 24ac f73b 93b2 c0bd 442d 713c 8427 1fbd
00000110: d10f 32bd 9bd3 99bd 6f83 36bc 4f53 96bd
00000120: fa10 9f3d 62b2 54bd 8cea cdbc 3272 93bd
00000130: 8eec 5d3b 0814 8fbd 068a 64bc a622 443d
00000140: b4ce 28bd 81df 2bbd 5e11 a0bd f4b5 0d3d
00000150: f8ba a4bc 0d41 593d 1475 c6bd 217c 9ebd
00000160: 54f4 a3bd b9b6 7d3d 42dd 8cbd d5da cbbd
00000170: 9789 a83d afa2 203b 41f5 903d 145c 8f3d
00000180: fe06 013d 6474 9bbd 74ee 9ebd f5ed bdbd
00000190: a0bd d23d c4e8 d23c 4c50 c33d 263f 44bd
000001a0: c6b6 813d 28a1 c4bd 20d9 923d 5fde bf3d
000001b0: 726d bdbd 3579 d3bd 5d17 61bd 4e20 823d
000001c0: c293 8e3d e7e8 4c3d dd5b 68bd 9205 b3bd
000001d0: 7f18 d1bc 5c21 a1bd 7c9b 823d c8f7 0b3d
000001e0: 8581 1d3c 26ed 84bd 17cf c53d f3c9 c7bc
000001f0: f3e5 4cbd 824d 2b3d a4a0 11bd 62cc 1e3d
00000200: 576a 8abd d1ef b5bc 5802 2f3d c729 3c3d
00000210: 0498 f3bc cfb0 5cbd ab92 9ebc 2d8f 1bbd
00000220: 87f1 523d 425b 2e3d e7ff 8abc d82e 8d3d
00000230: e9a4 0bbd d23b 84bd e961 c93d cd78 b63d
00000240: f05d 173b be9c 383d 077c bf3d be7f 9d3d
00000250: b00f 9c3c 213d 373c 4492 89bd d5c2 87bd
00000260: 5a9f 243d f67c 203c b2a3 c5bd d00c c3bd
00000270: a08d 643d 780a 593d ab39 a4bd beb7 8dbd
00000280: 2862 eabc 40fc eebc 728d 063b 867c 213d
00000290: 1985 76bd d359 863d 396a a5bd 67dd 2f3d
000002a0: 61c5 4fbd a565 61bc 2dcc b23d 56ad 99bc
000002b0: d33d c9bc 13fd 5a3d 6a26 033d 2d39 83bd
000002c0: 71b9 94bd 1f72 7cbc 193b c43a f00d a3bd
000002d0: 8a2f c1bd 6ccb 48bc 8c90 4c3d a7cf 8c3d
000002e0: 7129 c2bd efc0 b63d 820e f53c fad4 0dbd
000002f0: ad2a 70bd 58a0 453c 39d1 82bc 01df 9b3c
00000300: 13fb 1d3d 1c33 c03c 7128 b93d c7de c2bd
00000310: 38f6 70bd 6a9e a63c ceab 25bd 78d4 a7bc
00000320: f132 8dbd ffaa a23c 979c 33bd ed24 1d3d
00000330: 76ba 973d a46b 86bd 944f c0bd 38ec cb3d
00000340: 5f1e dcbc ead7 29bd 8d45 c2bd 5f8b eb3c
00000350: b68a a53d fcf1 b23d df9b bfbd 13a1 743d
00000360: cd7b 95bd 07c8 a8bc d2a1 5ebc 1caf a1bd
00000370: a22f 80bd a189 7f3d 6275 b23d ded3 a0bd
00000380: d09b 96bd 0c1f af3d e451 de3c 692d ac39
00000390: 8872 a4bd d6d6 9fbd f0ed 25bd 5b20 bcbd
000003a0: e069 8dbd e2d4 233c c67d c43d c1fa 8a3d
000003b0: 5791 a2bd c556 0cbd 2782 163d 00c1 ae3d
000003c0: ba39 a1bd 3e8d 8bbd d860 a3bd d15c 053d
000003d0: 6f97 9d3d 806a e63c 6cf1 143d bcf8 5bbd
000003e0: 37eb 1c3c f6f9 39bd c098 553d 7db7 09bd
000003f0: 4f00 ccbd 2d6b 393d 010d 87bd 14b3 d73c
0.041860346 0.08616549 0.056608718 0.07687748 0.101986535 -0.0042260196 -0.07547913 -0.08546024
-0.023059007 -0.0027084008 -0.0071468493 -0.06407055 -0.0110936025 0.06319345 -0.045947894 0.08288799
-0.051185023 0.06253741 -0.048948795 -0.011828791 0.024850808 -0.021910386 0.09348922 -0.02883535
-0.074838035 -0.02486923 0.09048372 0.021804927 0.07785712 0.06745828 -0.10028845 -0.0038951293
0.07693499 0.0415747 0.036075186 -0.018343084 0.051434625 -0.010718296 -0.0225338 -0.08992903
-0.01769955 0.019045155 -0.09279153 -0.09161187 -0.014331811 0.048685245 0.02686867 -0.094791904
-0.03600693 -0.06898384 -0.06973028 -0.07250247 -0.045432866 -0.06590587 0.08156098 0.042591877
0.045786157 -0.08469995 0.06531266 0.041948363 -0.0024751215 0.05467415 0.06721731 -0.033240315
0.0075583626 -0.0940906 0.014720265 -0.038856044 -0.043472115 -0.07511064 -0.011139735 -0.073401086
0.0776691 -0.05192793 -0.025136255 -0.071995154 0.0033862921 -0.069862425 -0.013948923 0.047884606
-0.041212752 -0.041961197 -0.078158125 0.034597352 -0.020108685 0.053040553 -0.096903 -0.077385195
-0.08005586 0.061941836 -0.06878139 -0.09953848 0.08229368 0.002451103 0.070780285 0.069999844
0.03150081 -0.07590559 -0.07760325 -0.09273902 0.10290074 0.025745757 0.095368 -0.047911786
0.063336894 -0.096010506 0.071703196 0.09368586 -0.09249391 -0.10325853 -0.05495392 0.06353818
0.06961776 0.0500268 -0.056728233 -0.08741297 -0.025524376 -0.07867691 0.063773125 0.03417185
0.009613399 -0.06490545 0.0965864 -0.02438829 -0.050023984 0.041821964 -0.03555359 0.038769133
-0.06758564 -0.02220908 0.042726845 0.04593828 -0.029735573 -0.053879555 -0.019357046 -0.03797834
0.05149987 0.0425675 -0.016967727 0.068937 -0.034092817 -0.06456722 0.09833128 0.0890976
0.0023096763 0.045071356 0.09349828 0.076903805 0.01905045 0.011184008 -0.06717351 -0.06628958
0.040191032 0.009795418 -0.09650363 -0.09523928 0.055799127 0.0529885 -0.08018812 -0.06919812
-0.028611258 -0.029173017 0.0020531085 0.039425395 -0.060185526 0.06560101 -0.08076901 0.042935755
-0.050725345 -0.013757144 0.0873035 -0.01875941 -0.024565613 0.053464007 0.032019056 -0.0640739
-0.07261933 -0.015408068 0.0014971226 -0.07961643 -0.094328955 -0.012255531 0.04994254 0.06875544
-0.094805606 0.08923518 0.029914144 -0.03462694 -0.05863445 0.012062155 -0.015968906 0.019027235
0.03856952 0.02346187 0.09040917 -0.09515148 -0.058828562 0.02033921 -0.04044705 -0.020487055
-0.06894482 0.019856928 -0.043850508 0.038365293 0.074086115 -0.065634996 -0.09390178 0.099571645
-0.02686995 -0.041465677 -0.09485922 0.02875298 0.08083098 0.08737561 -0.09355902 0.059723925
-0.07299004 -0.020603193 -0.013588386 -0.078947276 -0.06259085 0.062387113 0.08713795 -0.078529105
-0.073539376 0.085508436 0.027138658 0.0003284023 -0.080296576 -0.078046486 -0.040510118 -0.09185859
-0.0690496 0.009999486 0.09594302 0.06786109 -0.079378776 -0.034262437 0.036745217 0.085329056
-0.078723386 -0.06814049 -0.07977456 0.03255922 0.07694899 0.028126955 0.03636305 -0.05370401
0.009577564 -0.045404397 0.052147627 -0.033622254 -0.09960996 0.045268226 -0.06594277 0.026330508

enc_p.lstm.weight_hh_l0 f4 [384, 96]
00000000: 87d1 adbc 3c4a 093c 03a9 a43d 8fc2 58bd
00000010: d364 83bd 752b d3bd f430 1f3d 80cb 9bbc
00000020: 6e0b b8bb dec7 adbc 98a3 c53d b7b9 c8bd
00000030: 2857 6abd a8d5 ce3d 0287 ac3d 7d5e 5f3d
00000040: bb94 1c3d 660f 143d 36be 803b fa2c 02bd
00000050: 94a4 3cbd c469 65bb ba3f e03c 887e 96ba
00000060: 3462 8dbd a438 113d 967c 8bbd 470d 8bbd
00000070: 00e4 2f3c f99c 8fbd 85b4 7abc 3d3b 98bc
00000080: 56ba c53d 172c 12bc 5c3d ba3d 5a67 813d
00000090: ccfd febc bd55 b13b c5e2 a9bd 163c 9d3b
000000a0: ebe3 bdbd 940f cd3d 0d84 023c a183 8bbc
000000b0: c91a ab3d 4e4f a3bd 314b a4bc 156d e4bc
000000c0: 902e a6bd d645 ec3c 8922 88bd cd2c 30bd
000000d0: b414 10bc 7147 a8bb 79ec 8b3b 7d8f b83d
000000e0: d474 17bc 5533 2e3d edf4 c33c a365 df3c
000000f0: 74c9 9dbc f75c 8c3c 8973 63bd b95b 783d
00000100: e870 083c 8a05 323d 4983 2c3d 8edf 36bd
00000110: 9cd5 9a3d 6239 92bd ac9c 0ebd 2e80 e53c
00000120: f969 c5bb 2eca 5ebd 4b4b a6bd 67a0 bcbb
00000130: 72ea ca3d e429 8b3d e44b 87bd e4ff 383d
00000140: 70d7 55bd 96bf 593d c072 3f3d f2b3 45bd
00000150: 98df 4fbd 6b90 b7bc cae5 50bc 652a 3f3b
00000160: e54a 1dbd f57c a33d d921 b4bc c45a ccbc
00000170: 2199 31bd dabf 9e3d 9e98 573d 0136 88bc
00000180: d51e 51bd 583f 93bc e486 183c d8f6 bfbd
00000190: be3d a33c 9f69 a23d b694 d23d 4150 b03d
000001a0: cb1e 51bc b5f9 b13c 992f 84bd a56e 1f3d
000001b0: 3b4e 8c3d 0a77 cb3d 68c7 e0bc df91 80bd
000001c0: 86b3 77bd 387a 2e3d edeb 49bd 1d02 633c
000001d0: 05e7 863d 9580 29bd 7417 a73c f1c5 2d3d
000001e0: c394 403d 1c49 ab3d 6235 4b3b 7f68 7c3b
000001f0: a53f c93d c4fe b3bc 25de 993d 8726 e03c
00000200: d395 9cbd 90d9 c03d 15ec 233d f208 d0bc
00000210: dd3a 80bd 8381 683d 4554 f63c 801e 55bd
00000220: acd1 a23d ca3c 863d e413 96bd 1e6c a63d
00000230: 39e5 d33c a4b9 0f3d 50ec dabc 6f6a 88bd
00000240: c62a 133d f66f 573d fed3 243d 944d 0cbd
00000250: 5295 243d c318 a6bd efad 4cbd c6f7 5dbd
00000260: 9e33 c23d ab51 9f3d 7ddc 953d 5b67 b6bd
00000270: 10b5 a63d 975b 7ebb bf2f babd faa5 16bc
00000280: 52b3 c83d 3f4c 9cbd 0a77 2abd 7675 953d
00000290: a319 8b3d 5541 c5bd c323 003d f7e6 b53c
000002a0: b48c 6fbd 75c0 11bd 46e0 9dbd e9ee 7d3d
000002b0: d04f 9f3d a233 9c3c 361b 623d 6418 a6bc
000002c0: 1277 77bd 3cdd 823c b3fb a53d d1a9 dd3c
000002d0: 209c c83c 1dfb 58bd 8f47 afbd d1a7 983d
000002e0: c87c 143d 758b 88bc e7c4 44bd c523 ecbc
000002f0: a2a1 033d 4e54 cdbb 5d21 943d 2a99 aa3d
00000300: cd05 823d 7a74 903d d401 b2bc a655 6dbc
00000310: 9085 4abc beb6 c9bc 8e4a 98bd 248f b7bd
00000320: 3f3e 25bd 00ce 90bd b2e6 503d 9123 933d
00000330: 3009 573d 472d b43d c5d1 6cbc 02a1 bfbc
00000340: 2a11 1abd c445 753d a43a 803d 93ab b43d
00000350: 28f7 063d a5b6 a0bd 8596 a8bd a038 9cbd
00000360: fc02 cabc d3b7 b23d 599d cebd bfa9 ce3d
00000370: e412 963c 7a73 40bd 0cd4 553d d765 a23d
00000380: 8f9f ce3c bb85 2e3c e25b 3abd 01be 593c
00000390: af11 c13d 142a 8e3d 86dc e1bc 1947 e23c
000003a0: 9110 623d 909e 7cbd 0ab6 873c 74d6 aabd
000003b0: 122d 853d bd78 963d 1017 abbd 52ca 9b3d
000003c0: abb1 afbd 46b7 43bd 5b99 633d a0d8 b03d
000003d0: 9efe a3bc 6f41 a2bd 23db ebbc 2518 bf3d
000003e0: b3ac 14bc 855f 853c edd8 113c d8e8 9b3c
000003f0: 1f62 bd3b ccc0 aebd d0a1 a23a c13f b73d
-0.021218074 0.008379515 0.08040049 -0.05291992 -0.06415715 -0.10311023 0.038865045 -0.019017935
-0.005616597 -0.021213468 0.09650344 -0.09801047 -0.057212025 0.100993454 0.08424188 0.05453347
0.038227778 0.036147498 0.003928925 -0.031781174 -0.04605539 -0.0035005668 0.027374137 -0.0011481801
-0.069034964 0.035454407 -0.06810872 -0.06789642 0.010735512 -0.07012362 -0.015301828 -0.018582935
0.096546814 -0.008921645 0.090937346 0.06318541 -0.03112688 0.005411832 -0.08295206 0.0047984226
-0.092719875 0.10012737 0.007966054 -0.017030539 0.08354718 -0.079741105 -0.020055385 -0.027884046
-0.0811435 0.028841894 -0.06647212 -0.043011475 -0.0087939985 -0.0051354696 0.004270133 0.09011743
-0.009244163 0.042529423 0.0239205 0.027270144 -0.0192611 0.017134173 -0.055530105 0.06063435
0.0083277 0.043462314 0.04211739 -0.044646792 0.07560274 -0.07139851 -0.034817383 0.028015222
-0.006024596 -0.054392032 -0.0811983 -0.005756426 0.09907998 0.067950994 -0.06606272 0.04516591
-0.05220741 0.053161226 0.046740294 -0.048267312 -0.050750345 -0.022407731 -0.0127500985 0.0029169556
-0.038401503 0.07982818 -0.021988796 -0.024945624 -0.043358926 0.077514365 0.05263578 -0.016627314
-0.051054794 -0.01797454 0.009309504 -0.093732536 0.019926902 0.07930302 0.102822706 0.08609057
-0.012763689 0.021725515 -0.06454391 0.03892388 0.06850859 0.09934814 -0.027438834 -0.06277823
-0.06047394 0.042597026 -0.049297262 0.013855484 0.06587032 -0.04138239 0.020396926 0.0424251
0.04701687 0.08363554 0.003100716 0.0038514433 0.09826592 -0.021972068 0.07513074 0.027362121
-0.07645764 0.09416497 0.040020067 -0.02539489 -0.06261227 0.056764137 0.03006948 -0.05203104
0.07950148 0.06554563 -0.073280126 0.081260905 0.025866138 0.03508915 -0.02672401 -0.066609256
0.035929464 0.05259701 0.040241234 -0.03425367 0.040181465 -0.08110192 -0.049970564 -0.054191373
0.094825014 0.07779249 0.073174454 -0.08906432 0.08140004 -0.0038811916 -0.09091138 -0.009194845
0.09799828 -0.0763173 -0.04161743 0.072977945 0.06791999 -0.09631602 0.031284105 0.02220486
-0.058483794 -0.035583932 -0.077087924 0.06199542 0.07778895 0.01906759 0.05520173 -0.020275302
-0.06041629 0.015974633 0.081046484 0.027058514 0.024488509 -0.052973855 -0.085585706 0.074538834
0.036251813 -0.01666806 -0.048039343 -0.02882565 0.032136567 -0.0062661534 0.07232926 0.08329995
0.06348763 0.07053466 -0.021729387 -0.014485752 -0.012360945 -0.024623271 -0.07436095 -0.08962849
-0.040342566 -0.070705414 0.05100126 0.07184518 0.052498996 0.087976985 -0.01445431 -0.023392204
-0.037614025 0.059880987 0.06261185 0.08821788 0.03295055 -0.07847337 -0.08231834 -0.07627988
-0.024659626 0.08726468 -0.100886054 0.1009097 0.018319555 -0.046985127 0.052204177 0.07929581
0.025222568 0.010652001 -0.045497783 0.013289929 0.09427201 0.069416195 -0.027570974 0.027621793
0.05519158 -0.061674654 0.016566295 -0.08341685 0.06502737 0.07347248 -0.08354008 0.07606949
-0.08578809 -0.047782205 0.055566173 0.08635068 -0.020018872 -0.07922637 -0.028791016 0.09330777
-0.009074378 0.016280899 0.008901817 0.019031927 0.005779519 -0.08532867 0.0012407843 0.08947707

enc_p.lstm.bias_ih_l0 f4 [384]
00000000: 17c9 71bd e808 98bd 4ae8 a6bd d7a9 013c
00000010: 1020 b8bd 3b59 cd3d 8a83 69bd fdfe a2bd
00000020: 8f42 493d 7a1a 86bb 714f a1bd 8af6 fd3c
00000030: 1848 ee3b 5102 8a3d 51a1 903c ceac e03b
00000040: 6035 a43c 3fe6 e73c 4eff c2bc 06d7 433d
00000050: 1a4f 05bc b946 bb3d 67b0 c63d a60d b43d
00000060: e7ad d03d 88f5 aa3d 0718 81bd 881f 0d3c
00000070: e328 153d 6362 c03c 796e 30bc 250e bbbd
00000080: 1f2f 12bd faa8 a3bc 8190 033d fb69 713d
00000090: db08 c6bd a91a 16bd cc2b d53d f30c 043c
000000a0: b06c 46bd ed4c 82bd 29eb 9e3b 216e e03c
000000b0: d4b6 2d3c 16cc 8a3d 14e2 403d 437b 973d
000000c0: 2b09 033d 4636 73bd 503b 903d 829c 6d3d
000000d0: c9ee c53d 5b73 5bbd 5ceb 73bd 9136 743d
000000e0: 5990 a23c 871f 203d 9622 7b3d 80b8 b03d
000000f0: 3d64 993d 450b be3c 8a9a 803c 0e4d 9dbc
00000100: 39e1 15bd 21bd 6f3d 2231 62bd 2296 3dbd
00000110: 8162 bf3d 8d00 3e3d dcbd 6dbd 4a42 573a
00000120: 05e3 91bd 52f5 2c3d b621 bc3d 7521 9bbd
00000130: 35d5 833d 3de6 f8bc 19a4 26bb b853 74bc
00000140: 148a 38bd 3cbc 6fbd ef5d 94bc 8f7b bb3d
00000150: 6646 623d 4c59 f2bc 571a dcbc e1c5 17bd
00000160: fd38 70bd e021 1bbd 4c90 b1bd 086b 3e3d
00000170: c1f1 c5bd 12c2 c9bc aad9 8a3b e544 8c3c
00000180: 35a4 babd d331 e73c 7951 5c3d 843d 5e3c
00000190: 90ad b3bd 19de ecba 4cf4 a8bc edb7 323d
000001a0: 035b 67bb e679 a53a 957d b5bd d967 a33d
000001b0: f29b aabc 9cd6 ac3b c3a7 9a3b 464c fb3c
000001c0: c62f d73c 188a 55bc 28a4 2f3d 7b2e cf3d
000001d0: 28e5 bebd 6194 b6bc 539b 323b 5972 b5bd
000001e0: 70d3 95bb adc4 c93d d83b 52bd e3cc 053d
000001f0: f7ab 823d 4fff 823d df30 9c3c 6b03 c8bd
00000200: 69b2 aebd 24ae ae3d 1fb7 baba 00ec 83bd
00000210: dc05 833d d7d0 4bbc 11f2 a13d 2d1f 81bd
00000220: 567f 33bd 32ce 49bd 13ae 9ebb 9bab 4bbd
00000230: f626 923d 90fa 373d 293d babd 0524 ba3d
00000240: 5839 bcbc ccc7 c5bd bd74 8cbd 9f39 d53d
00000250: 12ea c33b 057e 8a3d 52c2 73bd 5d66 b43d
00000260: e053 d4bd 0c63 70bd 8309 c63d cc51 15bd
00000270: fe5a be3d ab34 70bd 392b 9b3b 0bc8 63bd
00000280: a583 88bb f0a1 a73d 8178 77bd 9619 a4bd
00000290: 8b08 1e3d 4d75 a93d 545a 8f3c b072 4d3c
000002a0: 6ec4 b5bd bc16 c2bc 0d31 d53d 7e98 84bd
000002b0: 10e5 bdbd bc4f 3f3d 2928 bfbd 2ed5 9cbd
000002c0: 0f80 d0bc 9fee 023c da70 c53d 6f85 823d
000002d0: d69b 353c 6d19 2d3d 48c7 d43d 4f38 24bd
000002e0: 0549 083c 9c4f 863d 4320 7bbd bccf ca3c
000002f0: 12d2 fd3b b0e6 9abd 2810 9dbd 92a0 6bbd
00000300: 452b d23c ef26 923d 8796 18bd ca59 36bd
00000310: f6aa 393b 2408 7cbc e32f bc3d ed09 173d
00000320: 65d5 9d3d 611e babd 692b 8bbd 4442 9fbc
00000330: 1cea 8cbd 80ca 9f3d 488d abbd 7718 c53d
00000340: 2298 7cbd 9bd0 1cbd f7dc be3c 68b5 6cbd
00000350: 56d1 b63d 0cf2 66bd bbf6 f03c 4dc6 033d
00000360: ac6a 6cbd ae23 153d 4616 22bd d515 613d
00000370: 1da4 c23d ab23 d3bd 74d7 5b3d ab69 8b3d
00000380: 3a2d 1b3d 01eb b2b9 9967 1cbd d5b0 bdbd
00000390: 556e d2bd 043f ba3d 84a3 863d 361e d0b8
000003a0: a111 4abd da39 483c 1c9e be3c 0b6a b8bd
000003b0: b92e 843d 66fc 77bd 256a bdbd 36ef 1bbd
000003c0: cac7 51bd 4f42 bd3d f773 cabd 1dc8 d13d
000003d0: 9a65 50bd d060 c2bd f839 ffbc 93d4 43bd
000003e0: 56b6 b5bb d8a5 8e3d 5acc 89bd bc26 993d
000003f0: 289e 713d b963 c0bd dce0 6abd aa62 bf3d
-0.059029665 -0.07423574 -0.081497744 0.007914028 -0.089904904 0.10026785 -0.05701021 -0.079587914
0.04913574 -0.0040925117 -0.0787648 0.031001348 0.007271778 0.06738723 0.017655047 0.0068565374
0.020044982 0.028308032 -0.02380338 0.047812484 -0.008136535 0.09144349 0.09701615 0.08791666
0.10189419 0.083476126 -0.06303411 0.008613475 0.036415946 0.023484414 -0.010768526 -0.09133557
-0.03568947 -0.019978035 0.03212023 0.05893896 -0.09669658 -0.03664652 0.10408744 0.008059728
-0.048443496 -0.06362329 0.0048498106 0.027396264 0.010602672 0.067772076 0.047090605 0.07396557
0.031991165 -0.05937793 0.07042563 0.058010586 0.09664685 -0.05357681 -0.059550628 0.05962235
0.019844221 0.039092567 0.06131228 0.086289406 0.07489822 0.023198733 0.01569869 -0.019201782
-0.036591742 0.058529977 -0.055222638 -0.046285756 0.0934496 0.046387244 -0.058042392 0.0008211477
-0.07123379 0.042226143 0.09186117 -0.07574741 0.064371504 -0.030383224 -0.00254274 -0.014912538
-0.045053557 -0.058529124 -0.018111197 0.09154426 0.05524292 -0.029583596 -0.026868029 -0.037053946
-0.0586481 -0.037874103 -0.086701006 0.04648879 -0.096652515 -0.024628673 0.0042373734 0.017122695
-0.09113351 0.028222 0.053788636 0.013564471 -0.08773339 -0.0018071561 -0.020624302 0.043632437
-0.003530205 0.001262483 -0.088618435 0.07978792 -0.020826314 0.005274607 0.004719706 0.030676018
0.026267897 -0.013033412 0.04288116 0.10116287 -0.09321052 -0.02228755 0.0027253225 -0.08859701
-0.0045723245 0.09851966 -0.051326603 0.0326661 0.06380456 0.063963525 0.019066272 -0.09766277
-0.08530123 0.085293084 -0.0014245248 -0.06441498 0.06397602 -0.012439928 0.07907499 -0.063047744
-0.04382261 -0.04926891 -0.0048425286 -0.049724203 0.071363375 0.04491669 -0.090936966 0.090889014
-0.022976562 -0.09657249 -0.068582036 0.10411381 0.005978831 0.067623176 -0.05951149 0.08808587
-0.103675604 -0.05868821 0.09669783 -0.03645496 0.09294699 -0.058643978 0.004735377 -0.055610698
-0.004166084 0.08185184 -0.060417656 -0.08012693 0.038582366 0.082743265 0.017499126 0.012539551
-0.088753566 -0.023692481 0.10409746 -0.06474398 -0.09272206 0.0467069 -0.09333832 -0.07657848
-0.025451688 0.007991462 0.09640665 0.06373107 0.011084517 0.042260576 0.103895724 -0.040092763
0.00831819 0.06558153 -0.061310064 0.024757259 0.0077459896 -0.075635314 -0.07669097 -0.05752618
0.025655398 0.07136332 -0.03725293 -0.044519223 0.002833066 -0.0153828 0.09188821 0.0368747
0.077067174 -0.090878256 -0.06795389 -0.019440778 -0.0688059 0.07802296 -0.08376557 0.09623807
-0.061668523 -0.03828488 0.023298724 -0.05779019 0.089266464 -0.056383178 0.029414525 0.032171536
-0.057718918 0.03641098 -0.039572023 0.05495246 0.095039584 -0.103095375 0.05367227 0.06807264
0.03788493 -0.00034125897 -0.038184736 -0.09262244 -0.102749504 0.090940505 0.06574157 -9.92384e-05
-0.04933322 0.012220824 0.023268752 -0.09004601 0.06454224 -0.06054344 -0.09248761 -0.038069926
-0.051215924 0.09241163 -0.098854 0.10243247 -0.050878145 -0.09491122 -0.031155571 -0.04781015
-0.005545418 0.06965226 -0.0672843 0.07478091 0.05898872 -0.093940206 -0.05734335 0.093449906

enc_p.lstm.bias_hh_l0 f4 [384]
00000000: 6c45 ccbd adfd 06bc a70e ca3d 35e8 35bd
00000010: 7413 edbc fb19 e9bb 2f98 423d efb5 81bd
00000020: de39 84bd e833 013c 1b05 79bd c102 5cbd
00000030: 188e 84bb 4528 51bd 0d07 303d 9102 883c
00000040: 7c9b ea3c e4be 4a3c 7170 82bd bbed ca3c
00000050: 48a5 83bd b4c2 0ebc 7149 aebd ccfe bdbd
00000060: b402 31bc d2fc c8bd 3fa0 b5bd 8814 303c
00000070: 9df2 153b 3b39 a9bd d182 bbbd 62c2 b7bd
00000080: 9807 a63d 0f74 7d3d 8526 1bbd 843e 52bd
00000090: ed4d 95bd 0dc0 12bd c286 29bd c164 423c
000000a0: 46d0 603c 9ce7 acbc d675 8fbd bf1f 27bc
000000b0: 4da7 7dbd e87a 97bd fa79 a93d ffb4 8e3d
000000c0: 9cbc 98bd a591 b8bd 88bc da3c 69dc b0bd
000000d0: 1485 e03c ac61 e2bc 7d47 c73d e6d2 83bd
000000e0: de48 69bc 8ee9 cd3d 32d9 be3d 5a7d 4b3d
000000f0: 96da 31bd e22e 1abd 4a8f f1bc 6aa5 2a3d
00000100: 1fe6 06bd 566f ad3d e95e ba3c bddd a73d
00000110: 4d8a aebd 22a0 25bb d11b cc3d a00f adbd
00000120: 1a4e a9bc 1d94 d23d 37a9 0d3d 55e8 2f3d
00000130: 8964 3c3d c957 5c3d a82d 233d b27f 693d
00000140: baa8 7d3c 3035 a73d 9224 a43d 6f2d 07bd
00000150: 09f9 85bb b172 8dbd 7b4c c33d 111d 12bd
00000160: 0138 60bc 8cea 943d 318c a73d 7e52 a0bd
00000170: dda7 82bc 7e9d a1bd ee59 b8bc 0647 ac3d
00000180: d3fb 8e3c dd89 083d 95d9 93bc cb91 02bd
00000190: bb79 61bc 02d6 84bc bdee c8bd 04f1 90bd
000001a0: 61c5 bebc f7fe a7bd ca91 abbc ddad 48bd
000001b0: 14b5 603d 79de 81bb 2dba 9dbc 56f0 0ebd
000001c0: 6ede 313c efe3 cb3c c803 713d 5ce7 f1bc
000001d0: 5920 71bd d6bf 51bc a6cb ce3c f72b 443d
000001e0: a981 b73c b182 043d e78f 9a3c e382 7f3d
000001f0: 1f36 ed3c edd4 a7bc 9845 25bd b7cc c0bd
00000200: b88f 89bd 2253 cd3d b489 5c3d b2d8 c8bd
00000210: 06e6 b13d 9d8b 7e3d 9ff0 60bd 805f 6c3d
00000220: a336 e23b 6395 3f3d dab0 a03c ad94 7c3d
00000230: afee 543d a5d4 52bd 4206 a4bc 39e8 80bd
00000240: ed94 9dbd 0115 993d fb71 86bd 6cd1 e63c
00000250: 4ca5 9a3d 21eb 883d cbae 76bd 431e 993a
00000260: f9d9 103d a454 c8bd 56a1 bcbd 6687 3a3d
00000270: 4e69 ccbd 436d 9a3c c6d7 033d 5c65 5cbd
00000280: 90b5 be3d 3bb7 99bd 7522 cdbd 08a7 a2bc
00000290: 5301 bc3a 66a9 c23c 43e5 bcbd a20e 74bb
000002a0: 1ef8 7a3d d0ea 44bd 6795 6abd f440 cf3c
000002b0: 3cec 1dbd 4db2 d5bd 9ced a3bd 2db8 43bd
000002c0: 673b 043d 3702 9e3d 7286 b4bd ca6d f9bc
000002d0: d5d6 76bd b1bf 6fbd 1770 1f3d 5a73 c6bd
000002e0: 45b4 b1bd 1504 213d bb3c 623d 14e6 d63c
000002f0: bbf3 20bc b8f1 b9bd 49bc a8bd 9543 1bbd
00000300: fb28 b5bc 5aa1 ed3b dc90 4bbd 66d6 93bc
00000310: 2049 953d 3f62 0e3d 1515 bc3d 19c4 d53c
00000320: bd30 bcbd 51d1 573d b09a 59bc 9c74 e1bc
00000330: b4ba 433d 9b8f 4cbd 273f 60bd df57 213b
00000340: 182e 2d3d c080 9fbd e7d8 c1bd ec69 be3d
00000350: 5ed9 bf3d b1f2 113d 1207 82bd 91ae 0cbd
00000360: 09c4 063d 727d 3b3d 5615 d3bc 0aff e53a
00000370: d148 7f3d 32bf 7abd fce0 463d e04e d0bb
00000380: 5000 75bd 717b 6d3d e7d6 373d 34c0 bcbd
00000390: 4d85 3c3c 8702 06bc 93df 88bb d75f 2f3c
000003a0: 34ac 9ebd ede9 7f3d 6c06 97bd bafa a6bd
000003b0: 1cf9 893c 0a41 0e3d 35a1 ac3c 8290 883d
000003c0: a236 39bd f9ff 133d b1e3 6b3d bde6 12bc
000003d0: 4ec7 b13c 0951 aa3d a870 953d 927e 9abd
000003e0: ec02 843d 702e 423a f035 65bd 15bc adbd
000003f0: e38f cabc 9785 cebb 5bfb 4fbd f023 6b3d
-0.09974179 -0.008239192 0.09866076 -0.044410903 -0.02893994 -0.007113693 0.047508415 -0.06333529
-0.0645635 0.007885911 -0.060795885 -0.053713564 -0.004045259 -0.051063795 0.042975474 0.016602786
0.028638594 0.012374613 -0.06369103 0.024771562 -0.06428009 -0.008713413 -0.085101016 -0.09277114
-0.010803867 -0.09813847 -0.08868455 0.0107470825 0.0022880204 -0.08262869 -0.091558106 -0.089726225
0.08106917 0.06187826 -0.037878532 -0.05132915 -0.07290254 -0.035827685 -0.04138828 0.011864842
0.013721531 -0.021106534 -0.07004897 -0.01020044 -0.06192713 -0.073964894 0.08275218 0.06968116
-0.074578494 -0.090121545 0.026701227 -0.0863579 0.027407207 -0.027634464 0.09730432 -0.0643671
-0.014238564 0.10054313 0.093187705 0.04968009 -0.04342135 -0.037642367 -0.02948727 0.041661657
-0.032934304 0.08468501 0.022750335 0.0819659 -0.085224725 -0.0025272449 0.09966243 -0.08450246
-0.020667125 0.102821566 0.034585204 0.04294618 0.045994315 0.053794656 0.039838463 0.057006545
0.015482122 0.081644416 0.08014788 -0.033002313 -0.004088525 -0.06906641 0.09536072 -0.03567225
-0.013685227 0.07271299 0.08181036 -0.07828234 -0.015949184 -0.078913674 -0.02250382 0.08411984
0.017454064 0.0333346 -0.018048087 -0.03187732 -0.013761933 -0.016215328 -0.09811161 -0.0707722
-0.023287477 -0.082029276 -0.020943541 -0.048993934 0.05486019 -0.0039632884 -0.019253815 -0.03489717
0.010856254 0.02488896 0.058841497 -0.029529266 -0.05886874 -0.012802085 0.025243592 0.04789349
0.022400694 0.0323512 0.018867446 0.062380683 0.028956471 -0.020487273 -0.040349573 -0.09414046
-0.06716865 0.10025622 0.05384226 -0.09806956 0.086864516 0.062144864 -0.054916974 0.057708263
0.006903486 0.046773326 0.01961558 0.061665226 0.05198544 -0.051472325 -0.020022515 -0.06294293
-0.07694421 0.07474709 -0.06564709 0.028176032 0.07551059 0.06685472 -0.06022529 0.0011681992
0.035364125 -0.09781769 -0.0921046 0.045539282 -0.09981023 0.018850928 0.0321882 -0.0538076
0.09311974 -0.075056516 -0.10016338 -0.019855037 0.0014343656 0.023762416 -0.09223416 -0.0037240167
0.06127178 -0.048075497 -0.057271387 0.025299527 -0.03855537 -0.10434399 -0.08004305 -0.047783066
0.032283213 0.07715266 -0.08814706 -0.03044786 -0.060263474 -0.05853242 0.038925257 -0.0968997
-0.08676962 0.039310534 0.0552337 0.026232757 -0.009823735 -0.09079307 -0.082390375 -0.037906248
-0.022114268 0.0072519006 -0.049698696 -0.01804657 0.07289338 0.034761664 0.091837086 0.026094483
-0.091889836 0.052689854 -0.013281509 -0.027521424 0.047785476 -0.04994164 -0.054747727 0.0024619026
0.042280287 -0.07788229 -0.09465199 0.09297547 0.093676314 0.03563184 -0.06349005 -0.034346167
0.032901797 0.04577393 -0.02576701 0.0017547321 0.062325303 -0.061217494 0.048554406 -0.006357059
-0.05981475 0.05797905 0.04488268 -0.09216347 0.011506391 -0.0081793135 -0.0041770427 0.010704002
-0.07747689 0.06247895 -0.07374272 -0.08153291 0.016842417 0.034729995 0.021072963 0.06668188
-0.045218118 0.036132786 0.05759019 -0.008966145 0.021701481 0.083162375 0.07296878 -0.075436726
0.0644587 0.00074074324 -0.055959642 -0.084831394 -0.024726814 -0.0063025462 -0.05077682 0.05740732

enc_f.lstm.weight_ih_l0 f4 [384, 4]
00000000: bc35 9bbd 4f83 38bd c647 943c 2242 ec3c
00000010: 9a6b b13d e3b4 45bd cf83 52bd a812 9fbd
00000020: e7e6 d3bd 94ae 94bd c507 8fba 11ca e23c
00000030: 09d8 5c3d 97d2 143d 9976 bd3d 7a0f 933d
00000040: da69 d73c 42d3 a5bd 7af6 6abc 767e 7ebd
00000050: 93f6 c43d e8fa 503c 996b bdbc a5da 8b3d
00000060: 0854 c3bd 28af a5bd c7a2 1fbd 9b54 373d
00000070: 2ae3 7ebd 7e3e b7bd 0524 22bd ac81 133d
00000080: 80f6 a4bb 75ef b53d 35de 003c 0834 52bd
00000090: 1c99 6bbd 3345 3fbd fa44 a7bd 9443 563c
000000a0: 0f49 98bd e555 3d3d 3cb1 80bd 005d 0fbd
000000b0: 8f76 123d ed1e e23c 7a5e 81bd 14dd b0bd
000000c0: 4109 6ebd cad3 c6bd cca4 bd3d dc33 323d
000000d0: 3331 4fbd c5de 193d 598f 0a3d ecfa d43d
000000e0: fdab 723d 269d d13c 8158 973d 38dd ccbd
000000f0: f816 9dbd d521 64bd 4472 cfbc df86 68bd
00000100: a516 b8bd b2c4 c1bd d9aa 843d 1565 81bd
00000110: e616 9a3c 9dd2 a2bd 46da fc3c 594c 883d
00000120: f9b1 b6bd aa19 a3bd 1dbe 57bb e487 7abc
00000130: 8e3b 7e3a 2d2c 1f3c c040 0e3c 4470 a2bd
00000140: 6b55 c4bd 8f05 a13d f8dd b0bd 72bd 78bd
00000150: e342 a13d 8986 91bc 4d94 ec3b 61db da3c
00000160: d1f8 c83d fb86 9ebd a463 d73b f544 c9bd
00000170: 41e5 793d 3374 c63d 99e8 95bd 610e 83bd
00000180: a148 b2bd 4e0c 573d 1b85 1d3d f704 c83d
00000190: 4f9e 76bd 7f5a ee3c 1596 333d 49ba 063d
000001a0: c9e7 2a3d 6a97 9d3d 6b74 b03d 96dd d1bd
000001b0: e4df b1bd 9d0a 5b3c 6c5d d43c 04dd 90bc
000001c0: 7c9a 77bd d6eb 17ba d2a3 c6bc 60b3 c5bd
000001d0: eccd 2b3c 260f 07bd c426 9bbc 4ca9 933d
000001e0: ded9 863c 425b 843d fdcd 8cbc 4eda 34bd
000001f0: a539 c3bd 9741 90bd 45b6 8cbd d4a1 35bd
00000200: ab71 a5bd 0201 15bc d0da 5c3d 62d7 9e3d
00000210: 4a0d 833d 5fb5 86bc 5f9f a0bd 1343 9dbc
00000220: ffb3 5a3d 22ab 843d 97b5 113c e7e3 903d
00000230: 592e cf3c 99e5 03bd 9f7f d63c 7930 7e3c
00000240: 3e14 e0bc cdec 3c3d 7c5f 25bd 7357 913d
00000250: cdbf 953d 3f42 9dbd d114 fdbc 93e3 7bbd
00000260: c8b1 74bd abc6 d83c d05a 92bb 95b3 95bd
00000270: e63b 53bd 176f 98ba 6016 69bd 35f5 20bd
00000280: c2d6 863d 0ac2 8cbd f663 4abd f57b 6abd
00000290: 4a73 aa3d f200 ccbd d1c3 4c3c 6533 b03d
000002a0: 50d4 0e3d 02f9 7f3d 5b0a 1dbc ef54 7c3d
000002b0: 6af0 5a3d 5454 ac3d 6459 dabb ef36 8e39
000002c0: 8d28 81bd 4ede 7abd 862e 8dbd a3ff d7ba
000002d0: 3695 88bd d80b 9e3d 523f 523d 91fe d13d
000002e0: f8c5 603d 429b 66bd 097c 24bd aa46 853d
000002f0: ee27 5b3d 6227 9d3d cc14 963c 3fed ad3d
00000300: ca39 1bbc 9d39 993d 71d9 e5bc 7f9a 8d3d
00000310: 8bf2 953a bbbe 1bbd 8a1d 6abd 9abd 92bd
00000320: bd39 583d 7ea4 a03d a551 7f3d 3172 2a3d
00000330: a8f0 56bd 74d6 ab3d 0652 05bd d989 abba
00000340: cf7b 2c3d e0de b8bb 8ef6 603c 53b1 93bd
00000350: 917f 81bd da58 e7bc 0839 36bd f952 bdbd
00000360: a5f4 26bd 46d7 4fbd e64f 073d 9020 6bbd
00000370: f06b 8c3d e1e7 46bc adba ccbd 91a8 b73c
00000380: 1ee4 2dbd d47d c5bd 425d a7bd 4553 8a3d
00000390: 10c8 853d 470a 6dbd 6c5f 6d3d ac7c a63d
000003a0: 4aa3 afbd cbef 37bd 1cb4 34bd a986 f53c
000003b0: ca20 313d 9fa3 5ebc f31b 843d db04 7cbd
000003c0: 9488 8b3d 3677 4dbc 540b 993d 6638 90bc
000003d0: 0b0f bcbd 4ff5 97bd 5c52 8a3d c3cc 903d
000003e0: 5640 19bd 3250 c13d 9c9a a5bc 578b cdbc
000003f0: 19f1 06bd 84f5 9fbd a991 903c 558c 79bc
-0.075786084 -0.0450471 0.01810063 0.028840128 0.086631015 -0.04826821 -0.051395234 -0.0776723
-0.103467755 -0.07259861 -0.001091235 0.027684243 0.053916965 0.036333647 0.09251136 0.07180686
0.026295591 -0.08096935 -0.014340991 -0.06213232 0.09617343 0.012755133 -0.023122596 0.068288125
-0.09537512 -0.08090049 -0.038973596 0.04475842 -0.06222836 -0.08947466 -0.039585132 0.036012337
-0.005034268 0.088835634 0.007865478 -0.051319152 -0.057519063 -0.046696853 -0.08167453 0.013077635
-0.0743581 0.046224494 -0.06283805 -0.0350008 0.035757598 0.027602637 -0.06316848 -0.08635917
-0.058114294 -0.09708364 0.09259948 0.04350649 -0.05058403 0.037565965 0.033828113 0.10399422
0.059246052 0.02558763 0.07389928 -0.10003132 -0.076703966 -0.055696327 -0.02532304 -0.056769248
-0.08988694 -0.09461345 0.06477899 -0.06318108 0.018809747 -0.079503275 0.0308658 0.06655187
-0.08920664 -0.079638794 -0.0032919713 -0.015291188 0.00096982054 0.009715122 0.00868243 -0.07931569
-0.09586605 0.07862388 -0.08636087 -0.060727544 0.07874086 -0.017764347 0.0072198273 0.026715936
0.09813083 -0.07740589 0.0065731574 -0.09827606 0.06100965 0.09690132 -0.07319755 -0.06399227
-0.08705259 0.05250197 0.038457017 0.09766572 -0.06020957 0.029095886 0.0438443 0.0328925
0.041724954 0.076948956 0.08615955 -0.10247342 -0.08685282 0.01336923 0.025923453 -0.017683513
-0.060450062 -0.0005795335 -0.024248037 -0.09653354 0.010486107 -0.03297343 -0.018939383 0.07210025
0.016461309 0.064627185 -0.017188067 -0.044153504 -0.09532479 -0.0704376 -0.06870703 -0.044343784
-0.08078321 -0.009094479 0.053919613 0.07755925 0.06399019 -0.016443906 -0.078428976 -0.019197023
0.053394314 0.064779535 0.008893392 0.07074719 0.025290655 -0.032201383 0.026183901 0.0155144865
-0.027353402 0.04612427 -0.040374264 0.07096758 0.07311974 -0.07678651 -0.030893715 -0.06149633
-0.059739858 0.02646192 -0.004466392 -0.07309643 -0.051570795 -0.0011629787 -0.056906104 -0.039296348
0.065839306 -0.068729475 -0.049411736 -0.05724712 0.08322771 -0.09961118 0.012497858 0.08603553
0.034870446 0.06249333 -0.0095849885 0.061604436 0.053451933 0.08414522 -0.006663488 0.0002712528
-0.063065626 -0.061247163 -0.06893639 -0.0016479384 -0.06669085 0.07717103 0.05132992 0.10253633
0.054876298 -0.05630041 -0.04015735 0.06507619 0.053504877 0.07673527 0.018320464 0.08492517
-0.009474227 0.07481692 -0.028057786 0.069142334 0.0011440081 -0.03802369 -0.057157077 -0.0716507
0.05278944 0.078438744 0.06233372 0.041612808 -0.0524756 0.08390513 -0.032548927 -0.0013087346
0.04211026 -0.005641803 0.013730658 -0.07211556 -0.063231595 -0.02824061 -0.044487983 -0.092443414
-0.040760655 -0.05074241 0.03303518 -0.0574041 0.06856525 -0.012140245 -0.09996543 0.022419246
-0.042453878 -0.096431404 -0.081720844 0.06754164 0.065322995 -0.05787113 0.05795233 0.08129248
-0.08576067 -0.04490642 -0.04411708 0.029971438 0.04324416 -0.013588815 0.064506434 -0.061528068
0.068131596 -0.012540629 0.07472864 -0.017605018 -0.09182557 -0.07419836 0.0675399 0.07070305
-0.03741487 0.09439124 -0.020215325 -0.025090856 -0.032944772 -0.078105 0.017647581 -0.015231212

enc_f.lstm.weight_hh_l0 f4 [384, 96]
00000000: 80c2 97bc f0db 3cbd d78d bb3d baa8 423d
00000010: 89e3 5a3c 13d2 893d 7e04 19bc e523 c7bd
00000020: e59a c63d 1394 e6bc afbb 3e3c d978 bf3d
00000030: 28ed 423d 3d96 a3bd a963 083d 2e36 8d3d
00000040: 155d 8e3d 01be 0fbd 0369 23bd 694e 1d3d
00000050: 25b6 80bd 4bff a8bd 687e a5bd 30f4 57bd
00000060: c162 d9bc c1f1 d43c 07d9 433d 78ed 3f3d
00000070: 72f0 be3d e2b3 46bc 83a4 19bd 1385 2bbd
00000080: 1a8f bd3d bbec 5dbc 7864 7a3c 0af5 ae3d
00000090: 25b5 0cbd a4a8 aabd 2641 a23b 5bb7 93bd
000000a0: d0da 463d da89 ae3d 9857 47bd b56d 29bd
000000b0: cd06 683d 1618 bebd 8fdb 093c 8716 7cbd
000000c0: b5d9 813b 7384 cabd 12a7 cabd 527d 8cbd
000000d0: a53f 8e3d 4f38 6a3d b1d3 8c3d a086 eebc
000000e0: 9868 a7bb fc8b 8c3d d04f c2bd 90e8 3c3d
000000f0: aa5e 40bc 8d08 c8bd 00ca 9d3d 4450 49bd
00000100: 4731 8e3d 6b0c 13bd 51c4 153c 0847 263d
00000110: a6ae 07bd cb41 a8bd 7d81 20bc 1e91 1abb
00000120: 8b58 f9bb dc13 bdbd 3fc4 ac3d 5e09 43bd
00000130: 015c b23c 12c1 093d f9db 80bd 3783 8bbc
00000140: fe27 e9bb ebd4 a33d f785 ab3d bece c43c
00000150: 60e5 23bd c79b 8cbd 7c52 aabc 78f1 a73d
00000160: fbe9 8f3d fb46 893d d46a b13d ca61 76bb
00000170: 68c8 cfbc e80c d4b9 76f4 23bd 874e a1bd
00000180: 2ed0 9fbc 002f b53d ed03 a93c e018 36bd
00000190: 1e5c ad3d 8b8d 4cbd e783 34bd 5c16 a4bd
000001a0: a477 e43c 5854 b4bd 3698 5f3d a81f bdbd
000001b0: cb90 ed3c ff2c b8bc 0091 b6bc 42ee b4bd
000001c0: bdd4 9c3d e8b8 82bb c8fc bb3d b58b 693d
000001d0: a65c 0cbc a83d b73d 0145 57bd 48a4 8b3d
000001e0: 31a6 3a3d 2428 b73d 578d 7fb6 5079 833d
000001f0: a5d9 f5bc e837 0e3c 0e2f 6fbc e08d fdbc
00000200: 79e5 d1bd f076 c83d bda1 c4bc be74 7eba
00000210: 7711 91bd e881 ab3d 2908 b3bd 9825 c43c
00000220: 93c5 293d 8971 b63c b04b 493c f0f4 c4bd
00000230: f07b 1dbd dbee 873d 9906 263d 75b2 a33d
00000240: e3d4 833d 05aa aa3c b941 783d 6f2b 57bd
00000250: 02b6 cdbd 75fe 673d 7a62 89bb 9145 bd3d
00000260: 3378 a8bd 7868 b1bb bbb9 d1bc 4353 5fbc
00000270: d15e 6abd f89c b03c f155 b1bd 7355 2cbd
00000280: de66 4c3d 3e22 dfbc 78ea cd3d ceb5 a5bd
00000290: d122 3e3d 78f6 7d3c 2548 cc3c df8f 81bd
000002a0: 8d52 be3d 2068 c2bd 5ceb a9bd cccf 5b3d
000002b0: e81c a23d c656 65bd 857a 7c3d 0906 06bd
000002c0: 9b57 6c3d dc66 63bd 6129 b7bd d115 773d
000002d0: f91b 3dbd fcf0 95bb 7cfd a33d d26e 6f3d
000002e0: 8d96 aabd c3aa 23bd 8af1 76bc 8824 a83d
000002f0: 6be2 68b8 e4df a03b 608e ae3d 814b bb3c
00000300: 37dd 78bd 6d8d 323d 9f08 963d 2af5 b33c
00000310: 6039 573c 7878 cd3d 5f3d 9c3c a5b5 9ebd
00000320: a2dc 16bd 94ff 85bd 056f 2e3d 0d22 693d
00000330: 7337 77bd e631 7a3d 6c9d a13d 3640 7ebd
00000340: 1b9f 893d 0181 c93d 054e ca3b 787b 913d
00000350: 6e26 d5bc d37b 413d 8fbd d4bb 76a9 c93d
00000360: 6946 0ebd 35f2 b43d ddc2 aebd e500 963d
00000370: 4604 95bd aee7 b7bd 051f bcbd 7d62 a0bd
00000380: a8f0 a7bd ffb9 b2bd 7e27 bf3c 8b8d 553b
00000390: 24f9 483d a040 7bbd 8462 ce3d 9b40 97bd
000003a0: 842e 5c3c a08b 04bd 77f6 c0bd ecb2 83bb
000003b0: cc47 87bd fafe 1dbd cc2f 97bd 9172 cf3d
000003c0: 6802 6abd bc0d 94bd d18d 103d 410f 873c
000003d0: 5c65 2c3b 1054 87bd 2f03 703d 1dc8 a23d
000003e0: 61db f3bc 65ed 21bd 9540 78bd 4c75 b7bd
000003f0: 551c 9bbd 07d8 92bc 4601 20bc fefe 07bd
-0.018525362 -0.046108186 0.09157913 0.04752419 0.013359913 0.067295216 -0.00933945 -0.09723643
0.096975125 -0.02814678 0.011641427 0.09349222 0.04758945 -0.0798764 0.03329817 0.068950996
0.06951348 -0.03509331 -0.03989507 0.038404856 -0.06284741 -0.08251818 -0.08080751 -0.05272311
-0.026536347 0.025994183 0.047814395 0.046857327 0.09323205 -0.012127848 -0.037510406 -0.041874956
0.0925581 -0.0135452105 0.015282743 0.08542831 -0.03435244 -0.08332947 0.004951614 -0.07212707
0.04854852 0.08522387 -0.04866752 -0.04136439 0.05664711 -0.09281938 0.008414163 -0.06154492
0.0039627203 -0.09888544 -0.098951474 -0.068598405 0.06945733 0.057182606 0.068763144 -0.029116929
-0.005108904 0.068626374 -0.09487879 0.046120226 -0.01174132 -0.09767256 0.07704544 -0.049148813
0.06942993 -0.035900515 0.009141044 0.040595084 -0.033125542 -0.08215674 -0.009796497 -0.0023585032
-0.007609432 -0.092323035 0.084358685 -0.047616355 0.021772387 0.03363139 -0.062919565 -0.017030342
-0.007115363 0.07999595 0.08375161 0.024024364 -0.04001367 -0.0686565 -0.020791285 0.082003534
0.0702705 0.067029916 0.08662954 -0.0037594908 -0.025364116 -0.00040445407 -0.040028058 -0.07876306
-0.019508447 0.08846855 0.020631755 -0.044457316 0.084648356 -0.049939673 -0.044071104 -0.08012077
0.02788908 -0.0880515 0.05458852 -0.092345536 0.028999707 -0.022482393 -0.022285938 -0.088345066
0.07657764 -0.0039893277 0.091790736 0.057018 -0.008567011 0.08947307 -0.05255604 0.068184435
0.04556865 0.08943203 -3.8080232e-06 0.06419623 -0.030011008 0.008680321 -0.014598621 -0.03095144
-0.102488466 0.097883105 -0.024002904 -0.0009706727 -0.07083409 0.08374387 -0.08741791 0.023943707
0.041448187 0.022270935 0.012286112 -0.096170306 -0.038448274 0.06637355 0.040533636 0.07993022
0.06437089 0.020833025 0.060609553 -0.052531656 -0.10044481 0.056639154 -0.0041926475 0.09241784
-0.08226051 -0.005414065 -0.025601259 -0.013630691 -0.05721933 0.021559224 -0.0865897 -0.04207368
0.04990279 -0.027238008 0.10054487 -0.08091317 0.046419922 0.015500657 0.024936745 -0.06326269
0.09293089 -0.094925165 -0.08296844 0.053664967 0.0791567 -0.055990957 0.06164028 -0.0327206
0.057700735 -0.055518016 -0.08943439 0.06032354 -0.046169255 -0.0045758467 0.08007333 0.058455296
-0.083294965 -0.039957773 -0.015072236 0.08210093 -5.552398e-05 0.0049095023 0.085232496 0.022863152
-0.060757842 0.043591905 0.07325863 0.02196749 0.013136238 0.10032743 0.019072233 -0.0774949
-0.036831506 -0.06542888 0.042586345 0.05691724 -0.060355615 0.061082743 0.07891354 -0.062072955
0.067198 0.09839059 0.0061738514 0.07103628 -0.026019301 0.04723723 -0.0064923237 0.09846775
-0.034735117 0.0883526 -0.08533261 0.07324389 -0.07276206 -0.08979736 -0.09185604 -0.07831285
-0.082001984 -0.08726882 0.023334261 0.0032585587 0.049065724 -0.061340928 0.10077384 -0.073853694
0.013438825 -0.03235972 -0.094220094 -0.004019132 -0.06605491 -0.038573243 -0.073821634 0.10129274
-0.0571312 -0.07229182 0.035291497 0.016486766 0.0026305532 -0.066078305 0.058596786 0.07948325
-0.029767694 -0.039533038 -0.060608465 -0.089579195 -0.07573763 -0.017925275 -0.009765929 -0.033202164

enc_f.lstm.bias_ih_l0 f4 [384]
00000000: 04b0 15bc 1901 1cbc cd37 41bd 6b6b c83d
00000010: 31e3 333d 2a8d 313b 6be3 bdbc 74e2 bdbc
00000020: 57a7 f1bb 4026 a0bd 9a80 613d f4e7 21bd
00000030: 79a0 bbbd 80e6 223d f856 6dbd 1f79 0dbd
00000040: a2f9 91bd e8cc 93bc ed08 5d3d 3b9f 9f3d
00000050: 02d1 8a3d efc6 a83d 4294 c83d ef01 833c
00000060: cecc a7bc f5ed 613c 7b6c b93d 561e 923d
00000070: 53cd 9d3d 7e44 7fbd ef24 8e3d 4052 3b39
00000080: b212 9a3d 74a5 673c abe0 613c 89b5 a73c
00000090: 1344 ce3d 0c5f 85bd 8e52 a63c 7956 69bc
000000a0: 25f0 0abb d2a7 0fbd e02b a13d a162 11bd
000000b0: 3735 c2bc ded1 59bc 83ac 973d b7b3 893d
000000c0: 7578 2ebd c102 a43d 2a38 d03d 3edf 8dbd
000000d0: 0e92 fd3b cc8f 8b3d a578 99bd 8edc 233d
000000e0: e081 f63c 01de 23bb baea 9a3d 6378 ffba
000000f0: c48a d7bc d40c c13d bd39 bdbd 8498 2abd
00000100: 49d7 713d 34c3 5fbd 94de 99bc 6712 94bb
00000110: 1c1f ab3d b1e2 8ebd 907f cebd 75d9 4c3d
00000120: 9baa 3d3c ab25 5cbd 402c ffbc d097 98bd
00000130: 9fc5 d7bc 87c4 17bd 066a c7bd cc58 bf3d
00000140: a4f6 813c 6fe8 4b39 741e 62bc 94a2 4a3c
00000150: 3adb 1ebd 8f98 8abd ee30 b4bd 9f26 873d
00000160: 6643 633d 89d8 813d a263 a93c 5cf5 9c3d
00000170: 32c6 84bd 9852 373d 9a83 303c f61c 3a3d
00000180: bd13 903d c52f 863d 4a78 d0bd 8353 9b3d
00000190: 33a8 4d3c 23a3 653d a51f 72bd 481a 333d
000001a0: 8744 5f3d 464a 6f3c 024e 513d 2829 84bd
000001b0: f930 8a3b d91a b73d a18e aabd 41bf 053d
000001c0: 5dea b3bd 78fc dc3b 3032 81bd 4794 b5bd
000001d0: fefb 4cbd 2dc5 673d b20d 7dbd 8a3c cc3d
000001e0: 7a57 2e3d 050d 3f3d 3e90 813d 6669 643d
000001f0: 462c 8cbd 19ec 0fbd b224 cd3a 47ea c3bd
00000200: 84a6 b63c 3677 643d ca8a c63c 4a59 babd
00000210: f8fb adbd 67d2 9abc eb37 91bd 1d42 83bd
00000220: 7d4e 6bbc 3a33 f4bc 7c40 573c c1bc 6ebd
00000230: b13c 713d 422c dabc 3778 c03d 13a7 1c3d
00000240: 06f9 a8bd be93 483d 8aa3 cb3d b585 05bd
00000250: 5e44 963d e311 fcbc d9ad ae3b aa0c 5ebd
00000260: 5952 c53d 330b e83c 928c 283c 889c 8fbd
00000270: a59d 77bc ac63 a53d 0af4 c63d 8912 923c
00000280: 2a53 33bd e395 a5bd a779 eabb 70c3 933b
00000290: 348c 563b 8588 cf3d 8441 babd 6d24 9cbd
000002a0: 3769 8b3d 742e a33d 27fe bf3d eb98 783d
000002b0: d2a7 a5bc 2b22 8dbd 04a2 c43d 23dc be3d
000002c0: c672 c43d c1a8 91bd 4ba6 7abd 7dd4 83bd
000002d0: 1e0c 32bd 32d4 bc3d 7cc5 6fbd 8545 96bd
000002e0: e49c 8ebc be35 cfbd f70c 133d 4a48 7c3d
000002f0: 9100 fdbc a76a 78bc 030e 4f3a 7d03 843d
00000300: 340a a33d e3c0 97bd f988 97bd 1ef2 2dbc
00000310: a19e c7bd 72bb 0fbd 6d36 863c f0a7 a63c
00000320: d001 84bd 9938 8bbd 7bb3 9b3d bed8 163d
00000330: d3d6 87bd a707 943d ea1c 1bba 0aa8 803d
00000340: 47bc 493d f29a a83d f654 92bd fb0b 8bbd
00000350: 6b80 cd3d b880 db3c 1462 333d ca8e 943c
00000360: da25 b9bb 493e 853d 2300 f93c cc6e a8bd
00000370: 1f5b 89bd dfb7 a43d a76f 36bd 0d77 8bbd
00000380: 86a1 e63c 1ec4 e6bc 321b 963c 2595 efbc
00000390: b30f 97bc 9b04 8c3c a140 efbc bd2b 5bbc
000003a0: c3dd 6bbc c0e3 2bbd 73bc b7bb d0a9 40bd
000003b0: 2e21 9a3d 5a9a a83d ae31 bc3d 641c c5bc
000003c0: 9c71 c9bd 3702 88bd e3c0 0bbc ae40 bbbc
000003d0: 0fdb 8e3d bc0f cb3d b0ad 93bd 83e5 26bd
000003e0: 378f 003d a55c 3ebd 8c8e 11bc 1486 ae3c
000003f0: 2c88 a4bd 244f 55bd 1da4 78bd 1e4c 7d3c
-0.009136204 -0.009521746 -0.047172356 0.09786113 0.04391784 0.0027092197 -0.02317973 -0.02317927
-0.007374685 -0.078197956 0.055054285 -0.03952785 -0.09161467 0.039770603 -0.057944268 -0.03453934
-0.07127692 -0.018042043 0.05396359 0.07794043 0.06778146 0.082410686 0.09793903 0.015992133
-0.0204834 0.0137896435 0.09053894 0.07134692 0.07705178 -0.06232118 0.06940638 0.0001786435
0.07523097 0.014138568 0.013786475 0.020472305 0.10071578 -0.065122694 0.020303037 -0.014241808
-0.0021200266 -0.035072155 0.078696966 -0.03549445 -0.023707015 -0.013294665 0.07405951 0.06723731
-0.042595346 0.08008338 0.101669624 -0.06927346 0.0077383583 0.068145365 -0.07493714 0.04000526
0.030091226 -0.002500415 0.07564302 -0.0019490834 -0.026311286 0.09426275 -0.09239528 -0.041649356
0.059043203 -0.05462952 -0.018782891 -0.0045187953 0.08355543 -0.06976832 -0.10082924 0.05001207
0.01157632 -0.05374686 -0.03114903 -0.07450831 -0.02633935 -0.037052657 -0.09737019 0.093431085
0.015864678 0.00019446177 -0.013801206 0.012367863 -0.03878329 -0.067673795 -0.08798395 0.06599163
0.055484198 0.06340129 0.020677391 0.07663986 -0.06483115 0.044756502 0.010773564 0.045437776
0.07035015 0.0655208 -0.10179193 0.07584288 0.012552309 0.056063782 -0.05911221 0.043726236
0.054508712 0.0146051105 0.051099785 -0.064531624 0.004217264 0.08940668 -0.083279856 0.032653097
-0.087849356 0.006743964 -0.06308401 -0.08866172 -0.050045006 0.056584526 -0.06178064 0.099724844
0.042563893 0.046643276 0.0632634 0.05576458 -0.06844382 -0.03513727 0.0015651195 -0.09566169
0.022296198 0.05577775 0.024236102 -0.09099062 -0.08495325 -0.018899156 -0.07090744 -0.064090945
-0.014361975 -0.029809583 0.013137933 -0.05828548 0.05889577 -0.026632432 0.09397929 0.038245272
-0.082506225 0.048969023 0.09943302 -0.032598216 0.07337259 -0.030770248 0.005330783 -0.054211296
0.09634847 0.028325653 0.010287421 -0.07012278 -0.015113269 0.080756515 0.097145155 0.017831104
-0.043780483 -0.08085229 -0.0071556154 0.004509382 0.0032737376 0.10133461 -0.09094527 -0.07624135
0.068071775 0.079678446 0.093746476 0.06069271 -0.020221625 -0.06891283 0.096012145 0.093193315
0.09592204 -0.071122654 -0.061193746 -0.06437013 -0.043468587 0.092201605 -0.058537945 -0.073374785
-0.017408796 -0.101176724 0.035901036 0.061592378 -0.03088406 -0.015162147 0.0007898511 0.06445978
0.079609305 -0.07409837 -0.07399172 -0.010616807 -0.09747053 -0.03509087 0.016383374 0.02034375
-0.06445658 -0.067979045 0.076025926 0.036827795 -0.06632771 0.07228022 -0.00059170893 0.06282051
0.04925182 0.082326785 -0.07145111 -0.067893945 0.100342594 0.026794776 0.043794706 0.018134493
-0.005650264 0.065060206 0.030395573 -0.08224258 -0.06706833 0.08042883 -0.044540074 -0.068098165
0.028153192 -0.028169688 0.018323515 -0.029245922 -0.018440103 0.01709204 -0.029205622 -0.013377127
-0.014396134 -0.041965246 -0.0056071817 -0.047036946 0.0752586 0.08232565 0.09189163 -0.02406139
-0.098361224 -0.066410474 -0.0085298745 -0.02285799 0.06975376 0.099151105 -0.07210863 -0.040746223
0.03138658 -0.04647507 -0.0088840835 0.021304168 -0.08033785 -0.052077428 -0.060703386 0.015460042
