_train/_models/20250924/LG디스플레이(034220)_20250924.pt (torch, 831847 bytes, 20 tensors)

enc_p.lstm.weight_ih_l0 f4 [384, 6]
0	0x3d94afba	0.0726008
1	0x3b08b710	0.0020861067
2	0xb8cb27ee	-9.687232e-05
3	0x3d648cad	0.05579822
4	0x3d602384	0.05472137
5	0xbdc0235f	-0.093817465
6	0x3cb27789	0.021785514
7	0x3d94811c	0.07251188
8	0x3cc281ec	0.023743592
9	0x3cb3edae	0.02196392
10	0x3dc130ae	0.09433113
11	0xbd9e1c08	-0.0772019
12	0x3d4d8d67	0.05018368
13	0x3b9c0a6d	0.004761985
14	0xbd19e722	-0.03757394
15	0xbb8d779b	-0.0043172366
16	0xbd952f97	-0.07284468
17	0x3cf7a912	0.030231986
18	0x3d897a18	0.06712741
19	0xbdc662a9	-0.09686787
20	0x3da38c4c	0.07985744
21	0x3cf4c55a	0.02987926
22	0xbda8e919	-0.08247585
23	0xbd9ac361	-0.07556797
24	0x3dbc9b8a	0.09209354
25	0xbd8c54af	-0.068520896
26	0xbd23ac8e	-0.039959483
27	0xbcce2386	-0.025163423
28	0xbd2959a4	-0.041345254
29	0xbc2d45c4	-0.010575715
30	0x3d69177a	0.056907155
31	0xbd4e5e62	-0.05038298
32	0xbce70b1b	-0.028203538
33	0xbd038fb5	-0.03211947
34	0x3ce2bde8	0.027678445
35	0xbd5cd13a	-0.05391047
36	0x3bb8e077	0.0056419927
37	0x3d13185c	0.035911903
38	0xbdaa1fb0	-0.08306825
39	0xbcfc702c	-0.030815206
40	0xbb2f3531	-0.0026734585
41	0xbd35d48f	-0.044392165
42	0xbd908bab	-0.070578896
43	0xbd903c8e	-0.070428
44	0x3d80e8e2	0.06294419
45	0xbdc09fbf	-0.09405469
46	0xb8e2a75f	-0.00010807695
47	0x3ca2fec6	0.019896876
48	0x3d3826c8	0.04495886
49	0xbd800126	-0.06250219
50	0xbd8c60ca	-0.068543985
51	0xbc5c2da1	-0.013438613
52	0xb9e60d03	-0.00043878713
53	0x3d5850d4	0.05281146
54	0x3d8f8170	0.0700711
55	0x3c6b18f8	0.014349215
56	0xbc0c1268	-0.00854931
57	0xbd0d95a1	-0.034566525
58	0xbd3bbb56	-0.045832954
59	0xbd206468	-0.039158255
60	0x3dca3e4d	0.09875164
61	0x3cc3ea38	0.023915395
62	0xbdc081e6	-0.09399776
63	0xbdc7269f	-0.09724163
64	0xbdcde6f8	-0.100538194
65	0xbbf28f52	-0.007402339
66	0x3d14084e	0.036140732
67	0xbcca1900	-0.024670124
68	0xbdb77908	-0.08958632
69	0x3d6eb07b	0.058273774
70	0xbd7fbbdc	-0.062435016
71	0x3dc636f6	0.09678452
72	0xbd2ebd94	-0.042661265
73	0xbc6fbdc6	-0.014632648
74	0xbcb588d3	-0.02215997
75	0x3bee8954	0.0072795544
76	0xbd1663e5	-0.03671636
77	0xbd8219cb	-0.06352576
78	0x3d9a1afa	0.075246766
79	0x3da689b4	0.081317335
80	0xbd638b72	-0.055552907
81	0xbc07a8ef	-0.008280023
82	0x3cd8116a	0.026375491
83	0x3d69fd29	0.057126198
84	0x3cc5e9c9	0.024159329
85	0x3d889d8e	0.06670676
86	0x3c8300a1	0.01599151
87	0x3cd1c2ea	0.025605638
88	0x3d8c6ce4	0.06856707
89	0x3d27ebae	0.040996246
90	0xbdbe47cc	-0.09291038
91	0x3c87aa62	0.016560737
92	0xbd4e8244	-0.0504172
93	0xbc1c62cd	-0.00954504
94	0x3d4c64c3	0.04990078
95	0xbdad417c	-0.08459756
96	0x398b025e	0.0002651391
97	0x3ce847f5	0.028354624
98	0xbbc907d2	-0.0061349655
99	0xbd03fd8d	-0.032224227
100	0xbcd078bb	-0.025448194
101	0xbce74da7	-0.02823527
102	0x3b216e89	0.0024632534
103	0x3dcb7a88	0.0993548
104	0x3d8f25cf	0.06989633
105	0x3d69aaf4	0.0570478
106	0x3d804b10	0.06264317
107	0xbab5ff2b	-0.001388525
108	0xbd3ca06f	-0.04605144
109	0x3cc7a16b	0.024368962
110	0x3bc02e61	0.005864904
111	0xbdbf3573	-0.093363665
112	0xbd28a436	-0.04117223
113	0x3dc582b8	0.09644073
114	0xbcf52b70	-0.02992794
115	0x3d4fe5e9	0.05075637
116	0xbca3df57	-0.020003958
117	0xbd42e1a5	-0.047578473
118	0xbab50e58	-0.0013813479
119	0xbd7bd827	-0.061485436
120	0xbd94a418	-0.07257861
121	0xbd1db42e	-0.03850191
122	0xbcaf1e8d	-0.021376872
123	0x3dad3ef4	0.08459273
124	0xbd6d8b7c	-0.05799435
125	0xbdb1fe20	-0.086910486
126	0xbd937e25	-0.072017945
127	0xbda2a2b0	-0.079411864
128	0xbc7cdad3	-0.015433031
129	0xbd349bca	-0.044093885
130	0xbd85c9fc	-0.06532666
131	0xbcc574c3	-0.024103528
132	0xbd68bc96	-0.056820475
133	0xbd249b69	-0.040187273
134	0xb997ac15	-0.00028929175
135	0x3c111ff2	0.008857714
136	0x3d45b002	0.048263557
137	0x3d9caed6	0.07650535
138	0x3da292c4	0.079381496
139	0x3d91003d	0.070801236
140	0x3cd8c7f6	0.026462536
141	0xbb2b1b7b	-0.002610891
142	0xbd2e3548	-0.04253128
143	0xbdcdc6d8	-0.10047692
144	0x3c85cdd9	0.016333507
145	0x3d07c969	0.033151064
146	0x3c5a370a	0.013318786
147	0xbd921369	-0.071326084
148	0xbda57954	-0.08079782
149	0xbcde63a8	-0.02714713
150	0x3ae0d206	0.0017152436
151	0x3cc2cf9a	0.023780633
152	0x3cbee448	0.023302212
153	0x3db9fa5f	0.090809576
154	0x3d5e765a	0.054312088
155	0x3d811325	0.0630248
156	0xbdb0f4b5	-0.08640424
157	0x3db17964	0.086657315
158	0x3dcbfa89	0.09959895
159	0xbd8bfaf9	-0.068349786
160	0xbd93b8c6	-0.07212977
161	0x3da40718	0.080091655
162	0xbd61f30b	-0.055163424
163	0xbbbdfc8c	-0.005797928
164	0x3d6c2e3c	0.05766128
165	0xbd08979f	-0.033347722
166	0x3da6ddea	0.081477955
167	0x3b4f3358	0.0031616297
168	0xbdcc9b9c	-0.09990618
169	0x3db1c18f	0.086794965
170	0xbdce9ecc	-0.10088882
171	0xbd93886c	-0.07203755
172	0xbd25317b	-0.04033039
173	0xbd2c2b14	-0.04203327
174	0x3dce03e2	0.10059334
175	0xbca72243	-0.02040208
176	0xbd6f59e4	-0.058435336
177	0x3ca58f18	0.020209834
178	0xbd40bdbc	-0.047055945
179	0x3beb4160	0.007179424
180	0xbd86c79a	-0.0658104
181	0xbd98a0d2	-0.07452549
182	0x3cfe8d6b	0.031073293
183	0xbcdc8ae5	-0.026921699
184	0x3c9737ac	0.018459164
185	0x3dbeb63b	0.093121015
186	0xbc79c0a0	-0.015243679
187	0x3d6496b5	0.055807788
188	0x3d2e471b	0.04254828
189	0x3d17d351	0.03706676
190	0x3db8a40f	0.09015667
191	0x3d858b83	0.065207504
192	0x3d10f1a1	0.035386685
193	0xbd9ccc50	-0.07656157
194	0xbd790766	-0.06079807
195	0xbdc913ea	-0.098182514
196	0x3d68ac64	0.05680503
197	0xbdc1ad0a	-0.09456833
198	0x3c9d5378	0.01920484
199	0x3d124d34	0.035718158
200	0x3d22d4bb	0.039753657
201	0xbd764206	-0.06012156
202	0x3c1d7b8a	0.009611974
203	0xbd3a8523	-0.045537125
204	0xbc8a6c39	-0.016897308
205	0x3c903aec	0.017606221
206	0x3d68ce42	0.056837328
207	0x3c660c34	0.014040995
208	0x3c28cb29	0.010302343
209	0x3d01cb9c	0.031688318
210	0xbce9e714	-0.02855257
211	0xbd6b040d	-0.05737691
212	0xbda5dbb7	-0.08098548
213	0xbdad1a01	-0.084522255
214	0xbb1b8f82	-0.002373666
215	0xbce0710b	-0.027397653
216	0x3ceb3f21	0.028716626
217	0xbd339f40	-0.043853045
218	0xbbe8c1bd	-0.0071031735
219	0x3c99312d	0.018700207
220	0xbdc7f8eb	-0.09764274
221	0xbd0735e7	-0.03301039
222	0x3dc0f16d	0.09421048
223	0x3d146520	0.036229253
224	0x3d8653a7	0.06558924
225	0x3d92cbaa	0.07167752
226	0xbdb4ab58	-0.08821744
227	0x3ad32188	0.0016108016
228	0xbdc7e5aa	-0.09760602
229	0x3d64baa9	0.055842075
230	0x3dc1244d	0.09430752
231	0xbc14e287	-0.009087211
232	0xbd4d762d	-0.05016153
233	0xbdbf109b	-0.09329339
234	0x3dbc2a35	0.09187738
235	0xbc1403dc	-0.009034123
236	0xbc619178	-0.013767593
237	0x3cdf440a	0.027254123
238	0x3d2efc79	0.042721245
239	0x3d9a83a8	0.07544643
240	0x3dbb21b1	0.091372855
241	0x3d17eb43	0.037089597
242	0xbdc019b8	-0.093799055
243	0xbd990a1a	-0.0747263
244	0x3b386a91	0.002813969
245	0xbc11ea94	-0.008906025
246	0x3d99e166	0.075136945
247	0x3dd0c045	0.101929225
248	0xbdb318fc	-0.08745
249	0x3d0ad3f1	0.03389353
250	0xbd90f49c	-0.070779055
251	0xbcbbf889	-0.02294566
252	0x3d1ea9b3	0.038736057
253	0xbd0c6738	-0.034278125
254	0xbdcf7094	-0.101288944
255	0xbc5ba3a4	-0.013405714

enc_p.lstm.weight_hh_l0 f4 [384, 96]
0	0x3c83d389	0.016092079
1	0xbb69d1ce	-0.0035678032
2	0xbc95a6bc	-0.018267982
3	0x3caf6f75	0.021415452
4	0x3d11ff8c	0.0356441
5	0x3dab3e2c	0.08361468
6	0x3c10d136	0.008838942
7	0xbdaa82af	-0.08325707
8	0xbda6ad9f	-0.08138584
9	0xbdafbe10	-0.085811734
10	0xbd87cd8e	-0.06631003
11	0xbbf15067	-0.007364321
12	0x3da5821f	0.08081459
13	0x3da67d1c	0.081293315
14	0xbd255531	-0.040364448
15	0xbd674f4a	-0.0564721
16	0xbd823c73	-0.06359186
17	0x3da90fc0	0.08254957
18	0xbc6fc493	-0.014634269
19	0xbda53e43	-0.08068516
20	0x3d0dc4ef	0.03461164
21	0x3dd6bb2b	0.10484918
22	0xbcfc48f3	-0.030796504
23	0x3b342c9b	0.0027492407
24	0xbd85633b	-0.06513067
25	0x3c82424b	0.015900752
26	0x3dcba901	0.09944344
27	0xbda79926	-0.081835076
28	0xbb9efc7a	-0.004851875
29	0xbd433846	-0.04766109
30	0xbd1230d7	-0.03569111
31	0x3dbc97ea	0.09208663
32	0xbcf43529	-0.029810505
33	0xbc9a42b6	-0.018830638
34	0xbd77f3e9	-0.060535345
35	0xbcc622d1	-0.024186524
36	0x3d2d4659	0.042303417
37	0xbd741a61	-0.05959547
38	0xbdce7132	-0.10080184
39	0x3c0d36b8	0.008619003
40	0xbba4a773	-0.0050248443
41	0x3d8183db	0.063239776
42	0xbd21ce29	-0.03950325
43	0xbd9b6f85	-0.0758963
44	0xbd101e15	-0.03518494
45	0x3d47316b	0.048631113
46	0x3d720a46	0.05909183
47	0x3d49156d	0.0490927
48	0x3be2a8ae	0.006917081
49	0x3c9a983f	0.018871425
50	0x3da6ffb5	0.08154241
51	0xbc6e7deb	-0.014556388
52	0xbd1cd2de	-0.038287036
53	0xbd782dce	-0.060590558
54	0x3d932fef	0.07186877
55	0xbc58726a	-0.013210872
56	0xbdb5ddd2	-0.088801995
57	0x3d7ff533	0.0624897
58	0x3d64b880	0.055840015
59	0x3d009023	0.03138746
60	0x3d101872	0.035179563
61	0xbd0553e5	-0.03255071
62	0xbd4c5c0a	-0.049892463
63	0x3cb27862	0.021785919
64	0xbdc783c1	-0.09741927
65	0xbcc42ef3	-0.023948168
66	0x3d9e582b	0.077316605
67	0x3b397717	0.0028299743
68	0x3cb74ab7	0.022374494
69	0xbd6de891	-0.05808312
70	0xbd4e0278	-0.050295323
71	0xbce5d55e	-0.028055843
72	0x3d09b7b0	0.033622444
73	0x3dae5094	0.08511463
74	0x3d391cc8	0.045193464
75	0xbd84bbe6	-0.06481151
76	0xb74139cf	-1.1517156e-05
77	0xbd856440	-0.06513262
78	0xbb99f713	-0.004698643
79	0xbcb0b534	-0.02157078
80	0x3c9616b6	0.018321376
81	0x3d461f45	0.048369665
82	0x3cfb7e32	0.030699823
83	0x3d5cfa0f	0.053949412
84	0x3da89226	0.082310006
85	0xbd72f3f7	-0.059314694
86	0xbdd91e1f	-0.10601448
87	0xbbc1c1bb	-0.005912987
88	0x3dd20cfc	0.10256383
89	0x3d3a8a4d	0.04554205
90	0xbb6aed2b	-0.003584693
91	0xbdc31b73	-0.0952672
92	0x3d96736f	0.07346236
93	0x3db54061	0.0885017
94	0x3d0631e1	0.032762412
95	0x3bce6d13	0.0062996238
96	0x3d2a0a63	0.04151381
97	0x3d022788	0.03177598
98	0x3c44103c	0.011966761
99	0x3d3e7e30	0.04650706
100	0x3d7606cc	0.060065076
101	0xbd48416a	-0.04889051
102	0xbdd2a83b	-0.10285994
103	0x3d8b613c	0.06805655
104	0xbda1507a	-0.07876678
105	0x3d1cf1d9	0.03831658
106	0x3d9a5bee	0.075370654
107	0x3dc0c67f	0.0941286
108	0x3b869d37	0.004108097
109	0x3aee68c0	0.0018189177
110	0x3d817af2	0.06322278
111	0x3da224b1	0.079171546
112	0xba872579	-0.001031085
113	0xbc13e8fe	-0.009027718
114	0xbd28a9de	-0.041177623
115	0x3d8cb1d1	0.06869853
116	0xbd6369cd	-0.05552082
117	0x3d8b15a8	0.0679124
118	0x3d7eae4b	0.062177937
119	0x3d893877	0.06700223
120	0xbaeb5407	-0.0017954119
121	0xbd8ddd33	-0.06926956
122	0xbdcc2679	-0.099682756
123	0x3d6de01c	0.058075055
124	0xbdd033f8	-0.10166162
125	0x3d98b22e	0.0745586
126	0x3da40d54	0.08010355
127	0x3d23ba76	0.039972745
128	0xbc5af315	-0.013363619
129	0xbd84295a	-0.064532
130	0xbccd9b34	-0.02509842
131	0xbdcc251a	-0.09968014
132	0xbda72e8e	-0.081631765
133	0xbc567ca2	-0.013091238
134	0x3dbbefb2	0.09176578
135	0xbd43ae21	-0.047773484
136	0xbd92a758	-0.071608245
137	0x3d9112ea	0.07083686
138	0xbcebaae9	-0.02876802
139	0x3b4e46f7	0.0031475404
140	0x3d814b33	0.06313171
141	0xbd482bd7	-0.048869934
142	0x3d0987ee	0.0335769
143	0x3d05f335	0.032702643
144	0xbc57acd3	-0.013163763
145	0x3d281c79	0.04104278
146	0x3db5b359	0.088720985
147	0x3ae444e9	0.0017415556
148	0xbd571d0f	-0.052517947
149	0xbdaadee0	-0.08343291
150	0xbc4227a8	-0.011850275
151	0x3d8737c5	0.06602434
152	0x3d23f097	0.040024366
153	0x3d8e1b04	0.069387466
154	0x3d73a85e	0.05948674
155	0xbc403624	-0.011731658
156	0x3d8ce292	0.06879152
157	0xbd91382e	-0.070907936
158	0x3c9c889c	0.01910811
159	0xbbfc9277	-0.0077078897
160	0xbd91d566	-0.07120781
161	0xbc233f38	-0.009963803
162	0x3dc062f2	0.09393872
163	0x3ca713b7	0.020395143
164	0xbd63aa6b	-0.055582445
165	0x3d7103c2	0.058841474
166	0x3d97630b	0.07391938
167	0x3d3dd48c	0.04634528
168	0xbd9c65bf	-0.07636594
169	0xbbe34351	-0.006935515
170	0x3dadb2dc	0.0848138
171	0x3da6c001	0.081420906
172	0x3c96dd72	0.01841614
173	0xbd8342e0	-0.0640924
174	0xbd296fdf	-0.041366454
175	0xbdc233da	-0.09482546
176	0xbd47ca58	-0.048776954
177	0x3dd54612	0.104137555
178	0x3cd275a0	0.025690854
179	0xbd8947a3	-0.06703117
180	0xbcbd1f55	-0.02308623
181	0xbd60af98	-0.05485496
182	0x3db077ad	0.08616576
183	0x3d63e2dc	0.05563627
184	0x3d8ee1d7	0.06976669
185	0xbdbc9dfd	-0.092098214
186	0x3dbf5689	0.09342677
187	0x3d1ec7ea	0.03876487
188	0xbd67ab81	-0.056560043
189	0xbdab0673	-0.083508395
190	0xbb0f0b51	-0.0021826813
191	0x3c4ec848	0.012620993
192	0xbce103c0	-0.027467608
193	0xbd19ade1	-0.03751934
194	0xbd064935	-0.03278466
195	0xbda76821	-0.08174158
196	0x3da1b465	0.07895736
197	0xbc7da39b	-0.015480901
198	0xbd2843b5	-0.041080195
199	0x3c628708	0.013826139
200	0x3cbc1820	0.022960722
201	0x3d1170a1	0.035507802
202	0xbd99b868	-0.07505876
203	0x3d033578	0.032033414
204	0xbd81de71	-0.063412555
205	0x3ca30fcb	0.019904992
206	0x3c2e5fc1	0.010642947
207	0xbdb6a191	-0.08917535
208	0xbbe5d473	-0.0070138513
209	0xbdd41464	-0.10355452
210	0xbd4a9af5	-0.049464185
211	0x3d2247e6	0.03961935
212	0xbd388743	-0.04505087
213	0xbda17f48	-0.07885605
214	0xbd2f8625	-0.04285254
215	0xbce4729b	-0.02788668
216	0xbc2a5ce6	-0.010398125
217	0xbce00ba1	-0.027349295
218	0xbda2815b	-0.07934829
219	0x3d9c562d	0.07633624
220	0x3dc4535a	0.095862105
221	0x3db7d7a2	0.089766756
222	0x3ba71a56	0.005099575
223	0x3dcc415b	0.09973403
224	0xbca0eb57	-0.019643469
225	0x3d359d16	0.044339262
226	0xbcb8df39	-0.022567378
227	0xbbfd8f89	-0.007738058
228	0xbd1cc210	-0.03827101
229	0x3d6e51f3	0.05818362
230	0x3cb22596	0.021746438
231	0xbc9ecac1	-0.01938379
232	0xbdb43fbb	-0.08801218
233	0xbc8183f3	-0.015809989
234	0xbd7ce92d	-0.06174581
235	0x3d86f089	0.06588847
236	0x3d191edf	0.037382957
237	0x3d16945d	0.036762584
238	0x3d43dd9c	0.047818765
239	0xbd2454c9	-0.04011992
240	0xbd40fd70	-0.047116697
241	0x3dc8129f	0.09769177
242	0x3d240005	0.04003908
243	0x3c2eefb0	0.010677263
244	0x3dc47e6e	0.09594427
245	0xbd140c45	-0.036144514
246	0xbdb334df	-0.08750319
247	0x3d9a7642	0.07542087
248	0x3da19f0b	0.07891663
249	0x3d8835af	0.06650864
250	0x3dce55a0	0.100749254
251	0x3dc02105	0.09381298
252	0x3d8d1ff9	0.06890864
253	0x3d9ba0cd	0.0759903
254	0x3d923f89	0.071410246
255	0x3c817a35	0.015805343

enc_p.lstm.bias_ih_l0 f4 [384]
0	0xbdbf9beb	-0.09355911
1	0xbc88a496	-0.016680043
2	0x3c7792b4	0.01511066
3	0x3d8d5ebb	0.06902834
4	0x3dad9b44	0.0847688
5	0xbc8468e6	-0.0161633
6	0x3d163eb9	0.03668091
7	0x3d1b8083	0.037964355
8	0x3c06c881	0.008226515
9	0xbc2f1dd8	-0.010688268
10	0x3c489ce8	0.012244441
11	0x3d6b5b02	0.05745984
12	0x3dbc2e5e	0.09188531
13	0x3d88c342	0.066778675
14	0x3d022b79	0.03177974
15	0x3cdf05bc	0.027224414
16	0x3d0a01be	0.033693068
17	0xbcdd9ee5	-0.027053306
18	0xbdb31e1b	-0.087459765
19	0x3be8dc34	0.0071063284
20	0xbd914340	-0.07092905
21	0x3caaddcc	0.020857714
22	0xbdc5fa67	-0.09666901
23	0xbd676eda	-0.0565022
24	0x3d1b4587	0.037908103
25	0x3ce713df	0.028207717
26	0xbd39e13a	-0.04538081
27	0xbcac5fb4	-0.021041729
28	0xbd2356ed	-0.03987782
29	0xbb47794c	-0.0030437289
30	0xbbfab50f	-0.0076509784
31	0xbd2f9b6c	-0.04287283
32	0x3d10bc1f	0.035335656
33	0xbd01d958	-0.031701416
34	0xbdb69518	-0.08915156
35	0xbcbd40dc	-0.023102216
36	0xbcceda20	-0.025250494
37	0x3dc7c648	0.09754616
38	0x3da3ddf8	0.080013216
39	0xbca6ac11	-0.02034572
40	0x3cc9bbdc	0.024625711
41	0xbd559aeb	-0.052149694
42	0x3dcd642c	0.10028872
43	0x3cfca1b2	0.030838821
44	0x3c7fa858	0.015604101
45	0xbc15f231	-0.009151981
46	0x3cc0135f	0.023446737
47	0xbd87f989	-0.06639392
48	0x3d565edf	0.05233657
49	0xbd60e41c	-0.054905042
50	0xbbbc2e57	-0.005742829
51	0xbd03717e	-0.032090656
52	0xbd473861	-0.04863775
53	0xbcb71f9e	-0.022353943
54	0x3c8f8359	0.017518686
55	0xbd5d7215	-0.054063875
56	0x3daa839e	0.08325885
57	0x3c39ad0e	0.011332763
58	0xbd5a1ab3	-0.05324812
59	0x3d9e07e1	0.077163465
60	0xbc90b76a	-0.017665584
61	0xbd6de877	-0.058083024
62	0x3db6b073	0.08920374
63	0x3db2d67f	0.08732318
64	0xbd9205bd	-0.07130001
65	0xbdac841e	-0.08423637
66	0x3d8913d8	0.06693238
67	0xbda5e00d	-0.08099375
68	0xbd2bb22c	-0.041917965
69	0x3b8d832a	0.0043186145
70	0xbd82c54d	-0.063852884
71	0xbd94b6bc	-0.07261416
72	0xbdc34b6e	-0.095358714
73	0x3d01349e	0.03154432
74	0xbdb6d65a	-0.08927603
75	0xbcbda1ac	-0.02314838
76	0x3ceb1079	0.028694378
77	0xbd5b8ac8	-0.05359915
78	0xbd9ca072	-0.0764779
79	0xbd24830e	-0.040164046
80	0xbcd597e0	-0.026073396
81	0x3dade5ab	0.08491071
82	0x3d7d4346	0.061831735
83	0xbd7df6ea	-0.062003054
84	0x3b1afdd5	0.002364983
85	0x3d1f851f	0.038945314
86	0xbdbbfb23	-0.0917876
87	0x3bbaa070	0.005695395
88	0xbd989172	-0.074496165
89	0x3d83e50b	0.06440171
90	0x3bfb2830	0.007664703
91	0xbd189f4a	-0.037261285
92	0x3b8ca73c	0.004292397
93	0x3db1e734	0.086866766
94	0x3cbb1555	0.02283732
95	0x3bf27c03	0.0074000373
96	0xbdd40ad2	-0.10353626
97	0x3dae04c4	0.08497003
98	0x3d78c758	0.060736984
99	0x3dc55715	0.0963575
100	0xbdc093e1	-0.09403206
101	0xbdb07149	-0.086153574
102	0xb9ecfa5c	-0.0004519996
103	0x3db9df43	0.09075787
104	0x3db80d86	0.089869544
105	0x3ce65381	0.02811599
106	0x3dc077d7	0.09397858
107	0x3d5e4fc8	0.054275304
108	0xbd924c3b	-0.07143446
109	0x3cac926b	0.021065911
110	0x3d878318	0.06616801
111	0x3c74d0e7	0.014942384
112	0xbc87ee0f	-0.016593007
113	0x3d72678a	0.059180774
114	0x3d4ba361	0.049716357
115	0x3b497f51	0.0030746053
116	0x3cc2af11	0.023765119
117	0xbd3695bc	-0.04457639
118	0x3d5c06f8	0.053717583
119	0x3d507c43	0.050899755
120	0xbd1dffbf	-0.038573977
121	0x3ae8f43f	0.0017772986
122	0xbd5c779e	-0.053825013
123	0x3dd4a40f	0.10382854
124	0x3d9a2ed2	0.075284615
125	0xbcf56b60	-0.029958427
126	0xbd092a7c	-0.033487782
127	0xbda14f28	-0.07876426
128	0xbd6d98fe	-0.058007233
129	0x3c7f565c	0.0155845545
130	0xbd0e6e71	-0.034773294
131	0x3d6f9a99	0.058497045
132	0xbb144309	-0.0022622964
133	0x3dc05852	0.09391846
134	0x3d405e13	0.046964716
135	0x3d48e4d4	0.049046353
136	0xbd60523a	-0.054765917
137	0xbd2fedb3	-0.042951297
138	0x3da89f97	0.08233564
139	0xbd885af0	-0.0665797
140	0x3d076a4c	0.033060357
141	0xbd8459be	-0.064624295
142	0x3d20c7ee	0.039253168
143	0xbcb06f77	-0.021537526
144	0xbc0a3679	-0.008435839
145	0xbd91fad8	-0.07127923
146	0x3d66ef3a	0.056380488
147	0x3cf9b4df	0.030481754
148	0xbd74198e	-0.059594683
149	0x3dabc311	0.08386815
150	0xbcd6d7fd	-0.026226038
151	0x3b1b7b2b	0.0023724537
152	0x3d5b15f6	0.05348774
153	0xbd697e20	-0.057005048
154	0x3b5af5d2	0.003341068
155	0xbd6938ba	-0.056938864
156	0xbdce6811	-0.10078443
157	0xbd048c7c	-0.03236054
158	0x3d539e85	0.051664848
159	0x3d49f23f	0.04930329
160	0x3dc696a1	0.09696699
161	0x3c32385c	0.010877695
162	0xbd6f4187	-0.0584121
163	0x3d8a8b8a	0.06764896
164	0xbd2eaef6	-0.042647325
165	0x3dbbc0cf	0.09167635
166	0x3d0cde11	0.034391467
167	0x3d42472d	0.04743116
168	0x3c4ecfa9	0.012622752
169	0x3d919d16	0.0711004
170	0x3c7472c1	0.014919938
171	0x3dbe477f	0.092909805
172	0x3b0c78fb	0.0021434415
173	0xbd0c466f	-0.03424686
174	0x3ba87125	0.005140441
175	0x3d9ca2b6	0.07648222
176	0xbd587ef2	-0.05285544
177	0x3d9f015d	0.07763932
178	0x3ceea237	0.029130084
179	0x3dc5cc16	0.09658067
180	0xbd5b0808	-0.053474456
181	0x3bcfba09	0.006339316
182	0x3d8fd06f	0.070221774
183	0x3da5e576	0.08100407
184	0xbc41711b	-0.011806752
185	0x3d44e002	0.048065193
186	0x3d048b59	0.032359455
187	0xbcfbfd26	-0.030760359
188	0xbd945933	-0.07243576
189	0xbdc81a0b	-0.09770592
190	0x3d191d66	0.037381552
191	0x3d3d4e0d	0.046217013
192	0x3d10737c	0.035266384
193	0xbd5007da	-0.050788738
194	0xbd8dcd7d	-0.069239594
195	0xbd1ea7c0	-0.038734198
196	0x3b4d066e	0.003128435
197	0x3d3b730e	0.04576402
198	0x3c4356c7	0.011922545
199	0xbdb26fce	-0.08712731
200	0x3d7fb040	0.062423944
201	0x3d2bb1ec	0.041917726
202	0x3dc63035	0.096771635
203	0x3dbdf719	0.09275646
204	0xbdc05311	-0.09390844
205	0xbd650e9a	-0.05592213
206	0xbd168252	-0.036745377
207	0xbd5660b6	-0.052338324
208	0x3c5160e4	0.012779448
209	0x3db776e4	0.089582235
210	0xbd884615	-0.06653992
211	0x3cf69dda	0.030104566
212	0xbd7ec37a	-0.06219814
213	0xbda039dd	-0.078235365
214	0xbd05f43f	-0.032703634
215	0x3c61ba48	0.013777323
216	0x3dd6271b	0.104566775
217	0xbd75003a	-0.05981467
218	0x3cf99b72	0.03046963
219	0x3c959b8a	0.018262643
220	0xbbfe6b07	-0.0077642235
221	0x3d58ed30	0.052960575
222	0x3da3154a	0.07963045
223	0xbd7b35fb	-0.061330777
224	0x3c9d06e5	0.019168327
225	0x3bf3a718	0.0074356906
226	0xbcf6b195	-0.030113975
227	0x3d87e50e	0.066354856
228	0xbd4eb55f	-0.050465938
229	0x3d70a7d1	0.058753792
230	0xbd5d7b95	-0.054072935
231	0x3d5eaba4	0.054362908
232	0xbca0687f	-0.019581078
233	0xbbf59ab9	-0.007495251
234	0x3c99ff34	0.018798448
235	0xbcee950b	-0.029123804
236	0xbdaa7e64	-0.08324888
237	0xbd77c0ea	-0.06048671
238	0x3d26a088	0.04068044
239	0xbda5a462	-0.08087994
240	0xbcd7c52f	-0.026339142
241	0x3abbcc9b	0.0014327945
242	0xbd82394d	-0.063585855
243	0x3dc073d9	0.09397096
244	0x3d7a0217	0.06103715
245	0x3d9eb2df	0.07748961
246	0x3d1eb4dc	0.0387467
247	0x3cfc07df	0.030765472
248	0xbdb2ed5d	-0.0873668
249	0x3d824153	0.06360116
250	0xbdc1c10f	-0.09460651
251	0xbdae8cd3	-0.08522954
252	0x3d1bad24	0.038006917
253	0xbc9cdb1d	-0.01914745
254	0xbd5d513a	-0.05403254
255	0x3db93dc5	0.09044985

enc_p.lstm.bias_hh_l0 f4 [384]
0	0xbdaf1812	-0.08549513
1	0x3c32f9d3	0.010923821
2	0x3c76d1da	0.015064681
3	0x3da79a61	0.08183742
4	0x3d06caa9	0.032908116
5	0xba7f1010	-0.00097298715
6	0xbd6177cf	-0.0550459
7	0x3dba9a92	0.09111513
8	0x3d8fa8d6	0.07014625
9	0x3d85654d	0.06513462
10	0xbd87fab9	-0.066396184
11	0xbda122cc	-0.07867965
12	0xbbeb6d3f	-0.007184654
13	0x3dcb01ac	0.09912428
14	0x3c7ec534	0.015549947
15	0x3c11965d	0.008885947
16	0xbd8be366	-0.06830482
17	0x3c4c2d4a	0.01246197
18	0xbdc4d0d8	-0.09610146
19	0x3d45ea72	0.048319288
20	0x3ba01b60	0.004886076
21	0xbdc83092	-0.09774889
22	0xbd9eba55	-0.07750384
23	0xbce3f5bb	-0.027827134
24	0xbd968fce	-0.07351647
25	0x3d8f0bb2	0.069846526
26	0x3cd8af8f	0.0264509
27	0xbd9dc8d4	-0.077043205
28	0xbc9d6f03	-0.019217974
29	0xbd5285a7	-0.051396992
30	0xbdcc6c5d	-0.09981606
31	0x3d69cf33	0.057082366
32	0x3cdc5aa2	0.026898686
33	0xbcf54e6b	-0.02994462
34	0xbda9211e	-0.0825827
35	0x3d4340b2	0.04766912
36	0x3b3c69dd	0.0028749623
37	0xbd8de254	-0.06927934
38	0xbd07b184	-0.033128276
39	0x3d29e66d	0.041479517
40	0xbd9ac6dc	-0.07557461
41	0x3da520a9	0.0806287
42	0xbc83a2b4	-0.016068794
43	0x3d69422b	0.05694787
44	0x3d068589	0.032842193
45	0x3caff247	0.021477832
46	0xbdd00731	-0.10157622
47	0x3d53e0af	0.051727947
48	0x3c0074dd	0.007840362
49	0xbda047bd	-0.07826183
50	0x3dc3323c	0.09531066
51	0x3da289e8	0.0793646
52	0x3d779b43	0.060450803
53	0x3c00fd6a	0.007872919
54	0x3c921f8d	0.01783731
55	0x3ce066d4	0.027392782
56	0xbc1f3b50	-0.009718731
57	0x3d1a35a8	0.037648827
58	0xbd509401	-0.050922398
59	0xb8c01fd5	-9.1612026e-05
60	0x3da5825c	0.08081505
61	0xbd8d30ac	-0.06894049
62	0x3cefca86	0.029271375
63	0x3cf0bb96	0.029386323
64	0xbc2dab57	-0.010599933
65	0x3d5ae530	0.053441226
66	0x3c43d248	0.01195199
67	0x3d82b617	0.06382387
68	0xbd4314e7	-0.047627356
69	0xbd99d24d	-0.07510815
70	0x3d148f3f	0.036269423
71	0xbdc91984	-0.0981932
72	0x3c61203a	0.013740594
73	0xbd98e2cc	-0.07465133
74	0xbdbd49e7	-0.092426114
75	0x3d2e6c0a	0.042583503
76	0x3d4ff347	0.050769117
77	0x3c2e74a6	0.010647928
78	0xbd5cf563	-0.053944957
79	0x3d876c1e	0.066124186
80	0xbbd734ab	-0.006567558
81	0x3da53ebb	0.080686055
82	0x3d90c391	0.07068551
83	0xbd7f6f55	-0.062362034
84	0xbd5e65a3	-0.054296147
85	0x3d8e8a17	0.06959932
86	0x3cb76edc	0.022391729
87	0x3d663736	0.056204997
88	0xbdbda4c6	-0.09259944
89	0x3d313915	0.04326733
90	0x3dca5b55	0.098807015
91	0xbc58f10b	-0.013241063
92	0x3d93f498	0.07224387
93	0x3d6223f5	0.055210073
94	0x3d90fc86	0.07079415
95	0x3d28b5a8	0.041188866
96	0x3dcb9491	0.09940446
97	0xbd5cd586	-0.05391457
98	0xbb20ba72	-0.0024525193
99	0x3d812953	0.0630671
100	0x3d4f5469	0.05061761
101	0x3b043fa9	0.0020179546
102	0xbc4961b6	-0.0122913625
103	0x3d7f5a41	0.062341932
104	0x3da6118e	0.08108817
105	0x3b8c99f4	0.0042908136
106	0xbdbdbac7	-0.092641406
107	0x3d994849	0.074844904
108	0xbd410e9c	-0.047133073
109	0x3d5f7266	0.05455246
110	0x3c3b4fe1	0.011432619
111	0x3d859858	0.06523198
112	0xbca44dc3	-0.02005661
113	0x3dceabe6	0.10091381
114	0x3cb53cd0	0.022123724
115	0xbc5860c4	-0.0132066645
116	0xbcc6edab	-0.02428325
117	0x3d39d742	0.0453713
118	0xbd1a0574	-0.037602857
119	0x3c198d4f	0.0093720695
120	0x3c357abd	0.011076626
121	0x3d24d93e	0.04024624
122	0xbd4266b6	-0.047461234
123	0x3d370c25	0.044689316
124	0x3d6be509	0.05759147
125	0xbc8b7078	-0.017021403
126	0x3d3d9837	0.04628774
127	0xbd79c501	-0.060978893
128	0x390728fc	0.00012889871
129	0xbd434a5b	-0.047678333
130	0x3cd70482	0.026247267
131	0xbb454bdb	-0.0030105028
132	0xbdc43185	-0.095797576
133	0x3d8acb9e	0.06777118
134	0xbdc8fa3a	-0.09813352
135	0x3da20967	0.079119496
136	0xbcf1e98b	-0.029530307
137	0xbd079be5	-0.033107657
138	0x3db4cac5	0.08827738
139	0xbd4cd67c	-0.050009236
140	0x3cc40ef1	0.023932906
141	0xbcbf1a1b	-0.023327878
142	0x3dafd378	0.08585256
143	0xbdaf0f3f	-0.0854783
144	0xbcc829d0	-0.024434
145	0xbcf9fe5d	-0.030516798
146	0x3d2772be	0.04088091
147	0xbd93da6e	-0.072193965
148	0xbda49445	-0.08036093
149	0xbd839377	-0.06424611
150	0x3d6bf83d	0.057609785
151	0x3d9894d4	0.07450262
152	0x3c86fe27	0.016478611
153	0xbcc38b2b	-0.023870071
154	0x3cadad48	0.021200791
155	0x3c8c6f9c	0.017143063
156	0x3ce28c34	0.027654745
157	0x3cf0bff9	0.029388415
158	0xbd93097f	-0.071795456
159	0x3d2bf94b	0.04198579
160	0xbcb41ea2	-0.021987263
161	0xbd00bcf9	-0.03143022
162	0xbd4d46ff	-0.050116535
163	0x3dd10dba	0.10207696
164	0x3bc6e06d	0.006069234
165	0x3c29f50a	0.010373363
166	0xbd173029	-0.036911163
167	0xbcadd976	-0.021221858
168	0xbb80458b	-0.00391454
169	0xbdd452d1	-0.103673585
170	0x3d80751d	0.062723376
171	0x3d8e06fd	0.06934927
172	0xbd6f56df	-0.058432456
173	0x3d216767	0.039405253
174	0xbd2093a8	-0.039203316
175	0xbd41266b	-0.04715578
176	0xbd7e7542	-0.062123545
177	0x3d2bf5ca	0.04198245
178	0xb927227e	-0.0001593921
179	0x3db630f2	0.08896054
180	0x3cf71209	0.030159967
181	0x3d8ce5e9	0.068797894
182	0x3d2b41c0	0.04181075
183	0xbd190cc6	-0.037365697
184	0xbbb39350	-0.0054802075
185	0x3dab5e74	0.08367625
186	0x3dc9af96	0.098479435
187	0xbdc25dcb	-0.09490546
188	0x3cdebaf5	0.027188757
189	0xbcf81b50	-0.030286461
190	0xbd251f02	-0.040312774
191	0xba9b4f5f	-0.0011849216
192	0x3c2fbcba	0.010726148
193	0x3d8afa5e	0.06786035
194	0xbcb79d9d	-0.022414023
195	0xbcc3adea	-0.02388664
196	0x3d0466f2	0.03232474
197	0xbd136bf2	-0.035991617
198	0xbcf73d5a	-0.030180622
199	0xbc24f16d	-0.010067326
200	0x3d7d5a91	0.06185395
201	0xbdcb81e4	-0.09936884
202	0xbd8b964d	-0.06815777
203	0xbcb7b5af	-0.0224255
204	0xbd4d595c	-0.050134048
205	0xb9e9f8c5	-0.0004462657
206	0xbdb157ce	-0.086593255
207	0x3daece65	0.085354604
208	0x3d08546d	0.03328364
209	0x3d7b4c0e	0.06135183
210	0xbda03bfe	-0.078239426
211	0x3d9488ed	0.07252679
212	0x3d21ba4b	0.039484303
213	0xbc38f4a9	-0.0112888
214	0xbd716231	-0.058931533
215	0xbdc99e72	-0.09844674
216	0x3dc7e81b	0.097610675
217	0xbd10f480	-0.035389423
218	0xbdcf817a	-0.101321176
219	0xbce2a14e	-0.027664807
220	0x3d1bd13c	0.03804134
221	0xbc8d894c	-0.017277382
222	0x3d063b88	0.032771617
223	0xbdb16c53	-0.08663239
224	0x3dbc305b	0.091889106
225	0x3da370a0	0.07980466
226	0x3d53c986	0.05170586
227	0x3da5c07e	0.080933556
228	0x3d5f888c	0.05457358
229	0x3d698c15	0.05701836
230	0x3ce6bc8d	0.02816608
231	0xbd540cec	-0.051770136
232	0x3daf19be	0.08549832
233	0xbdc85e0c	-0.09783563
234	0x3d90bc48	0.07067162
235	0xbdbeb8c8	-0.09312588
236	0xbd3c4337	-0.04596254
237	0x3dae6404	0.0851517
238	0xbd6c956d	-0.05775969
239	0x3d943088	0.07235819
240	0x3d81d4da	0.06339426
241	0x3c7d8df0	0.015475735
242	0x3d63a63c	0.055578455
243	0xbbb78c9a	-0.005601478
244	0xbd17ae03	-0.037031185
245	0x3cfdfa78	0.031003222
246	0xbd4c675d	-0.049903262
247	0x3cb3d3cb	0.021951577
248	0x3b0412fe	0.0020152922
249	0xbcc2ef55	-0.023795763
250	0xbd1b776e	-0.037955694
251	0xbd6fd88a	-0.058556117
252	0xbd14399e	-0.03618776
253	0xbc502cb9	-0.012705975
254	0x3d61f7f3	0.055168103
255	0xbc48418e	-0.012222661

enc_f.lstm.weight_ih_l0 f4 [384, 4]
0	0xbce1bd85	-0.02755619
1	0x3c6da1f5	0.014503946
2	0x3d06a7ee	0.032874994
3	0x3dc1fa87	0.094716124
4	0xbd0596ae	-0.032614402
5	0x3d49ac33	0.049236488
6	0x3d4608cf	0.048348244
7	0x3d11cee1	0.035597686
8	0xbcd1911f	-0.025581894
9	0xbdb21145	-0.086947
10	0x3dbcb1af	0.09213578
11	0x3d745551	0.059651677
12	0xbd2ea803	-0.042640697
13	0xbd846146	-0.06463866
14	0x3cf9e791	0.030505927
15	0xbacd99da	-0.001568611
16	0x3dafee4a	0.08590372
17	0xbd558eef	-0.052138265
18	0x3dafa486	0.08576302
19	0x3c2f0d68	0.010684349
20	0x3ab9237f	0.0014124959
21	0x3d6dadb2	0.058026977
22	0x3d8583a0	0.06519246
23	0xbd23f31b	-0.040026765
24	0x3c42b8fe	0.011884926
25	0x3cea5f84	0.028609999
26	0x3dade349	0.08490617
27	0x3d0ebf35	0.034850318
28	0x3db0082c	0.08595309
29	0xbd3bbfd8	-0.045837253
30	0x3c995495	0.01871709
31	0x3db8a75f	0.090162985
32	0xbd95b2e6	-0.07309513
33	0x3dc7db80	0.09758663
34	0x3cdedd18	0.027205035
35	0xbdb5e19a	-0.08880921
36	0xbcce2b73	-0.025167203
37	0xbcaff97b	-0.021481266
38	0x3d4c38e3	0.04985894
39	0x3dc61d70	0.096735835
40	0xbcf5772f	-0.029964058
41	0x3d4dc64d	0.050237942
42	0x3c4d6b43	0.01253778
43	0x3cf08734	0.029361345
44	0xbd029aa6	-0.031885765
45	0x3dbe87d7	0.09303253
46	0x3dc63f46	0.09680037
47	0x3db628d0	0.08894503
48	0xbdd5afde	-0.10433935
49	0x3c5c0647	0.013429231
50	0xbd88d626	-0.066814706
51	0xbd3e1d3b	-0.046414595
52	0x3d8ec27c	0.06970689
53	0x3dc01b44	0.093802005
54	0x3dc8982f	0.09794652
55	0xbdc88bcb	-0.097922884
56	0xbd3f6b85	-0.046733398
57	0xbd15dc10	-0.03658682
58	0xbd352c0e	-0.044231467
59	0x3d8e1726	0.06938009
60	0xbd91814d	-0.0710474
61	0xbd57e092	-0.0527044
62	0x3dadf900	0.084947586
63	0xbdc1bef6	-0.09460251
64	0xbdb12e28	-0.08651382
65	0x3db7a547	0.08967071
66	0x3d7cbe80	0.061705112
67	0xbd13ca30	-0.036081493
68	0x3b0ae108	0.0021191258
69	0x3d7d1445	0.06178691
70	0xbdb10ad7	-0.08644646
71	0x3db8c33c	0.09021613
72	0x3daea4d4	0.08527532
73	0x3d83075f	0.0639789
74	0x3bef8d8d	0.0073105753
75	0x3d8e3bde	0.069450125
76	0xbdbf8b02	-0.093526855
77	0x3c0d4463	0.008622262
78	0xbcb6a35d	-0.022294695
79	0xbd9f97f5	-0.077926554
80	0xbdcee1da	-0.101016715
81	0x3d403701	0.046927456
82	0xbcb2d4ce	-0.021829989
83	0xbca35f22	-0.019942824
84	0xbd222019	-0.039581392
85	0x3da20d48	0.079126894
86	0x3d38710a	0.045029677
87	0xbd424db9	-0.047437403
88	0xbd0649d5	-0.032785255
89	0xbd905ad9	-0.07048578
90	0xbc6f9f09	-0.014625319
91	0xbd82e89b	-0.06392022
92	0xbd3237e2	-0.043510325
93	0xbda0692e	-0.078325614
94	0x3ce5d8b1	0.028057428
95	0xbc6c617e	-0.014427541
96	0x3da66ada	0.08125849
97	0xbdb2df92	-0.08734049
98	0xbd585634	-0.052816585
99	0xbd2a5cc3	-0.04159237
100	0x3d576eed	0.05259602
101	0xbc9914c7	-0.018686665
102	0xbda9cb15	-0.08290688
103	0xbd748110	-0.059693396
104	0x3b15d21e	0.0022860835
105	0xbd6a3267	-0.057176974
106	0x3d81c44a	0.06336267
107	0xbc9742bd	-0.01846444
108	0xbd61de0c	-0.0551434
109	0x3dbcb84c	0.09214839
110	0x3cf222ab	0.029557547
111	0xbd7d1e1e	-0.0617963
112	0x3c475b5f	0.012167781
113	0x3daa84b5	0.08326093
114	0x3cce84ef	0.025209872
115	0x3d8414a5	0.0644925
116	0xbd6b6470	-0.05746883
117	0xbd79351c	-0.060841665
118	0xbd20ac46	-0.039226793
119	0x3b691541	0.0035565647
120	0xbdbe265c	-0.0928466
121	0xbdc33557	-0.09531658
122	0x3d99f1e9	0.07516844
123	0xbd564df0	-0.05232042
124	0x3cf1aacf	0.029500393
125	0xbdaba589	-0.08381183
126	0xbd9d96a8	-0.07694751
127	0x3d3cc29a	0.046084024
128	0x3d9c60f5	0.076356806
129	0x3c99b5dc	0.018763475
130	0xbd835c6f	-0.06414115
131	0x3d938afb	0.07204243
132	0xbdb4d7b9	-0.08830208
133	0xbd00e7d8	-0.031471103
134	0xbdcefd5c	-0.10106918
135	0x3d1be3a3	0.03805889
136	0x3db8b47f	0.09018802
137	0x3cf5889f	0.029972373
138	0xbd1f68d1	-0.03891832
139	0xbc03f50a	-0.008054027
140	0x3d6e52e3	0.058184516
141	0x3c1ee709	0.009698638
142	0x3c8d80b3	0.017273283
143	0x3a0f12c7	0.0005457815
144	0x3b9ea23c	0.004841117
145	0xbc26670f	-0.010156407
146	0x3d252ca9	0.040325794
147	0xbdba8fbe	-0.09109448
148	0xbcc90763	-0.024539655
149	0x3d763327	0.060107376
150	0x3c5f9a01	0.013647557
151	0xbced1817	-0.028942151
152	0x3d911281	0.070836075
153	0xbce34851	-0.027744444
154	0xbd5c6fd2	-0.053817578
155	0x3d779b7c	0.060451016
156	0xbce38ae2	-0.027776185
157	0xbb7a858f	-0.003822658
158	0x3d0abf88	0.033874065
159	0xbdbdd777	-0.09269612
160	0x3dbd0ed5	0.092313446
161	0x3cdc6145	0.02690185
162	0xbd1c21ce	-0.038118176
163	0x3d986a9d	0.0744221
164	0x3d53dace	0.05172234
165	0xbd74d5f0	-0.05977434
166	0x3d533175	0.051560838
167	0x3d85206e	0.06500326
168	0x3d51fcc2	0.05126644
169	0xbcf0790e	-0.029354598
170	0xbc874afd	-0.01651525
171	0x3c1a8b18	0.009432577
172	0x3d83fd17	0.064447574
173	0xbdb13233	-0.08652153
174	0x3daf441d	0.085579135
175	0xbb74f646	-0.0037378236
176	0x3abad72c	0.00142548
177	0x3daf5c03	0.08562472
178	0xbd0d6b7d	-0.034526337
179	0xbc9fd474	-0.019510485
180	0xbcd3a591	-0.025835784
181	0xbc8ab897	-0.016933722
182	0x3cd5a69f	0.026080428
183	0x3d141dab	0.036161106
184	0x3d80b028	0.06283599
185	0xbda3dbcb	-0.080009066
186	0xbd78daa5	-0.06075539
187	0xbdc25f90	-0.09490883
188	0xbc399cb9	-0.0113288695
189	0xbd28b2a9	-0.04118601
190	0x3dc0c2a9	0.094121285
191	0x3d33e4c6	0.043919347
192	0xbd14c32a	-0.036318935
193	0xbd8a2d19	-0.06746883
194	0xbd56c054	-0.052429512
195	0xbb8bc2be	-0.0042651584
196	0xbc7ecbf5	-0.015551557
197	0x3dcd1e7e	0.100155815
198	0x3d396b02	0.045268066
199	0x3c90d634	0.017680265
200	0x3c1c2616	0.009530565
201	0x3d982497	0.07428854
202	0xbd3b534c	-0.045733735
203	0xbdc9351d	-0.09824584
204	0xbbc542b4	-0.0060199145
205	0xbd6c5b34	-0.057704166
206	0x3ccc5709	0.024943845
207	0x3dc3f4d8	0.095681846
208	0xbd1ada0a	-0.037805595
209	0x3db0851e	0.0861914
210	0xbcfd84b0	-0.03094706
211	0x3db8d2b4	0.090245634
212	0xbcf01efc	-0.02931165
213	0x3d14f434	0.036365703
214	0x3c05b019	0.008159661
215	0x3d8b1d14	0.067926556
216	0xbcd62ba4	-0.026143856
217	0x3db43f67	0.088011555
218	0xbd66dd6b	-0.056363504
219	0xba9000af	-0.0010986532
220	0x3dbfc4c1	0.093637
221	0xbc805601	-0.01566601
222	0xbd17cf57	-0.03706297
223	0x3dcdbc47	0.10045677
224	0xbc2dab72	-0.010599958
225	0x3d2a9a79	0.041651223
226	0x3d96a14b	0.07354983
227	0x3d00847a	0.03137634
228	0x3d91875b	0.07105895
229	0x3dcac859	0.099014945
230	0xbc902371	-0.017595025
231	0xbdb1de38	-0.08684963
232	0x3d494d1d	0.049145807
233	0xbb0ee6a2	-0.0021804948
234	0x3c0ab344	0.008465592
235	0xbd284857	-0.041084614
236	0xbd8a52a8	-0.06754047
237	0x3d64bcf3	0.05584426
238	0x3c36ca3c	0.011156615
239	0x3dd3ac60	0.10335612
240	0x3d3cc33b	0.046084624
241	0x3d07ab88	0.03312257
242	0x3d82835a	0.063727096
243	0x3d8c9610	0.0686456
244	0x3d5f24a2	0.054478295
245	0xbd8ce3a3	-0.06879356
246	0x3d97084c	0.073746294
247	0x3d9cd1fd	0.076572396
248	0xbd9b9d4b	-0.07598361
249	0x3d7cc59f	0.061711904
250	0xbdbf1e1e	-0.09331916
251	0x3d4b9ded	0.049711157
252	0x3cdd9d09	0.02705242
253	0xbba7c55c	-0.0051199626
254	0x3d2c1a82	0.042017467
255	0x3bb4932b	0.005510708

enc_f.lstm.weight_hh_l0 f4 [384, 96]
0	0xbda7ce2f	-0.08193623
1	0x3d57f9c6	0.052728437
2	0x3db0604f	0.086121194
3	0xbcf6399c	-0.030056767
4	0x3dc7fc9d	0.09764979
5	0x3d034a6d	0.0320534
6	0x3dba43ad	0.090949394
7	0xbccc9584	-0.024973638
8	0x3ca6164d	0.020274306
9	0x3d435942	0.047692545
10	0xbcf49fcd	-0.029861355
11	0xbb61ce27	-0.0034455152
12	0xbdc1ead3	-0.09468617
13	0x3c5c2e30	0.013438746
14	0xbdc15faf	-0.09442078
15	0xbd62b08b	-0.055344146
16	0xbd72aec3	-0.059248697
17	0x3daac293	0.08337893
18	0x3da37890	0.0798198
19	0x3d13ab8d	0.036052275
20	0xbc4229dd	-0.011850801
21	0x3b744e10	0.0037277974
22	0xbdb711da	-0.08938952
23	0xbd65ae63	-0.05607451
24	0xbc96f9f5	-0.018429736
25	0x3d6fd7a5	0.058555264
26	0xbd4ebfd8	-0.050475925
27	0xbcc0dcb9	-0.023542749
28	0x3d39baff	0.04534435
29	0x3db8caf9	0.09023089
30	0xbdad4021	-0.08459497
31	0x3d8019ef	0.062549464
32	0x3c3e83df	0.01162812
33	0xbd936ca9	-0.0719846
34	0xbc8648a5	-0.016392061
35	0xbb7091c6	-0.0036707981
36	0x3dd1f016	0.10250871
37	0xbdbf1fee	-0.09332262
38	0x3d893116	0.066988155
39	0x3c489a8d	0.012243879
40	0xbd957457	-0.07297581
41	0xbd83aeb3	-0.064298056
42	0x3cd508dc	0.026005201
43	0x3d8000ef	0.06250178
44	0x3ca3ff18	0.0200191
45	0xbdce610f	-0.10077106
46	0xbca5b805	-0.020229349
47	0x3c4737b7	0.01215928
48	0xbdb63ed9	-0.08898706
49	0x3d094ea3	0.03352226
50	0x3c37fae3	0.01122925
51	0xbd8f1887	-0.069871
52	0x3c214995	0.0098442035
53	0x3c008cf7	0.007846109
54	0xbd352d31	-0.04423255
55	0x3dbb730f	0.09152805
56	0x3d7308a4	0.059334412
57	0xbceb8935	-0.028751949
58	0xbda63324	-0.08115223
59	0x3ba86421	0.0051388894
60	0x3cd9509d	0.026527697
61	0x3dcc0a5a	0.09962912
62	0xbca24846	-0.019809853
63	0xbc800e84	-0.015631922
64	0xbcc5d407	-0.024148954
65	0xbd8eb009	-0.0696717
66	0xbd386ba0	-0.045024514
67	0xbc861ff6	-0.016372662
68	0x3d839f3a	0.064268544
69	0xbc1635ff	-0.009168147
70	0xbd55ef87	-0.052230384
71	0x3b81beb8	0.003959503
72	0xbceaf064	-0.02867908
73	0xbdc5bca7	-0.09655123
74	0xbd93bd1b	-0.072138034
75	0x392a0800	0.00016215444
76	0x39f3f8f3	0.00046534053
77	0x3d7438cd	0.059624482
78	0x3c631412	0.013859766
79	0xbd125535	-0.03572579
80	0xbb607837	-0.003425134
81	0x3d4c7850	0.049919426
82	0xbdb899ee	-0.09013735
83	0xbd44e54c	-0.048070237
84	0x3dca501c	0.09878561
85	0x3d83a771	0.06428421
86	0x3ca41e44	0.020033963
87	0xbad280fc	-0.0016060169
88	0x3cf388c0	0.029728293
89	0xbda06818	-0.07832354
90	0x3ca7b7b7	0.020473344
91	0xbd33dfc7	-0.043914583
92	0xbd96028e	-0.07324706
93	0x3d4e742f	0.05040377
94	0x3d451e0f	0.04812437
95	0xbd63dd9d	-0.05563127
96	0x3d1f7d7b	0.038938027
97	0xbd0dd1a9	-0.034623776
98	0xbd036b4d	-0.032084752
99	0xbda5cd84	-0.080958396
100	0x3cb32b46	0.02187122
101	0x3db8357a	0.08994575
102	0x3bd63aa5	0.0065377527
103	0x3c9047ee	0.017612424
104	0xbd5bb080	-0.05363512
105	0xbd304ba8	-0.0430409
106	0xbcb4d119	-0.022072362
107	0x3d9182da	0.07105036
108	0xbd8f9e78	-0.070126474
109	0xbd8c8496	-0.06861226
110	0xbcce01f7	-0.025147421
111	0x3cf9a9ef	0.030476538
112	0x3da788f5	0.08180419
113	0xbd1afd35	-0.037839133
114	0x3c359745	0.011083429
115	0x3dc6bbab	0.097037636
116	0x3c851974	0.016247489
117	0xbda32e50	-0.07967818
118	0x3d099f18	0.03359899
119	0x3dad6db9	0.084681936
120	0xbd669181	-0.056291107
121	0xbd7a34f9	-0.061085675
122	0xbd306fa0	-0.043075204
123	0xbdc96515	-0.09833733
124	0x3dc2b347	0.09506851
125	0x3d178e0a	0.037000693
126	0xbc9b7048	-0.018974438
127	0x3db93c36	0.090446874
128	0x3c96700d	0.018363977
129	0xbcdf2f65	-0.02724428
130	0x3b414d01	0.002949536
131	0x3beaef06	0.007169607
132	0x3c873de4	0.016509004
133	0xbd798d68	-0.06092587
134	0x3d19414a	0.03741578
135	0xbd9e6a3e	-0.07735108
136	0x3d1b7e3b	0.03796218
137	0xbd5298e6	-0.051415347
138	0x3c73d68e	0.014882697
139	0xbd2881c9	-0.041139398
140	0xbdb3f191	-0.087863095
141	0xbd983ddc	-0.07433674
142	0x3c318285	0.010834341
143	0x3c63f5df	0.013913601
144	0xbd96cd69	-0.07363398
145	0x3dc5ff52	0.09667839
146	0x3d794f7c	0.060866818
147	0x3d9ea2cd	0.077458955
148	0x3d6490d4	0.05580218
149	0x3d02a87d	0.031898964
150	0xbbfe5fb1	-0.007762872
151	0x3d5ccb45	0.05390479
152	0x3d35c46b	0.044376772
153	0x3b798f2f	0.003807973
154	0x3dc6b7d4	0.09703031
155	0x3d6cb6c4	0.057791486
156	0x3d513a01	0.051080707
157	0xbdbc41a9	-0.09192211
158	0xbd9c5270	-0.07632911
159	0x3da36c63	0.079796575
160	0xbd666555	-0.05624898
161	0x3cc4c8ff	0.024021624
162	0xbd21be69	-0.03948823
163	0x3d13808a	0.036011256
164	0xbd6945b2	-0.056951232
165	0x3c1771cd	0.009243441
166	0xbd875d64	-0.0660961
167	0xbd8f221d	-0.069889285
168	0x3d8f5fee	0.07000719
169	0x3dcc02f8	0.09961504
170	0x3d83666d	0.064160205
171	0xbce5e539	-0.028063403
172	0x3cb47077	0.022026284
173	0x3d32e6cb	0.043677133
174	0x3d6439e2	0.055719264
175	0xba5f500b	-0.0008518702
176	0xbdceed93	-0.101039074
177	0x3d902612	0.07038511
178	0xbd61528d	-0.055010367
179	0xbce7ca5d	-0.028294737
180	0xbc6728d3	-0.014108854
181	0x3c8bc22c	0.017060362
182	0xbdbc2e0e	-0.09188472
183	0xbd2f85ec	-0.042852327
184	0xbd19f4e3	-0.037587058
185	0x3d8e2583	0.069407485
186	0xbcab635d	-0.020921404
187	0xbdaef7bb	-0.085433446
188	0xbd9cbc95	-0.07653157
189	0xbd1f9fff	-0.038970944
190	0x3daff14d	0.08590946
191	0xbc38fe61	-0.011291117
192	0xbdac9bf4	-0.08428183
193	0x3d355875	0.044273812
194	0x3d7bb36f	0.061450418
195	0xbcd6c638	-0.026217565
196	0xbcca87fc	-0.024723046
197	0xbd00022d	-0.031252075
198	0xbc6ab0c1	-0.014324368
199	0xbd3e989f	-0.04653227
200	0x3d47547e	0.048664562
201	0x3da2719d	0.07931826
202	0x3d244715	0.04010685
203	0xbda1ae77	-0.07894605
204	0xbc1b413f	-0.009476005
205	0xbdb9f0db	-0.09079143
206	0x3c46db54	0.012137253
207	0xbb46913f	-0.0030298976
208	0x3c33345a	0.010937775
209	0xbd5280f1	-0.0513925
210	0xbdb1bd4d	-0.086786844
211	0xbda58fba	-0.08084054
212	0x3dc1d3e4	0.09464243
213	0x3d87cbc5	0.06630663
214	0x3ca3feea	0.020019013
215	0x3db68d33	0.0891365
216	0x3d658792	0.056037493
217	0xbb9ed14b	-0.004846727
218	0xbcb9c220	-0.022675574
219	0x3d55b380	0.052173138
220	0xbdc3388f	-0.09532272
221	0xbca30087	-0.019897712
222	0xbdcfab96	-0.10140149
223	0xbdac2363	-0.08405187
224	0xbd8250d0	-0.0636307
225	0x3d9a4114	0.07531944
226	0x3dccd02c	0.10000643
227	0x3ca47993	0.020077502
228	0xbd571532	-0.052510448
229	0x3da537d2	0.080672875
230	0x3d14b2cd	0.03630333
231	0x3ca46023	0.020065373
232	0x3d9635f0	0.073345065
233	0xbce74df8	-0.02823542
234	0x3d3909ba	0.04517529
235	0xbaef9e44	-0.001828142
236	0x3ca51290	0.020150453
237	0xbd72f8f8	-0.059319466
238	0xbdbae612	-0.09125914
239	0x3bee59f5	0.0072739073
240	0x3d8aa003	0.06768801
241	0xbcdfea3e	-0.027333375
242	0x3cb261db	0.021775177
243	0xbdceebf5	-0.10103599
244	0x3d86633c	0.06561896
245	0x3c955979	0.01823114
246	0xbdb40c4c	-0.08791408
247	0x3d2b2503	0.041783344
248	0x3ce22e33	0.02760992
249	0x3d8f54c8	0.069985926
250	0xbdb976c7	-0.09055858
251	0xbc46da86	-0.012137061
252	0xbc335e1a	-0.0109477285
253	0x3aa04c18	0.0012229709
254	0x3cbe7881	0.02325082
255	0x3da3f605	0.08005909

enc_f.lstm.bias_ih_l0 f4 [384]
0	0x3cf7175b	0.030162504
1	0xbdb05c93	-0.08611407
2	0xbc8f2987	-0.017475856
3	0x3d75afc8	0.05998209
4	0xbceb1a95	-0.028699199
5	0xbd957cbb	-0.07299181
6	0x3d31000a	0.043212928
7	0xbdb97b43	-0.090567134
8	0x3d66c771	0.056342546
9	0xbd1b8459	-0.037968013
10	0x3d848782	0.064711586
11	0x3d810596	0.062998936
12	0x3db09dc7	0.08623844
13	0xbcd33dca	-0.0257863
14	0x3cc3706d	0.02385732
15	0xbd571380	-0.05250883
16	0x3c6c50e7	0.0144235855
17	0x3d8e9f5b	0.069639884
18	0x3cd6a522	0.026201788
19	0x3cacd097	0.021095557
20	0x3d93c440	0.07215166
21	0x3d774213	0.060365748
22	0xbd6ddb9a	-0.058070756
23	0xbcc68e1c	-0.024237685
24	0x3dd0f7d7	0.10203522
25	0xbca3b49d	-0.019983584
26	0xbc9aef26	-0.018912863
27	0x3b36a96b	0.0027871977
28	0x3d63a400	0.055576324
29	0x3d302f1c	0.043013677
30	0x3d6bcc9c	0.057568178
31	0x3da60dd3	0.081081055
32	0xbd9a6af5	-0.07539932
33	0x3dc01853	0.093796395
34	0xbb57d1d4	-0.0032931464
35	0xbd0b253c	-0.033971056
36	0x3b0b07fc	0.0021214476
37	0xbd822f3b	-0.06356665
38	0x3c9dcadf	0.019261776
39	0xbc8a4dab	-0.016882738
40	0xbd2b1a45	-0.0417731
41	0xbdcd9883	-0.10038855
42	0x3b454b56	0.0030104718
43	0xbd757c62	-0.059933074
44	0x3d7205e2	0.05908764
45	0xbd24e34a	-0.040255822
46	0xbd3f58ea	-0.046715654
47	0xbc46dece	-0.012138082
48	0x3dca00bb	0.098634206
49	0xbd183bcd	-0.037166405
50	0xbc1e64dd	-0.009667602
51	0x3d9e737b	0.0773687
52	0x3d74ced7	0.05976757
53	0xbd65fa55	-0.05614694
54	0x3da50295	0.08057133
55	0xbdcb9e82	-0.09942342
56	0xba317ad4	-0.0006770317
57	0xbd43ff05	-0.047850627
58	0xbd246963	-0.040139567
59	0x3db14647	0.086559825
60	0xbd31426b	-0.04327623
61	0xbcd268c7	-0.025684727
62	0xbd41dad9	-0.04732785
63	0xbdb0a1b8	-0.086245954
64	0xbd2f3c57	-0.042782154
65	0xbcadf60a	-0.021235485
66	0x3dc057bf	0.09391736
67	0xbd56e345	-0.052462835
68	0xbdb19ae3	-0.086721204
69	0x3d114abd	0.035471667
70	0xbdc42ba0	-0.09578633
71	0xbc9ed1c8	-0.01938714
72	0x3d668ec2	0.05628849
73	0xbd345a35	-0.04403134
74	0xbc8d3471	-0.01723692
75	0xbcfb9d19	-0.030714558
76	0x3cdc3ad7	0.026883526
77	0x3bdfdcf9	0.006831762
78	0xbd33b17f	-0.043870445
79	0x3d977833	0.07395973
80	0x3d354c98	0.0442625
81	0xbc4075d7	-0.011746845
82	0x3c831b49	0.016004222
83	0xbdd2d0ad	-0.10293708
84	0x3b6b2ac5	0.0035883647
85	0xbca851e0	-0.020546854
86	0x3dc01cf4	0.09380522
87	0x3b7b0e4d	0.0038308084
88	0x3db6e95d	0.08931229
89	0x3c95a086	0.01826502
90	0xbd4c2fe7	-0.04985037
91	0x3da7b301	0.08188439
92	0xbd87ed8a	-0.06637104
93	0x3db98b9a	0.0905983
94	0x3da836d5	0.082135834
95	0xbcf2d5e7	-0.029643012
96	0x3dc11f70	0.09429824
97	0x3dbae5ad	0.091258384
98	0x3d5d5b66	0.054042242
99	0x3d427f1b	0.0474845
100	0x3dae4e29	0.085110016
101	0xbd09c881	-0.03363848
102	0xbcfdfac2	-0.03100336
103	0x3db68b02	0.089132324
104	0xbb236643	-0.002493278
105	0x3d6c3c77	0.05767485
106	0x3d3218c3	0.043480646
107	0xbd59b38b	-0.05314974
108	0x3d3ade0b	0.045621913
109	0x3d30ea7e	0.04319238
110	0x3d8702c2	0.06592323
111	0x3d2e3497	0.042530622
112	0xbd5d1ecb	-0.053984445
113	0x3db5e40a	0.088813856
114	0xbda0dca8	-0.07854587
115	0xbda9d913	-0.08293357
116	0xbcd60625	-0.026125977
117	0xbdad9d16	-0.084772274
118	0xbd53e8d7	-0.051735725
119	0xbc53b60e	-0.012921823
120	0x3ce6dd60	0.028181732
121	0x3c8ecfde	0.017433103
122	0x3d0e6d57	0.034772243
123	0xbd36b193	-0.04460294
124	0x3c1a368c	0.009412419
125	0x3bbac963	0.0057002767
126	0x3c8db7f9	0.017299639
127	0x3c3d95b7	0.011571339
128	0xbda6c710	-0.08143437
129	0xbd33bbec	-0.04388039
130	0x3d5d46b2	0.0540225
131	0x3d393f51	0.0452264
132	0x3dcf0c1b	0.10109731
133	0xbd0afbaf	-0.03393143
134	0xbd3f9438	-0.04677221
135	0xbd4f8de7	-0.050672438
136	0x3dc530f3	0.09628477
137	0xbda52c38	-0.08065075
138	0x3c2d137c	0.0105637275
139	0x3d96c794	0.07362285
140	0x3d8bbe25	0.068233766
141	0x3bb877c1	0.00562951
142	0x3d8b0554	0.06788126
143	0x3c501bbd	0.012701926
144	0x3cc82293	0.024430549
145	0x3d3240ba	0.04351876
146	0xbdaff5ea	-0.08591826
147	0x3da6b16b	0.081393085
148	0x3dc9ea2f	0.0985912
149	0xbd2109d1	-0.039316002
150	0x3dad154d	0.084513284
151	0x3cf3929a	0.029732991
152	0x3d4043a3	0.046939503
153	0xbcbbc294	-0.02291993
154	0x3d947330	0.07248533
155	0x3daa8a1c	0.083271235
156	0x3dc045ed	0.09388337
157	0x3ce83d18	0.028349444
158	0x3c3d840c	0.011567127
159	0xbdaf82d8	-0.08569878
160	0xbd6fd3b6	-0.058551513
161	0xbd2066bc	-0.039160475
162	0xbd2638d2	-0.04058153
163	0x3d6cefcf	0.057845887
164	0xbd645e51	-0.05575401
165	0xbc27e2c5	-0.010246937
166	0x3a77d8c7	0.00094546046
167	0x3d136f2c	0.035994694
168	0x3a73a3ba	0.00092941115
169	0x3d047840	0.03234124
170	0x3d214094	0.039368227
171	0x3d495cbf	0.049160715
172	0xbd0decd2	-0.034649678
173	0x3da6d335	0.08145753
174	0x3dcdc994	0.100482136
175	0x3c26577e	0.010152696
176	0x3b8b942e	0.0042596078
177	0xbd9beea0	-0.076138735
178	0xbcf95d7a	-0.03044008
179	0x3831ecee	4.2420746e-05
180	0xbb5aeff0	-0.0033407174
181	0x3bfe9232	0.0077688927
182	0x3c1d213d	0.009590444
183	0x3b63cfa0	0.0034761205
184	0x3dba8b3e	0.091085896
185	0xbd1844a6	-0.037174843
186	0xbd9bf265	-0.076145925
187	0xbd706946	-0.058694147
188	0xbccdae65	-0.025107572
189	0xbdcfb8e6	-0.101426885
190	0x3d1894af	0.03725117
191	0x3c9dafed	0.019248927
192	0x3da50747	0.08058029
193	0x3d5d5399	0.054034803
194	0xbd98d8c1	-0.074632175
195	0xbc661988	-0.014044173
196	0xbd91e592	-0.07123865
197	0x3d7c8859	0.06165347
198	0x3ccba7f1	0.024860354
199	0xbdbdb9ec	-0.092639774
200	0x3dc399ed	0.095508434
201	0x3da39b84	0.079886466
202	0x3ae5b4b2	0.0017525165
203	0x3dcfb815	0.10142533
204	0x3d46f743	0.04857565
205	0x3b0c7ec8	0.0021437872
206	0x3d6156b1	0.055014316
207	0xbd83a395	-0.06427685
208	0xbd026b44	-0.031840578
209	0xbd5f9171	-0.054582063
210	0xbd3a4afc	-0.045481667
211	0xbdd23af1	-0.102651484
212	0x3d83b5c9	0.06431157
213	0xbc932d74	-0.01796601
214	0xbd7b0b24	-0.06128992
215	0xbc19560a	-0.009358892
216	0xbd5d530b	-0.054034274
217	0x3dbfd39a	0.09366532
218	0xbd9e536f	-0.077307574
219	0x3d8e48b7	0.06947463
220	0x3da1a4ec	0.078927845
221	0x3c446901	0.0119879255
222	0xbdca33ae	-0.09873138
223	0xbd3eadeb	-0.04655258
224	0x3baeaf7e	0.005330979
225	0x3cfbf2d1	0.030755432
226	0xbd952c44	-0.072838336
227	0xbc12b20a	-0.008953581
228	0x3da51bb7	0.08061927
229	0x3d876219	0.066105075
230	0xbd644fb9	-0.055740092
231	0xbd89b462	-0.067238584
232	0xbd6ad905	-0.057335872
233	0xbaf8084e	-0.0018923373
234	0xbdaedb4d	-0.08537922
235	0x3d902949	0.070391245
236	0xbd372b5b	-0.04471908
237	0xbdcadf12	-0.099058285
238	0x3d53a9ec	0.051675722
239	0x3db69568	0.08915216
240	0xbd093e0f	-0.03350645
241	0xbdb1e086	-0.086854026
242	0xbdcf385c	-0.101181716
243	0x3cb53a67	0.022122575
244	0x3d748199	0.059693906
245	0xbcd99bf2	-0.026563618
246	0x3dc51922	0.09623934
247	0x3b42a97c	0.0029703071
248	0xbd5d8039	-0.05407736
249	0x3dc093af	0.094031684
250	0xbd87ec4e	-0.066368684
251	0x3dc43fd0	0.09582484
252	0x3dd2f871	0.10301293
253	0xbda0a34d	-0.07843647
254	0xbd39c903	-0.045357715
255	0x3ba329cb	0.0049793473
