_train/_models/20250924/LG이노텍(011070)_20250924.pt (torch, 831847 bytes, 20 tensors)

enc_p.lstm.weight_ih_l0 f4 [384, 6]
0	0x3d24704b	0.040146153
1	0xbcf0c0b0	-0.029388756
2	0x3db4b81d	0.08824179
3	0xbbdf7053	-0.00681881
4	0x3dc376a0	0.0954411
5	0x3d4d1c98	0.050076097
6	0xbc173444	-0.00922877
7	0x3d89236d	0.0669621
8	0xbd2160bc	-0.039398894
9	0xbdbde3ee	-0.0927199
10	0x3db63018	0.08895892
11	0xbdac4297	-0.084111385
12	0xbc3b3ece	-0.011428548
13	0xbcae76f5	-0.021296958
14	0x3daa974b	0.08329638
15	0x3d4a8014	0.04943855
16	0x3d4684b9	0.048466418
17	0xbb376e63	-0.002798938
18	0xbd33912a	-0.04383961
19	0xbdb850db	-0.08999797
20	0xbd83ccb7	-0.06435531
21	0x3d7495b5	0.059713084
22	0x3c46cebf	0.012134253
23	0xbd5bd308	-0.053668052
24	0xbcfecaf8	-0.031102642
25	0x3d9d13d1	0.07669795
26	0x3dbf5798	0.09342879
27	0xbb58b0fb	-0.0033064473
28	0x3dbf3e35	0.09338037
29	0x383fdd5f	4.5744117e-05
30	0x3b98ccdc	0.004663093
31	0xbda1b723	-0.07896259
32	0x3bd481ea	0.0064852135
33	0xbd7eaf27	-0.062178757
34	0x3d83aefc	0.0642986
35	0x3cfcf634	0.030879118
36	0xbd20205b	-0.039093357
37	0xbda70a6d	-0.081562854
38	0xbd9d43f8	-0.0767898
39	0x3dbeefe9	0.09323103
40	0x3d350e2d	0.044202972
41	0x3da1d7a6	0.0790246
42	0x3ca3458a	0.01993062
43	0x3cb3d8f0	0.02195403
44	0x3db9958d	0.09061728
45	0x3cf7cee6	0.030250024
46	0x3d80f7bd	0.06297252
47	0x3cbada48	0.022809163
48	0xbb919244	-0.004442485
49	0x3d662829	0.056190643
50	0x3d79841f	0.060917016
51	0x3db2d092	0.08731188
52	0xbd234fac	-0.039870903
53	0x3dccd072	0.10000695
54	0x3c8ff202	0.017571453
55	0xbd97fb4b	-0.07420977
56	0xbd7b1afa	-0.061305024
57	0x3dc94d7a	0.098292306
58	0x3d7c7dd7	0.061643448
59	0xbdc66ecb	-0.09689101
60	0xbda91a77	-0.08257001
61	0x3c9b61da	0.018967558
62	0xbd452000	-0.04812622
63	0x3da5e116	0.08099572
64	0x3d24fdad	0.040280987
65	0x3dcacdcf	0.09902536
66	0xbc815fee	-0.015792813
67	0x3dbd8116	0.09253137
68	0x3d9ea36d	0.07746015
69	0x3d09b6c5	0.03362157
70	0x3cb6a225	0.022294113
71	0x3b5a043a	0.003326668
72	0xbd6f4000	-0.058410645
73	0x3d31aa5e	0.043375365
74	0xbc46b0a0	-0.012127072
75	0x3db1fed0	0.0869118
76	0xbdb4cc86	-0.08828072
77	0x3d9f2856	0.07771365
78	0x3dafb76b	0.08579906
79	0xbd5cc327	-0.05389705
80	0xbbcf8c0b	-0.006333833
81	0xbaa77482	-0.0012775811
82	0xbdb27f15	-0.08715645
83	0xbdb3d96c	-0.08781704
84	0xbbb52ffe	-0.0055294028
85	0x3d6a3399	0.057178114
86	0x3dcbac73	0.099450015
87	0xbc97872d	-0.018497074
88	0xbdc6a7e2	-0.0969999
89	0x3d6c5120	0.057694554
90	0x3d01b036	0.03166219
91	0x3daa667d	0.08320329
92	0x3d6f426d	0.058412958
93	0xbd2bc52e	-0.041936092
94	0xbdd24c1e	-0.102684245
95	0xbd644ef8	-0.055739373
96	0xbccd9564	-0.025095649
97	0xbd56dc1a	-0.052456
98	0xbd51713d	-0.051133383
99	0x3d2d4573	0.04230256
100	0xbd3c3a18	-0.04595384
101	0x3cc61b3e	0.024182912
102	0xbdc1f0d2	-0.09469761
103	0x3da9d715	0.08292977
104	0x3d49706c	0.04917948
105	0x3c3cd8be	0.011526285
106	0xbabe06e5	-0.0014497904
107	0x3d4f7ea1	0.050657872
108	0xbd10e539	-0.035374854
109	0xbd4da73e	-0.050208323
110	0xbcd14cb5	-0.025549272
111	0x3cdd1d2c	0.02699145
112	0xbd3f9729	-0.046775017
113	0x3d55f18f	0.05223232
114	0xbd071189	-0.032975707
115	0x3d8147af	0.06312501
116	0x3d0efa5a	0.034906723
117	0x3c826348	0.015916482
118	0xbd1d0c01	-0.038341526
119	0x3dc7ea5a	0.09761496
120	0x3dc54320	0.09631944
121	0x3d120975	0.03565355
122	0x3d4d1a42	0.05007387
123	0xbd09397a	-0.03350208
124	0xbd5045fc	-0.050847992
125	0x3dba7df7	0.09106057
126	0x3d971687	0.073773436
127	0x3c1d8276	0.009613624
128	0x3dbb2ce7	0.09139424
129	0xbdc6eacf	-0.09712755
130	0xbc3a14c5	-0.011357491
131	0x3dc64356	0.09680812
132	0xbd79ea23	-0.061014306
133	0xbd834cfd	-0.06411169
134	0xbd0128ce	-0.031533055
135	0xbb9150c0	-0.004434675
136	0x3d6ec093	0.05828912
137	0xbcd3576a	-0.025798518
138	0x3d569141	0.05238462
139	0xbc7cf281	-0.015438677
140	0x3d7908d2	0.060799427
141	0xbcd28a47	-0.025700701
142	0xbd87c133	-0.06628647
143	0x3d0dc631	0.03461284
144	0x3d827a27	0.06370955
145	0x3d998b03	0.074972175
146	0x3d4c911a	0.049943067
147	0x3d6823c3	0.05667473
148	0xbd4edf06	-0.05050566
149	0x3dbddc36	0.092705175
150	0x3c0a583e	0.00844389
151	0xbcf15002	-0.029457096
152	0x3b3360ae	0.0027370858
153	0xbca240a6	-0.019806217
154	0xbd6338d3	-0.055474114
155	0xbd842c50	-0.064537644
156	0x3da6b398	0.081397235
157	0x3dbe9e73	0.093075655
158	0xbbf5d118	-0.0075017326
159	0xbdae3859	-0.08506841
160	0xbd52c179	-0.05145404
161	0xbd8d8a8c	-0.06911191
162	0xbdbb6cb5	-0.091515936
163	0xba399074	-0.0007078715
164	0xbd186595	-0.03720625
165	0xbd99ca97	-0.07509344
166	0x3d0f3da3	0.03497089
167	0xbd5f8144	-0.054566637
168	0x3db65a49	0.08903939
169	0xbca17553	-0.019709265
170	0x3da46e8e	0.08028899
171	0xbd030bdc	-0.03199373
172	0x3cbe0915	0.02319769
173	0xbd911f69	-0.07086069
174	0x3da3ec3f	0.08004045
175	0x3da11bf4	0.0786666
176	0x3dacdaa9	0.084401436
177	0xbd04c14e	-0.032410912
178	0x3c4bb282	0.012432696
179	0xbdbb3450	-0.09140837
180	0x3d6f425b	0.05841289
181	0x3dc6c83e	0.09706162
182	0x3d74ba0a	0.059747733
183	0xbc440d91	-0.011966125
184	0x3d90b458	0.07065648
185	0xbdb749b0	-0.08949602
186	0x3ca86766	0.020557117
187	0xbc3616b2	-0.011113809
188	0x3d70d4e2	0.05879677
189	0xbdbf570b	-0.09342774
190	0x3da81899	0.08207817
191	0x3d8ecca0	0.06972623
192	0x3c99c979	0.018772827
193	0xbd958ddd	-0.07302449
194	0x3c806f99	0.015678214
195	0x3d8b6614	0.06806579
196	0x3d9bf548	0.07615143
197	0x3d31caa5	0.043406148
198	0x3dacb12a	0.08432229
199	0x3dc0f9af	0.09422623
200	0xb9e87a98	-0.00044341828
201	0xba86807a	-0.0010261678
202	0xbd53cf92	-0.051711626
203	0x3c21c219	0.009872937
204	0xbd3776a4	-0.04479088
205	0x3d1350cf	0.035965737
206	0xbd3f084c	-0.046638772
207	0xbcae907b	-0.021309128
208	0x3c3b1dd6	0.011420688
209	0x3ca93db0	0.020659298
210	0x3dbed7f6	0.09318535
211	0x3dcbb1aa	0.09945996
212	0x3c8f3fe7	0.017486526
213	0xbd69bb43	-0.057063352
214	0x3d8d5462	0.0690086
215	0xbd216278	-0.039400548
216	0x3d368da2	0.044568665
217	0x3d685960	0.05672586
218	0xbcd9d6d0	-0.026591688
219	0x3dc695df	0.096965544
220	0xbda292cf	-0.07938158
221	0xbda6f1b3	-0.08151569
222	0x3dcd7352	0.10031761
223	0x3cb6b417	0.02230267
224	0x3d7b4584	0.061345592
225	0xbb825f39	-0.0039786366
226	0xbdce7378	-0.10080618
227	0xbd2e4fa9	-0.04255644
228	0xbdc357ad	-0.09538207
229	0xbda60beb	-0.08107742
230	0x3dcb5847	0.09928947
231	0x3da52fbf	0.080657475
232	0x3c76a440	0.015053809
233	0x3d6dfcc6	0.05810239
234	0xbb0e933f	-0.0021755246
235	0x3d8c7111	0.06857503
236	0xbd167e8b	-0.036741775
237	0x3b070f95	0.0020608653
238	0xbcd67575	-0.026179055
239	0x3c59c80e	0.013292326
240	0xbdbd479f	-0.09242176
241	0x3c8c9b41	0.017163875
242	0xbd528f5d	-0.051406253
243	0x3d7d0ec0	0.061781645
244	0xbd7c3af9	-0.06157968
245	0x3d8e6cba	0.06954332
246	0x3b56f89f	0.0032801998
247	0xbd1c2d49	-0.038129125
248	0x3c8b0166	0.01696844
249	0x3c4ed53d	0.012624082
250	0x3bacb8a9	0.0052710366
251	0x3bae576d	0.0053204806
252	0x3ccd998a	0.025097627
253	0x3c318a55	0.010836204
254	0x3d491957	0.04909643
255	0x3db28ce1	0.08718277

enc_p.lstm.weight_hh_l0 f4 [384, 96]
0	0xbd80c29a	-0.06287117
1	0xbd1af23e	-0.037828676
2	0x3dbee7db	0.09321567
3	0x3c311320	0.010807782
4	0x3ce14081	0.027496578
5	0x39e301a0	0.00043298025
6	0xbc8572c3	-0.016290074
7	0x3d038bc0	0.032115698
8	0x3dbf629e	0.093449816
9	0x3dad4288	0.084599555
10	0x3db1348f	0.08652603
11	0xbd4e7f07	-0.05041411
12	0x3d142f40	0.036177874
13	0x3d78e31a	0.060763456
14	0xbc386df1	-0.011256681
15	0x3c49ba8b	0.012312542
16	0x3c98e290	0.01866272
17	0x3d591a92	0.053003855
18	0xbbd1d1c6	-0.006403181
19	0x3d2c6b5c	0.042094573
20	0xbd371fc3	-0.044708025
21	0x3dc8b22c	0.097996086
22	0x3dc2ba94	0.09508243
23	0xbbe765ca	-0.0070616947
24	0x3bdcf853	0.0067434697
25	0x3db7a81b	0.089676104
26	0xbd637de7	-0.05553999
27	0x3d045a67	0.032312777
28	0x3b8ba74d	0.004261887
29	0x3d878ecc	0.06619033
30	0x3cb6ce34	0.022315122
31	0x3d44fc68	0.048092276
32	0xbdaa0ef3	-0.083036326
33	0x3cde6916	0.027149718
34	0x3d483119	0.04887495
35	0x3da3d9e2	0.08000542
36	0x3c50162b	0.012700598
37	0x3cf34223	0.029694622
38	0xbdafcb1d	-0.08583663
39	0x3bc68a4a	0.006058966
40	0x3dc623f5	0.09674827
41	0x3d72ee20	0.059309125
42	0xbc2197d2	-0.009862857
43	0x3d03a75a	0.03214202
44	0x3d6178a6	0.0550467
45	0x3cead347	0.028665198
46	0xbdc3e7d9	-0.09565706
47	0xbc54f539	-0.012997919
48	0x3d85bca9	0.06530125
49	0x3d4be8e4	0.04978265
50	0x3d916f35	0.07101289
51	0x3da6b553	0.081400536
52	0xbd5595ad	-0.052144695
53	0xbc5bcf6e	-0.013416154
54	0xbc9ca34a	-0.019120831
55	0x3d114385	0.035464782
56	0x3dce5328	0.100744545
57	0xbcf768d2	-0.03020135
58	0x3dadd01c	0.08486959
59	0x3db97036	0.09054606
60	0xbd9abbb2	-0.07555331
61	0xbd6cf746	-0.057853006
62	0x3d956a72	0.072956935
63	0xbcbe81bd	-0.023255223
64	0xbd26818e	-0.040650897
65	0x3d0aa9ec	0.033853456
66	0xbb0b715e	-0.002127729
67	0x3c6da566	0.014504766
68	0x3d5419a4	0.051782265
69	0xbdc7a147	-0.09747558
70	0xbcbb1d9b	-0.022841265
71	0xbd97b27c	-0.0740709
72	0xbc2c2dc5	-0.010508959
73	0x3ce4d8a4	0.027935334
74	0x3c8e5f0b	0.017379304
75	0xbd0f6cff	-0.035016056
76	0xbd556a47	-0.052103307
77	0x3d9ed142	0.077547565
78	0xbc8ef8d3	-0.017452633
79	0x3db86d1a	0.090051845
80	0x3d2bafa2	0.041915543
81	0xbdbd3f44	-0.092405826
82	0x3d831527	0.06400519
83	0xbd80c14f	-0.06286871
84	0x3dcc075b	0.099623404
85	0x3d0332e5	0.03203096
86	0xbdc15d1a	-0.09441586
87	0xbdaf0763	-0.08546331
88	0xbc3f81f3	-0.011688697
89	0x3d82cd42	0.06386806
90	0xbdb15efb	-0.08660694
91	0x3dc72a30	0.097248435
92	0x3c0633ed	0.008191091
93	0x3cae46e1	0.021274032
94	0xbd83607c	-0.06414887
95	0xbdad3bc3	-0.08458664
96	0x3d041976	0.032250844
97	0x3d40fbbe	0.04711508
98	0x3dcbb2a0	0.099461794
99	0x3d7b3fd3	0.061340164
100	0x3ccfeea4	0.025382347
101	0x3ccc68de	0.024952348
102	0x3dc7b88f	0.09751999
103	0xbdc074f9	-0.09397311
104	0xbda242fe	-0.07922934
105	0xbcdf0038	-0.027221784
106	0xbd052237	-0.032503333
107	0xbd492423	-0.04910673
108	0xbd82ab57	-0.06380337
109	0x3d35e3ee	0.044406824
110	0xbd812f2e	-0.06307827
111	0x3db33c4c	0.08751735
112	0xbdb61752	-0.08891167
113	0xbdbeda2b	-0.09318956
114	0xbcf94ab3	-0.030431127
115	0xbd13ca43	-0.036081564
116	0x3cce4395	0.02517871
117	0xbbb52162	-0.005527661
118	0xbd57760a	-0.052602805
119	0xba066713	-0.00051270536
120	0x3cc8cb2b	0.02451094
121	0xbdcea899	-0.10090751
122	0x3d50ae7b	0.050947648
123	0x3baa219f	0.005191996
124	0xbdce8ea5	-0.10085801
125	0xbd799b7c	-0.060939297
126	0xbd1e3426	-0.03862395
127	0xbd44fc8b	-0.048092406
128	0x3c88ac9f	0.016683875
129	0x3c30c9df	0.010790317
130	0xbc53a041	-0.0129166255
131	0xbdc5e53e	-0.09662865
132	0x3bfbf247	0.007688794
133	0x3c1dc774	0.009630073
134	0xbc3f0a23	-0.011660132
135	0xbce94d61	-0.02847928
136	0xbd313078	-0.043259114
137	0x3da87df6	0.0822715
138	0xbd9f3933	-0.07774582
139	0xbdb6472e	-0.08900295
140	0xbd5cb130	-0.053879917
141	0x3cb3eeb5	0.02196441
142	0xbd5710a2	-0.052506097
143	0x3d661531	0.056172553
144	0xbcbab4ec	-0.022791348
145	0x3d913836	0.070907995
146	0x3d815e6d	0.063168384
147	0xbd8e1e23	-0.06939342
148	0xbdad223f	-0.084537975
149	0xbb8ffa36	-0.004393841
150	0x38e20513	0.00010777465
151	0x3d66dd84	0.056363598
152	0xbd628015	-0.05529793
153	0xbd288b6c	-0.041148588
154	0x3b1e8ba4	0.002419212
155	0xbd834ea4	-0.06411484
156	0xbd1c9855	-0.038231213
157	0x3dcc4ff1	0.09976185
158	0x3d68623a	0.0567343
159	0x3da7831a	0.081793025
160	0xbd0d335d	-0.034472812
161	0xbd73f8a6	-0.0595633
162	0xbd94eb08	-0.07271391
163	0x3d25ba00	0.040460587
164	0x3c5945f3	0.013261306
165	0xbc7ad534	-0.015309621
166	0xbc2d9a21	-0.010595829
167	0x3da828e3	0.082109235
168	0x3cdf9d71	0.027296754
169	0x3d0276e0	0.03185165
170	0x3d7d7d8d	0.061887313
171	0xbcc2b30e	-0.02376702
172	0x3cffff92	0.031249795
173	0xbda892e8	-0.08231145
174	0xbdc90deb	-0.09817108
175	0x3d31dd57	0.043423977
176	0x3d885d8e	0.06658469
177	0xbd9f1bf3	-0.07769003
178	0xbdb28196	-0.08716123
179	0xbdb4945e	-0.08817361
180	0xbdb127ab	-0.08650144
181	0x3d276de4	0.040876284
182	0xb601bb74	-1.933161e-06
183	0xbd204521	-0.039128426
184	0x3da1a3e6	0.07892589
185	0x3cfc80e9	0.030823188
186	0xbcacedd1	-0.021109493
187	0xbcc33903	-0.023830896
188	0xbd4bbf20	-0.049742818
189	0xbb92aa5c	-0.004475875
190	0xbd6c10d2	-0.05763323
191	0xba451116	-0.00075174996
192	0xbbaa32e5	-0.0051940554
193	0xbdd2dccc	-0.1029602
194	0xbd3b4647	-0.04572132
195	0x3d2b7e2a	0.041868366
196	0x3bc9ee0e	0.0061624115
197	0xbd0f5a8f	-0.034998473
198	0x3d0a762a	0.033804096
199	0x3d397bf9	0.045284245
200	0xbccc60de	-0.024948534
201	0x3da9bf66	0.082884595
202	0xbdb40e6d	-0.08791814
203	0xbccb94d9	-0.02485125
204	0x3dc23120	0.09482026
205	0xbda508d3	-0.08058324
206	0x3dbb5f0f	0.0914899
207	0x3d900a2e	0.070331916
208	0x3d365514	0.04451473
209	0xbdad90eb	-0.084749065
210	0xbda47198	-0.08029479
211	0xbd86b44a	-0.06577356
212	0x3d7abb2a	0.06121365
213	0xbda09754	-0.078413635
214	0xbd97b78f	-0.07408058
215	0xbcb048f2	-0.021519158
216	0xbdcd13ef	-0.10013568
217	0xbda5cbd3	-0.08095517
218	0x3d8941a3	0.06701972
219	0x3cd49e19	0.025954293
220	0xbd0171de	-0.031602733
221	0xbdbcd627	-0.09220534
222	0x3ce0e415	0.027452508
223	0xbc752e3b	-0.0149646355
224	0xbc277753	-0.01022132
225	0xbdab4fa5	-0.083648
226	0x3cbdaa08	0.023152366
227	0x3d5ec516	0.054387175
228	0xbc471678	-0.012151353
229	0xbd835383	-0.06412413
230	0x3dc17a9f	0.09447216
231	0x3da6daa4	0.08147171
232	0x3d8dd751	0.06925834
233	0x3dbb1966	0.09135704
234	0xbd953d09	-0.07287032
235	0xbd82ace3	-0.06380632
236	0xbd535960	-0.051598907
237	0xbd6a4e64	-0.057203665
238	0x3d160e08	0.036634475
239	0xbc410f48	-0.0117834285
240	0x3d56ea23	0.052469384
241	0xbcafe0bb	-0.021469465
242	0x3d19642b	0.037449043
243	0xbdb59651	-0.08866561
244	0x3d3dc5aa	0.046331085
245	0xbc9db982	-0.019253496
246	0xbdc52ad3	-0.09627309
247	0x3c1ce13a	0.009575183
248	0x3d875c7a	0.066094354
249	0xbd14f829	-0.036369476
250	0xbcdee9e7	-0.027211143
251	0x3ce60943	0.028080588
252	0xbdb089a3	-0.08620002
253	0x3d70c70b	0.058783572
254	0xbdaa4ae7	-0.08315068
255	0x3dd24b5e	0.102682814

enc_p.lstm.bias_ih_l0 f4 [384]
0	0x3c800e27	0.015631748
1	0xbd503b8d	-0.050838042
2	0xbd527d2f	-0.051388916
3	0x3da9d0b7	0.08291762
4	0x3dce06fd	0.10059927
5	0x3d10640c	0.035251662
6	0xbb547e3a	-0.003242387
7	0xbc8254f9	-0.015909659
8	0x3db3f0cf	0.08786165
9	0x3d1c9fc4	0.038238302
10	0x3db5d3a2	0.088782564
11	0xbcb68994	-0.0222824
12	0xbd9991e8	-0.074985325
13	0xbdb7f6c6	-0.08982615
14	0x3dbe3144	0.092867404
15	0x3d2f0e4a	0.042738236
16	0x3daede56	0.08538501
17	0xbc4f1ff0	-0.012641892
18	0xbc343625	-0.010999237
19	0xbd800d5b	-0.06252547
20	0x3dbd956f	0.09257018
21	0xbd548019	-0.051879976
22	0xbc14e36b	-0.009087424
23	0x3d67349d	0.05644666
24	0x3db86973	0.09004488
25	0xbd571177	-0.05250689
26	0xbdcc2b5f	-0.0996921
27	0xbd86838a	-0.06568058
28	0x3d27d482	0.040974148
29	0x3cbc6deb	0.023001632
30	0xbd8f6fae	-0.07003723
31	0x3d81cf58	0.06338376
32	0xbcb3e1d3	-0.021958267
33	0xbd3dafb7	-0.046310153
34	0x3c50cb18	0.012743734
35	0xbd6dfe96	-0.05810412
36	0xbd818763	-0.06324651
37	0xbd6b4b83	-0.05744506
38	0xbd6c0ae5	-0.057627577
39	0xbc3403df	-0.010987251
40	0xbd994503	-0.07483866
41	0x3d64a1af	0.055818256
42	0x3dabfbfd	0.08397672
43	0xbd59007a	-0.05297897
44	0x3cec7f8b	0.028869411
45	0x3ca15fec	0.01969906
46	0xbbad9f2f	-0.005298517
47	0x3b8baf90	0.004262872
48	0xbd541dae	-0.051786117
49	0xbcf4fd4f	-0.029905943
50	0xbd1e2a76	-0.038614713
51	0x3dc07315	0.0939695
52	0x3cf46f31	0.029838176
53	0xbcc501d9	-0.024048733
54	0xbdb90d40	-0.0903573
55	0x3d39be8a	0.045347728
56	0xbc68de97	-0.014213226
57	0x3d4f7965	0.05065288
58	0xbdcc8265	-0.09985808
59	0x3c49170a	0.012273559
60	0xbdbce14f	-0.09222662
61	0xbdc10b05	-0.0942593
62	0xbdb86b8c	-0.09004888
63	0x3dd07665	0.10178832
64	0xbd0fc7c7	-0.035102632
65	0x3c93b610	0.01803115
66	0x3bd99c2c	0.0066409316
67	0x3ce83f44	0.02835048
68	0xbd485228	-0.048906475
69	0x3ccce3fb	0.025011053
70	0x3da22e6e	0.07919012
71	0xbd515666	-0.051107787
72	0xbbcbbfc5	-0.006217929
73	0x3d7af28e	0.061266474
74	0xbcd7ff94	-0.026366986
75	0x3c3aa9c4	0.011393014
76	0x3d037781	0.03209639
77	0x3db2d922	0.08732821
78	0xbd3f897c	-0.046761975
79	0x3d3c8ae7	0.046030905
80	0xbcfece4c	-0.03110423
81	0xbceba2cf	-0.028764157
82	0xbdc97630	-0.098369956
83	0x3d26f372	0.04075951
84	0x3d26c1c6	0.04071214
85	0xbd714c88	-0.058910877
86	0x3d822f0d	0.063566305
87	0xbd819c1d	-0.06328604
88	0x3d530d97	0.051526632
89	0x3db2fb59	0.08739347
90	0xbd2fd66a	-0.04292909
91	0xbda44168	-0.08020288
92	0x3d1b28e1	0.037880782
93	0xb9c0d101	-0.00036776814
94	0xbdb58b8a	-0.088645056
95	0x3d1a9e34	0.03774853
96	0x3ccf4f6b	0.025306424
97	0x3dbd80e3	0.09253099
98	0x3cc106e2	0.023562852
99	0x3c9ea85f	0.019367395
100	0xbdcda45a	-0.10041113
101	0x3bffce27	0.0078065577
102	0xbd0a24e0	-0.033726573
103	0xbc8b36be	-0.016993877
104	0x3da89eb3	0.082333945
105	0xbc020f18	-0.007938169
106	0xbdab29d6	-0.08357589
107	0xbdae7015	-0.08517472
108	0xbd810e7c	-0.06301591
109	0xbd33904b	-0.04383878
110	0x3d68e0a4	0.05685486
111	0xbc756ed9	-0.014980041
112	0xbd0e9fe8	-0.034820467
113	0x3ba232b5	0.0049498924
114	0xbdc2e741	-0.095167644
115	0xbce8b951	-0.028408678
116	0xbdc1753c	-0.09446189
117	0x3cd3a095	0.025833407
118	0x3d160719	0.036627863
119	0xbcac2383	-0.021013027
120	0xbd5f27e5	-0.054481406
121	0xbdabcad6	-0.08388297
122	0xbd3fb254	-0.046800926
123	0xbd436218	-0.04770097
124	0x3ade89f6	0.0016978371
125	0x3dc5d2e1	0.096593626
126	0xbcfc1b5e	-0.030774768
127	0xbda54d9a	-0.08071442
128	0xbcbe19b3	-0.023205614
129	0x3c9767e9	0.018482165
130	0xbd8aec2c	-0.067833275
131	0xbd374df5	-0.04475208
132	0x3b6f9b01	0.0036560895
133	0xbd1392a8	-0.036028534
134	0xbcc45268	-0.023965076
135	0x3d1a91d2	0.03773672
136	0xbb364667	-0.002781296
137	0xbdada57f	-0.084788315
138	0x3bccc409	0.006248955
139	0x3db11690	0.086468816
140	0xbd17d73c	-0.037070498
141	0x3d786825	0.060646195
142	0x3d990de6	0.07473354
143	0x3d9081f0	0.070560336
144	0x3d8606ab	0.065442406
145	0x3dc20bd1	0.0947491
146	0x3d4c5a97	0.04989108
147	0x3cc92ec5	0.024558434
148	0x3d6e2f86	0.05815079
149	0xbd816312	-0.06317724
150	0xbd8aad2e	-0.06771313
151	0xbdb4276b	-0.08796581
152	0x3d1e58c2	0.038658865
153	0x3db38010	0.0876466
154	0xbdbd66d3	-0.09248128
155	0xbda6d041	-0.0814519
156	0x3dcb6d2a	0.09932931
157	0xbd3d9f98	-0.04629478
158	0xbd5e2e52	-0.054243393
159	0xbd7b1c04	-0.061306015
160	0xbcee628d	-0.029099727
161	0xbc604133	-0.01368742
162	0xbd345902	-0.044030197
163	0x3d28abe4	0.041179553
164	0xbd6a66d8	-0.057226986
165	0xbd882d4d	-0.066492654
166	0xbdc1f606	-0.09470753
167	0x3c04a483	0.008095863
168	0xbd30cca9	-0.04316393
169	0xbd884842	-0.06654407
170	0x3b123157	0.002230724
171	0xbc98bc4f	-0.01864448
172	0x3d615a3e	0.055017702
173	0xbdc1921d	-0.09451697
174	0x3dccad03	0.09993937
175	0xbdcdcc75	-0.10048763
176	0x3cc55c04	0.024091728
177	0xbdcf108d	-0.10110579
178	0x3da41949	0.08012635
179	0x3d2ab9cf	0.041681107
180	0x3d1be03b	0.03805564
181	0x3da1a95a	0.07893629
182	0x3d6f5392	0.05842931
183	0xba6d027c	-0.0009041203
184	0x3b544eed	0.0032395676
185	0xbce92c5e	-0.028463539
186	0x3da04f89	0.0782767
187	0x3d8a8c2c	0.06765017
188	0x3ce96026	0.02848823
189	0x3dbd7011	0.092498906
190	0xbd631573	-0.055440377
191	0x3d7b3dd8	0.061338276
192	0x3dcbe3ae	0.09955536
193	0x3da26cc5	0.079309024
194	0x3dbd75bb	0.09250971
195	0x3db9b5a4	0.09067848
196	0xbcde7d52	-0.027159367
197	0x3d6a1374	0.05714746
198	0xbdc3dcb4	-0.0956358
199	0xbdaff78a	-0.08592136
200	0xbd98aa34	-0.07454339
201	0x3d1fa803	0.038978588
202	0x3d517dc5	0.051145334
203	0x3da9e3a3	0.082953714
204	0x3d44711a	0.047959425
205	0xbdcd3f74	-0.10021868
206	0x3cc52c4c	0.024068974
207	0xbdbfd558	-0.09366864
208	0x3daebb3a	0.085318044
209	0xbd69f837	-0.05712148
210	0xbd8c922a	-0.06863816
211	0x3dcb145d	0.09915993
212	0xbd38fb24	-0.04516138
213	0xbcc2632f	-0.023728935
214	0x3dcad199	0.09903259
215	0x3d75cf4d	0.06001215
216	0xbcdef96b	-0.027218541
217	0xbdcf7737	-0.1013016
218	0xbdc8556f	-0.0978192
219	0x3d898ab1	0.067159064
220	0x3d96fc65	0.07372359
221	0xbb8558a3	-0.004069404
222	0xbc6a073d	-0.014283952
223	0x3dbf5dc1	0.09344054
224	0x3baa2393	0.005192229
225	0x3d74dce9	0.05978099
226	0xbdbc8510	-0.09205067
227	0xbdcc4297	-0.099736385
228	0x3b9a08b3	0.004700744
229	0x3da56d17	0.08077448
230	0xbdab34db	-0.08359691
231	0x3d80efbe	0.06295727
232	0x3a4a73e8	0.000772296
233	0x3d0f3326	0.03496089
234	0xbda3b257	-0.07993
235	0xbdb9a567	-0.09064751
236	0x3dccd60a	0.10001762
237	0x3cf3f36a	0.029779155
238	0xbd8f8d6b	-0.07009395
239	0x3ca076cd	0.019587899
240	0x3da41265	0.08011321
241	0xbd4a4bc3	-0.04938866
242	0x3d2063f9	0.03915784
243	0xbdb562da	-0.08856745
244	0x3cf7eba2	0.030263726
245	0xbce0bf71	-0.027435036
246	0xbc1a1c73	-0.009406197
247	0xbc91c41a	-0.017793704
248	0x3dc325b7	0.09528678
249	0xbd8661cc	-0.06561622
250	0x3d900bd2	0.070335045
251	0x3c9ce88a	0.019153852
252	0xbd9d8499	-0.076913066
253	0x3da52fd9	0.08065767
254	0xbdb5ec74	-0.088829905
255	0x3d1cd342	0.03828741

enc_p.lstm.bias_hh_l0 f4 [384]
0	0x3dc65c68	0.09685594
1	0x3d6e84ae	0.058232002
2	0xbdc115d9	-0.09427995
3	0x3db5e8f3	0.08882322
4	0xbd8b88eb	-0.068132244
5	0xbd9109b0	-0.07081926
6	0xbd61ff94	-0.05517538
7	0xbd9cea09	-0.07661826
8	0x3b4217d8	0.0029616263
9	0xbd0b4d90	-0.034009516
10	0xbce8908b	-0.028389236
11	0x3d69b9b8	0.05706188
12	0x3dcce498	0.10004538
13	0x3d94b57a	0.072611764
14	0xbd0c12b5	-0.034197528
15	0xbc9c7bdd	-0.019102031
16	0xbd6829e7	-0.056680586
17	0xbda057eb	-0.07829269
18	0xbd1bb7a0	-0.038016915
19	0x3c49aea1	0.012309701
20	0x3c846e56	0.016165894
21	0xbd9f26c9	-0.077710696
22	0x3db6547d	0.089028336
23	0xbd0556e2	-0.03255356
24	0x3ca264c1	0.019823434
25	0x3cc2f5e8	0.023798898
26	0x3d803b30	0.06261289
27	0x3d918026	0.071045205
28	0xbdb0bc13	-0.08629622
29	0x3dade50e	0.08490954
30	0x3cf71a6a	0.030163962
31	0xbc8c0e05	-0.017096529
32	0xbcaaa14b	-0.020828864
33	0xbc6a0f6b	-0.0142859025
34	0xbbc3cd3d	-0.005975394
35	0xbd52b6cf	-0.05144387
36	0x3d3d8cd6	0.04627689
37	0x3d5661d6	0.052339397
38	0x3d748d46	0.05970504
39	0x3c624e79	0.013812655
40	0x3dcae3a5	0.09906701
41	0x3d86826f	0.06567847
42	0x3dc6206b	0.09674152
43	0x3dbbfc48	0.09178978
44	0x3c6468f7	0.013941041
45	0x3da757b1	0.08171023
46	0xbdb24d79	-0.08706183
47	0x3d6c7548	0.057729036
48	0x3d17e969	0.03708783
49	0xbc69e3b7	-0.014275483
50	0x3d618b30	0.05506438
51	0x3dcbbda7	0.09948283
52	0x3cf229b1	0.029560896
53	0xbbd24256	-0.0064165993
54	0xbbb88b67	-0.0056318524
55	0x3ca359a6	0.019940209
56	0x3bc52b4c	0.0060171243
57	0xbd60cdc4	-0.054883733
58	0xbd3a2696	-0.045446955
59	0xbd5178bd	-0.051140536
60	0x3cd35cf1	0.025801154
61	0x3da9d21f	0.082920305
62	0xbd61cba9	-0.055125866
63	0x3db500df	0.08838057
64	0xbcbf3662	-0.023341361
65	0x3d3654fb	0.044514637
66	0x3cbde6ad	0.023181284
67	0xbd3ee745	-0.046607275
68	0xbd8f1a86	-0.06987481
69	0xbd0ecbba	-0.034862258
70	0x3dc42d8a	0.095789984
71	0xbd987df5	-0.074458994
72	0xbc059373	-0.00815283
73	0xbd8e5148	-0.06949097
74	0xbd2d581d	-0.04232036
75	0xbdbeaf0a	-0.0931073
76	0xbccbe605	-0.024889955
77	0xbd897cd6	-0.06713264
78	0xbd1509bf	-0.036386248
79	0xbdcc4c6e	-0.09975515
80	0xbdcac748	-0.09901291
81	0x3da4488e	0.08021651
82	0xbcbb1e87	-0.022841705
83	0xbd05935c	-0.032611236
84	0xbdc10283	-0.09424307
85	0xbcc110dd	-0.023567611
86	0x3d99eccb	0.07515868
87	0xbd5f5883	-0.05452777
88	0xbd9a4945	-0.07533506
89	0x3d3cb44b	0.04607038
90	0xbda77aac	-0.08177695
91	0xbd128ca4	-0.035778657
92	0x3db29989	0.08720691
93	0xbd1ffefa	-0.039061524
94	0xbcf4550d	-0.029825712
95	0xbd701d38	-0.058621615
96	0xbd06ee2a	-0.032941975
97	0xbcd7ba78	-0.026334032
98	0x3db216f3	0.086957835
99	0x3dbd8818	0.092544734
100	0x3d4a7b06	0.04943373
101	0x3ce89f12	0.028396163
102	0xbdb4c943	-0.0882745
103	0x3db32813	0.08747878
104	0x3d576af2	0.052592225
105	0x3d20bfc3	0.03924538
106	0x3b649f3c	0.003488495
107	0xbb837a8e	-0.0040124124
108	0x3d90b01e	0.07064842
109	0x3bd9a047	0.006641421
110	0x3c8407e4	0.016117044
111	0xbcf7f012	-0.030265842
112	0xbd8c6086	-0.06854348
113	0x3daf4678	0.08558363
114	0x3cb2a51a	0.021807242
115	0xbdbaf250	-0.09128249
116	0x3d7ffd3d	0.062497366
117	0xbb5bb945	-0.0033527177
118	0xbd4e3b5d	-0.050349582
119	0x3cfe3605	0.031031618
120	0xbcb56d50	-0.02214685
121	0xbdc474ad	-0.09592567
122	0xbc9d97f2	-0.019237492
123	0x3c93c6ce	0.018039133
124	0xbd931242	-0.07181217
125	0x3ce2a8fd	0.02766847
126	0x3d9bfa03	0.07616045
127	0x3ca95c78	0.020673975
128	0xbca08273	-0.019593453
129	0xbc92ba2e	-0.017911043
130	0x3d1d2802	0.038368233
131	0x3c3d56e6	0.011556363
132	0x3ce2578e	0.02762964
133	0xbd4a2e34	-0.04936047
134	0xbd06e075	-0.032928903
135	0x3db27257	0.08713215
136	0xbd9c5a79	-0.07634444
137	0x3db194de	0.08670972
138	0x3c64e157	0.013969741
139	0x3c8bedf5	0.01708124
140	0x3ca1312a	0.019676764
141	0x3b7a6b55	0.0038210948
142	0xbc17f7b5	-0.009275367
143	0xbc263c3f	-0.0101462
144	0x3cacbc2e	0.021085825
145	0xbd064e4d	-0.032789517
146	0x3dac1148	0.08401734
147	0x3d21cb1a	0.039500333
148	0x3d994554	0.074839264
149	0x3c52df20	0.01287058
150	0xbdb773bd	-0.08957622
151	0xbbdc3fd3	-0.0067214756
152	0xbd39b6dc	-0.045340404
153	0x3d68317b	0.056687813
154	0x3d2baf0e	0.041914992
155	0x3c022808	0.0079441145
156	0x3d5c6259	0.05380473
157	0x3cf86534	0.030321695
158	0x3d4bca69	0.04975358
159	0xbdaa7126	-0.083223626
160	0x3d633b57	0.055476513
161	0xbd793e5a	-0.06085048
162	0xbcffbb7c	-0.03121733
163	0xbd790476	-0.06079527
164	0x3d3bd936	0.045861445
165	0x3dc5e8af	0.096635215
166	0x3b49d00f	0.0030794179
167	0xbd4549d0	-0.048166096
168	0x3dc236e2	0.09483124
169	0xbdbd98e8	-0.0925768
170	0xbcc07bbf	-0.023496507
171	0x3dae8d87	0.08523088
172	0x3ba8b08a	0.005147998
173	0xbd25c899	-0.040474508
174	0x3d4b2520	0.049595952
175	0xbce4145f	-0.027841745
176	0x3db6d6b4	0.0892767
177	0x3dbc1790	0.09184182
178	0x3d2f42d1	0.04278833
179	0xbdcd0b27	-0.10011893
180	0xbdb28ba7	-0.08718043
181	0xbd93530f	-0.071935765
182	0xbd9511c0	-0.07278776
183	0xbce1e24e	-0.02757373
184	0x3cbeb683	0.023280388
185	0x3c8b373a	0.016994108
186	0x3d92c8c1	0.07167197
187	0xbd6090cd	-0.054825593
188	0xbd80295b	-0.06257888
189	0x3d17de30	0.03707713
190	0xbaadc788	-0.0013258317
191	0xbdb34126	-0.087526605
192	0x3daa4696	0.083142444
193	0x3d3d85bd	0.04627012
194	0x3c72728b	0.014797817
195	0xbcf3ed36	-0.029776197
196	0x3d634db1	0.055494014
197	0xbdb0d432	-0.08634223
198	0xbdab4b83	-0.08364012
199	0x3d113bba	0.03545735
200	0xbcf6fe78	-0.030150637
201	0xbb4cdf62	-0.0031261076
202	0x3bad2f4f	0.0052851806
203	0x3cc64ea1	0.024207415
204	0xbd336d59	-0.043805454
205	0xbd120165	-0.03564586
206	0xbc4b409f	-0.012405544
207	0x3dc21915	0.0947744
208	0xbb6c795c	-0.0036083078
209	0x3d0f886a	0.035042204
210	0xbd569586	-0.05238869
211	0xbd328622	-0.04358495
212	0x3da9c765	0.082899846
213	0xbced4607	-0.028964056
214	0xbd9b21f3	-0.07574835
215	0xbd260b11	-0.040537897
216	0xbdbbb786	-0.09165864
217	0x3cc0e8e1	0.023548545
218	0xbd04b4ab	-0.03239886
219	0xbd2e1193	-0.04249723
220	0xbd17a1de	-0.037019603
221	0x3d977b26	0.073965356
222	0xbc04300f	-0.008068099
223	0xbcb88121	-0.022522511
224	0x3d9600a9	0.07324345
225	0xbdc38650	-0.095471025
226	0xbd76b6a2	-0.060232766
227	0xbd7b29a8	-0.061319023
228	0xbcc66d4c	-0.024222039
229	0x3dc5ae97	0.09652441
230	0x3d9806fb	0.074232064
231	0x3d26828a	0.040651836
232	0x394d79c9	0.00019595692
233	0x3d9eb92a	0.07750161
234	0xbd092b5d	-0.03348862
235	0x3dc82d6b	0.09774288
236	0xbd7dcf9e	-0.061965577
237	0x3dc7bc8e	0.09752761
238	0x3d697336	0.05699464
239	0xbdbf51a7	-0.09341746
240	0x3d328ae9	0.043589506
241	0x3d876f84	0.06613067
242	0x3d116c81	0.035503868
243	0x3d87a229	0.066227265
244	0xbda5471f	-0.08070206
245	0x3cca4267	0.024689866
246	0x3d34b48e	0.044117503
247	0x3d9200bd	0.07129047
248	0x3dd0000d	0.1015626
249	0x3d212841	0.03934503
250	0x3b969b00	0.004596114
251	0xbd80312f	-0.06259381
252	0xbcf64d0b	-0.030066034
253	0xbcf02983	-0.02931667
254	0x3dbd0abe	0.092305645
255	0xbdc5a87e	-0.09651278

enc_f.lstm.weight_ih_l0 f4 [384, 4]
0	0x3d406bf9	0.04697797
1	0x3dd3100e	0.103057966
2	0x3d463fd0	0.0484007
3	0x3d7a5143	0.061112653
4	0xbd1eba25	-0.03875174
5	0x3bd738f5	0.006568069
6	0xbd86e5ff	-0.06586837
7	0x3c2cfdbf	0.010558545
8	0x3dbbb47f	0.09165286
9	0xbd3f154f	-0.04665118
10	0x3d3806a3	0.044928204
11	0xbd68266f	-0.056677278
12	0x3c45e832	0.012079285
13	0x3d97e884	0.07417396
14	0x3d9b17f2	0.075729266
15	0xbc939c9d	-0.018019015
16	0x3cd33f6f	0.025787083
17	0xbda546d8	-0.08070153
18	0xbd2e248e	-0.04251533
19	0xbd9cf218	-0.07663363
20	0x3d091389	0.033465896
21	0xbdbc48f0	-0.09193599
22	0x3d9a058d	0.0752059
23	0xbc8f9aef	-0.017529933
24	0xbd5d2d42	-0.05399824
25	0xbd0aa117	-0.033845033
26	0xbd3fa3c0	-0.046787024
27	0x3dc6d60d	0.09708796
28	0xba3e2823	-0.00072539056
29	0x3cb23dfd	0.021758074
30	0x3cf84e90	0.030310899
31	0x3cbf1768	0.02332659
32	0x3d9c87aa	0.07643063
33	0xbdae7100	-0.08517647
34	0x3dd232f0	0.10263622
35	0x3d2820aa	0.041046776
36	0xbd7728d4	-0.06034167
37	0xbd9595f9	-0.07303996
38	0xbd7c7b34	-0.061640933
39	0x3dbf44e1	0.093393095
40	0xbd4efa20	-0.050531507
41	0xbc4d4de3	-0.012530777
42	0xbd0a3cb8	-0.033749312
43	0x3d2fffd3	0.042968582
44	0xbcb00582	-0.021487001
45	0x3b1246bf	0.002232
46	0xbd06b3ed	-0.032886434
47	0xbd69c0e0	-0.057068706
48	0xbc925a79	-0.017865406
49	0x3d689828	0.056785733
50	0xbd7d261e	-0.06180393
51	0x3d8aea43	0.06782963
52	0x3c8fef90	0.017570287
53	0x3d303b46	0.043025278
54	0x3cfc5041	0.030799987
55	0x3dafd74e	0.08585988
56	0xbcbba96d	-0.022907937
57	0xbd7e4308	-0.062075645
58	0x3d837186	0.06418137
59	0x3c857293	0.016289985
60	0xbca38452	-0.019960556
61	0xbd9c774b	-0.07639941
62	0x3a4a07f6	0.0007706875
63	0xbdc738ea	-0.09727652
64	0xbd330b56	-0.043711983
65	0x3db286c9	0.087171145
66	0x3d266611	0.04062468
67	0x3bdb7697	0.0066974866
68	0x3d00a69a	0.031408884
69	0xbca03483	-0.01955629
70	0xbd606ca0	-0.054791093
71	0x3dbab535	0.09116594
72	0xbd2afd24	-0.04174532
73	0x3d9c8df9	0.07644267
74	0xbdc15e20	-0.09441781
75	0xbd519102	-0.05116368
76	0x3cff7a5d	0.031186277
77	0xbce7dcc5	-0.028303513
78	0x3d9d2a35	0.07674066
79	0x3cf7c6f3	0.030246234
80	0xbbd57fdf	-0.0065154876
81	0xbd6e1ed9	-0.058134887
82	0xbdbb6d1d	-0.09151671
83	0xbdb7b2f4	-0.089696795
84	0xbd603d1a	-0.05474577
85	0x3c93dc0d	0.018049264
86	0x3d558995	0.05213316
87	0x3cb27f2f	0.021789161
88	0x3c369c8e	0.011145724
89	0xbd69f587	-0.05711892
90	0xbd6c74af	-0.057728466
91	0x3dcb9ea5	0.099423684
92	0xbc84d5e7	-0.016215278
93	0xbc355263	-0.011067006
94	0x3d6113ce	0.054950528
95	0x3bad7f39	0.005294707
96	0x3d5cfabf	0.053950068
97	0xbdc57724	-0.09641865
98	0xbda3b040	-0.079926014
99	0xbdb11f68	-0.086485684
100	0xbdd0b71c	-0.10191175
101	0x3dc4b2fc	0.09604451
102	0x3cab34ff	0.020899294
103	0x3cee15b2	0.02906308
104	0xbc2d8698	-0.010591172
105	0xbdc547ea	-0.09632857
106	0x3a455465	0.00075275294
107	0x3c8e9980	0.017407179
108	0x3dbe951d	0.09305785
109	0xbc4b908f	-0.012424602
110	0xbd835835	-0.064133085
111	0x3ad64d8b	0.0016350014
112	0xbd46da6e	-0.048548155
113	0xbdadc17c	-0.0848417
114	0xbccf205b	-0.025283983
115	0xbc836592	-0.016039643
116	0x3ce92e11	0.028464349
117	0x3d86cfa4	0.06582573
118	0x3c8cb2a3	0.017175024
119	0x3d8a4e31	0.06753195
120	0xbcb81848	-0.022472516
121	0xbcf64b77	-0.030065281
122	0x3ce7780d	0.028255487
123	0xbd7316b2	-0.059347816
124	0xbd65cfc5	-0.056106348
125	0x3dcdd3db	0.10050174
126	0x3d1970bf	0.03746104
127	0xbd8ca756	-0.06867854
128	0xbcd13c4f	-0.025541453
129	0xb9db9580	-0.0004188232
130	0xbcbca3ee	-0.023027387
131	0xbdaf1473	-0.08548822
132	0xbda6a2a8	-0.08136493
133	0xbdb465c1	-0.088084705
134	0x3d32e5f7	0.043676343
135	0x3c9dc714	0.019259967
136	0xbc703b9c	-0.0146626495
137	0x3da29895	0.07939259
138	0x3cee56f2	0.029094193
139	0x3d708d7a	0.058728673
140	0x3dc3a7eb	0.09553512
141	0xbdbbb028	-0.091644585
142	0x3d8945e5	0.067027844
143	0x3d02b574	0.03191133
144	0x3d67999e	0.056542985
145	0x3dba8268	0.09106904
146	0x3d890824	0.06691006
147	0xbd338694	-0.043829516
148	0xbd7e5205	-0.06208994
149	0x3d99bc8e	0.07506667
150	0xbd211ac0	-0.03933215
151	0x3d23fa44	0.040033594
152	0xbdb0e882	-0.08638097
153	0xbd918ede	-0.07107328
154	0x3ce1a8bf	0.027546285
155	0xbb544a73	-0.0032393008
156	0xbd14b055	-0.036300976
157	0xbaa56e28	-0.001262133
158	0x3d87d4dd	0.06632397
159	0x3d81d307	0.063390784
160	0xbc9c94a7	-0.019113852
161	0x3b68c302	0.0035516624
162	0xbd71543e	-0.05891823
163	0xbbc8fab5	-0.006133402
164	0xbda72b15	-0.08162514
165	0xbd9cb447	-0.07651573
166	0xbdc5dbac	-0.0966104
167	0xbda536a1	-0.0806706
168	0xba1eeaa8	-0.0006062188
169	0x3db3b539	0.087748
170	0xbdc7d998	-0.097582996
171	0xbdb303fa	-0.08740993
172	0x3d2c2ebb	0.042036753
173	0xbd562c7f	-0.05228853
174	0xbd9a7636	-0.07542078
175	0xbd944f4b	-0.072416864
176	0xbbdc7063	-0.0067272647
177	0xbd4cd372	-0.050006337
178	0x3d9d00ab	0.07666143
179	0x3cb75b2c	0.022382341
180	0x3a8f0b40	0.0010913387
181	0x3dabbfa8	0.08386165
182	0x3b9f01b7	0.0048524993
183	0x3d925ee9	0.07147009
184	0x3c754c58	0.014971815
185	0x3d97c01e	0.0740969
186	0xbd29f18b	-0.04149012
187	0xbd053779	-0.032523606
188	0x3d38094d	0.044930745
189	0xbd324f2a	-0.043532528
190	0x3d8b1167	0.067904286
191	0x3d964457	0.073372535
192	0x3c3dae7f	0.011577248
193	0xbd5f245d	-0.054478038
194	0xbd03b24b	-0.032152455
195	0xbce0273a	-0.027362455
196	0xbc8d8801	-0.017276766
197	0xbb94d34d	-0.0045417906
198	0xbd6a4033	-0.05719013
199	0x3dd67fa7	0.104735665
200	0x3d206343	0.039157163
201	0x3da593a9	0.080848046
202	0x3daf2089	0.085511275
203	0x3ba6b22c	0.0050871577
204	0xbaad478f	-0.0013220179
205	0xbc326ee6	-0.010890698
206	0x3d2ced40	0.042218447
207	0xbc7feb93	-0.01562013
208	0xbd4a6154	-0.049409226
209	0x3d97e2d3	0.0741631
210	0xbccd8e75	-0.025092343
211	0x3d802090	0.06256211
212	0x3ca1754c	0.019709252
213	0xbca8d185	-0.02060772
214	0xbd8444b7	-0.06458419
215	0xbd3e7967	-0.046502497
216	0x3a97cfd3	0.0011582322
217	0x3c4dba0f	0.012556567
218	0xbca13a01	-0.019680979
219	0x3cb410f4	0.02198074
220	0x3d4a326e	0.0493645
221	0xbcf4b05b	-0.02986925
222	0x3d9d83fa	0.07691188
223	0x3c0feb84	0.008784179
224	0x3b8d272c	0.004307648
225	0xbd3a9e2b	-0.045560997
226	0x3c6d9b16	0.014502307
227	0x3dd90ee7	0.105985455
228	0xbdb4701f	-0.08810448
229	0xbd8ab9d8	-0.06773728
230	0xbd335486	-0.04378178
231	0x3d4b1f1d	0.04959022
232	0x3dbe1ba8	0.09282619
233	0x3d111079	0.0354161
234	0x3d5e68d5	0.054299194
235	0x3dbb7fb1	0.091552146
236	0xbdbefd2c	-0.093256325
237	0x3c3ade6e	0.01140557
238	0x3d93420b	0.07190331
239	0x3dc562ae	0.09637962
240	0xbdc9a04c	-0.09845027
241	0xbd85b9dc	-0.065295905
242	0xbcbff2a9	-0.023431139
243	0x3d45ef92	0.048324175
244	0xbd508f58	-0.050917953
245	0x3d72c67c	0.05927132
246	0x3d8284c3	0.063729785
247	0xbc477952	-0.012174921
248	0x3c683c16	0.014174482
249	0xbd62c39a	-0.05536232
250	0x3daf20d5	0.08551184
251	0xbda3e1f2	-0.0800208
252	0x3cbd74a3	0.023126906
253	0xbd90b537	-0.07065814
254	0x3c4befcd	0.01244731
255	0xbd098fdc	-0.03358446

enc_f.lstm.weight_hh_l0 f4 [384, 96]
0	0xbc7da3a2	-0.015480908
1	0xbdd163b0	-0.10224092
2	0xbd80463d	-0.06263397
3	0x3d7eea42	0.062235124
4	0x3b114505	0.0022166383
5	0xbd13f3af	-0.036121067
6	0x3d9040f2	0.07043637
7	0xbc8df1db	-0.01732724
8	0xbdb7d059	-0.08975286
9	0xbd9df5da	-0.07712908
10	0x3d815287	0.06314569
11	0xbda93bb8	-0.082633436
12	0xbd46ce61	-0.048536662
13	0x3cf8ac51	0.030355604
14	0x3da42add	0.08015988
15	0x3d961153	0.07327523
16	0xbcd49837	-0.025951488
17	0xbd8d2501	-0.068918236
18	0x3d140051	0.036133114
19	0x3dc64b92	0.09682383
20	0xbc74db5a	-0.014944876
21	0x3d44bdaa	0.04803244
22	0xbd46e639	-0.0485594
23	0xbd1b8146	-0.03796508
24	0xbd8fdf57	-0.070250206
25	0xbdc189b2	-0.094500914
26	0x3d59956f	0.053121027
27	0xbd092f8b	-0.033492606
28	0xbdb965dd	-0.09052632
29	0x3c5c6b89	0.013453373
30	0x3d9bb2bb	0.076024495
31	0xbd0eafe1	-0.0348357
32	0xbd2b1224	-0.041765347
33	0xbda661ce	-0.081241235
34	0xbc7b2463	-0.0153284995
35	0xbdcd891b	-0.100359164
36	0xbce10d5d	-0.027472192
37	0xbc2ace6c	-0.010425191
38	0x3b65587f	0.0034995375
39	0xbd0789bd	-0.03309034
40	0xbc55ef8c	-0.013057601
41	0x3d10165e	0.03517758
42	0x3dcb1577	0.099162035
43	0x3d9ffb00	0.07811546
44	0xbc31c594	-0.010850329
45	0xbd60e2d3	-0.054903816
46	0xbd79a724	-0.060950413
47	0xbc92a653	-0.017901575
48	0xbc873615	-0.01650528
49	0x3d5e6902	0.054299362
50	0xbc38b431	-0.01127343
51	0x3ca7f535	0.020502666
52	0xbbb772d5	-0.005598406
53	0x3dcd7834	0.100326926
54	0xbacce458	-0.0015632017
55	0xbc98d162	-0.018654529
56	0x3d8bdd56	0.06829326
57	0xbdb13596	-0.08652799
58	0xbd99d85e	-0.07511972
59	0x3dbd1091	0.092316754
60	0xbda20b19	-0.07912273
61	0x3d5f00c6	0.054444097
62	0xbd91d6c6	-0.07121043
63	0x3cffef16	0.031241935
64	0xbd644dd3	-0.05573828
65	0xbcf14dcf	-0.029456047
66	0x3d64f850	0.05590087
67	0x3d8414a2	0.06449248
68	0x3dbb29ac	0.09138808
69	0x3d844fe2	0.06460549
70	0xbd5bba89	-0.05364469
71	0x3dc88aff	0.097921364
72	0x3d3904a2	0.045170434
73	0xbd104185	-0.035218734
74	0x3d114272	0.035463758
75	0xbdc5dfd2	-0.09661831
76	0x3d3e83a7	0.046512272
77	0xbdb2168f	-0.08695709
78	0xbdb81f05	-0.089902915
79	0x3d238a8f	0.03992706
80	0x3dc9ec70	0.0985955
81	0xbd607914	-0.05480297
82	0xbc67b1cb	-0.01414151
83	0x3d7c240b	0.06155781
84	0xbbda7ec1	-0.0066679423
85	0xbdb0f6d9	-0.086408325
86	0xbcac4814	-0.021030463
87	0x3cf4aca4	0.029867478
88	0x3dc19f61	0.09454227
89	0x3d9b09be	0.075702175
90	0xbd217262	-0.039415725
91	0x3d7e50bd	0.062088717
92	0xbc3daf42	-0.011577429
93	0xbd248365	-0.04016437
94	0x3d45ed89	0.048322234
95	0x3b0b4453	0.0021250441
96	0x3c10b027	0.0088310605
97	0xbd1d8f5f	-0.038466807
98	0x3d865118	0.06558436
99	0x3cc1c273	0.02365229
100	0x3d2743d8	0.040836185
101	0x3d963ded	0.0733603
102	0xbcfb70fb	-0.030693522
103	0x3d9b657b	0.07587715
104	0x3d8ef285	0.06979851
105	0xbd8ee019	-0.06976337
106	0x3dc7f741	0.09763957
107	0x3dd0454b	0.101694666
108	0x3d637fb2	0.0555417
109	0x3ccd3f7b	0.025054684
110	0x3d126167	0.03573742
111	0xbda59edc	-0.08086941
112	0xbd090e85	-0.033461113
113	0xbd154506	-0.03644278
114	0xbd7962b9	-0.060885165
115	0xbda347e7	-0.07972699
116	0x3dc512be	0.096227154
117	0x3d899a89	0.06718928
118	0x3ccb5dbf	0.024824975
119	0xbdb03b04	-0.08605006
120	0xbd9e278d	-0.077223875
121	0x3d8436e2	0.064557806
122	0xbd8d4e6d	-0.06899724
123	0x3cbb95a9	0.022898512
124	0x3d04930d	0.0323668
125	0x3d93f931	0.07225264
126	0xbd1c1f45	-0.03811576
127	0xbd03a7b8	-0.03214237
128	0x3da1ced3	0.07900777
129	0x3d3c5551	0.0459798
130	0x3dc74b1c	0.09731123
131	0x3d5d4e8c	0.054029986
132	0xbdcc261f	-0.099682085
133	0xbd9f7e70	-0.07787788
134	0x3daf7382	0.08566953
135	0xbd8c2156	-0.06842296
136	0xbd322d54	-0.04350026
137	0x3dc97dd3	0.09838452
138	0x3c4ab5ca	0.012372443
139	0x3d22080f	0.039558467
140	0xb9b07f3e	-0.0003366414
141	0xbb1f6ba8	-0.0024325643
142	0xbd8807de	-0.066421255
143	0x3c03aaee	0.008036358
144	0x3cebaeee	0.028769936
145	0x3d52c237	0.05145475
146	0x3d904bb1	0.07045687
147	0x3c0d350d	0.008618605
148	0x3d93c4dc	0.07215282
149	0xbd9a3371	-0.07529343
150	0xbc88b888	-0.016689554
151	0xbd9b8c23	-0.07595088
152	0xbdb6624d	-0.08905468
153	0xbda6f5ce	-0.08152352
154	0xbb6277be	-0.0034556235
155	0x3bfb6c41	0.007672817
156	0xbdbb24a1	-0.09137846
157	0xbd47820c	-0.048708007
158	0x3d7c95e6	0.06166639
159	0xbd160298	-0.036623567
160	0x3d1de793	0.038550925
161	0x3c93defd	0.018050665
162	0x3d0f3dc5	0.034971017
163	0x3bca60e7	0.0061761024
164	0x3c198fcd	0.009372664
165	0xbd2f9da9	-0.042874966
166	0xbd0eed93	-0.034894537
167	0x3d6f9db9	0.058500025
168	0x3bc6d981	0.006068409
169	0x3d8121ce	0.06305276
170	0xbca1f9aa	-0.01977237
171	0xbd39426b	-0.045229357
172	0x3d12b9e0	0.035821795
173	0x3d5aaa0e	0.053384833
174	0xbd875c04	-0.066093475
175	0xbcceb7a4	-0.025234051
176	0xbd9b3439	-0.0757832
177	0xbc83f4cc	-0.01610794
178	0xbd8669cb	-0.06563147
179	0xbc493fc0	-0.012283266
180	0x3dbb87c7	0.09156757
181	0x3d32c2af	0.043642696
182	0xbda79d3b	-0.08184286
183	0x3d22054d	0.039555836
184	0xbd2be646	-0.041967653
185	0xbdb7fe30	-0.08984029
186	0xbd8f2dd0	-0.0699116
187	0xbcad148c	-0.021127962
188	0x3dcdc6f9	0.10047717
189	0xbdbb73d5	-0.091529526
190	0xbd0ce037	-0.034393515
191	0xbbfe8a8f	-0.0077679823
192	0x3c08cc69	0.008349516
193	0x3d78714e	0.06065493
194	0x3c626335	0.013817598
195	0xbdacb904	-0.084337264
196	0xbd9e04b6	-0.07715742
197	0x3d9e8e8c	0.077420324
198	0xbd681609	-0.05666164
199	0x3cd31d75	0.025770882
200	0xbdae1320	-0.084997416
201	0x3ca308c3	0.019901639
202	0xbbba8f56	-0.0056933565
203	0xbda8f38e	-0.08249579
204	0xbb848401	-0.0040440564
205	0xbcd013a3	-0.025399989
206	0x3da6ec36	0.081505224
207	0xbd8f7353	-0.07004418
208	0xbce0574f	-0.027385382
209	0xbd66074c	-0.056159303
210	0xbd67cc86	-0.056591533
211	0xbd728be8	-0.059215456
212	0x3d7b75d9	0.061391685
213	0x3c2e3c7c	0.010634538
214	0x3c1185c0	0.008881986
215	0xbd866bb8	-0.065635145
216	0xbd6d7f29	-0.057982598
217	0x3dcb9cd5	0.09942023
218	0x3c898f76	0.01679204
219	0xbd825174	-0.06363192
220	0xbd8054eb	-0.06266197
221	0xbd52c6e4	-0.051459208
222	0xbc9802a4	-0.018555947
223	0xbce4ffe4	-0.02795405
224	0x3db5047f	0.08838748
225	0x3d8384e6	0.06421833
226	0x3d23e42b	0.04001252
227	0xbdcc0f6b	-0.09963878
228	0x3c8a0f69	0.016853051
229	0x3dcf4075	0.10119716
230	0x3d8659c2	0.06560089
231	0x3dabfa3d	0.083973385
232	0x3da3fb21	0.080068834
233	0xbd485d3b	-0.048917037
234	0xbdae7fae	-0.08520447
235	0xbd5de698	-0.05417499
236	0x3d8dc748	0.069227755
237	0x3cfc140d	0.03077128
238	0xbd9e2697	-0.07722204
239	0xbc535e65	-0.012900923
240	0xbc87f10e	-0.016594436
241	0x3d4dfdbd	0.05029081
242	0x3d02be0a	0.031919517
243	0xbd99826f	-0.07495581
244	0x3d85f919	0.06541652
245	0x3d3bfd61	0.045895938
246	0x3d1363d3	0.03598387
247	0x3ccffd3c	0.025389306
248	0x3ada9cf2	0.0016678853
249	0x3d1841c2	0.037172087
250	0x3d8c2eca	0.06844862
251	0xbd96f2ad	-0.073705055
252	0xbc1682a2	-0.009186419
253	0xbcb6f502	-0.022333626
254	0xbd2ad2d5	-0.04170497
255	0xbcf27f7d	-0.029601807

enc_f.lstm.bias_ih_l0 f4 [384]
0	0x3cc9986e	0.024608817
1	0x3c5adb55	0.013357957
2	0x3c8e4f93	0.017371928
3	0xbd7a6da2	-0.06113971
4	0xbcc1b4e3	-0.023645824
5	0xbd8d479f	-0.06898426
6	0xbdb2cdf9	-0.087306924
7	0xbcd65ec2	-0.02616823
8	0xbd470705	-0.04859068
9	0xbcc8e464	-0.024522968
10	0x3dbb6b5f	0.09151339
11	0xbc4b0464	-0.0123911835
12	0x3d0cd714	0.034384802
13	0x3d5bfbd9	0.053706978
14	0xbb950d51	-0.0045487066
15	0x3d506ffe	0.050888054
16	0xbda35a4b	-0.079762064
17	0xbdc4cd96	-0.09609525
18	0xbc918da3	-0.017767733
19	0xb9960ae4	-0.00028618344
20	0x3da387a9	0.079848595
21	0x3cb733c5	0.022363553
22	0xbcee50c4	-0.029091246
23	0xbd951b74	-0.07280627
24	0xbb40fdc9	-0.0029448143
25	0x3d9afef3	0.07568159
26	0x3c586554	0.013207752
27	0x3d345ed4	0.044035748
28	0xbcc2f94c	-0.023800515
29	0xbd53a1aa	-0.051667847
30	0x3d8316b1	0.064008124
31	0xbdb7e262	-0.08978726
32	0xbcc7a26a	-0.024369437
33	0xbdb6e900	-0.0893116
34	0xbcf8ef14	-0.030387439
35	0x3da3b562	0.079935804
36	0x3b7d11ed	0.003861542
37	0x3cba1737	0.022716148
38	0x3d424b4d	0.047435094
39	0x3c8e6e81	0.017386677
40	0x3da0c950	0.07850897
41	0xbdd32740	-0.10310221
42	0xbd21ea88	-0.039530307
43	0x3dbfb91e	0.0936148
44	0x3d303389	0.043017898
45	0xbd09efa6	-0.033675812
46	0x3d3fc456	0.0468181
47	0xbd600ced	-0.054699827
48	0x3d5ad0da	0.053421833
49	0xbd70b2e2	-0.058764346
50	0x3a9340f0	0.0011234563
51	0xbd42f8b5	-0.047600467
52	0x3c78bd5b	0.015181865
53	0xbd6092f0	-0.05482763
54	0xbc96ad87	-0.018393291
55	0x3d963786	0.07334809
56	0x3d482928	0.048867375
57	0x3dc1107e	0.09426974
58	0xbca453cc	-0.020059489
59	0xbd51eb2e	-0.051249675
60	0x3dc5b640	0.09653902
61	0xbd660558	-0.05615744
62	0xbd27a04e	-0.040924363
63	0x3dc44ce1	0.09584976
64	0x3d3de35f	0.046359416
65	0x3dca6617	0.09882753
66	0xbd2bd9d1	-0.041955773
67	0x3d2b3956	0.041802727
68	0xbda45e7d	-0.08025835
69	0x3d744bf9	0.059642766
70	0x3c951745	0.018199572
71	0xbdc83ec6	-0.09777598
72	0x3c327a20	0.010893375
73	0xbdb695b6	-0.08915274
74	0x3d51e7bb	0.051246386
75	0xbd7a417e	-0.061097614
76	0xbce86c0e	-0.028371837
77	0xbc9f553d	-0.019449824
78	0x3cd569d7	0.026051445
79	0x3d88439f	0.06653523
80	0x3d318e05	0.04334833
81	0x3cc48492	0.023988996
82	0x3cdb1de9	0.02674766
83	0x3c2f12ab	0.010685603
84	0x3c0d9233	0.008640814
85	0xbd595573	-0.053060006
86	0x3d971a86	0.07378106
87	0xbd77cd86	-0.060498737
88	0xbd957b7c	-0.072989434
89	0x3db59d10	0.08867848
90	0xbdc60b8c	-0.09670171
91	0xbc362dd7	-0.0111193275
92	0x3ba38121	0.0049897586
93	0xbdd1e7a2	-0.102492586
94	0xbce96ae3	-0.02849335
95	0x3d570bc1	0.052501444
96	0xbcd0f056	-0.025505226
97	0x3d5c455c	0.053777084
98	0xbcb53199	-0.022118377
99	0xbd3eb9de	-0.046563976
100	0xbd957496	-0.07297628
101	0x3c576746	0.013147181
102	0x3be7abcf	0.0070700417
103	0x3d07b639	0.033132765
104	0xbdadc4ea	-0.08484824
105	0x3d96aea9	0.073575325
106	0x3bc0334e	0.005865491
107	0x3c06f328	0.008236684
108	0x3d86e379	0.06586356
109	0xbd9f5261	-0.077793844
110	0x3cd67510	0.026178867
111	0x3d1e6900	0.038674355
112	0xbdafb5c5	-0.08579592
113	0xbd00f7be	-0.031486265
114	0x3d6a5940	0.05721402
115	0xbab81dbf	-0.0014046951
116	0x3bb1f027	0.0054302397
117	0xbd9eca52	-0.07753433
118	0xbdb9de9b	-0.09075662
119	0xbdb216fc	-0.0869579
120	0x3d14eaaa	0.036356606
121	0xbbfad1e2	-0.0076544145
122	0xbca5741c	-0.020196967
123	0xbd54e5db	-0.05197702
124	0x3daf9754	0.085737854
125	0xbc40060d	-0.011720193
126	0xbcb522e8	-0.022111371
127	0xbdbe8860	-0.09303355
128	0xbd8eb748	-0.06968552
129	0x3d625e60	0.055265784
130	0xbd47408c	-0.04864554
131	0xbd0789e5	-0.03309049
132	0xbdbb9fa3	-0.09161308
133	0x3d9b872e	0.07594143
134	0xbd973fcd	-0.07385216
135	0x3d89c28c	0.0672656
136	0x3d9788cb	0.07399138
137	0x3c09805d	0.008392421
138	0xbc2531a0	-0.010082632
139	0x3c59bb00	0.013289213
140	0x3c13de78	0.009025209
141	0x3d922028	0.071350396
142	0x3cfa56dc	0.030558996
143	0xbc9e7386	-0.019342195
144	0xbc42214f	-0.011848762
145	0x3cccf45d	0.025018865
146	0x3d57fe06	0.05273249
147	0xbd69d38a	-0.057086505
148	0x3d4e5b49	0.050380025
149	0xbd202f47	-0.039107587
150	0x3dba9084	0.091095954
151	0xbd8e1162	-0.06936909
152	0xbbce31a3	-0.0062925383
153	0xbd8842c3	-0.06653359
154	0x3d9eb4d2	0.077493325
155	0x3d32bc08	0.04363635
156	0xbd7f8820	-0.06238568
157	0xbd680298	-0.0566431
158	0xbd51ddba	-0.051236846
159	0x3dc3bef6	0.09557907
160	0x3d5a05d3	0.05322821
161	0xbcb203f7	-0.021730406
162	0x3c9646f4	0.01834438
163	0xbd8cc0bf	-0.06872701
164	0x3d7cdcdd	0.06173407
165	0xbd56a072	-0.052399106
166	0xbd368a2b	-0.04456536
167	0x3c96db8b	0.018415233
168	0xbd5c1efd	-0.05374049
169	0x3dc6e2b8	0.09711212
170	0xbdce0e45	-0.100613154
171	0xbdc8e5d3	-0.098094605
172	0xbcad7bae	-0.02117714
173	0xbd44fee2	-0.048094638
174	0xbdd74988	-0.10512072
175	0x3dc1e630	0.09467733
176	0x3d1739ae	0.036920242
177	0x3d938dbe	0.072047696
178	0xbce6c538	-0.028170213
179	0xbc955493	-0.018228805
180	0xbd5f4351	-0.054507557
181	0x3dc6d097	0.09707754
182	0xbd3b63e5	-0.045749564
183	0x3c61eef8	0.013789885
184	0xba7d1af7	-0.0009655202
185	0x3dc2d020	0.09512353
186	0xbd9d4265	-0.076786794
187	0x3d40a944	0.047036424
188	0x3d91f135	0.07126085
189	0x3d320047	0.043457296
190	0xbd64d78a	-0.055869617
191	0xbd0c3310	-0.034228384
192	0xbd7f5e87	-0.062346008
193	0x3bc07ba0	0.0058741122
194	0x3d2c3c5b	0.042049747
195	0xbd1684b5	-0.036747653
196	0xbd1f3449	-0.038868222
197	0x3da66323	0.081243776
198	0xbc827d47	-0.015928878
199	0x3b430439	0.0029757156
200	0xbc68eaa0	-0.014216095
201	0x3d56f32a	0.052477993
202	0xbda07a2d	-0.07835803
203	0x3c6c6247	0.014427728
204	0xbc842cc5	-0.016134629
205	0x3cf7d181	0.030251266
206	0x3b5312d6	0.0032207272
207	0xbd338648	-0.043829232
208	0xbdabdaab	-0.08391317
209	0xbc859495	-0.016306201
210	0x3d91720a	0.07101829
211	0x3d020cc1	0.031750444
212	0x3d7fbddf	0.062436935
213	0xbd37a118	-0.044831365
214	0xbd7258a0	-0.05916655
215	0xba844030	-0.001008993
216	0xbcab13d7	-0.020883484
217	0x3d9051c6	0.07046847
218	0xbcddc1d8	-0.027069971
219	0x3da7d91a	0.08195706
220	0xbd5d1686	-0.05397656
221	0xbd8f5fd6	-0.07000701
222	0xbdba282a	-0.09089692
223	0x3dc403ff	0.09571075
224	0xbd9cc9e7	-0.07655697
225	0xbd7ae935	-0.06125756
226	0x3dcd3f81	0.10021878
227	0x3db26ac5	0.08711771
228	0xbc589bb9	-0.013220721
229	0xbc02e950	-0.007990196
230	0x3d186174	0.037202314
231	0xbd4c0dcc	-0.049817845
232	0x3d4fe748	0.050757676
233	0x3dbaa131	0.09112776
234	0xbc9cef98	-0.019157216
235	0x3dc6e1b6	0.0971102
236	0xbdd1aadd	-0.10237668
237	0xbc584a47	-0.013201303
238	0xbd8b2d23	-0.067957185
239	0x3d363bd3	0.044490647
240	0xbc07ab0b	-0.008280526
241	0x3dcaa10f	0.09894001
242	0x3d7f63d7	0.062351074
243	0xbda1b503	-0.07895853
244	0xbd51fd8c	-0.05126719
245	0xbd58c2f6	-0.052920304
246	0x3d2586cb	0.04041175
247	0xbd173c14	-0.03692253
248	0xbdb2341e	-0.08701347
249	0xbd00f370	-0.03148216
250	0xbdc4daa4	-0.09612015
251	0x3d9c8f7a	0.076445535
252	0xbd1941cd	-0.03741627
253	0x3d44a5fe	0.048009865
254	0xbd15f458	-0.036609977
255	0xbcef895e	-0.029240306
