_train/_models/20250924/SK스퀘어(402340)_20250924.pt (torch, 831847 bytes, 20 tensors)

enc_p.lstm.weight_ih_l0 f4 [384, 6]
000000 cc c8 0e 3d dd fb af bd 81 1b 9e bc ce 80 09 bc
       0.034859464 -0.08592961 -0.019300224 -0.008392526
000010 35 e9 94 bd 5a ca 86 3d 88 26 af 3d db dc 9e 3d
       -0.07271043 0.06581564 0.08552271 0.077569686
000020 78 61 c5 3d a6 99 9b 3d 2e fa 71 3c c8 23 a0 3d
       0.09637731 0.075976655 0.01476912 0.07819325
000030 a2 a7 78 3d c0 c4 75 3d 83 bf 06 3d 2a 60 85 3d
       0.060706742 0.06000209 0.032897484 0.065124825
000040 c0 82 8f 3a 8d 45 49 3d a2 40 8a bd 50 81 ab 3d
       0.0010949001 0.049138594 -0.06750609 0.08374274
000050 82 f4 b3 bd 48 4e 2f bd a4 89 78 bc bd f7 4f bd
       -0.087868705 -0.042799264 -0.015169535 -0.05077337
000060 64 f6 42 bb 42 04 8b 3c 6f c9 2d 3d f2 7e 44 bc
       -0.002974891 0.016969804 0.04242843 -0.011993157
000070 79 d6 97 bd 53 b0 a3 bc e7 4c 9f bd 29 62 a7 bd
       -0.07413954 -0.019981539 -0.0777834 -0.081730194
000080 7c 93 b8 bd 61 32 be 3d 45 e8 8a bd 9a d7 5c bd
       -0.090125054 0.09286953 -0.06782583 -0.05391655
000090 38 0e f1 3c a1 1c 20 bc f1 fe 96 bd 87 3f 39 bc
       0.029425725 -0.009772451 -0.07372845 -0.01130665
0000a0 c0 ee 32 3d af d9 77 3d 2f 6c 3f 3d e1 c3 8f 3d
       0.04368472 0.060510334 0.04673403 0.07019783
0000b0 9c 3e a8 3d 61 e7 f1 bb 52 f2 80 bc 69 b0 61 3b
       0.08215067 -0.007382319 -0.015740547 0.0034437424
0000c0 8e 1d ce 3c 29 31 8b bd 71 ea 0d 3c 08 4e b2 3d
       0.025160577 -0.06796486 0.008661852 0.087062895
0000d0 33 0d a0 3d 3b 4f e6 3c 92 7a 8a 3d aa a1 b4 bd
       0.078150176 0.028113952 0.0676166 -0.088198975
0000e0 24 ec 2a 3c 82 e9 b7 3d c7 3c 43 bd 05 62 49 bd
       0.010432277 0.08980085 -0.047665384 -0.049165744
0000f0 f4 35 98 bd 1a 2e a3 bd 73 6c c6 3d bf c0 ca 3d
       -0.07432166 -0.079677776 0.09688654 0.09900045
000100 55 80 91 3c 95 41 0e bd 0e 9b 50 3d a3 96 fd 3c
       0.017761389 -0.034730513 0.05092912 0.030955618
000110 b7 fa a8 bc bf 82 2c 3d 73 79 b4 bd 55 89 24 bd
       -0.020627363 0.042116877 -0.08812227 -0.040170033
000120 9f f9 00 3d d9 54 02 bd 14 e1 1f 3d 7b 08 b6 bd
       0.031488057 -0.0318192 0.03903301 -0.08888336
000130 74 2e 82 bd 9b 0b 2b 3d 31 b1 07 bd 38 ca 72 3d
       -0.063565165 0.041759115 -0.033127967 0.059274882
000140 5e c0 cd 3d ef 28 82 bd fd 84 f1 3b 1c 02 7e 3d
       0.10046457 -0.06355464 0.0073705898 0.06201373
000150 71 0e 6b bc ef a6 f7 bc 90 12 78 3d c3 ba 46 bd
       -0.014346705 -0.030230967 0.060564578 -0.048517954
000160 d7 29 d0 3c 73 a4 34 3d db a4 75 bd 33 75 a1 3d
       0.025410576 0.044102143 -0.05997167 0.07883682
000170 f9 8d af bd b0 07 c8 bd 28 7f 7f bd 10 d8 8a 3d
       -0.08572001 -0.09767091 -0.062377125 0.06779492
000180 e1 d1 8a 3d 93 31 a3 bd c2 42 aa 3d 4c 72 ae 3d
       0.067783125 -0.0796844 0.08313514 0.08517894
000190 6e 94 e5 bc 23 d8 c3 3c e9 ce af bd 79 e6 61 3d
       -0.028024878 0.023906773 -0.08584387 0.055151436
0001a0 f1 62 31 bd 0f 76 8a 3d e4 f4 53 bd 43 4e 56 3d
       -0.04330725 0.06760799 -0.051747218 0.05232073
0001b0 d5 a9 23 bb e7 1d 73 3d 0c b0 40 bd 13 90 33 3d
       -0.0024973054 0.05935469 -0.04704289 0.04383857
0001c0 68 02 66 bd 4a 07 44 bd f2 40 f3 3c ce e4 a6 bd
       -0.05615464 -0.047858514 0.029694054 -0.0814911
0001d0 37 1a 71 bd 44 fa 1a bd bb 1d 96 bd 07 e5 c0 bc
       -0.05886289 -0.03783633 -0.073298894 -0.023546709
0001e0 76 35 df bc 81 b4 6b bd dc fa 38 bc ae ce ce 3d
       -0.027247172 -0.05754519 -0.011290278 0.10098015
0001f0 0d 43 5a 3d ed e5 16 bd d5 0a 8c bd 70 9b d5 3c
       0.0532866 -0.036840368 -0.068380035 0.026075095
000200 63 fe 14 bd b3 fb 74 bd 04 ec 55 bd 91 f2 1a bd
       -0.036375415 -0.05981035 -0.052227035 -0.037828986
000210 33 ed 8e 3d 78 2c e8 3c 37 8b 2f bd 48 8a 0e bc
       0.06978836 0.028341517 -0.042857375 -0.008699961
000220 7a 4a a9 3d be fb 2a bd 76 da 5c bd 26 18 b2 bc
       0.082661584 -0.041743986 -0.053919278 -0.02174003
000230 ed 47 f4 bc 23 d2 97 bc a9 34 29 bd e9 ce 1a 3d
       -0.029819453 -0.018532818 -0.041309986 0.03779498
000240 a7 5f fa 3c 8c 54 3b bc b2 c5 92 bd c4 e0 99 3d
       0.030563189 -0.011433732 -0.07166614 0.07513574
000250 8f c1 a3 3d 72 ff b0 3d a0 1c 06 3c 16 4a 41 bd
       0.07995903 0.08642472 0.008185536 -0.047189794
000260 d9 21 88 bc 10 84 c4 bd c7 ce a0 bc 2e 69 b0 3c
       -0.016617702 -0.095955014 -0.01962985 0.021534529
000270 1b 25 bb bd 45 9a ac 3d ae f9 09 bd 25 67 86 3d
       -0.09137937 0.08427862 -0.03368538 0.06562642
000280 5c 02 4c bd f2 22 5b 3d 8c 04 ee 3a cd de e6 3c
       -0.049806938 0.053500123 0.0018159314 0.028182412
000290 2f 9d 60 bd f7 f1 34 bd eb dc 4b 3d 8b 45 88 bd
       -0.054837402 -0.04417607 0.04977123 -0.06653889
0002a0 f4 6a f9 bc 71 8c 09 3c c5 fb 96 bc 81 ca d6 3c
       -0.030446507 0.0083953 -0.0184306 0.026219608
0002b0 25 0a bb 3c 9a e7 be bd f7 35 cf 3d 60 de 23 3b
       0.022831986 -0.09321518 0.10117715 0.0025004372
0002c0 18 60 70 3d 66 8f 02 3d a3 b1 b2 3c 6f 81 89 3d
       0.058685392 0.031875037 0.02181322 0.067141406
0002d0 e6 65 79 3c f0 12 9c bd 8e ca de bc 17 3b 93 bb
       0.015222048 -0.076207995 -0.027196195 -0.004493128
0002e0 42 4c 75 3d ae 1d 12 3c de e1 57 3d 50 99 a5 bd
       0.05988718 0.008918209 0.052705638 -0.08085883
0002f0 2f 4f a6 bd 18 96 ac 3d 86 50 47 bd 98 d1 d1 bc
       -0.08120572 0.084270656 -0.048660778 -0.025612637
000300 c1 9d 4e bd 12 04 61 bb 1e 91 95 3d 18 79 cf 3d
       -0.050443415 -0.0034334701 0.073030695 0.10130519
000310 eb f7 8b bc b2 e0 83 bd 5a f6 b1 3c 2a 02 82 bd
       -0.01708599 -0.064393416 0.021723915 -0.06348069
000320 0d 8f 25 3d 93 79 c2 bc 46 2c 9e bc 06 49 91 bd
       0.040419627 -0.023739612 -0.01930822 -0.07094006
000330 46 19 2b 3d d6 d0 c1 bd c6 d3 a6 bc 04 bc d8 bc
       0.04177215 -0.094636604 -0.020364653 -0.02645684
000340 c6 d9 c5 bd 0b a0 99 bd da 79 24 3d 74 86 b1 3d
       -0.096606776 -0.07501229 0.04015527 0.08668223
000350 00 8f 93 3d c1 a8 a2 bc a1 bd 5e 3d 5a a0 05 bd
       0.072050095 -0.019855859 0.054380063 -0.032623626
000360 ae a6 9c 3b 7c c4 86 3d a6 28 90 bd 36 87 11 bd
       0.004780612 0.06580445 -0.07039003 -0.035529338
000370 c8 24 37 bd 9f ec 92 3d 75 91 79 3c 9e 98 09 bd
       -0.04471281 0.07174038 0.015232434 -0.033592813
000380 33 d2 76 bc b7 c7 b3 bd d0 78 a5 3d 0e 7d 3c 3d
       -0.015064764 -0.08778327 0.08079684 0.0460177
000390 ca 75 d8 3a 83 c2 94 3d 6a 62 72 3c c9 7e c2 bd
       0.0016514596 0.07263663 0.014793972 -0.094968386
0003a0 91 5e 80 3b 48 36 50 bd 58 b6 8a bd ee ef 53 3d
       0.003917523 -0.050833017 -0.067730606 0.051742487
0003b0 57 68 8e 3c 8b c4 0c bc 07 af f0 3c e5 8a 1b bc
       0.017383737 -0.008591781 0.029380335 -0.009493564
0003c0 36 a7 5b 3d 6f 03 bc 3d ca 74 bb bd 95 8e a3 3d
       0.05362626 0.091803424 -0.09153135 0.0798618
0003d0 98 e9 1d 3d 49 e9 0c 3d e2 03 87 3d f2 2b 82 3d
       0.03855285 0.034402166 0.065925375 0.06356038
0003e0 91 96 b1 3d 2d 9b 92 bd a1 72 7b bd 24 b0 3b bd
       0.086712964 -0.07158504 -0.061388616 -0.045822278
0003f0 98 48 9e 3d b9 4c cc 3d 9b 32 84 3d df b3 68 3d
       0.0772869 0.09975571 0.06454965 0.056812163

enc_p.lstm.weight_hh_l0 f4 [384, 96]
000000 eb 1c 79 bc ed 3c 9e 3d 6f e4 da 3c e6 95 91 bc
       -0.0152046485 0.077264644 0.026720254 -0.017771672
000010 f4 52 dd 3c ba 29 21 bd 41 84 a5 3d 10 4c 22 3c
       0.027017094 -0.039346434 0.08081866 0.00990583
000020 d0 eb a5 3d a2 a9 e8 3a ad 5d 40 3d cf 68 22 3c
       0.08101618 0.001775075 0.046964336 0.009912684
000030 af e3 5c 3d 99 d8 7e bd a5 6e 86 3d ab ac 7f 3d
       0.053928073 -0.062218282 0.065640725 0.06242053
000040 08 ad fd bc b9 26 b6 3d 4e 22 69 3d 07 5d 93 3b
       -0.030966297 0.088941045 0.05691748 0.0044971737
000050 d7 4e b4 bd a0 78 c2 bd 83 49 e2 ba a7 4c 34 bd
       -0.088041 -0.09495664 -0.001726434 -0.044018414
000060 e6 80 a7 bc a4 3d c9 bc 49 21 62 3d 9a 6e b5 bd
       -0.020447206 -0.024565525 0.055207524 -0.08858986
000070 65 56 18 3d 1b ce a9 bd cb e5 cf 3d e7 a6 59 bc
       0.037191767 -0.082912646 0.101512514 -0.0132844215
000080 a0 5d a8 bd 95 5b 72 3d c5 5b 7e bd e5 40 d1 bd
       -0.082209826 0.05916937 -0.062099237 -0.10217456
000090 da 95 4a 3a d7 5d 96 bd 45 ed 22 bd d8 1a b1 bd
       0.0007728018 -0.07342117 -0.03977706 -0.08647698
0000a0 a8 57 1c 3d 7c 6c 51 bd 7a af 62 3d 32 27 c6 3d
       0.038169533 -0.05112885 0.05534313 0.09675445
0000b0 ed 1e 5c bd e4 c1 82 3d 92 7d 92 3d 51 8d cf bd
       -0.05374043 0.06384638 0.07152857 -0.10134376
0000c0 27 93 a0 bc 1d 96 bb 3c f5 18 69 bb 60 82 c8 bd
       -0.019601418 0.022898728 -0.0035567854 -0.09790492
0000d0 bb d9 24 3d d1 dc 07 3d ca 1d f1 3c d7 55 b1 bd
       0.040246706 0.03316957 0.02943315 -0.08658951
0000e0 96 73 40 bd 11 9d 54 3d 67 19 96 3d e6 5a be 3d
       -0.04698523 0.051907603 0.07329064 0.09294681
0000f0 c8 ce 25 bd e1 31 68 bd 00 9a 1e bd 5e e9 c0 bc
       -0.040480405 -0.056688193 -0.038721085 -0.023548778
000100 19 c1 8d 3c f7 31 49 3c 05 99 22 3d 8b 47 c4 3d
       0.01730399 0.012279979 0.039696712 0.09583958
000110 06 87 b4 bd 16 66 59 3d 0d 70 ca bd dd 19 7f bd
       -0.08814816 0.053075872 -0.09884653 -0.062280525
000120 d4 c6 0f ba d7 7e 9f bc 94 66 93 bc f2 09 52 bd
       -0.0005484645 -0.019469662 -0.017993249 -0.051279016
000130 f6 64 8b bd 01 5c 92 bd 7b 21 84 bd cc 48 9f bc
       -0.06806366 -0.071464546 -0.064516984 -0.019443892
000140 22 67 82 3c 27 aa 86 3c 43 bc 0f bd 24 32 ed 3c
       0.015918318 0.016438557 -0.03509165 0.028954573
000150 f5 13 90 bd cc 94 33 3d 79 ff 93 3d f0 2e a5 bd
       -0.070350565 0.043843076 0.07226462 -0.08065593
000160 d8 89 17 3a 6d 20 6f 3c 3f 1b e1 bc 76 c9 2d 3d
       0.0005780733 0.014595133 -0.027478812 0.042428456
000170 75 71 75 3d 3f a1 dc 3b c1 4a 8f bd 4b 89 a4 bd
       0.059922654 0.006733089 -0.0699668 -0.08033999
000180 67 98 ae bd 31 fd 30 3d 3a 4b 93 bd c1 f0 1b 3d
       -0.08525162 0.043210212 -0.07192083 0.038071398
000190 b3 76 98 3d d1 df ac bd db a0 95 3d 52 47 97 bd
       0.07444515 -0.08441127 0.07306071 -0.0738665
0001a0 83 cb d7 ba c3 97 18 3d e1 0c 91 bd e4 31 2d bd
       -0.001646385 0.037254106 -0.070825346 -0.042283908
0001b0 9b e2 83 bd 67 71 2a 3d 9a 80 11 bd 38 95 58 bd
       -0.06439706 0.041612055 -0.035523035 -0.05287668
0001c0 67 60 91 3d 91 25 a5 bd a3 88 66 bd ae 16 86 3d
       0.070984654 -0.08063806 -0.05628265 0.065472946
0001d0 c1 6c 92 3d 02 53 66 3d 55 4c 67 bd 63 7a c3 bd
       0.071496494 0.056231506 -0.05646928 -0.09544828
0001e0 97 11 bb bd 41 36 83 3d 73 df ae bd b9 bf c3 3b
       -0.09134214 0.064068325 -0.08538713 0.005973783
0001f0 fd 20 6c bd d7 70 b1 bd bd f7 bf bd 71 d4 54 bb
       -0.057648648 -0.086641006 -0.09373424 -0.0032475258
000200 82 c7 c9 bd 83 c4 a2 3d 09 6f 05 3d 08 2a d0 3d
       -0.09852506 0.07947638 0.032576595 0.10164267
000210 65 34 6f 3d e4 fd c8 bc 89 7e a0 bd f8 50 89 bd
       0.058399577 -0.024535127 -0.07836635 -0.06704897
000220 e1 6e b1 bd f6 a0 13 3d ac 41 b0 3d e1 60 92 3a
       -0.086637266 0.036042176 0.08606276 0.0011167788
000230 cc 33 6a 3d a6 96 5b bd 56 07 0f bd 34 af 04 ba
       0.057178304 -0.053610466 -0.034919105 -0.00050615077
000240 31 6d e9 ba f0 93 ac bd 64 a7 c8 bd 02 45 b3 bc
       -0.0017809031 -0.08426654 -0.09797552 -0.021883491
000250 2e 5d 51 3d 91 59 a9 bd ad 4a 62 3d 3a 03 69 3d
       0.051114254 -0.082690366 0.055246998 0.056887843
000260 a8 fe c9 bc c6 7f 0b 3b 7e 4d 20 3d 0b a5 d4 3a
       -0.024657562 0.0021285876 0.039136402 0.0016223503
000270 d8 80 77 3d a3 cf 01 3d 7a ba 5d 3d 78 05 83 3d
       0.06042561 0.03169216 0.054132916 0.063975275
000280 a9 f4 12 bd 61 a4 97 3d 90 65 37 3d 1b 15 86 bd
       -0.035877857 0.074044 0.044774592 -0.06546994
000290 21 7d 78 bd 22 59 29 bc 80 ec c6 3c 73 37 8c 3d
       -0.060666207 -0.010336192 0.024282694 0.068465136
0002a0 c1 35 b1 3d d9 77 91 bd ca fd a2 3c b1 6e af 3d
       0.08652831 -0.07102937 0.019896407 0.085660346
0002b0 84 19 b8 bd 59 61 97 3b 1d 76 d4 bd c8 1d 35 3d
       -0.08989242 0.004619759 -0.10374091 0.044217855
0002c0 65 a3 82 bb 94 b6 fa 3c ea a2 4c bd fa c0 a0 3d
       -0.0039867633 0.030604638 -0.049960054 0.07849307
0002d0 67 cc 83 3c 05 b2 c0 3c 92 47 4e bd 98 67 db 3c
       0.016088678 0.023522386 -0.050361224 0.026782796
0002e0 54 b5 47 bd 4e 05 64 3d 97 98 81 3c 5b f3 b1 3d
       -0.048756912 0.05566912 0.01581983 0.086889945
0002f0 6a f4 be 3d a1 62 ba 3c 19 5f bc 3d c9 ab 89 bd
       0.09323962 0.022752108 0.09197826 -0.067222185
000300 b7 c5 b9 3c bf e4 62 bc 4b a6 1a bc 9e a0 42 3c
       0.022677286 -0.013848483 -0.009439061 0.011879114
000310 6b 84 b8 3d a0 c1 cc bd 18 41 91 bc ab 2d 7f 3c
       0.09009632 -0.099978685 -0.017731234 0.015574853
000320 be 4a 9f bd 0d 9e 95 bd 0f 13 22 bc 7e de cf 3d
       -0.07777928 -0.073055364 -0.009892239 0.10149859
000330 cd 88 22 bd 3b 92 9e bc 33 ea cb 3d 81 88 0f 3d
       -0.039681245 -0.019356837 0.09956779 0.03504229
000340 ce 42 b4 bd 7a 4d 37 3d f3 39 eb 3c 28 d0 61 3d
       -0.088018045 0.04475162 0.028714156 0.055130154
000350 95 04 a9 bd f0 59 a3 3c 97 46 88 3d 46 5c 88 3d
       -0.08252827 0.019940346 0.06654089 0.06658225
000360 63 76 b8 3d de 4a dc bc fe 93 a6 3d 04 d9 63 3c
       0.090069555 -0.026891168 0.08133696 0.013906721
000370 d7 83 80 bd 13 5c cc bb 1c 86 5c bd 81 8c 49 3c
       -0.062751465 -0.006236562 -0.053838834 0.012301565
000380 ef 2b e6 bc 3f b9 93 3c bf 98 07 3c 2f 1e b6 bd
       -0.028097121 0.018032668 0.008276164 -0.08892476
000390 bb 16 77 bd 26 41 8f bc b8 d8 91 3d ee 06 9f bd
       -0.06032441 -0.01748712 0.07121414 -0.077649936
0003a0 cc a9 c3 3d e7 7c 4a bc 1c 91 cc bd d0 65 6c bb
       0.095538706 -0.012358881 -0.09988615 -0.0036071427
0003b0 f9 6b 9d 3c 8f c1 3d 3d d9 07 88 bb 32 91 b4 3c
       0.019216524 0.04632717 -0.004151326 0.02204189
0003c0 3c 67 0c bd a4 e7 88 3d 82 07 78 3d f5 f9 47 bd
       -0.03427814 0.06684807 0.060554035 -0.048822362
0003d0 46 9d 15 bd a6 fb aa bd 2e 6e 56 bd df 16 65 3d
       -0.03652694 -0.083487794 -0.05235117 0.055930015
0003e0 bb c5 3c bd a3 65 a9 bd 06 85 b1 bd ca b8 a9 3c
       -0.046087008 -0.08271339 -0.0866795 0.020717997
0003f0 07 92 b1 bb 6e a2 c7 3d df 57 6b bd 0e 07 3c bd
       -0.005419019 0.09747778 -0.057456847 -0.045905165

enc_p.lstm.bias_ih_l0 f4 [384]
000000 97 4e 83 bd 0b 39 87 bc f8 4b 50 3c ab 9b 00 bd
       -0.06411474 -0.016506692 0.012713425 -0.031398457
000010 54 bb 8c 3d 21 e1 d0 bc ea 60 87 bd 61 67 8b 3c
       0.068716675 -0.025497975 -0.06610282 0.017017068
000020 6a 76 0b bd 16 61 a5 3d 2e c6 a4 3d d4 3a cd 3d
       -0.034048475 0.08075158 0.08045612 0.10020986
000030 1c f8 2b 3d a2 8b 2c 3c 8f f4 b1 3d d7 51 62 3d
       0.041984662 0.010531338 0.08689224 0.05525383
000040 5e 57 17 3d f5 ef ff bc ed dd 88 bd 7d 09 b1 3d
       0.036948554 -0.03124235 -0.06682954 0.08644388
000050 39 9b 37 bd cf 06 81 3d ae 45 bd bc dd c0 b0 bb
       -0.044825766 0.06300127 -0.023104515 -0.005394085
000060 a2 be 94 3d fe 59 76 3c a8 c5 50 3d ca 99 cd bc
       0.07262923 0.015036104 0.05096975 -0.025097746
000070 98 5d 4b bc 26 4d 2b bd c9 55 61 3c d5 ab 88 bd
       -0.012412451 -0.04182162 0.013753363 -0.06673399
000080 c6 0d eb 3c 4c 10 bf 3d d0 1f cb 3d a4 52 e2 bc
       0.028693091 0.0932928 0.09918177 -0.027627297
000090 39 16 b1 bd 8f 44 c8 bd 16 f0 d0 3d 00 49 8e 3d
       -0.08646817 -0.097787015 0.10202043 0.069475174
0000a0 b7 7a a6 3d 6a 69 af bd 31 89 be bd 53 36 8c 3d
       0.08128875 -0.08565028 -0.09303511 0.06846299
0000b0 bd 51 af 3d 39 11 7e 3d 7b cf 3f 3d 00 1b 00 3d
       0.08560512 0.062028144 0.04682873 0.03127575
0000c0 fc 99 bb 3c 87 a7 87 bd 60 38 bd bd 99 d0 f1 3a
       0.022900574 -0.0662375 -0.09239268 0.0018449008
0000d0 84 7c 01 bd b8 4e 86 3d f7 06 9d 3d f0 50 9e bc
       -0.031612888 0.06557983 0.07667344 -0.019325703
0000e0 3c 9f 0d bd 13 0d 9e 3d 71 19 9b 3c 80 fc c1 3d
       -0.034575686 0.077173375 0.01893303 0.09471989
0000f0 20 07 88 3d f9 3a 31 bd 54 91 79 bd 48 f6 b8 bc
       0.06641984 -0.04326913 -0.06092961 -0.022578374
000100 05 6d 79 bd 2f cd 9b bd 96 03 bf bd 09 35 14 3c
       -0.060894985 -0.07607495 -0.09326856 0.009045848
000110 07 ec 9b 3d 5c a6 04 3d 30 69 03 3d 67 f4 76 3d
       0.07613378 0.032385215 0.032082736 0.060291674
000120 85 a0 2c bc e1 eb a5 3d 1b d6 42 3d be 40 9a bd
       -0.010536318 0.08101631 0.047567468 -0.0753188
000130 a9 33 73 3a 1d ef 43 bd 09 56 93 bd 8f dc 1b bd
       0.00092774123 -0.047835458 -0.07194144 -0.038052138
000140 38 7f c7 3d 12 db b8 3c 3c 89 ab bd 9e 9c db ba
       0.09741062 0.022565398 -0.08375785 -0.001675505
000150 7b 68 c5 bd 54 7d 41 bd 79 75 c5 3d 33 99 38 3d
       -0.09639069 -0.047238663 0.09641547 0.045067977
000160 a8 3c e4 3c 1a 5a 3c 3d ec 47 ae bc 26 e0 cb bd
       0.027860954 0.045984365 -0.02127453 -0.09954862
000170 a4 f7 5a bd 21 6d 36 bd 7b ec 22 bd 23 64 98 3d
       -0.053458825 -0.044537667 -0.039776307 0.074409746
000180 9a aa bb 3d 5a c9 a6 3d c0 1e 95 bd 21 23 3f bd
       0.09163399 0.081438735 -0.07281256 -0.04666436
000190 9c e9 c6 bb c1 f9 b4 3d 26 00 8a 3d 3f 26 c4 3c
       -0.006070329 0.08836699 0.067383096 0.023944018
0001a0 2b f3 b5 bd 4f f5 a3 3d fe 7c be bd f3 21 64 bd
       -0.08884271 0.08005773 -0.09301184 -0.05569644
0001b0 28 53 cc bd 4b 06 37 bd 44 64 43 bc 75 73 af bc
       -0.09976798 -0.044683736 -0.011925761 -0.021417359
0001c0 9d 7d 7a 3d 64 b5 4a bd 7d 80 7e 3d f6 15 7f bd
       0.06115495 -0.049489394 0.062134255 -0.062276803
0001d0 69 9c d4 3c ae 03 57 3d 80 28 aa 3d 2c 84 20 3d
       0.025953488 0.052493744 0.08308506 0.03918855
0001e0 fb 9b ab bd 9f 4a 55 bd c3 2d 34 3d 85 6e b9 bd
       -0.0837936 -0.052073117 0.043988954 -0.09054283
0001f0 e3 cb ef 3c 08 e9 af bc 44 63 58 3d 0f c4 bb 3c
       0.029272025 -0.021473423 0.052829042 0.022920636
000200 44 55 63 3d 93 55 60 bd 53 a2 6c bc 52 dd 60 3d
       0.055501238 -0.05476911 -0.014442998 0.054898567
000210 3a 7d 89 bd bf 54 49 3a ac ab a2 bb d4 d2 71 bd
       -0.06713338 0.00076801697 -0.0049643125 -0.059038952
000220 29 e9 5d bd 36 d8 31 3d 89 98 a8 bd 2d a7 bc bd
       -0.054177437 0.043419085 -0.08232219 -0.09211574
000230 e2 28 37 3d d2 dc a1 bd 39 6e 97 bd 09 08 55 3d
       0.044716723 -0.07903446 -0.0739407 0.052009616
000240 9b f4 83 3d 67 38 99 bd c0 11 4a bd f0 7f 92 bd
       0.06443139 -0.07481461 -0.049333334 -0.071533084
000250 ef e5 17 bd e8 6c b0 3c 8f 44 34 3c b0 19 ba 3d
       -0.037084516 0.021536306 0.011002674 0.09086931
000260 0f ac 57 3d 43 95 d2 3c b3 2d af bd 85 2c af bd
       0.052654322 0.02570594 -0.08553638 -0.08553413
000270 6d d4 8f 3d 55 ff b9 bd e7 be 78 3d b6 99 42 3d
       0.07022939 -0.09081904 0.060728934 0.04750987
000280 53 10 a4 bc fa cf 1d bd 9a 05 4b 3d 4a ff aa 3d
       -0.020027315 -0.03852842 0.04956589 0.08349474
000290 30 95 22 3d 72 5b bb 3d 9f b9 d4 3d eb 26 45 3d
       0.039693058 0.09148301 0.10386967 0.04813282
0002a0 62 2c 30 bd bf 96 4f 3b a3 54 8f 3d 16 19 83 bd
       -0.043011077 0.0031675545 0.06998565 -0.06401269
0002b0 21 a1 64 3d fe 04 85 3d bb 50 90 bd 01 ca 94 bc
       0.055817727 0.06495093 -0.07046648 -0.01816273
0002c0 87 ea 57 bd fb e2 3f bd 65 5b 21 3d 90 b3 9f bd
       -0.052713897 -0.046847325 0.0393938 -0.07797921
0002d0 7d 26 c1 bc 0c 35 82 3d fe bf 88 3d fa d6 43 3c
       -0.023577923 0.06357774 0.066772446 0.01195311
0002e0 6e 4e a9 bd cf eb 5f 3d 49 da 6c 3d 15 b6 80 bd
       -0.082669124 0.054668244 0.05782536 -0.062847294
0002f0 64 64 d1 bd 9a 98 4c 3d 47 d1 b8 bd ff 33 d0 3d
       -0.10224226 0.04995022 -0.090242915 0.101661675
000300 8c 8d 95 3c 0c 8f d3 3d 27 bf c5 3d bc a4 b9 3d
       0.018255971 0.103300184 0.096556 0.09064624
000310 6e 7d 8f bc de 08 ff 3c 11 f2 c8 3c 2c d5 1e 3d
       -0.017515864 0.031132158 0.024529489 0.038777515
000320 52 73 9b bd eb 11 72 bd 29 5e 24 bd 82 57 b7 bd
       -0.07590355 -0.05909912 -0.04012886 -0.08952238
000330 80 a1 32 3b d6 64 0a bd ba 05 b9 3d ee 34 c6 bd
       0.0027256906 -0.03378757 0.090342954 -0.09678064
000340 8f 67 61 ba 8f 8e b6 3d fc 54 c4 bd 14 5c 8e bd
       -0.00085985 0.0891391 -0.09586522 -0.06951156
000350 fa c1 0f bd 3f db 80 bd 17 53 04 bc e4 11 30 3c
       -0.0350971 -0.06291818 -0.008076451 0.010746453
000360 ab 0b 71 3d 44 05 c3 bd 82 d7 c5 bd ea 5d fe bc
       0.058849018 -0.09522489 -0.096602455 -0.031050641
000370 28 7c 0b bd 06 46 31 3c e2 df a8 3d af ac 2a 3d
       -0.03405395 0.010819918 0.08245827 0.04166859
000380 d7 55 8b bc 9d b5 1c 3d fe 60 4f 3d f9 6d 19 bd
       -0.017008705 0.038259137 0.05062961 -0.037458394
000390 13 eb 94 bc 5d c9 92 3d bb b6 ba 3d 92 15 65 bd
       -0.018178498 0.07167313 0.09116884 -0.055928774
0003a0 a4 ce cc bd b0 9a 6f bd 51 5b 14 3d 4d c0 92 3c
       -0.10000351 -0.05849713 0.0362199 0.017913962
0003b0 a0 7a c1 3d f2 6c 81 bd 7b 6a 88 bd 7a a5 89 bc
       0.09447217 -0.06319608 -0.066609345 -0.016802538
0003c0 a9 09 0c 3d ac 5f ca bc 4a a2 d4 bc e1 5c a0 bc
       0.0341889 -0.024703823 -0.025956292 -0.019575538
0003d0 da 59 c5 bd 9d a3 f2 ba 0e 95 8e 3d 68 39 29 3d
       -0.096362785 -0.0018511895 0.06962024 0.041314512
0003e0 13 bd 8e 3d 57 b3 ab bd fb 3e 66 bb 76 08 ab bc
       0.06969657 -0.08383816 -0.0035132754 -0.020878058
0003f0 8b 31 e9 3c 9b 60 a5 3d 66 88 7a 3d ae 03 a8 3d
       0.028466007 0.08075067 0.061165236 0.08203827

enc_p.lstm.bias_hh_l0 f4 [384]
000000 cd e5 52 3d b5 08 d0 3d e7 4c 9c 3c bb 34 25 3d
       0.051488686 0.10157911 0.019079639 0.04033349
000010 ee d5 a2 bd b7 a5 a2 3d e3 7a 07 3c 75 b5 a8 bd
       -0.0795096 0.07941764 0.008269045 -0.08237735
000020 99 84 42 39 60 6d d0 bd 2e 8e 8b 3d 43 43 92 bd
       0.00018550678 -0.101771116 0.06814228 -0.071417354
000030 9b 7b a7 3b 2c 8e 66 bd 22 2e 53 3d 37 ff 29 3d
       0.0051111705 -0.05628793 0.051557668 0.041503157
000040 b9 e6 d3 bd 4e ca bd bc a3 9b 6c bd d5 83 19 3d
       -0.10346741 -0.023167755 -0.057765614 0.03747924
000050 a7 19 36 bb 53 1e 60 3d ce 48 eb 3b 6d 08 b1 bb
       -0.0027786286 0.05471642 0.00718031 -0.0054026158
000060 1f 69 55 bd 19 f5 c1 bd f4 c6 71 bd cd 08 9a bd
       -0.052102204 -0.09470577 -0.059027627 -0.0752121
000070 80 86 6a 3c da bb fa bc 94 0f 1c bd a8 5f 58 bd
       0.014314294 -0.030607153 -0.038100794 -0.0528256
000080 df f8 c6 3d f6 63 97 3d cc 9f 96 3d ef a5 9e bd
       0.09715437 0.07392113 0.073546976 -0.07746493
000090 84 fd 2c 3d 93 3b e1 3c 19 55 b9 bd c5 f8 d2 bd
       0.04223396 0.027494228 -0.09049434 -0.10301355
0000a0 e7 9d 86 bd f1 88 61 bd 18 33 27 bd 49 6f 1e 3d
       -0.06573086 -0.055062238 -0.04082021 0.03868035
0000b0 80 bb e2 bc 05 08 5c bd 52 e8 99 3d ec 86 17 bd
       -0.027677298 -0.053718586 0.07515015 -0.036993906
0000c0 02 bd f5 3c 1b ed c4 3d 3f e6 26 3d d8 cf 44 3d
       0.029997353 0.09615537 0.040746924 0.048049778
0000d0 26 76 a5 3d 17 72 97 3c db 32 07 3c b8 e4 7f 3c
       0.08079176 0.01848702 0.008251871 0.015618496
0000e0 bb 96 18 3c 72 02 e3 bc 67 b0 1a bd fb 4f 7c 3d
       0.009313281 -0.027711127 -0.037765887 0.061599713
0000f0 c2 d3 d9 bc 0f a9 ac 3d cc e3 66 3d e2 0c 1d 3d
       -0.026590232 0.08430683 0.056369588 0.038342364
000100 f9 d0 31 3d d7 0b b9 3d 59 e6 60 bd c0 1c d2 3c
       0.043412182 0.090354614 -0.054907177 0.025648475
000110 7b 91 a4 3d cd eb b8 3d 46 a0 6c 3d 77 be e2 3c
       0.08035561 0.090293504 0.057770036 0.027678711
000120 7b 48 b2 bd 09 96 c2 3d 4f 65 9f 3d 51 46 85 bd
       -0.08705231 0.09501273 0.07782995 -0.065075524
000130 9b 4f 81 bd dd ec b3 bd 2e 34 e8 3c 6f c1 5c 3d
       -0.06314012 -0.087854125 0.028345194 0.05389541
000140 45 4f 89 bd 95 1a 44 3d 2e 9a 3a bd 70 d0 6b 3d
       -0.067045726 0.047876913 -0.045557193 0.05757183
000150 0f 9a 58 3c 6f 48 5a bc 9a 67 70 3d d3 82 b0 3d
       0.013220324 -0.013322934 0.058692552 0.08618703
000160 53 cd 0a bd 76 60 c6 3d f4 99 35 3d 5c 10 99 3d
       -0.03388722 0.09686367 0.044336274 0.074738234
000170 80 bb c8 3d d4 5e 3a bd 33 2e 2c bd bf ac 9e 3d
       0.09801388 -0.04550059 -0.042036247 0.077477925
000180 28 5d 1a bd ac 40 95 bb 6e c2 c4 bd b4 d7 b1 3d
       -0.037686497 -0.0045548286 -0.09607397 0.0868372
000190 99 e1 e9 3c af b9 6c bb 0d ab 9c bd c2 dd 82 bd
       0.028549956 -0.0036121418 -0.07649813 -0.06389953
0001a0 bd 01 cb 3d 9d 25 0c bb 1d ca e8 bc 6a 39 b6 bd
       0.09912441 -0.0021384724 -0.028416688 -0.088976696
0001b0 24 5a 7c 3d aa 94 b3 3a 9c 73 7c bc 96 06 f5 3b
       0.061609402 0.0013700922 -0.015408423 0.0074775917
0001c0 32 e4 18 3d 94 a9 ea bc 4d bc 69 3c 3d da 45 3d
       0.037327 -0.028645314 0.014266086 0.04830383
0001d0 f3 74 52 bd 00 0c a6 bd 4c e2 af 3d 84 a7 16 3c
       -0.051381063 -0.081077576 0.085880846 0.009195212
0001e0 8d b9 85 bd 81 8c 35 3d 9f 75 0e 3d e7 0b 3d 3d
       -0.06529532 0.044323448 0.03478014 0.04615393
0001f0 c4 16 54 bd 43 46 5e 3c e2 42 a4 bd 29 5d c9 bd
       -0.051779523 0.013566556 -0.080205694 -0.09832222
000200 92 13 9e bd d2 67 c4 3d d6 e4 9a bd b2 ad e3 3c
       -0.077185765 0.09590115 -0.07563178 0.027792785
000210 ae cb c2 bd d4 2d c7 3c 66 48 83 bc 0a b3 95 bc
       -0.09511505 0.024313845 -0.016025733 -0.018273849
000220 c7 fe 56 3d c6 26 95 bd 53 bf 52 3d c9 d5 63 bd
       0.05248907 -0.07282786 0.051451992 -0.055623803
000230 d7 2a 98 bd 8f 30 7a bd eb 90 cd bc e1 e0 90 3d
       -0.07430046 -0.061081465 -0.025093516 0.07074142
000240 00 18 49 3d a5 8a 56 bd 27 e1 6a bd a6 ba 85 3c
       0.049095154 -0.052378315 -0.05734363 0.016324352
000250 50 4e 9b 3d 9b ec 28 bb a4 b1 c8 3c 07 d8 f2 bc
       0.07583296 -0.0025775793 0.024498768 -0.029644025
000260 bf e4 3f 3d c5 26 e6 bc c2 1f 05 3d 4e c1 a0 bc
       0.04684901 -0.028094659 0.03250099 -0.019623425
000270 79 07 e7 bc c7 51 6a bd 45 75 24 bc 51 21 a1 bd
       -0.028201805 -0.057206895 -0.010037725 -0.07867683
000280 31 08 61 3c 93 b3 60 bc 34 ca 22 bd 32 bc 0b 3d
       0.013734863 -0.013714689 -0.039743617 0.034115024
000290 ee f7 ef 3c 31 38 0d 3d cf c0 89 3d ee d0 a7 bd
       0.029293027 0.034477416 0.067262284 -0.08194147
0002a0 18 cb 8b bc 6a 0d 64 bc d6 c6 b4 bd 7d 7b 7d bc
       -0.017064616 -0.013919214 -0.088269874 -0.015471336
0002b0 75 44 9a bd 7e 79 87 bb b6 f1 30 bd ba e9 c8 3d
       -0.075325884 -0.004134356 -0.043199264 0.09810205
0002c0 b0 5c 3b bd 04 db 81 bd c4 5a 74 bd 08 4e 8c 3d
       -0.04574269 -0.06340602 -0.059656873 0.06850821
0002d0 a9 4d 3f 3d a2 3e 9d bd e6 3a ba bd bc b7 8c bd
       0.046704922 -0.07677962 -0.09093265 -0.06870982
0002e0 e2 36 85 3d 04 36 49 3c ad 68 62 bc d3 70 4e 3c
       0.06504609 0.012280945 -0.013818902 0.012600142
0002f0 b4 30 88 bd 0e c2 c4 bc b0 3f bd 3d 63 83 77 bd
       -0.066499144 -0.024018314 0.09240663 -0.060428035
000300 0f 26 74 bd 0c b0 64 3d 80 d6 9f 3a 6c 1f 83 3d
       -0.059606608 0.055831954 0.0012194663 0.064024776
000310 e0 08 90 bd 50 b0 83 bc f4 9f b8 3b 98 5b 91 bd
       -0.07032943 -0.016075283 0.0056343023 -0.07097548
000320 0b 11 43 bd 07 72 e7 3c 55 16 06 3d d7 23 75 3d
       -0.047623675 0.028252615 0.03273614 0.059848633
000330 f0 12 87 3c 08 31 8e bd b9 7e ce bc e0 a3 c8 bd
       0.016488522 -0.06942946 -0.02520691 -0.09796882
000340 bf 9d bf bd b4 55 30 bd 80 e6 17 3d a8 b2 5e 3c
       -0.093562596 -0.043050483 0.037085056 0.0135924
000350 49 5b 32 3c 7d 42 a1 bd 95 50 9d 3b 4e fd 59 bd
       0.010886022 -0.0787401 0.004800866 -0.053220086
000360 5f 39 04 bc a5 96 98 bd 4a ed a6 3d 65 63 90 3d
       -0.008070319 -0.07450608 0.08150728 0.07050208
000370 c1 d3 82 bd 6a 20 58 bd 43 a5 5f 3d d6 29 ce bd
       -0.06388045 -0.052765287 0.054600965 -0.10066573
000380 fa e9 0c bd d2 7b ef bc bc 16 c3 3d 34 6d 48 bd
       -0.034402825 -0.029233847 0.095258206 -0.04893227
000390 72 e7 a5 bd 1e 07 b4 3c 38 f7 2b bd ea a0 52 bd
       -0.08100785 0.02197605 -0.041983813 -0.05142299
0003a0 20 55 8b 3d 21 d1 6a bd 61 3d 69 3d 9d 63 79 3d
       0.06803346 -0.057328347 0.0569433 0.060886014
0003b0 97 43 e8 bc bf 84 2e bd 0d 39 ef 3c 1e ad 26 bd
       -0.028352542 -0.042607065 0.029202009 -0.04069244
0003c0 12 5d b4 3d ad 9c ab bd 22 bd 98 bd 8c b6 ec 3a
       0.08806814 -0.08379493 -0.07457949 0.0018059774
0003d0 26 97 b7 bd 43 6c a7 bc ea 23 6f bd dd 65 8e bd
       -0.08964376 -0.020437365 -0.05838386 -0.06953023
0003e0 9d 9a 9e 3d f7 aa a7 bd 56 32 9e bd f0 70 32 3c
       0.07744334 -0.08186906 -0.077244446 0.010891184
0003f0 30 3c 13 3d bb 16 90 3d 5a d4 ef 3c ee 0c 7d bc
       0.03594607 0.070355855 0.029276062 -0.015444977

enc_f.lstm.weight_ih_l0 f4 [384, 4]
000000 f8 46 1f 3d 84 ee 0d 3d 5d b0 05 39 fa e8 1a 3d
       0.03888604 0.034651294 0.00012749569 0.03781984
000010 2f 05 f1 bc 0c f8 35 bd 7b bf 1c 3b ca 4c 27 3d
       -0.029421417 -0.04442601 0.0023917842 0.040844716
000020 76 83 23 bc f4 3f 83 3b 77 5f 0f 3d c5 ac a8 3d
       -0.009980073 0.0040054265 0.03500315 0.08236078
000030 c8 d8 06 bc 06 53 00 3d 35 cd e2 bc d4 ad c8 bc
       -0.008230396 0.031329177 -0.027685741 -0.02449695
000040 18 a5 68 3c b4 9b 3d bc 0b 6d a1 3d 54 10 be 3d
       0.014199518 -0.011572767 0.078821264 0.09280458
000050 bf ef a7 ba f4 6a a5 bd 86 cb e0 ba d4 da 53 3d
       -0.0012812539 -0.0807704 -0.0017150498 0.051722363
000060 95 0a c1 3d 8a c4 9a 3d 2c 76 c7 bd cb a9 81 bd
       0.094258465 0.07557018 -0.09739336 -0.063312136
000070 fd e6 e9 3c 3c b9 95 3d 0f f8 36 3d b6 92 d0 bd
       0.028552527 0.07310721 0.04467016 -0.10184233
000080 cc f0 b1 3c 88 e5 74 3c 08 39 a1 bd 1e c2 a8 3c
       0.021721266 0.014947303 -0.07872206 0.020600375
000090 90 da 85 3d 33 08 b1 bc 2e c9 7a bc 72 4b 6f 3b
       0.06535828 -0.021610355 -0.015306754 0.0036513475
0000a0 09 a4 75 3d a8 24 c9 3d 3e 18 3b 3d 65 09 ba bb
       0.05997089 0.09821445 0.045677416 -0.0056773894
0000b0 f5 3c 13 3d 8b 6a bd bc 1b 0e 90 bc d4 b2 db bc
       0.035946805 -0.023122093 -0.017584851 -0.02681867
0000c0 f9 8b d1 3d a0 ed 39 3d 71 48 11 3d 65 41 5d bd
       0.10231776 0.045392632 0.035469476 -0.054017443
0000d0 fa d1 d2 bb e8 98 90 3d 67 98 94 3d 06 db ce bd
       -0.0064337226 0.070604146 0.07255631 -0.10100369
0000e0 81 cc 4c bd a0 1f a1 bc 85 c8 a6 bd e1 4f 26 bd
       -0.049999718 -0.0196684 -0.08143715 -0.040603522
0000f0 77 b2 4d bd 0e 15 5c 3d 27 ee 79 bd 2f 5e 16 3d
       -0.050219025 0.053731017 -0.061018135 0.036710914
000100 f4 9c 24 3d 02 02 82 3d 41 a5 bd bd d5 9e a4 3d
       0.040188745 0.06348039 -0.09260035 0.08038107
000110 05 c1 57 bd b6 8a a4 3d 52 4c 9a bd ec 12 c5 bd
       -0.052674312 0.080342695 -0.07534088 -0.0962275
000120 2b 50 b7 bd 4f d0 8e 3d a4 dd 8f bd 91 f0 c7 3d
       -0.08950838 0.069733255 -0.070246965 0.09762681
000130 19 5d 8f bd 04 e7 72 bd 24 e3 d0 3d 14 03 11 bc
       -0.07000179 -0.059302345 0.10199574 -0.008850832
000140 39 85 1a bd bf 47 0f 3d 7f 5e 54 bd 1a 60 92 3d
       -0.037724707 0.03498053 -0.05184793 0.07147236
000150 db 87 05 bd 56 79 5b bd 38 e8 7c 3d f0 90 b2 bc
       -0.032600265 -0.05358251 0.0617449 -0.021797627
000160 c4 76 97 bd b7 e0 3a bd e0 62 7c 3d 2f de b2 bd
       -0.073956996 -0.04562446 0.061617732 -0.087337844
000170 80 0c 92 bd 70 55 ad bd 3c ef 9e bd 57 15 0c bd
       -0.071312904 -0.084635615 -0.07760474 -0.03420004
000180 7c 2e 17 3b 4e 3d 98 ba 85 f1 6c bd 2e f7 92 3c
       0.0023068478 -0.001161495 -0.05784752 0.01794013
000190 19 5a bd bc 9a e1 ad 3d cd 15 5b ba ac bd a2 bc
       -0.023114251 0.08490296 -0.00083574356 -0.019865833
0001a0 7f bd 9c 3b 95 d7 a5 3d 2c f0 98 3d 2f c3 a7 bd
       0.004783332 0.0809776 0.07467684 -0.08191525
0001b0 d4 bc 89 3d 79 18 1c bd f6 d0 63 bd a8 25 a0 bd
       0.06725469 -0.038109276 -0.055619203 -0.07819682
0001c0 bc a9 90 bd 7a 23 b0 bd 86 e0 b4 3c 9f 86 9b 3b
       -0.07063624 -0.086005166 0.022079717 0.0047462727
0001d0 65 1c a1 bd 93 71 fe bc 38 97 b8 3d 35 48 73 3c
       -0.07866744 -0.031060016 0.09013218 0.0148487585
0001e0 f8 0f 64 3d 07 35 ce bd ff 67 96 bd 3f f9 cc 3d
       0.05567929 -0.10068708 -0.073440544 0.100084774
0001f0 1f d0 de 3c 33 ce 89 3d b7 51 41 bd 77 53 8c 3d
       0.02719885 0.067287825 -0.04719707 0.06851857
000200 30 49 1f bc 2d bb 62 3d f5 43 1d 3d 05 eb c8 3d
       -0.009722039 0.055354286 0.038394887 0.098104514
000210 20 3d c6 bd 09 3f c3 3d 32 31 60 3c a7 a3 e5 bc
       -0.096796274 0.095335074 0.013683604 -0.028032137
000220 43 c3 7d 3d 6a 72 90 3d 08 01 cd bc 47 b5 a0 3d
       0.061953794 0.07053073 -0.025024906 0.07847076
000230 ab d4 99 3c 9e a1 81 3c 5b f4 75 bd dd 66 b5 3b
       0.018778166 0.015824135 -0.06004749 0.005535944
000240 12 cf a1 bc e3 42 ad 3d 8d e8 37 3d 63 6e ac 3c
       -0.01975206 0.08460023 0.044899512 0.02104873
000250 07 05 96 bd bf 1c 95 bd 80 df c8 3c 2d 8e 82 3d
       -0.07325178 -0.072808735 0.024520636 0.06374774
000260 a6 41 d0 3b 75 57 9e bb a7 f6 ce bc 5c cc 21 3d
       0.006355482 -0.004832203 -0.025264097 0.039501533
000270 1e fb 06 bd 69 69 8d 3d fa 86 bf 3c ab 95 ed 3c
       -0.032954328 0.06904871 0.023379792 0.029002031
000280 d2 c2 46 3c 3a a0 8f bd 23 58 99 bd fd d9 4c bd
       0.01213141 -0.07012983 -0.07487514 -0.050012577
000290 64 3a db 3b 64 b6 a6 bd 72 4d 8d 3d 76 21 9c 3d
       0.0066903103 -0.08140257 0.06899537 0.0762357
0002a0 43 3b 68 3d 37 58 c0 bd 3b f1 46 3c 75 72 0f bc
       0.05669714 -0.09391826 0.012142475 -0.008755316
0002b0 a5 53 88 bd 63 78 a4 bd 40 17 2e 3d 4c 3d ca 3d
       -0.06656579 -0.080307744 0.04250264 0.09874973
0002c0 0a 01 3f bd e9 f6 a0 3d 49 65 ca bb 63 ca b1 3d
       -0.04663185 0.078595944 -0.006176625 0.0868118
0002d0 12 66 96 3d a3 f9 dd 3c 8d 56 a4 3d 88 22 d0 bd
       0.07343687 0.027096575 0.08024321 -0.10162836
0002e0 2e 6b 37 bc a2 96 0e 3c 20 78 c7 3c 41 08 69 3d
       -0.011194987 0.008702906 0.024349272 0.056892637
0002f0 e3 d8 b7 bd 83 6c 85 bd df d5 16 bd 5a 8e 82 bd
       -0.08976915 -0.065148376 -0.036825057 -0.06374808
000300 37 ed d1 bd 81 47 83 bd 97 c8 82 3d 43 46 c8 3d
       -0.10250323 -0.06410123 0.06385916 0.09779026
000310 68 b7 9e bb b6 4d ab 3d 4c 5f cc 3d 05 16 3f 3c
       -0.004843641 0.083644316 0.09979114 0.011662965
000320 dc 7b 0f bb 1e 71 b6 3c 52 38 22 bd fb a9 19 bc
       -0.0021893894 0.022270735 -0.039604492 -0.009378905
000330 bf d1 18 3c ff f8 ad 3d 26 45 fe 3c 79 3d 57 bd
       0.009327351 0.08494758 0.031038832 -0.05254886
000340 be 9a b7 bd 9c 52 a9 3d 0b 5a 76 3d d4 a9 a5 bc
       -0.089650616 0.082677096 0.060144465 -0.020222582
000350 07 bf 9a bd 2d 38 63 bb e9 8c b2 bd 7d 24 3d bd
       -0.07555967 -0.0034670935 -0.08718283 -0.046177376
000360 22 3e 90 bc 8d f6 83 3d 92 a0 c7 bd bc 13 9b bc
       -0.017607752 0.0644351 -0.09747423 -0.018930309
000370 ae f2 a1 3d 27 9a c4 bd 62 15 35 bc 97 13 4a bb
       0.079076156 -0.09599715 -0.011052461 -0.003083443
000380 a1 61 a3 bd 69 df cd 3d 47 02 a4 3d b0 31 12 3c
       -0.079776056 0.10052378 0.08008247 0.008922979
000390 17 39 a4 bd 50 84 86 bc dc 90 30 3d 4f ac b0 3d
       -0.080187015 -0.016420513 0.0431069 0.08626615
0003a0 20 ad 8b bd 65 f0 c8 bc 98 59 9a bd 7c 0c 70 bd
       -0.0682013 -0.024528692 -0.0753662 -0.058605656
0003b0 dd 3f 98 bd 10 87 5c bd 86 08 96 3d 88 49 76 bc
       -0.07434056 -0.053839743 0.073258445 -0.01503218
0003c0 ae df 9b 3d 1b 17 85 3d b6 d8 b7 bd e0 d3 93 bd
       0.07611023 0.06498548 -0.08976881 -0.07218146
0003d0 2d 09 b8 bd 90 00 1f bc 6f 33 ac 3d 85 1b 95 bd
       -0.08986125 -0.009704724 0.08408248 -0.072806396
0003e0 f3 85 62 bd b3 60 97 bd c4 6a 37 3d 1e c3 40 bd
       -0.055303525 -0.07391491 0.044779554 -0.04706108
0003f0 74 a2 92 3d 81 44 19 3d 77 b5 64 bd 3e 96 8d 3d
       0.07159892 0.037418846 -0.05583712 0.06913422

enc_f.lstm.weight_hh_l0 f4 [384, 96]
000000 68 20 e6 b9 e2 b1 b0 3c fd b4 04 bd 75 aa a4 3d
       -0.00043893163 0.021569196 -0.032399166 0.080403246
000010 06 cf a9 3c 34 3d c3 3d 6c c6 0f bd 9c 65 aa bd
       0.0207286 0.09533158 -0.03510134 -0.08320162
000020 f5 b3 56 bd 9f 31 a0 3d af 67 92 3d c6 1e af bd
       -0.052417714 0.078219645 0.07148682 -0.085507914
000030 05 12 a8 bd 85 2f ed 3b 29 cd cb bd ac 28 a6 bd
       -0.08206562 0.007238331 -0.099512406 -0.08113226
000040 9a 1d 6f bd 22 ba d0 bd d9 12 76 3d c7 a4 80 3d
       -0.05837784 -0.10191752 0.06007657 0.06281429
000050 6b d4 bf bd 08 d2 bc 3d 34 4e 62 ba 6c 3a 3e 3d
       -0.093666874 0.09219748 -0.0008632869 0.046442434
000060 de a1 f0 bc b7 55 80 3d f9 13 08 3d e9 cc b0 bd
       -0.02937406 0.06266349 0.033222172 -0.086328335
000070 7a 1c 56 3d ea dd 9a 3d 9e 7c c9 bd 75 84 cc bd
       0.05227325 0.07561858 -0.09838222 -0.09986202
000080 8e a0 2d 3d ff a4 ed 3c 79 6e 81 3d 53 4a 81 3d
       0.042389445 0.02900934 0.06319899 0.06313004
000090 d4 e8 86 bd 4e 74 f5 3c b9 42 84 3d c7 74 30 3c
       -0.06587377 0.029962685 0.06458039 0.010770029
0000a0 b6 6b d0 bd 4b f3 79 bd c7 ec f3 bc 61 bc 89 3d
       -0.10176794 -0.061023038 -0.02977599 0.067253835
0000b0 07 f7 6a bd 76 78 fd bc e1 b3 90 3d 32 91 b4 3d
       -0.05736449 -0.03094123 0.07065559 0.08816756
0000c0 29 4d 71 3d 5e 79 a9 bd b2 27 25 3d e7 0e 72 3c
       0.058911476 -0.08275102 0.04032106 0.014774061
0000d0 6a 80 43 bd 31 a7 97 3d d7 09 1c bd b1 48 42 bd
       -0.047729887 0.07404936 -0.03809532 -0.047432605
0000e0 e0 40 c0 bd c8 51 7b 3b f3 e1 55 bd 6b c3 a3 3d
       -0.09387374 0.0038348306 -0.052217435 0.079962574
0000f0 6d 70 3d bd 07 2b 1f bd 4a 62 44 bc cf 67 d5 bb
       -0.046249796 -0.038859393 -0.011986325 -0.006512619
000100 a7 ed c5 3c d8 9f fd 3c dc 76 c4 bd 7f 34 13 3d
       0.024161173 0.030960009 -0.09592983 0.035938736
000110 9d 7e 37 bc 4b 0c 8a 3c 87 18 dd 3c ee 95 c3 3d
       -0.011199621 0.016851565 0.026989235 0.09550081
000120 d9 c6 c7 3c e3 37 81 3d d5 17 a4 bc 26 0c c7 bd
       0.02438681 0.06309488 -0.020030895 -0.09719114
000130 91 b4 0d bc f7 a3 b0 3d b0 44 9d bd 8d 8c ee bc
       -0.008649007 0.08625024 -0.07679117 -0.029119754
000140 67 59 ac bb f6 26 c0 3d 5d 9e 49 3d 25 ce c4 bd
       -0.005259681 0.09382431 0.049223293 -0.096096314
000150 d6 41 30 3d e8 a5 3f bd 2e d7 69 bd bb 08 54 bd
       0.043031536 -0.04678908 -0.057089977 -0.05176614
000160 46 2b e8 3b 25 4f a6 bc 77 89 89 3d 06 02 d1 bd
       0.0070852367 -0.02030141 0.067156725 -0.10205464
000170 b0 5f c3 3d 7a 5d a0 bd a6 7e af bd 9d 8e 25 3d
       0.09539735 -0.07830329 -0.08569078 0.04041921
000180 a6 57 4b 3c 18 1d 95 3d 84 54 b0 bd 6e bd ba 3d
       0.012411034 0.0728094 -0.0860987 0.09118162
000190 9b 1a 5c bd 3b eb 11 bc 4c 7b b2 3d 92 d8 3b 3d
       -0.05373631 -0.008906181 0.08714923 0.045860834
0001a0 9b 82 60 3d ef ca 05 bc 41 33 8e bd 74 a3 bd 3d
       0.054812055 -0.008166059 -0.0694337 0.09259692
0001b0 e0 fd 4c 3c bd f0 8c bd 21 9d 9d 3d 5c de d2 bc
       0.0125117 -0.06881855 0.076959856 -0.025740795
0001c0 59 38 44 3d c7 7b cb 3c 84 16 7c bc 2c 0e 89 3c
       0.0479053 0.024839295 -0.0153862275 0.01673039
0001d0 17 a3 44 3d 4f ab ea 3c 24 c2 58 bd ab 58 67 bd
       0.048007097 0.02864614 -0.052919522 -0.056481045
0001e0 ee 4a aa 3d 31 ec b6 3c 48 ee 49 3c d0 d7 1b 3c
       0.08315073 0.022329422 0.012324877 0.009511903
0001f0 8b c5 04 bd fe b2 cc 3d b0 34 bf 3c 9e 14 b1 bd
       -0.032414954 0.099950776 0.023340553 -0.086465105
000200 70 d8 f2 bc 62 f5 91 3d 99 50 90 ba 70 9d b2 3d
       -0.029644221 0.07126881 -0.0011010348 0.08721435
000210 04 63 8c bd 42 2f 92 3d 5f 06 82 bd 96 e3 0d 3d
       -0.06854823 0.0713792 -0.063488714 0.03464087
000220 59 d9 8f 3d b1 ea c8 bd ad f3 a1 bd 82 77 48 3d
       0.07023878 -0.09810389 -0.079078056 0.048942097
000230 e7 7b ba bd 61 bf 9a bd ee 5f c0 bd 8b 31 d5 bc
       -0.09105664 -0.07556034 -0.09393297 -0.0260246
000240 6f 9d ba 3c a4 c1 80 bd 6d 83 35 bd 6b 84 49 3d
       0.022780148 -0.06286934 -0.04431479 0.04919855
000250 29 8a 1d bd 92 da b0 3d 04 9f d8 3c 5f 7d 41 3d
       -0.038461838 0.08635439 0.026443012 0.047238704
000260 0b cb 65 bd a4 d3 0c 3d 40 c3 98 3c 3f 3e 6a bd
       -0.05610184 0.034381524 0.01864779 -0.05718827
000270 78 79 0c 3d 42 a5 2f bd b8 4b 73 3d 96 46 a7 bd
       0.03429553 -0.04288221 0.059398383 -0.0816776
000280 15 b6 a0 3d 49 64 58 bd 55 ae 8a bc 93 c5 8b 3d
       0.078472294 -0.052830014 -0.016928831 0.06824794
000290 62 49 89 3d 95 07 a4 bd be e4 af 3d 20 9f 69 3c
       0.0670345 -0.08009259 0.08588551 0.01425913
0002a0 25 75 50 bd d3 36 2f 3c 32 31 c3 3c 40 d5 8a 3c
       -0.050892968 0.010694223 0.02382717 0.016947389
0002b0 a5 c3 84 bd 57 6b 3a 3d 20 27 60 bd 7c 2b c6 bd
       -0.06482629 0.045512524 -0.054724813 -0.09676263
0002c0 45 6b 1d bd 4c ab 8b bd 2a e2 11 3d eb 0d 85 bd
       -0.03843238 -0.06819782 0.035616077 -0.06496795
0002d0 69 5c b1 3b 68 33 f4 bc ba 29 c1 3c 15 69 9d bd
       0.0054126275 -0.029809669 0.023579467 -0.076860584
0002e0 8d 27 5b bb 6c d2 21 3d f2 da e7 3a 44 75 38 bd
       -0.0033440322 0.039507315 0.0017689152 -0.04503371
0002f0 24 99 91 3d 43 8e cd 3d 97 82 7a bc 4d e6 5c 3d
       0.071092874 0.100369 -0.015289924 0.05393057
000300 33 b0 a1 3d 7d 0a cb bd e7 89 25 bd 0e 11 bd 3c
       0.078949355 -0.0991411 -0.040414717 0.023079421
000310 52 46 52 3d e3 45 01 bd 39 7f 89 3d a2 fc 06 bd
       0.051336594 -0.03156079 0.06713719 -0.032955773
000320 4d 17 87 bd 6e 93 4a bd 10 ab 9e bd 9f 8e a1 3d
       -0.06596241 -0.049457006 -0.07747471 0.07888531
000330 52 8f 8e 3d 40 1d 8a 3d 94 3d 8f 3d b9 44 5c bd
       0.0696093 0.0674386 0.06994167 -0.053776477
000340 44 24 16 3d 18 91 7c bb 6b 37 b9 3d 1a a6 03 3c
       0.03665568 -0.003853863 0.09043773 0.008035207
000350 4d 81 f2 bc 3e d9 1d bb 6f 30 8b 3d 19 2a 58 bd
       -0.029602671 -0.0024085785 0.06796347 -0.052774522
000360 cc a1 97 3d 79 7c 34 bd 3a b1 ab 3d de d2 37 3d
       0.07403907 -0.04406402 0.08383413 0.044878833
000370 d8 26 83 bd 9f be 15 3d 24 9b 0f bc 9d 79 a8 bd
       -0.06403893 0.036558744 -0.008765016 -0.08226321
000380 d7 ec 00 3d 7a aa df 3c 84 6b 2a bd 69 a4 aa bd
       0.031475868 0.02730297 -0.04160644 -0.0833214
000390 4f ed 39 ba 4a 73 4f bd 95 2c 9a bd 6a fe 98 bd
       -0.00070925517 -0.050647058 -0.075280346 -0.07470401
0003a0 5d e7 84 3d b8 eb 6f bd e9 81 39 bd 4a 0e ba bd
       0.064894415 -0.05857441 -0.045289908 -0.09084757
0003b0 0c f9 73 bd be 61 c3 3d 43 4e a2 bd 46 66 1a bd
       -0.05956368 0.09540127 -0.079250835 -0.03769519
0003c0 c5 d6 c0 bc 9c 05 30 bd 3e 4e 04 3d dc 6a 95 3d
       -0.02353991 -0.0429741 0.03230118 0.072957724
0003d0 0f ba c6 3c f3 aa a2 3d 9d 12 cc 3d ee c9 aa bd
       0.024258642 0.07942762 0.09964488 -0.08339296
0003e0 9f 2e 2b 3c af 4e 9a bd 46 4f d7 bc 5e 78 ef 3c
       0.010448127 -0.07534539 -0.026282918 0.0292322
0003f0 8f c1 94 bd f1 21 4b 3c fb 72 7e 3d c0 93 50 3d
       -0.07263481 0.012398229 0.062121373 0.050922155

enc_f.lstm.bias_ih_l0 f4 [384]
000000 e2 0c 3f 3c 51 1b cb bd d7 6d f2 bb 96 f5 d2 3d
       0.011660786 -0.099173196 -0.007398348 0.10300748
000010 ba 9d 5a 3d 1e 20 03 bd 87 03 05 bc 50 7f 07 bd
       0.053373076 -0.03201305 -0.008118517 -0.0330804
000020 1f 29 b9 3d 29 0b 62 bd 8f fe a6 3c 79 05 b4 3d
       0.09041046 -0.055186424 0.020385055 0.08790106
000030 61 7f 03 bd e1 00 64 bd de cf 72 3d 76 a0 60 3c
       -0.0321039 -0.0556649 0.05928027 0.013710132
000040 a6 b2 9e 3d e2 d9 78 3d e9 00 97 bd 30 28 15 3b
       0.07748918 0.060754664 -0.073732205 0.002275955
000050 8a 01 c1 3d fb cc 80 bd 60 04 9f 3d c6 bb a2 bc
       0.09424122 -0.06289097 0.07764506 -0.019864928
000060 c9 55 f0 bb cf 4a 33 bc 69 a7 82 bd 6a 81 af 3d
       -0.007334445 -0.010943129 -0.06379587 0.08569606
000070 a4 7d d1 3d f6 02 20 bd 74 e5 43 3d 5c 1b 97 3d
       0.10229042 -0.039065324 0.047826245 0.07378265
000080 a9 e3 92 3d 3e d2 a4 bc ef 20 a4 3d a3 a8 3d b9
       0.07172329 -0.020119783 0.08014094 -0.00018087267
000090 e2 83 89 bd 69 83 50 3c f0 7c 5d 3d 4f cc 86 bc
       -0.06714608 0.012726643 0.054074228 -0.016454844
0000a0 87 4a 2d bd b8 8a 85 3b d6 b5 65 bd ed eb a6 bd
       -0.042307403 0.0040753745 -0.056081615 -0.08150468
0000b0 7c 23 99 3d bc e3 a6 bc 48 09 00 bd 02 cd 4c 3d
       0.07477471 -0.020372264 -0.03125885 0.0500002
0000c0 eb c7 0d 3d 3e 96 f5 3b c6 d6 6b 3d e6 c7 e8 bc
       0.034614485 0.007494717 0.05757787 -0.028415632
0000d0 22 96 98 3c 7f 6a 8f 3d 87 bd a6 bd 0e 8a 4f bd
       0.018626276 0.070027344 -0.08141618 -0.05066877
0000e0 f8 e5 11 3d e9 1f ad bd af 7f 79 3d d6 54 73 3d
       0.035619706 -0.08453352 0.060912784 0.059407078
0000f0 e5 02 ba bd 27 3b 74 bd 22 77 75 bd 52 ef 52 3d
       -0.09082583 -0.059626725 -0.059928067 0.051497765
000100 f1 e9 49 bc a4 d8 43 bd 35 93 f0 bc 1c 5b 89 3d
       -0.012323842 -0.047814026 -0.029367069 0.06706831
000110 22 16 ad bd e6 c3 93 3d 47 13 83 3a fb 43 f4 bc
       -0.08451487 0.07215099 0.0010000252 -0.029817572
000120 0e ca a3 bd b0 ca a2 3d 8b 8e 44 ba 85 c4 a2 bd
       -0.07997523 0.07948816 -0.0007498047 -0.079476394
000130 04 13 c3 bc 1e 2b ec b9 27 09 16 bd dd 59 61 3d
       -0.023812778 -0.00045045553 -0.036629822 0.05501734
000140 61 d0 a8 3d c0 a2 b1 3b db 17 d5 ba 60 56 35 3d
       0.0824287 0.0054210126 -0.001625772 0.044271827
000150 0c f0 9e bd a7 2b 40 bd 75 54 54 bd ff 2b b1 3d
       -0.07760629 -0.04691663 -0.051838357 0.0865097
000160 5e d6 ad bc 40 d5 d5 bc 9c 65 dc bc e3 7f 57 3d
       -0.021220382 -0.026102662 -0.02690392 0.052612197
000170 95 0c 13 bd 2f f1 4b 3d 76 0b b8 3d 6a 71 c8 bd
       -0.03590067 0.049790557 0.08986561 -0.09787257
000180 cc 25 1c 3d ea ec 94 3d d4 ef 88 3c 0d 30 00 bd
       0.038121983 0.0727175 0.016715921 -0.031295825
000190 47 9d 88 3c 3f 11 8d bd 2e 50 43 3c b7 55 b9 3d
       0.016676558 -0.06888055 0.011920972 0.09049552
0001a0 60 41 be bd 4b d3 78 bd 81 d8 8d 3d cc d3 ac 3c
       -0.09289813 -0.06074838 0.069260605 0.021097086
0001b0 70 0f 07 bd 19 7f 2c 3d 13 b9 b0 bd c3 5e 9d 3d
       -0.032973707 0.042113397 -0.0862905 0.0768409
0001c0 69 70 c6 bd d2 9f 93 3d 5f c9 d3 bc a8 68 89 bc
       -0.09689409 0.07208218 -0.025852857 -0.016773537
0001d0 3c d5 33 bd ca fa d2 bc 59 84 cf 3d e5 71 d7 3a
       -0.043904528 -0.025754351 0.10132665 0.0016437141
0001e0 bd ff 3b 3d 7f f1 9a 3d 77 72 30 3c 08 58 76 bd
       0.045898188 0.07565593 0.010769478 -0.060142547
0001f0 cc 65 99 39 5a e5 a9 3d 2c b2 2d 3c b8 95 3a 3d
       0.0002925828 0.082956985 0.0106015615 0.04555294
000200 db 40 b8 bd 28 07 b9 3d b7 df 6a 3d db 84 89 bd
       -0.08996745 0.09034568 0.057342257 -0.06714793
000210 35 a4 60 bb f2 f5 e8 3c be 35 d9 3a f9 9a 9d bc
       -0.0034277563 0.028437588 0.0016571803 -0.019238936
000220 6d df 21 bd fe 78 8a b9 18 36 bc 3d b1 3b ba 3c
       -0.039519716 -0.00026411557 0.09190005 0.022733541
000230 70 f6 95 3c 7e a8 53 bd 70 c3 45 3d 37 6c 0e bb
       0.018305987 -0.05167436 0.048282087 -0.0021731982
000240 e7 3a fb 3c 55 61 73 bc 0e 21 91 b9 3b 2f 19 bd
       0.030667735 -0.014854749 -0.00027681183 -0.037398558
000250 8e 09 ca 3d 4e 73 8a 3d 93 29 84 3d 36 7c c2 bc
       0.09865104 0.06760274 0.06453242 -0.023740869
000260 fa 87 83 bd fc cd 78 3c 26 e4 9f 3d f7 3b 82 bd
       -0.0642242 0.015185829 0.07807188 -0.06359094
000270 8a 96 b9 bd de d6 62 3d c4 57 03 3d 27 80 1d bd
       -0.09061916 0.055380695 0.03206612 -0.038452294
000280 9d 61 e6 3c d4 ba a4 bd f2 93 69 bd 44 5e 73 3d
       0.028122718 -0.08043447 -0.057025857 0.05941607
000290 69 5f b0 bd 23 ef 82 bd 43 f6 92 3d 1d 5c 9f bd
       -0.08611948 -0.06393268 0.07175877 -0.07781241
0002a0 eb c7 96 3b b8 6b cc 3c d1 f4 c1 3a 75 cd cb 3c
       0.004601469 0.024953708 0.0014797692 0.024878243
0002b0 d2 ff 73 3d 17 ac 9a 3d 2a 91 19 bd 68 3c 1a bd
       0.05957014 0.07552355 -0.037491955 -0.037655264
0002c0 0b 72 09 bd 3d 88 a7 3d d4 1a fa 3c 7d e0 ae 3d
       -0.033556025 0.08180282 0.03053037 0.085389115
0002d0 60 dc ee bc d2 27 93 3d 8b 31 69 bc bf 4f 9e 3d
       -0.029157817 0.071853295 -0.014233003 0.07730054
0002e0 11 63 d4 bc 68 19 48 3d 99 fd b2 bd 9e 88 4d bd
       -0.025926145 0.048852354 -0.08739776 -0.050179116
0002f0 78 e4 62 3d d9 0f 80 bd 1d 17 2c 3c e7 bf c0 3d
       0.055393666 -0.06253023 0.0105035575 0.094116025
000300 6f a8 2c bd 89 5e 4f 3d 45 13 70 3d 01 e5 d1 bd
       -0.04215282 0.050627265 0.058612127 -0.10248757
000310 7a 59 c4 bd a5 58 04 bb 3d 0e 53 3c 10 9d a1 bd
       -0.09587379 -0.0020194438 0.012881813 -0.078912854
000320 f3 53 4c 3c 45 cb 13 bc 11 09 0c 3d a8 5d bd 3c
       0.012471187 -0.009020631 0.034188334 0.023115948
000330 1e 67 41 bd c3 7c c6 bd 47 08 b3 3d 4b 6c c8 3d
       -0.04721748 -0.09691765 0.08741813 0.0978628
000340 3f b1 88 3d 7e d5 cf bd 45 fd bc bd d5 66 a3 3d
       0.06674432 -0.10148142 -0.09227995 0.07978598
000350 50 10 43 3d d2 61 c1 3d 3b 8d 5a bc a2 ac 7f bc
       0.04762298 0.09442486 -0.013339336 -0.015605124
000360 dd 77 53 3d ed a3 44 bd 6b 0e 59 3d 37 a0 81 3d
       0.051627982 -0.048007894 0.052992266 0.06329387
000370 07 db 9f 3d 53 bb c1 3d 01 5f c2 3d 8c 68 c5 bc
       0.07805448 0.094595574 0.09490777 -0.024097703
000380 3d 23 01 3c f4 10 00 3d 73 11 74 3d 31 fd 0f bd
       0.007881937 0.031266168 0.059586953 -0.03515357
000390 79 07 8e bd fe fa 24 bd 74 eb bb 3d be 36 51 3b
       -0.06935019 -0.040278427 0.091757685 0.0031923498
0003a0 57 49 04 bd d8 71 8b bd bd ea 93 bd 0e 6b 0f bc
       -0.032296505 -0.06808823 -0.07222507 -0.008753551
0003b0 c2 98 77 bd 7c ae 3f bc 20 3b 2d 3d 0d 9d c9 3d
       -0.060448416 -0.011699315 0.042292714 0.09844408
0003c0 b3 ef 99 bd bd 31 f6 3c 5f 70 56 bd 7e c4 12 bd
       -0.07516422 0.030053014 -0.05235326 -0.03583192
0003d0 bb d2 f9 3c 29 fc 94 bd a8 c5 92 3d a7 16 af bd
       0.030495992 -0.07274658 0.07166606 -0.085492425
0003e0 c2 ee 0f 3d d0 d6 3f bd 60 e8 90 bd 7c 84 aa 3c
       0.035139807 -0.04683572 -0.07075572 0.020815127
0003f0 a6 15 38 bd 20 cd 8a ba 49 3b dc bb ba 6e a0 bb
       -0.04494252 -0.0010589696 -0.0067209345 -0.004896012
