_train/_models/20250924/삼성전자(005930)_20250924.pt (torch, 831847 bytes, 20 tensors)

enc_p.lstm.weight_ih_l0 f4 [384, 6]
0.00092098536 -0.07891838 0.09588291 -0.009353068 0.10037199 -0.026919492 0.020646742 -0.0013983834
0.07091399 -0.023308197 0.035465505 0.087722726 0.03920759 0.061844885 -0.015823293 -0.011065039
0.0101768365 0.023145154 -0.08390275 0.07514323 -0.064193174 0.023400594 0.03976512 0.080343686
0.04716205 0.0828716 0.046907473 -0.014499188 0.023668172 -0.014110493 -0.0015074073 -0.003918694
-0.059811253 -0.052428413 0.009714695 0.034543645 -0.052038006 -0.060976397 0.059169393 -0.078278966
-0.08944371 -0.083057396 0.038575914 -0.02694037 -0.0142427 0.016328678 -0.09830821 -0.09076795
-0.085947156 -0.023203136 0.01076034 0.075025514 -0.03855055 0.057575293 -0.0017232788 0.022712221
0.086634636 0.057073824 -0.07047679 -0.06260327 0.01869561 -0.060804263 0.055829685 0.07646696
0.04962017 0.07721707 -0.030895775 -0.05820531 -0.058373615 0.0945989 -0.09572707 0.03846928
-0.047594696 -0.06272202 0.05779983 -0.033503003 -0.04293127 0.017042205 -0.046709634 -0.025968567
-0.09856144 0.08581984 -0.007348322 0.05399283 0.06597391 -0.08331249 -0.056720573 -0.097722165
-0.077188514 -0.08783927 -0.07837842 0.047465824 -0.045643076 0.02454848 -0.09597004 0.0030662576
0.020911334 0.08664521 0.06901487 0.04801115 0.08944581 -0.0026711568 0.053190384 -0.09290539
0.05813436 -0.011695141 0.00379952 -0.047144957 0.053456098 -0.03749789 -0.079570726 0.041576177
0.010780217 -0.09818742 0.06971207 -0.006760768 -0.09949001 -0.05510945 0.09539954 0.04565912
-0.009736446 0.02297858 0.0030555609 -0.084116176 -0.09992032 0.028275654 0.08200168 0.08711862
-0.06826296 0.0013187134 0.074851625 0.1002348 -0.05488463 0.100731224 0.09778364 -0.07018844
0.013759223 -0.091522805 0.028367715 0.051193543 -0.024647329 0.06297093 0.007892715 -0.047840793
-0.044111837 -0.072724015 0.053661857 -0.00551986 0.00045269684 0.08819452 0.082808234 -0.06753171
-0.070079535 -0.08101841 -0.056851543 0.012774007 -0.062530935 0.08243587 0.08396538 -0.03353836
-0.06578418 -0.04049934 0.08606628 -0.05271906 0.096017785 -0.058060396 -0.010761882 0.09113819
0.05648728 0.05373578 -0.05129616 0.07115914 0.0457978 0.019421829 0.090082616 0.0521931
-0.04946193 -0.035084236 -0.09364641 -0.03839548 0.062536895 -0.043414 0.03497683 0.008081624
0.019367322 -0.013446428 0.04365538 -0.011908154 -0.07772761 0.07331068 -0.029158939 0.006150001
0.08228496 0.043758072 0.018118853 -0.047393963 -0.013990257 -0.072350875 0.09657904 -0.043944508
0.0582014 -0.027693892 0.10001832 -0.02191296 0.055456597 0.06625014 0.0994566 0.0022870083
0.001025599 0.043845244 -0.09119784 0.0018404067 -0.065049596 0.046024516 0.105634026 0.029183174
-0.031361572 0.08505016 0.087934844 0.06810046 -0.013213585 -0.10020796 0.00765353 -0.044999037
0.07597318 0.042446356 0.031340178 -0.02430762 0.10023404 0.010208011 0.06300858 -0.046902396
0.018460937 -0.021957181 0.021111773 -0.019406578 -0.00357706 -0.03571698 -0.08400388 0.0065651624
-0.060974292 0.026767157 0.01298605 -0.048412047 -0.03908355 -0.041916132 -0.0061459495 -0.077029794
0.08014509 0.08832723 -0.06979108 0.02685872 0.09099475 -0.001884684 0.023194576 -0.016130133
00000000: 486e 713a f69f a1bd 425e c43d 9c3d 19bc
00000010: d48f cd3d 4486 dcbc 5b23 a93c f649 b7ba
00000020: 5b3b 913d d5f0 bebc 4744 113d f9a7 b33d
00000030: 2398 203d 1051 7d3d da9f 81bc 234a 35bc
00000040: bfbc 263c e89a bd3c 34d5 abbd b2e4 993d
00000050: b677 83bd 9ab2 bf3c c0e0 223d 3b8b a43d
00000060: fe2c 413d 96b8 a93d 0d22 403d 018e 6dbc
00000070: c1e3 c13c b22f 67bc 3294 c5ba 6368 80bb
00000080: a5fc 74bd 2dbf 56bd 622a 1f3c a37d 0d3d
00000090: ce25 55bd 63c2 79bd 9b5b 723d b950 a0bd
000000a0: 442e b7bd ff19 aabd c701 1e3d 0db2 dcbc
000000b0: 375a 69bc b8c3 853c d155 c9bd 8ce4 b9bd
000000c0: 1005 b0bd 8114 bebc 234c 303c faa6 993d
000000d0: 2ee7 1dbd 12d4 6b3d a4df e1ba fb0e ba3c
000000e0: 806d b13d 3ec6 693d 2356 90bd 2536 80bd
000000f0: 8927 993c e40d 79bd abad 643d b69a 9c3d
00000100: 853e 4b3d fc23 9e3d 2319 fdbc b168 6ebd
00000110: 2c19 6fbd 11bd c13d 8e0c c4bd f791 1d3d
00000120: a8f2 42bd 6774 80bd 84bf 6c3d 723a 09bd
00000130: b3d8 2fbd 189c 8b3c 9a52 3fbd 08bc d4bc
00000140: 95da c9bd 50c2 af3d 31ca f0bb 9627 5d3d
00000150: 541d 873d bd9f aabd d553 68bd 8f22 c8bd
00000160: 0315 9ebd 13e5 b3bd dd84 a0bd 866b 423d
00000170: 3cf4 3abd e519 c93c f18b c4bd 44f3 483b
00000180: 3f4e ab3c 0b73 b13d ab57 8d3d 57a7 443d
00000190: 5d2f b73d 930e 2fbb 29de 593d 2e45 bebd
000001a0: 4b1e 6e3d fa9c 3fbc 5e01 793b 121b 41bd
000001b0: c8f4 5a3d 6397 19bd faf5 a2bd c84b 2a3d
000001c0: 829f 303c 7c16 c9bd 34c5 8e3d 6f89 ddbb
000001d0: 6bc1 cbbd 72ba 61bd d660 c33d 0f05 3b3d
000001e0: 9d85 1fbc 933d bc3c ce3f 483b 1a45 acbd
000001f0: 06a3 ccbd 58a2 e73c 7ff0 a73d 3f6b b23d
00000200: 73cd 8bbd aed8 ac3a cf4b 993d e747 cd3d
00000210: b5ce 60bd 2c4c ce3d ca42 c83d f5be 8fbd
00000220: 5d6e 613c 4f70 bbbd 6963 e83c 52b0 513d
00000230: 32e9 c9bc e7f6 803d 7250 013c b5f4 43bd
00000240: 9dae 34bd 54f0 94bd 89cc 5b3d f1df b4bb
00000250: f157 ed39 549f b43d 5d97 a93d 114e 8abd
00000260: dc85 8fbd fbec a5bd 2add 68bd 124a 513c
00000270: 3810 80bd 23d4 a83d 0bf6 ab3d 855f 09bd
00000280: dbb9 86bd a3e2 25bd 8543 b03d f1ef 57bd
00000290: f9a4 c43d bdd0 6dbd 9b52 30bc a9a6 ba3d
000002a0: 355f 673d 0d1a 5c3d ec1b 52bd e2bb 913d
000002b0: 7996 3b3d 871a 9f3c 3c7d b83d 6fc8 553d
000002c0: 9898 4abd 7db4 0fbd b0c9 bfbd 9444 1dbd
000002d0: 5813 803d e1d2 31bd dd43 0f3d ca68 043c
000002e0: 38a8 9e3c 684e 5cbc fccf 323d 6b1a 43bc
000002f0: a72f 9fbd e923 963d bade eebc f385 c93b
00000300: 0485 a83d aa3b 333d fd6d 943c 2c20 42bd
00000310: 6437 65bc b22c 94bd 3bcb c53d 28ff 33bd
00000320: 9764 6e3d 4dde e2bc 68d6 cc3d cf82 b3bc
00000330: 7526 633d 27ae 873d e7af cb3d a2e1 153b
00000340: 646d 863a 1297 333d efc5 babd cd39 f13a
00000350: b938 85bd 3484 3c3d a756 d83d 8d11 ef3c
00000360: fe74 00bd c72e ae3d 2f17 b43d 4178 8b3d
00000370: cb7d 58bc d539 cdbd 77ca fa3b e950 38bd
00000380: d497 9b3d 3bdc 2d3d 8f5e 003d c620 c7bc
00000390: 8147 cd3d 803f 273c a40a 813d ba1c 40bd
000003a0: 643b 973c 8cdf b3bc 99f2 ac3c 8bfa 9ebc
000003b0: 1c6d 6abb f84b 12bd 3a0a acbd 9320 d73b
000003c0: 2ec0 79bd cc46 db3c 71c3 543c b64b 46bd
000003d0: 1316 20bd 40b0 2bbd f663 c9bb ccc1 9dbd
000003e0: 1c23 a43d e8e4 b43d a0ee 8ebd d206 dc3c
000003f0: 755b ba3d 8007 f7ba 8d02 be3c 5723 84bc

enc_p.lstm.weight_hh_l0 f4 [384, 96]
0.06704408 -0.022634394 -0.090983 0.05662431 -0.0115237925 -0.0425327 -0.071044244 0.04164688
-0.073642604 0.0046259225 -0.08104356 0.0037845068 0.025861666 -0.06407951 0.088900454 -0.0521334
0.049121678 -0.009165386 -0.06679027 -0.08863848 0.011788819 -0.06608407 -0.03192506 0.04140398
-0.08526348 -0.025476603 0.07648682 0.05493445 -0.024928225 0.09157347 0.018077184 -0.09542498
0.061629843 0.099663936 -0.058102883 0.026178898 -0.090254575 0.032022513 -0.09006839 0.025734643
0.08404216 -0.0688363 0.051490944 -0.0021566397 -0.03068051 -0.0010044066 0.065244935 0.094421744
-0.08759372 0.019592235 0.06885936 0.09219563 -0.020003138 0.05509587 0.062315613 -0.006342769
0.059183203 0.040141694 0.08888007 -0.08286545 -0.03138194 -0.05097803 0.07588952 0.09599422
0.09283987 -0.09299675 -0.07678313 0.060344033 0.07350885 0.09945565 -0.06714621 -0.042579953
-0.07363737 0.06970108 0.0981317 -0.0115998965 0.053479683 -0.079509996 -0.00055414106 -0.05562422
0.023002408 -0.04699109 0.058231242 0.07238099 0.044750016 0.0110761 -0.087281354 -0.032385986
0.032969184 -0.044524804 -0.0016511354 -0.0036113039 0.09416973 0.09373633 -0.014708786 -0.037498765
0.07538312 -0.061928984 -0.052873544 0.026868997 -0.08733056 -0.042572483 -0.029133476 0.051155906
0.10064276 0.06861001 -0.07277984 -0.05494471 0.048414018 0.056730237 -0.05496045 0.0068640914
-0.10341384 0.023604928 0.021902349 -0.07975908 0.0892326 -0.046071302 0.015638476 0.07600891
0.0010340895 -0.09755411 -0.03559132 0.02287286 -0.039461743 0.0708929 -0.032143686 0.02061104
-0.09451093 -0.037438903 0.017676193 -0.070052564 -0.04254796 -0.020600919 0.03175657 -0.02200396
0.08361545 0.05846586 0.025532471 -0.07512077 0.05554024 0.074964926 0.08596888 0.043697283
0.07292202 -0.016485969 0.04303306 0.07784468 -0.004299033 -0.08003444 0.060943015 0.023711048
0.09770756 0.0015168772 -0.044568107 0.06305273 -0.08414496 -0.044604976 -0.07244345 -0.063060194
0.03048094 0.016837943 -0.074333586 -0.07632178 -0.034816377 -0.06724562 -0.003442604 0.039790798
0.03639852 -0.08811614 0.08932982 0.06980575 0.099257804 -0.051717278 0.074952476 0.088617034
-0.0063183475 -0.0051707258 0.034737363 0.011570361 -0.002264479 -0.09935944 0.0156195145 0.09506422
0.03710508 0.024373926 -0.04865682 0.02830507 0.057665363 -0.010925762 -0.01639088 -0.08892608
-0.06299236 0.0048113368 -0.014459795 -0.05191434 -0.048433386 -0.030540263 0.09365136 -0.095432796
0.06750939 -0.08508574 -0.0354703 -0.08598344 0.04130602 0.0013906007 -0.0616466 0.093873635
-0.010702392 -0.048848975 0.08460046 -0.025324792 -0.03896113 0.03861618 -0.048238587 -0.09335974
-0.06481516 0.049417287 0.09029639 -0.07067292 0.020112079 -0.08548167 -0.030158907 0.09767963
0.008638972 -0.0746117 -0.009981814 0.07996288 0.09692269 0.04242266 -0.0058282525 0.06555785
0.07251694 0.007197613 0.05916076 0.020895438 0.03166459 -0.054494828 0.068071514 0.05487168
-0.05995779 0.0062999516 -0.021166448 -0.01634758 0.026618315 -0.033128873 0.004808367 0.07269894
0.043156452 -0.06970753 0.077807 -0.035853516 -0.015574655 0.011081195 -0.07461212 -0.013122177
00000000: 684e 893d c46b b9bc 4c55 babd e4ee 673d
00000010: 4ace 3cbc c536 2ebd a57f 91bd eb95 2a3d
00000020: efd1 96bd 0d95 973b 2afa a5bd 7d05 783b
00000030: d8db d33c 1e3c 83bd 7111 b63d d589 55bd
00000040: d033 493d 6a2a 16bc 56c9 88bd 1788 b5bd
00000050: e425 413c 1657 87bd dac3 02bd 3897 293d
00000060: 9f9e aebd 4fb4 d0bc 1fa5 9c3d f202 613d
00000070: 4736 ccbc df8a bb3d 9a16 943c 2c6e c3bd
00000080: 936f 7c3d 9b1c cc3d 4afd 6dbd 2175 d63c
00000090: 64d7 b8bd 0a2a 033d c775 b8bd 75d1 d23c
000000a0: 4c1e ac3d 0cfa 8cbd 2be8 523d 6956 0dbb
000000b0: b155 fbbc 4ba6 83ba 239f 853d 3060 c13d
000000c0: 5664 b3bd e57f a03c 2306 8d3d 10d1 bc3d
000000d0: 9fdd a3bc 35ac 613d a83e 7f3d 01d7 cfbb
000000e0: 166a 723d 9e6b 243d c106 b63d 5cb5 a9bd
000000f0: 598a 00bd 57ce 50bd f76b 9b3d 9e98 c43d
00000100: d422 be3d 1475 bebd 7940 9dbd 4e2b 773d
00000110: cf8b 963d 67af cb3d f483 89bd 5168 2ebd
00000120: 30cf 96bd 71bf 8e3d 46f9 c83d 7e0d 3ebc
00000130: 830d 5b3d 23d6 a2bd c743 11ba 39d6 63bd
00000140: 8c6f bc3c bb79 40bd e283 6e3d 7c3c 943d
00000150: cb4b 373d 8878 353c 91c0 b2bd 2ba7 04bd
00000160: b20a 073d a45f 36bd e96a d8ba a0ab 6cbb
00000170: 0fdc c03d d5f8 bf3d 1ffd 70bc 4e98 19bd
00000180: 7762 9a3d 3fa9 7dbd ee91 58bd 5f1c dc3c
00000190: 5dda b2bd 7c60 2ebd 54a9 eebc db88 513d
000001a0: cb1d ce3d 6883 8c3d 990d 95bd b40d 61bd
000001b0: c74d 463d f75d 683d 351e 61bd 2cec e03b
000001c0: a3ca d3bd 1f5f c13c 8e6c b33c bb58 a3bd
000001d0: 95bf b63d 43b5 3cbd 431c 803c 8faa 9b3d
000001e0: 498a 873a 73ca c7bd 34c8 11bd dd5f bb3c
000001f0: a3a2 21bd 4c30 913d 19a9 03bd 7cd8 a83c
00000200: f28e c1bd 8959 19bd aacd 903c b877 8fbd
00000210: c546 2ebd 42c3 a8bc 2d13 023d a641 b4bc
00000220: 943e ab3d e679 6f3d 7929 d13c ebd8 99bd
00000230: 2a7e 633d 3687 993d 7410 b03d ecfb 323d
00000240: 2458 953d 950d 87bc 6f43 303d 086d 9f3d
00000250: e7de 8cbb 19e9 a3bd 629f 793d ac3d c23c
00000260: e71a c83d f4d1 c63a 0c8d 36bd ca21 813d
00000270: 3154 acbd b5b3 36bd 3b5d 94bd b425 81bd
00000280: 2ab3 f93c baef 893c 353c 98bd 984e 9cbd
00000290: 9e9b 0ebd 12b8 89bd 509d 61bb adfb 223d
000002a0: 9d16 153d 3c76 b4bd 8df2 b63d 51f6 8e3d
000002b0: ad47 cb3d 7fd5 53bd af80 993d d97c b53d
000002c0: 240a cfbb 316f a9bb c448 0e3d 9d91 3d3c
000002d0: a767 14bb f67c cbbd fee8 7f3c 08b1 c23d
000002e0: 7ffb 173d d4ab c73c 604c 47bd 09e0 e73c
000002f0: 8432 6c3d f801 33bc 2b46 86bc e01e b6bd
00000300: 2302 81bd 6ba8 9d3b c7e8 6cbc 22a4 54bd
00000310: 1662 46bd 932f fabc 49cc bf3d 4572 c3bd
00000320: 5d42 8a3d 6f41 aebd 4e49 11bd 1618 b0bd
00000330: 8030 293d d144 b63a 2581 7cbd d240 c03d
00000340: 1659 2fbc dd15 48bd 0243 ad3d f075 cfbc
00000350: b595 1fbd 002c 1e3d d395 45bd 6433 bfbd
00000360: d0bd 84bd c869 4a3d 50ed b83d f7bc 90bd
00000370: 16c2 a43c 0411 afbd d00f f7bc 420c c83d
00000380: 7a8a 0d3c 05ce 98bd c38a 23bc 94c3 a33d
00000390: 677f c63d 62c3 2d3d edfa bebb 3243 863d
000003a0: c383 943d f4d9 eb3b 8e52 723d e92c ab3c
000003b0: bbb2 013d f835 5fbd 1469 8b3d 20c1 603d
000003c0: 4d96 75bd d36f ce3b 4265 adbc 5ceb 85bc
000003d0: a70e da3c 24b2 07bd 828f 9d3b 2fe3 943d
000003e0: d2c4 303d d2c2 8ebd 4759 9f3d 23db 12bd
000003f0: d62c 7fbc e78d 353c 3dce 98bd 66fe 56bc

enc_p.lstm.bias_ih_l0 f4 [384]
0.011918299 -0.05605239 0.08619635 -0.10029202 0.0034462498 -0.06275571 -0.09132548 -0.085833386
-0.029340625 -0.02817863 -0.04632425 -0.092268735 -0.10022729 -0.0046274546 -0.049600504 -0.02429389
-0.00616606 -0.01081356 0.005306984 -0.00096825545 0.028857797 -0.10358958 0.0033265678 -0.015480363
-0.02359063 0.03685033 0.020555042 -0.027907899 -0.0060305865 -0.019121744 0.081150256 -0.0982467
0.10252826 -0.034479775 0.015631707 -0.10060282 0.020805266 -0.0053347778 -0.0038523441 -0.011564012
0.048949033 0.10192757 0.06530069 0.042196073 0.10082484 0.003387454 -0.025381222 0.049259372
0.0025525219 0.05155572 -0.033014767 0.096761264 0.017249644 0.07214645 -0.08356669 -0.08861938
-0.042659547 -0.06936655 0.06542814 -0.08162989 0.00048251558 0.06793885 -0.054265104 -0.014997405
0.013846721 0.06486881 0.08504362 0.012602734 -0.081962556 -0.08300005 -0.025716232 -0.012068388
0.006964231 0.086099446 -0.09766 0.067635015 -0.054775 -0.009574063 0.07564533 -0.045452204
-0.05425961 0.06334192 -0.048284914 -0.070035756 0.06730311 -0.09106859 -0.04019662 -0.0619813
-0.05373829 -0.068744645 0.062662356 0.025764508 -0.054368746 -0.036517564 -0.075669184 -0.068469785
0.08075397 -0.043682393 0.08027978 0.05817539 0.011282086 -0.028738331 -0.08798758 0.08313766
-0.0635924 -0.044334825 0.09691848 -0.076658085 0.04329818 -0.045345582 -0.07348629 0.09372342
-0.07118812 -0.0131169 0.020309374 0.064253636 -0.068274796 0.02406173 0.060314056 -0.07232553
-0.060876656 0.048300304 0.08642594 -0.021802636 0.0197766 0.088915825 -0.08864366 -0.07739252
0.07845604 -0.05039586 -0.05680414 0.059454374 0.041106485 -0.0027202815 0.014811026 0.07881596
-0.04403417 -0.045833524 -0.011062614 0.10109078 -0.039154693 0.10034102 -0.08352795 0.082003556
-0.062348776 -0.052344956 -0.077420704 -0.09495737 0.021627145 0.07869895 0.060975607 0.064558506
-0.062292706 0.004137876 0.086887434 0.05952353 -0.07571773 -0.050243147 -0.02988796 -0.045342296
0.038305987 0.03269082 -0.030386746 0.017482365 0.051915336 0.099764176 -0.06287892 0.0857179
-0.09475308 -0.04069172 -0.02748875 0.066994265 0.03501889 -0.027920816 0.0479027 0.060784444
0.0013657594 -0.03891441 0.04102439 0.053542156 0.019919654 -0.08564631 -0.028111137 -0.019352267
-0.039596356 -0.09522979 -0.009860945 -0.050826427 -0.09330381 0.09675344 0.059259776 0.07944882
0.07084229 -0.017217577 0.07041336 0.05559009 0.016111348 0.05065187 -0.050916463 0.03528433
-0.079820916 0.0960435 -0.0813351 0.10417234 0.080567375 -0.09340421 0.011819669 -0.056085367
0.07430194 0.03676831 0.061778452 -0.08494818 -0.014630132 0.032449767 0.00457008 -0.011081462
-0.09895815 0.0047193733 0.026871832 0.06367308 0.049766526 0.094965905 0.00065095053 -0.055470046
0.062748045 -0.06764831 -0.051327072 -0.06944167 -0.050308693 -0.035065547 -0.031282675 -0.006201939
0.08120687 0.1006849 -0.033652086 -0.056071162 0.034650862 0.016899701 -0.08766972 0.04503913
-0.07464166 -0.009392904 -0.06854971 -0.08069932 0.051963706 -0.0016428903 -0.07014622 -0.0836607
-0.06210893 -0.09902798 0.035750274 0.09774249 -0.060695857 0.025522571 0.06154487 -0.022217792
00000000: f844 433c 3197 65bd b687 b03d e765 cdbd
00000010: 7ada 613b 1186 80bd da08 bbbd 6ac9 afbd
00000020: c05b f0bc dfd6 e6bc 7fbe 3dbd 64f7 bcbd
00000030: f743 cdbd e7a1 97bb e629 4bbd fb03 c7bc
00000040: a90c cabb 5c2b 31bc 35e6 ad3b 86d2 7dba
00000050: 3067 ec3c c626 d4bd 8c02 5a3b 59a1 7dbc
00000060: 2341 c1bc 5ff0 163d 0c63 a83c 1b9f e4bc
00000070: 3a9c c5bb 34a5 9cbc 1b32 a63d 9135 c9bd
00000080: 56fa d13d aa3a 0dbd 110e 803c da08 cebd
00000090: ce6f aa3c 5ccf aebb 9c77 7cbb fb76 3dbc
000000a0: c87e 483d 67bf d03d 5ebc 853d cad5 2c3d
000000b0: 417d ce3d 0c00 5e3b 48ec cfbc 32c4 493d
000000c0: 3648 273b 172c 533d 7e3a 07bd c52a c63d
000000d0: 204f 8d3c 85c1 933d 0325 abbd 147e b5bd
000000e0: c7bb 2ebd 0d10 8ebd 30ff 853d 922d a7bd
000000f0: 25fa fc39 8623 8b3d 1645 5ebd adb7 75bc
00000100: 5bdd 623c f0d9 843d 592b ae3d b37b 4e3c
00000110: fcdb a7bd eefb a9bd d9aa d2bc 7dba 45bc
00000120: 3434 e43b e854 b03d f701 c8bd 3a84 8a3d
00000130: c05b 60bd 88dc 1cbc f0eb 9a3d 172c 3abd
00000140: 533f 5ebd 69b9 813d 67c6 45bd e86e 8fbd
00000150: 37d6 893d 2b82 babd 36a5 24bd 1be0 7dbd
00000160: ae1c 5cbd fec9 8cbd 1f55 803d 1710 d33c
00000170: c3b1 5ebd 7193 15bd 72f8 9abd e339 8cbd
00000180: 5662 a53d 4fec 32bd ba69 a43d 5149 6e3d
00000190: 80d8 383c a66c ebbc d532 b4bd 1444 aa3d
000001a0: bb3c 82bd 6f98 35bd 327d c63d eafe 9cbd
000001b0: 6f59 313d 4abc 39bd fb7f 96bd 10f2 bf3d
000001c0: 14cb 91bd 44e8 56bc d85f a63c 6997 833d
000001d0: a8d3 8bbd 1b1d c53c df0b 773d 681f 94bd
000001e0: cd59 79bd 8ad6 453d 1500 b13d 719b b2bc
000001f0: 8902 a23c 8019 b63d cf8a b5bd f87f 9ebd
00000200: 8fad a03d e46b 4ebd 75ab 68bd 6e86 733d
00000210: 465f 283d c046 32bb f2a9 723c 436a a13d
00000220: 2d5d 34bd efbb 3bbd f73f 35bc af08 cf3d
00000230: ac60 20bd 987f cd3d b410 abbd 7bf1 a73d
00000240: 6e61 7fbd aa67 56bd bf8e 9ebd 0279 c2bd
00000250: 692b b13c ea2c a13d 8fc1 793d 4037 843d
00000260: a326 7fbd 0597 873b 0af2 b13d f2ce 733d
00000270: e611 9bbd c2cb 4dbd 98d7 f4bc d8b8 39bd
00000280: bde6 1c3d cfe6 053d a0ed f8bc 2d37 8f3c
00000290: 2da5 543d 2951 cc3d aac6 80bd de8c af3d
000002a0: e70d c2bd 5cac 26bd 1630 e1bc 4a34 893d
000002b0: f86f 0f3d 32ba e4bc 9f35 443d 1cf9 783d
000002c0: 4803 b33a b764 1fbd 3109 283d 054f 5b3d
000002d0: 8b2e a33c 5567 afbd 5449 e6bc a588 9ebc
000002e0: ca2f 22bd d607 c3bd cd8f 21bc 5f2f 50bd
000002f0: 1116 bfbd ab26 c63d 61ba 723d 10b6 a23d
00000300: c315 913d e00b 8dbc e134 903d 6fb2 633d
00000310: f2fb 833c 5678 4f3d c88d 50bd 4d86 103d
00000320: 2679 a3bd 74b2 c43d 0493 a6bd 4f58 d53d
00000330: 8200 a53d b54a bfbd 49a7 413c c5b9 65bd
00000340: 9e2b 983d 5e9a 163d 670b 7d3d 50f9 adbd
00000350: 39b3 6fbc 0cea 043d 9cc0 953b 058f 35bc
00000360: 92aa cabd f9a4 9a3b 5122 dc3c 0867 823d
00000370: fcd7 4b3d 7c7d c23d 8da4 2a3a 8f34 63bd
00000380: 0c82 803d 328b 8abd 563c 52bd 6f37 8ebd
00000390: 7d10 4ebd e4a0 0fbd 4322 00bd a339 cbbb
000003a0: ca4f a63d e333 ce3d c5d6 09bd e0aa 65bd
000003b0: 10ee 0d3d 3e71 8a3c 2f8c b3bd f37a 383d
000003c0: badd 98bd b2e4 19bc ca63 8cbd af45 a5bd
000003d0: e5d7 543d 4056 d7ba d2a8 8fbd 4d56 abbd
000003e0: ef65 7ebd 2ecf cabd e16e 123d 372d c83d
000003f0: 389c 78bd b614 d13c 7916 7c3d 1602 b6bc

enc_p.lstm.bias_hh_l0 f4 [384]
0.08002668 0.07978929 0.023717605 0.09580646 -0.036976084 -0.042001743 -0.09779139 0.008224062
0.005280895 0.0073404885 -0.046741996 -0.027138554 0.056794513 0.073267 0.0020526256 -0.027147962
-0.017951813 0.056811552 0.084715106 -0.07663843 0.006144044 -0.02165805 0.084856205 -0.03553615
-0.0396101 0.07348908 0.06154988 0.015180769 -0.09805541 0.038478795 -0.010155176 -0.02759688
-0.05483112 0.05480983 0.07876795 0.030327838 -0.03661581 -0.06995847 -0.09406718 -0.085264355
0.045736954 -0.075840384 0.032632962 0.024312256 0.005566504 0.050586216 0.06807791 0.094864346
-0.013819326 -0.01659787 -0.04028018 -0.0016904832 -0.052179426 0.07308517 0.06344786 -0.06581871
-0.056615353 -0.08426008 -0.060707316 -0.06733232 -0.025627024 0.08324735 -0.09853255 -0.015057643
0.015413055 -0.05211354 0.05973688 -0.00064138777 0.06512039 0.038223494 -0.026998097 -0.06354157
-0.050570723 -0.03505464 -0.085950196 0.07145347 -0.018228067 -0.08452349 0.072521836 -0.010567581
0.09062077 -0.031793203 -0.03665301 0.0806168 0.04167889 0.0624753 0.0039851894 0.02766245
0.055084202 0.028621715 0.069803186 -0.026505614 -0.07201034 -0.015170903 -0.0406088 -0.019625701
-0.06853329 0.09474645 -0.0024206368 0.102925286 0.059059814 0.09146265 0.045665007 0.00059316674
-0.09906169 0.060420014 -0.023210723 0.08260471 -0.09599215 -0.07520524 -0.087648004 -0.039905086
0.095532954 -0.07816186 -0.03182464 -0.089513235 0.09412421 0.09336219 0.091738485 -0.05620438
0.02125985 -0.07626062 0.08289886 -0.04447178 -0.049776267 0.036833122 -0.025319632 0.05500413
0.061283894 -0.05164384 -0.0918316 0.036095522 -0.07977314 -0.07028777 -0.09325467 -0.07796375
0.086367205 -0.07923175 -0.091732375 -0.089022204 -0.0062234364 -0.06657621 0.09220196 0.038627103
-0.049444642 -0.045803506 -0.09160739 -0.014169079 -0.03918114 0.08744779 -0.10293407 0.03338352
0.0575393 0.0072631487 0.096732214 0.005360796 0.06681113 -0.09481751 0.06360269 0.055530153
-0.08268577 -0.05502311 0.0025386391 0.08463364 0.0856214 -0.039222576 0.098191515 0.04697016
-0.04986277 0.09670941 -0.02531742 0.025116118 -0.0027077764 0.07842329 0.05248676 0.026998874
0.08870133 -0.08604277 -0.053620674 0.044724826 -0.05573981 0.040917043 0.085190885 0.0007716175
0.055069365 -0.059790015 0.087535165 0.07040951 0.09186251 0.09437414 -0.012794564 -0.090078115
0.008925977 0.03672832 0.07692515 -0.023919718 0.086183816 -0.08929345 -0.021950241 -0.0055290787
-0.07983956 -0.052609034 0.07089645 0.05493724 0.07366945 -0.064108945 0.05565578 -0.089441486
0.088642195 0.03583487 0.015917817 0.0894891 -0.06338074 0.03876102 0.0661353 -0.073149465
0.08838299 0.07269446 -0.016618649 -0.071746774 -0.09232603 -0.044235233 -0.026045933 -0.06594588
0.03545299 0.059108946 0.078754514 -0.011394513 -0.096777014 -0.05538146 0.036538597 0.03777687
-0.0485514 0.09970411 0.06862741 -0.103778765 0.068381146 0.05785317 -0.05958271 0.09274024
0.0657606 0.041298557 0.018130608 -0.075969405 -0.051848628 -0.04674381 0.09537512 -0.04881329
-0.01171019 0.021232806 0.071515344 -0.0031553812 -0.05073618 0.07303995 -0.037955273 -0.045067128
00000000: 07e5 a33d 9168 a33d 6c4b c23c 2d36 c43d
00000010: 3c74 17bd 050a 2cbd da46 c8bd 37be 063c
00000020: 5c0b ad3b 7b88 f03b 8974 3fbd ac51 debc
00000030: 5da1 683d 020d 963d 5885 063b 6765 debc
00000040: ae0f 93bc 3bb3 683d 1d7f ad3d 9cf4 9cbd
00000050: fa53 c93b 396c b1bc 17c9 ad3d 5b8e 11bd
00000060: 333e 22bd 7181 963d ba1b 7c3d c3b8 783c
00000070: 46d1 c8bd f19b 1d3d e561 26bc da12 e2bc
00000080: 9996 60bd 4680 603d 1751 a13d 1672 f83c
00000090: 76fa 15bd 6346 8fbd 4ba6 c0bd 149f aebd
000000a0: ac56 3b3d 3452 9bbd 24aa 053d 7f2a c73c
000000b0: 3867 b63b 7e33 4f3d 6e6c 8b3d 3d48 c23d
000000c0: 746a 62bc 42f8 87bc d4fc 24bd 3493 ddba
000000d0: 18ba 55bd adad 953d f4f0 813d f6cb 86bd
000000e0: 80e5 67bd 8c90 acbd 3ca8 78bd 87e5 89bd
000000f0: c4ef d1bc 967d aa3d 6fcb c9bd 55b4 76bc
00000100: 0a87 7c3c 0275 55bd a9ae 743d ce22 28ba
00000110: d75d 853d 3d90 1c3d 1d2b ddbc 1522 82bd
00000120: 3f23 4fbd 7495 0fbd a806 b0bd 3256 923d
00000130: 0753 95bc a71a adbd 5486 943d a623 2dbc
00000140: 6297 b93d 9739 02bd 7721 16bd 6c1a a53d
00000150: 7cb7 2a3d 1ae6 7f3d 3196 823b 5d9c e23c
00000160: f99f 613d 1678 ea3c f9f4 8e3d 4d22 d9bc
00000170: 287a 93bd 618f 78bc 6a55 26bd 14c6 a0bc
00000180: 2e5b 8cbd 6d0a c23d 8ca3 1ebb 7eca d23d
00000190: b4e8 713d c550 bb3d 3b0b 3b3d bf7e 1b3a
000001a0: dbe0 cabd fa7a 773d 6a24 bebc a82c a93d
000001b0: 8897 c4bd 3405 9abd cc80 b3bd 8473 23bd
000001c0: c8a6 c33d 5313 a0bd 8e5a 02bd b752 b7bd
000001d0: 32c4 c03d ad34 bf3d 63e1 bb3d 9036 66bd
000001e0: 2329 ae3c 872e 9cbd e1c6 a93d 0b28 36bd
000001f0: 33e2 4bbd 54de 163d 1e6b cfbc 034c 613d
00000200: d204 7b3d 7e88 53bd 3512 bcbd e6d8 133d
00000210: 1a60 a3bd 09f3 8fbd 4efc bebd 75ab 9fbd
00000220: 4ae1 b03d 4144 a2bd 2fde bbbd 4651 b6bd
00000230: f8ed cbbb 1c59 88bd 62d4 bc3d 7437 1e3d
00000240: 7786 4abd 759c 3bbd a89c bbbd 6d25 68bc
00000250: 677c 20bd d417 b33d 19cf d2bd 28bd 083d
00000260: 54ae 6b3d b5ff ed3b 8a1b c63d 9ea9 af3b
00000270: 46d4 883d af2f c2bd 2142 823d 9673 633d
00000280: 2857 a9bd ea5f 61bd 4c5f 263b 6754 ad3d
00000290: 465a af3d daa7 20bd a218 c93d c863 403d
000002a0: e73c 4cbd 950f c63d 7a66 cfbc 51c0 cd3c
000002b0: f374 31bb 649c a03d 5bfc 563d be2c dd3c
000002c0: 0ba9 b53d 3137 b0bd 5aa1 5bbd 6131 373d
000002d0: 6d4f 64bd a198 273d 8f78 ae3d 6046 4a3a
000002e0: 6a90 613d 60e6 74bd a345 b33d dc32 903d
000002f0: 6922 bc3d 3b47 c13d 4aa0 51bc e07a b8bd
00000300: 433e 123c 6f70 163d ef8a 9d3d 49f3 c3bc
00000310: 2481 b03d 7cdf b6bd fed0 b3bc 462d b5bb
00000320: ec82 a3bd 927c 57bd 2832 913d df05 613d
00000330: 02e0 963d 8d4b 83bd 51f7 633d 192d b7bd
00000340: 0a8a b53d 96c7 123d 1566 823c 1046 b73d
00000350: c3cd 81bd e0c3 1e3d f271 873d 63cf 95bd
00000360: 2402 b53d d5e0 943d d523 88bc f9ef 92bd
00000370: 6e15 bdbd 0130 35bd 485e d5bc a20e 87bd
00000380: 2837 113d 391c 723d 0c4a a13d 0db0 3abc
00000390: 0733 c6bd abd7 62bd 7fa9 153d ebbb 1a3d
000003a0: d5dd 46bd ab31 cc3d 878c 8c3d f689 d4bd
000003b0: 6a0b 8c3d 72f7 6c3d 000d 74bd 98ee bd3d
000003c0: 7ead 863d ad28 293d a486 943c d995 9bbd
000003d0: 3a5f 54bd 7076 3fbd 0854 c33d 72f0 47bd
000003e0: 19dc 3fbc 6cf0 ad3c a376 923d 83ca 4ebb
000003f0: bed0 4fbd f895 953d fd76 1bbd 4f98 38bd

enc_f.lstm.weight_ih_l0 f4 [384, 4]
0.037201434 -0.019061448 -0.005480455 0.07636928 0.031278286 0.0764987 0.056004547 0.090217136
-0.05311453 0.016803892 -0.06953172 0.07661586 -0.083607964 0.046753094 -0.033108912 0.0056784195
0.05043224 -0.09186907 0.035506815 -0.04846806 -0.07348427 0.04749551 -0.052928597 0.08283956
0.054739244 0.012326821 0.013013358 -0.020521391 -0.08672658 -0.043025773 0.01219975 0.05353685
0.09748052 0.08278419 -0.08172469 0.032756027 0.03041304 0.076757945 -0.0076144557 -0.011475255
-0.04412614 -0.011428481 -0.0009426544 0.04109879 -0.06267031 -0.019039202 0.018539064 0.024730274
0.0943175 0.08742994 0.021036666 0.08203732 0.020942628 -0.0016081174 -0.09406774 0.085586414
0.084105864 0.01812142 0.05139108 -0.012848252 -0.033524565 0.02094651 -0.09029697 0.040630646
-0.07203917 0.07880771 -0.008182369 -0.006790058 0.023162344 0.09915398 0.07755416 0.028234156
-0.0073761526 -0.09347662 -0.097568646 -0.007755871 0.0655472 0.051887564 -0.09514219 -0.008351133
-0.03203139 -0.02019753 0.09826507 -0.03616634 0.04046751 -0.10380209 -0.001110788 0.10163036
-0.016094465 0.013491848 0.07178825 -0.030820455 0.06399556 -0.080780126 -0.009830018 0.090464175
-0.08388487 0.09327308 -0.10123165 -0.06955215 -0.038208194 0.08823898 0.016489083 0.0074718287
0.051335685 0.076306805 -0.029584052 0.018834079 0.042009756 0.075224906 0.028038861 0.02886468
0.017822105 0.03577372 -0.052414443 -0.045938183 0.05943527 0.06707862 -0.06611804 0.046940193
0.044199303 0.028221522 -0.012541467 0.015339028 0.025218867 0.02493104 0.09954611 0.036324527
0.05688848 -0.09143328 -0.05209152 0.06943162 0.023642506 0.047823694 -0.08331407 0.01675733
0.010206392 0.06702235 -0.0025489817 0.07308211 -0.096724294 0.036626663 0.08159894 0.05751604
-0.0016615916 -0.0056810626 0.03937054 -0.099492215 0.07387737 -0.077990256 -0.05517716 0.08204313
-0.02097192 -0.018432911 0.016661156 -0.090926565 0.070467055 0.072653145 -0.008508468 -0.08524757
0.019994505 0.056409363 -0.08569012 -0.038095325 0.07496462 0.06467123 0.024088439 0.10079371
0.09448661 -0.007207956 -0.046390433 -0.077914976 0.02675002 -0.1035273 -0.07952652 -0.06974266
0.03555015 0.07850734 0.065654464 0.00691093 0.027080437 0.0111874435 0.07963026 -0.10404851
-0.06093566 -0.08568395 -0.012871985 -0.06583064 0.06364873 0.09318923 0.068528965 0.04430407
0.020762458 0.032815546 0.09191639 0.075303815 0.099414095 0.04109717 -0.099785514 -0.0492978
-0.07768882 0.07232531 0.077460274 0.06943129 0.06163839 -0.07539356 -0.056078475 0.07927134
-0.057645455 0.0013735449 0.046099477 0.021178372 -0.08909129 -0.032320183 -0.09459157 -0.0016258869
0.0036589927 -0.04195747 -0.073754646 -0.036093116 -0.039729938 -0.053279318 -0.00027544016 0.049804807
-0.010963009 0.006975049 0.08674833 -0.10102897 0.066714115 -0.09804569 -0.064439766 0.0979056
0.07289873 0.07250319 0.04504306 0.06980817 -0.0053075054 -0.07687006 -0.03746046 0.027040757
0.05486132 -0.030623805 -0.08611551 0.03854716 -0.04631057 -0.03517471 -0.04461845 -0.09044428
-0.031211777 0.097807795 0.021142282 0.02774851 0.004869573 -0.07941833 0.052802954 0.0029333439
00000000: 8860 183d c126 9cbc 6395 b3bb 7f67 9c3d
00000010: a91d 003d 5aab 9c3d 0665 653d c3c3 b83d
00000020: 9f8e 59bd 51a8 893c a566 8ebd c7e8 9c3d
00000030: a73a abbd 2c80 3f3d 369d 07bd 0912 ba3b
00000040: 0992 4e3d da25 bcbd 986f 113d 7286 46bd
00000050: ec7e 96bd a78a 423d a8cb 58bd caa7 a93d
00000060: 4236 603d 6ff6 493c fb35 553c 7a1c a8bc
00000070: b59d b1bd cb3b 30bd 76e1 473c 7549 5b3d
00000080: dea3 c73d c28a a93d 465f a7bd 2f2b 063d
00000090: c524 f93c 4533 9d3d af82 f9bb b502 3cbc
000000a0: 9dbd 34bd 863e 3bbc 771c 77ba 3457 283d
000000b0: 4b59 80bd 1af8 9bbc 3cdf 973c 2597 ca3c
000000c0: 8929 c13d 780e b33d 1655 ac3c 2f03 a83d
000000d0: e08f ab3c 77c7 d2ba 96a6 c0bd ee47 af3d
000000e0: b23f ac3d 5f73 943c 747f 523d 7a81 52bc
000000f0: 0e51 09bd 0498 ab3c 9eed b8bd 526c 263d
00000100: 4689 93bd f065 a13d 580f 06bc 237f debb
00000110: f5be bd3c 3e11 cb3d b7d4 9e3d 514b e73c
00000120: a7b3 f1bb ac70 bfbd 12d2 c7bd f624 febb
00000130: 9c3d 863d 0e88 543d e9d9 c2bd 31d3 08bc
00000140: 5933 03bd 4a75 a5bc 323f c93d 2823 14bd
00000150: 43c1 253d 3196 d4bd dc97 91ba 9423 d03d
00000160: 8ad8 83bc e90c 5d3c b805 933d 2e7b fcbc
00000170: 1b10 833d 0d70 a5bd 150e 21bc 4845 b93d
00000180: d5cb abbd f505 bf3d 8a52 cfbd 5c71 8ebd
00000190: 3280 1cbd a3b6 b43d 1d14 873c 3ed6 f43b
000001a0: 5e45 523d be46 9c3d 415a f2bc ed49 9a3c
000001b0: 6c12 2c3d 840f 9a3d c1b1 e53c 9f75 ec3c
000001c0: aaff 913c 7787 123d 87b0 56bd ad29 3cbd
000001d0: 6672 733d 8460 893d e568 87bd 5c44 403d
000001e0: 540a 353d d230 e73c ba7a 4dbc 8c50 7b3c
000001f0: cc97 ce3c 2e3c cc3c d5de cb3d 07c9 143d
00000200: e503 693d 5f41 bbbd eb5d 55bd 2a32 8e3d
00000210: eead c13c c7e2 433d 91a0 aabd ab46 893c
00000220: b638 273c 0443 893d d10c 27bb 13ac 953d
00000230: 6317 c6bd d705 163d 581d a73d f095 6b3d
00000240: c3c9 d9ba 3528 babb 0143 213d 93c2 cbbd
00000250: 054d 973d 5bb9 9fbd 7201 62bd 3b06 a83d
00000260: 4ecd abbc 9e00 97bc fa7c 883c b537 babd
00000270: 0851 903d 2ccb 943d 1a67 0bbc 4796 aebd
00000280: 84cb a33c 810d 673d 4d7e afbd d809 1cbd
00000290: 0d87 993d 5a72 843d 1e55 c53c ef6c ce3d
000002a0: 3282 c13d b830 ecbb e503 3ebd e391 9fbd
000002b0: dc22 db3c 1f06 d4bd cdde a2bd 3dd5 8ebd
000002c0: 099d 113d 75c8 a03d d975 863d 1575 e23b
000002d0: cbd7 dd3c 8a4b 373c 3115 a33d 6317 d5bd
000002e0: ac97 79bd 117b afbd 05e5 52bc 37d2 86bd
000002f0: 445a 823d ffd9 be3d ea58 8c3d 2f78 353d
00000300: 0816 aa3c 9869 063d a93e bc3d e338 9a3d
00000310: 9e99 cb3d 8255 283d 595c ccbd 7dec 49bd
00000320: 511b 9fbd 4b1f 943d 7ea3 9e3d fe31 8e3d
00000330: 8978 7c3d f067 9abd 8bb2 65bd 0359 a23d
00000340: a41d 6cbd 8508 b43a ced2 3c3d 447e ad3c
00000350: 7f75 b6bd 2b62 04bd 3ab9 c1bd b61b d5ba
00000360: b6cb 6f3b 99db 2bbd ad0c 97bd 60d6 13bd
00000370: dcbb 22bd 6a3b 5abd f468 90b9 2000 4c3d
00000380: 319e 33bc f48e e43b 1ca9 b13d 47e8 cebd
00000390: 69a1 883d 2ecc c8bd fff8 83bd bb82 c83d
000003a0: ee4b 953d 8d7c 943d 127f 383d 96f7 8e3d
000003b0: 95ea adbb 0d6e 9dbd 2470 19bd 9484 dd3c
000003c0: 43b6 603d c6de fabc 545d b0bd a0e3 1d3d
000003d0: 27b0 3dbd 5b13 10bd d6c1 36bd da3a b9bd
000003e0: d7af ffbc 744f c83d 9432 ad3c d850 e33c
000003f0: f090 9f3b 14a6 a2bd e947 583d 583d 403b

enc_f.lstm.weight_hh_l0 f4 [384, 96]
0.07651175 -0.050377756 -0.029632054 0.046980236 -0.029458303 0.048590384 0.014574091 0.046253424
-0.08711788 0.0128418 -0.017060094 -0.033537302 0.08522306 0.038685206 -0.090892985 0.0405343
-0.0552583 -0.05329533 0.093777314 -0.053934485 0.08363146 -0.020243619 -0.06899721 -0.086896874
0.0023790447 -0.020831043 0.043369304 0.09451283 -0.059963234 -0.07774729 -0.01559534 0.036697373
0.003483165 0.038926292 -0.03559496 -0.047340658 -0.05258577 -0.087509945 0.029081482 0.08778793
0.022993052 0.080526955 -0.079907596 -0.07419149 -0.10066513 0.050713826 -0.004461351 0.008053407
0.08232483 -0.09359447 -0.08062422 0.087291904 -0.091422066 -0.07860821 0.08411757 0.02214799
0.05357334 0.042472657 0.08034129 0.046466026 -0.08463123 -0.011652238 -0.011881328 -0.011574446
-0.00075584324 -0.097327866 -0.011935143 -0.040140815 -0.029285312 0.050820164 0.041365348 -0.04385368
0.042470258 -0.052552667 0.10027283 -0.062039565 -0.0036165048 0.0046346653 -0.06526631 0.004130655
-0.07187303 -0.07951536 0.07664665 -0.096848585 -0.0095982505 0.004571802 -0.060071856 -0.05470546
-0.08925526 -0.08524696 0.029770559 -0.029869817 -0.044624127 0.0033423603 -0.00034582024 -0.087557726
0.010016072 0.09418589 0.064718746 -0.003563402 -0.014524971 0.08254713 0.01973304 0.05343588
0.07945082 -0.06353982 0.009687049 -0.09192797 -0.027688729 0.0359566 0.038605455 -0.04442923
-0.02218568 0.022432193 0.055638075 -0.033197287 0.04797821 0.09287087 0.05820325 -0.025726069
-0.0425411 0.03195786 0.0062963758 -0.09595566 -0.059023313 -0.03873356 -0.050532844 -0.0794847
-0.06746074 -0.09371003 0.042163406 0.056853518 0.09345665 -0.01052324 -0.0718937 -0.056850947
0.064509 -0.012606878 0.087362215 -0.034032203 0.013416779 0.08913583 -0.04327423 -0.09398617
0.0016736103 -0.060468245 0.0022062669 0.065263316 -0.03666684 0.017951818 0.0034458446 -0.093892515
0.07583287 0.033829756 0.08608504 -0.044728126 0.0176226 -0.007953313 0.037106287 0.008247396
0.049877487 0.023381755 -0.052790746 -0.04358633 -0.025419403 -0.047048636 0.0010429518 0.10033565
-0.02344383 -0.032654513 0.051520113 -0.009821766 0.064402744 -0.042345542 0.020570986 0.0002604004
0.024396824 -0.058263037 -0.08083652 0.005576648 -0.081309944 0.032482684 -0.070701525 -0.042188298
-0.028562535 -0.074376985 -0.034624845 -0.06570046 0.042070642 0.059317805 0.058722332 -0.039617553
-0.052639477 -0.098447815 -0.00027265414 0.06725524 -0.10068338 -0.048970617 -0.09661552 -0.06505489
0.03099301 0.09363734 0.056387946 -0.064813435 -0.038757164 0.0516303 0.002235072 -0.04514016
-0.09110614 -0.075249724 0.062131908 0.062097188 0.037549865 0.018373892 0.01373412 -0.018531984
-0.050117407 -0.070527956 -0.049152143 -0.046774995 -0.074941665 0.09314577 0.0032504015 -0.09776748
-0.04071605 0.06255471 -0.06541293 0.019396177 0.035856377 0.005623771 0.01577499 -0.021745672
-0.08920512 -0.08763429 -0.04516903 -0.016081244 0.022376735 0.0013294831 -0.09767733 0.014718955
0.07745787 0.02467259 -0.098174006 0.02692204 0.04935425 0.015868105 -0.07104431 0.026700286
0.09441908 -0.097374305 0.024835778 -0.10009037 0.0921922 -0.086165525 -0.0796895 0.017730936
00000000: 31b2 9c3d e858 4ebd ecbe f2bc 596e 403d
00000010: 8a52 f1bc b606 473d 2bc8 6e3c 3b74 3d3d
00000020: dc6a b2bd 6a66 523c 9cc1 8bbc 695e 09bd
00000030: 6d89 ae3d 6174 1e3d 1a26 babd 4b07 263d
00000040: 8756 62bd 344c 5abd 520e c03d 68ea 5cbd
00000050: f946 ab3d f2d5 a5bc 694e 8dbd fdf6 b1bd
00000060: bfe9 1b3b dda5 aabc 03a4 313d f18f c13d
00000070: 029c 75bd f939 9fbd 9983 7fbc fc4f 163d
00000080: d045 643b 2d71 1f3d 05cc 11bd 47e8 41bd
00000090: 2d64 57bd 6a38 b3bd 4a3c ee3c 29ca b33d
000000a0: ed5b bc3c 51eb a43d 98a6 a3bd b5f1 97bd
000000b0: 8529 cebd 4db9 4f3d 8630 92bb 70f2 033c
000000c0: ec99 a83d 75ae bfbd 501e a5bd 19c6 b23d
000000d0: 7e3b bbbd 57fd a0bd d545 ac3d b46f b53c
000000e0: b86f 5b3d cff7 2d3d f989 a43d 2953 3e3d
000000f0: 2353 adbd 07e9 3ebc e7a9 42bc bfa2 3dbc
00000100: c823 46ba d553 c7bd 9e8b 43bc b26a 24bd
00000110: c0e7 efbc ce28 503d b66e 293d eb9f 33bd
00000120: 4bf5 2d3d 7741 57bd d75b cd3d 331d 7ebd
00000130: e202 6dbb 64de 973b 58aa 85bd 725a 873b
00000140: 2b32 93bd f3d8 a2bd ebf8 9c3d 8d58 c6bd
00000150: fb41 1dbc 0ecf 953b e80d 76bd d512 60bd
00000160: 76cb b6bd f595 aebd 63e1 f33c 8cb1 f4bc
00000170: cac7 36bd 800b 5b3b 354f b5b9 7751 b3bd
00000180: 731a 243c 88e4 c03d 438b 843d f787 69bb
00000190: 25fa 6dbc 780e a93d 2fa7 a13c 95df 5a3d
000001a0: 1db7 a23d 2a21 82bd 6eb6 1e3c bb44 bcbd
000001b0: 79d3 e2bc 3a47 133d c120 1e3d 6dfb 35bd
000001c0: bebe b5bc b8c3 b73c c0e4 633d e1f9 07bd
000001d0: cd84 443d 1533 be3d 8866 6e3d 7abf d2bc
000001e0: 943f 2ebd 3fe6 023d d451 ce3b 6784 c4bd
000001f0: 6ec2 71bd 15a7 1ebd 87fb 4ebd e0c8 a2bd
00000200: db28 8abd 0beb bfbd 89b3 2c3d 3cdf 683d
00000210: 3366 bf3d ab69 2cbc 013d 93bd 8adc 68bd
00000220: 4b1d 843d 148d 4ebc f6ea b23d 5a65 0bbd
00000230: 0dd2 5b3c d98c b63d 5240 31bd d27b c0bd
00000240: 0b5d db3a 8dad 77bd 0497 103b c6a8 853d
00000250: f82f 16bd b10f 933c aed3 613b b84a c0bd
00000260: 444e 9b3d 1291 0a3d 5a4d b03d d734 37bd
00000270: 455d 903c 9d4e 02bc c3fc 173d 1620 073c
00000280: 564c 4c3d 188b bf3c 1c3b 58bd 9487 32bd
00000290: 5a3c d0bc 12b6 40bd a8b3 883a c77c cd3d
000002a0: 460d c0bc bdc0 05bd c106 533d 79eb 20bc
000002b0: 96e5 833d 8572 2dbd 7c84 a83c 5a86 8839
000002c0: d9db c73c 39a5 6ebd 9e8d a5bd 50bc b63b
000002d0: d485 a6bd 900c 053d f6cb 90bd a3cd 2cbd
000002e0: fafb e9bc f652 98bd c8d2 0dbd f68d 86bd
000002f0: 4452 2c3d 3af7 723d d486 703d 0446 22bd
00000300: 7e9c 57bd 029f c9bd 05f3 8eb9 1ebd 893d
00000310: 1733 cebd 6a95 48bd 5cde c5bd 803b 85bd
00000320: 0ee5 fd3c efc4 bf3d 0cf7 663d e8bc 84bd
00000330: d5bf 1ebd 4b7a 533d 497a 123b e3e4 38bd
00000340: db95 babd 871c 9abd 077e 7e3d 9f59 7e3d
00000350: e3cd 193d d884 963c 1305 613c 63d0 97bc
00000360: e947 4dbd f670 90bd c253 49bd 2397 3fbd
00000370: 047b 99bd 36c3 be3d b004 553b 513a c8bd
00000380: dfc5 26bd af1c 803d 37f7 85bd bbe4 9e3c
00000390: 23de 123d 9c47 b83b 8d3a 813c fb23 b2bc
000003a0: 2db1 b6bd 9b79 b3bd 2903 39bd d0bc 83bc
000003b0: 6a4f b73c 0d42 ae3a 0d0b c8bd c627 713c
000003c0: 3ba2 9e3d 2c1e ca3c 740f c9bd 9c8b dc3c
000003d0: af27 4a3d d4fd 813c ae7f 91bd 8fba da3c
000003e0: ca5e c13d 2e6c c7bd 6774 cb3c 2efc ccbd
000003f0: 44cf bc3d 8d77 b0bd 4034 a3bd 7840 913c

enc_f.lstm.bias_ih_l0 f4 [384]
-0.06783214 0.09615097 -0.032440122 0.039756775 -0.029513875 -0.041348726 -0.05078799 0.04248844
0.028565908 -0.018516654 0.06218702 0.08803792 0.068984576 -0.008257925 0.039249957 0.025128655
0.02319659 -0.06151928 -0.06306322 0.059537843 -0.022024678 -0.09554925 0.025472661 -0.06686745
0.051860332 0.079437844 -0.10210342 -0.008882471 0.032468632 -0.082511835 -0.09850634 0.042590942
-0.017465973 -0.032623757 -0.085781924 0.015195438 0.046941258 -0.027660163 0.09539405 0.072940096
-0.02560878 0.056691155 0.072797105 0.012844161 -0.035189003 0.06742119 0.008431022 0.02994151
-0.087710045 0.046327386 -0.029937826 0.017484881 -0.040677503 0.027996134 -0.0758806 0.09371471
0.0872426 0.0031931011 0.010496858 -0.07623834 0.058789067 0.0648031 -0.00865831 -0.0752967
-0.09415182 -0.046706907 0.015542993 -0.094684616 0.05407752 -0.091921255 0.050740346 0.0705293
-0.06224986 0.097632006 0.005610098 0.03597593 -0.03196721 0.019521266 -0.028330456 0.017304055
0.051907353 0.044311576 0.083011076 0.07104486 -0.066975094 -0.0770945 -0.004834956 0.08861191
0.089684315 0.016780253 0.08082398 0.013703895 -0.0039756605 -0.0007955958 0.07220066 0.04144659
0.102195464 -0.06554415 -0.009942534 0.03132336 -0.015245339 -0.04532677 0.006895714 -0.017213626
0.045629807 0.08030468 -0.023514818 -0.09566446 -0.018460492 0.010014082 -0.10229617 0.09919808
0.08863472 -0.07126931 0.09448416 0.012704312 -0.059014324 0.07306433 -0.044862892 -0.0524931
-0.092822015 0.09329395 -0.041843593 -0.06359409 0.015409932 -0.0488607 -0.033847675 -0.034027677
0.06495456 -0.06218296 -0.06023386 -0.030120825 0.09875727 -0.030336626 0.044577725 0.0467313
-0.05351817 -0.07656858 -0.042817473 0.016768903 0.059569366 0.10119844 -0.013016283 0.056342583
-0.013585071 0.05901244 0.07899089 -0.05676625 0.069015704 0.07643232 -0.05519658 -0.006326647
0.057293497 -0.058951188 -0.0013669103 0.029858708 -0.0413772 -0.029634776 -0.08589403 -0.034788366
0.06924975 0.035663035 0.09680559 0.08052628 0.0047817524 -0.06753486 -0.07612838 -0.05228212
-0.017760562 -0.019657308 -0.027183859 0.048463974 -0.04341617 0.06905877 0.07860293 -0.0003697077
-0.09964327 -0.065076366 -0.10109755 -0.03890364 0.04274259 -0.04140291 0.06067318 -0.035064895
0.0008431573 -0.06989488 -0.06751133 0.019910637 -0.08224829 0.094329976 0.048538364 0.07973274
-0.045638736 0.09491729 0.0704664 -0.058760345 0.08367523 -0.01901885 0.089508966 0.047652055
0.021147761 -0.022000883 0.042116746 -0.0515473 0.08814784 -0.08748533 0.09113146 -0.026601879
0.08289967 -0.058578152 -0.0203613 0.029102862 0.046790462 -0.03676013 0.046969756 -0.07799784
-0.021676654 0.004185712 -0.074942976 -0.0122708 -0.07753455 0.049716543 0.020262178 0.08794084
0.0078024724 -0.025416303 -0.07944132 0.05100745 0.068547525 0.07602927 0.05104548 -0.02851404
0.027432911 0.009384664 -0.033872858 0.011906492 0.084392406 -0.009635673 -0.033678677 -0.05898931
-0.009665493 -0.011343727 -0.0038610008 -0.004644971 -0.0031547116 0.026491733 0.100494236 0.06720822
-0.053542975 0.07500071 -0.083880894 -0.09793146 -0.032696802 -0.015280843 0.011539399 0.0678554
00000000: 94eb 8abd cdea c43d efdf 04bd 00d8 223d
00000010: 15c7 f1bc 485d 29bd 1107 50bd 5c08 2e3d
00000020: 0d03 ea3c 3db0 97bc d1b7 7e3d 3a4d b43d
00000030: c947 8d3d 3f4c 07bc 90c4 203d 9cda cd3c
00000040: c606 be3c a4fb 7bbd 4a27 81bd f4dd 733d
00000050: 196d b4bc 53af c3bd 0bac d03c cdf1 88bd
00000060: 806b 543d 4fb0 a23d 991b d1bd c987 11bc
00000070: d4fd 043d f7fb a8bd b1bd c9bd d773 2e3d
00000080: cd14 8fbc 7da0 05bd 6fae afbd 49f6 783c
00000090: 7a45 403d 9197 e2bc f55d c33d 9e61 953d
000000a0: 81c9 d1bc fc34 683d a616 953d 5170 523c
000000b0: 5822 10bd 1f14 8a3d 4522 0a3c e647 f53c
000000c0: 53a1 b3bd c9c1 3d3d 2c40 f5bc 743c 8f3c
000000d0: 749d 26bd 2658 e53c 4a67 9bbd 7fed bf3d
000000e0: 40ac b23d 5943 513b 03fb 2b3c d922 9cbd
000000f0: cecc 703d 7db7 843d 96db 0dbc 2835 9abd
00000100: abd2 c0bd be4f 3fbd 0aa8 7e3c 02ea c1bd
00000110: 6480 5d3d 3641 bcbd 1cd5 4f3d aa71 903d
00000120: b6f9 7ebd 4af3 c73d ead4 b73b 7f5b 133d
00000130: 0df0 02bd 10eb 9f3c 4615 e8bc 3cc1 8d3c
00000140: ce9c 543d 0e80 353d b601 aa3d f87f 913d
00000150: 3d2a 89bd b9e3 9dbd 8d6e 9ebb 297a b53d
00000160: 69ac b73d be76 893c 0b87 a53d 4d86 603c
00000170: 4246 82bb 888f 50ba f1dd 933d e6c3 293d
00000180: db4b d13d 033c 86bd 03e6 22bc ec4c 003d
00000190: 96c7 79bc 90a8 39bd 71f5 e13b 9703 8dbc
000001a0: 52e6 3a3d c876 a43d 26a2 c0bc baeb c3bd
000001b0: 753a 97bc 1b12 243c a880 d1bd 5d28 cb3d
000001c0: 1f86 b53d a5f5 91bd e980 c13d bf25 503c
000001d0: 01b9 71bd c0a2 953d 27c2 37bd 0103 57bd
000001e0: 7819 bebd e610 bf3d 3064 2bbd 9e3d 82bd
000001f0: f079 7c3c 2822 48bd dca3 0abd 9b60 0bbd
00000200: e506 853d 8fb3 7ebd c8b7 76bd f3bf f6bc
00000210: 4041 ca3d 8484 f8bc 2297 363d 5269 3f3d
00000220: de35 5bbd fdcf 9cbd 6061 2fbd f05e 893c
00000230: 02ff 733d 2141 cf3d 3f42 55bc 7bc7 663d
00000240: eb93 5ebc 07b7 713d fac5 a13d ba83 68bd
00000250: 1b58 8d3d 8c88 9c3d cf15 62bd c34f cfbb
00000260: 96ac 6a3d cd76 71bd e629 b3ba 409a f43c
00000270: 247b 29bd a1c4 f2bc 36e9 afbd 3f7e 0ebd
00000280: d0d2 8d3d 6713 123d 0242 c63d f6ea a43d
00000290: 3fb0 9c3b b74f 8abd 32e9 9bbd c725 56bd
000002a0: 997e 91bc 5d08 a1bc afb0 debc 2982 463d
000002b0: 27d5 31bd af6e 8d3d 93fa a03d 54d5 c1b9
000002c0: c511 ccbd c246 85bd 3b0c cfbd 6c59 1fbd
000002d0: db12 2f3d 1996 29bd 7184 783d 35a0 0fbd
000002e0: 5407 5d3a 0c25 8fbd 6143 8abd a21b a33c
000002f0: cb71 a8bd 1330 c13d 2ad0 463d eb4a a33d
00000300: afef 3abd ff63 c23d b050 903d b0ae 70bd
00000310: eb5d ab3d 6bcd 9bbc 7a50 b73d cd2e 433d
00000320: 123e ad3c 323b b4bc 9c82 2c3d 4323 53bd
00000330: db86 b43d 822b b3bd 22a3 ba3d 2fec d9bc
00000340: 4dc7 a93d a5ef 6fbd becc a6bc 2069 ee3c
00000350: 5ba7 3f3d ca91 16bd 5c63 403d 55bd 9fbd
00000360: 3d93 b1bc 4c28 893b b47b 99bd 770b 49bc
00000370: 6fca 9ebd 93a3 4b3d defc a53c 541a b43d
00000380: e2ab ff3b da35 d0bc 21b2 a2bd 30ed 503d
00000390: a562 8c3d 3cb5 9b3d 1115 513d 4796 e9bc
000003a0: fcba e03c 22c2 193c 44be 0abd 7213 433c
000003b0: edd5 ac3d f1de 1dbc a7f2 09bd c69e 71bd
000003c0: 045c 1ebc 0adb 39bc d808 7dbb d734 98bb
000003d0: 47bf 4ebb 3105 d93c eccf cd3d 77a4 893d
000003e0: e14f 5bbd f999 993d bfc9 abbd 4a90 c8bd
000003f0: 15ed 05bd 805c 7abc bf0f 3d3c c6f7 8a3d
