_train/_models/20250924/삼성물산(028260)_20250924.pt (torch, 831847 bytes, 20 tensors)

enc_p.lstm.weight_ih_l0 f4 [384, 6]
000000 82 41 94 bd 60 c6 2c 3d 00 ce 00 bc 7d fd ca 3d
       -0.07239057 0.042181373 -0.007861614 0.0991163
000010 e9 e8 13 3d ac 25 31 bb d3 e9 88 bd 68 52 99 bc
       0.036110792 -0.002703051 -0.066852234 -0.018716052
000020 4f af 98 3d 02 68 b2 bc d5 2f 17 3d a3 c9 8d 3d
       0.074553125 -0.02177811 0.03691085 0.06923225
000030 43 d0 21 3d 8d 63 9c bd d6 f7 14 3d 49 03 78 3c
       0.039505254 -0.07636175 0.036369167 0.015137502
000040 30 cf ab bd 5f 26 ba bc fc 92 8a bd 08 b4 aa 3c
       -0.08389127 -0.022723375 -0.06766316 0.020837799
000050 2c 73 c1 3b 11 c7 9f 3d ee 9f 6f 3d 5a 76 d3 bd
       0.005903622 0.07801641 0.05850213 -0.10325308
000060 ef bc 88 bd 7f e0 8b bd c4 38 b3 3d 84 c3 97 bd
       -0.06676661 -0.068299286 0.087510616 -0.074103385
000070 19 21 61 bc f6 dd 64 bd 8a c6 b4 3c c8 2e 69 bd
       -0.013740801 -0.05587574 0.022067327 -0.05692938
000080 49 a7 a4 3d 2c 38 04 3d 79 e7 e4 3a f3 a5 81 3d
       0.080397196 0.032280132 0.0017464004 0.063304804
000090 a8 81 d6 bc eb be 0e bd 34 6b 83 3d 44 20 a3 3d
       -0.026184872 -0.034850042 0.06416932 0.079651386
0000a0 b9 29 a4 3d 9d 6a 20 bc b5 23 b0 bd 4f 11 47 3d
       0.080157705 -0.009791044 -0.086005606 0.04860049
0000b0 54 ca 6a 3d 23 38 68 bd 0f 73 a7 3d 05 5c 58 3d
       0.05732186 -0.05669416 0.081762426 0.05282213
0000c0 20 72 92 bd 5c 4b 8a bd 22 e2 ea 3b cb 5c c8 bd
       -0.07150674 -0.06752655 0.0071680704 -0.09783324
0000d0 5d 95 b4 3d cb 3d 91 3a cc 5e 96 bd 85 13 82 bb
       0.08817551 0.0011081038 -0.073423 -0.003969612
0000e0 15 bd b5 3d 23 1a 85 bd 1d 73 cc 3d 7c 4a 2b 3d
       0.08873955 -0.06499126 0.099828936 0.04181908
0000f0 34 b2 83 bd 20 96 59 bd d4 ed db bb eb b6 bb 3d
       -0.06430474 -0.053121686 -0.006711701 0.09165748
000100 bb 29 87 3c ba e1 5e bd e1 06 ba bd 9f a1 d0 3d
       0.01649939 -0.05441449 -0.09083343 0.10187077
000110 13 dd be 3d 4e d4 08 3d 67 1d 95 bd 28 d5 08 bd
       0.0931951 0.033405595 -0.07280999 -0.033406407
000120 e2 e2 ba bd d5 cc 6a 3d 0c c8 a3 bd 5e 6d 01 3d
       -0.09125306 0.05732425 -0.0799714 0.03159844
000130 d3 f4 9e bc 73 56 7a 3d 4f 79 3b 3c 05 69 d8 3c
       -0.01940385 0.0611176 0.011442496 0.026417265
000140 72 93 91 3c ad e4 10 3d 43 ad 98 bc e6 5b 36 bd
       0.017770503 0.035374332 -0.018637305 -0.044521235
000150 e2 5e a1 bc d4 73 a0 bd 35 73 aa bd f8 20 07 3d
       -0.019698564 -0.078345925 -0.08322755 0.032990426
000160 92 f9 63 3b f5 6c d1 bd c2 b5 ad 3d ec 7a be 3d
       0.0034786207 -0.1022586 0.08481933 0.09300789
000170 d4 c0 d1 3d 87 ea 58 bd 4e 95 a1 bd b1 89 8a bb
       0.10241857 -0.052958038 -0.07889806 -0.00422784
000180 e3 89 63 3d a6 0f fa bc 03 8f 17 bd 60 77 bf 3d
       0.05555142 -0.03052504 -0.03700162 0.09348941
000190 98 06 91 bd 7b e5 37 bd b2 77 93 3b 54 71 9a bc
       -0.07081336 -0.044896584 0.004500353 -0.018852867
0001a0 93 de 21 3d 91 57 1c bd 30 14 af 39 26 97 65 bc
       0.039518904 -0.038169447 0.00033393642 -0.014013087
0001b0 41 99 91 bd c0 20 2c bd a2 a6 0f 3d b7 48 80 3d
       -0.07109309 -0.04202342 0.035071023 0.06263869
0001c0 f1 9e 88 bd c5 1a cf 3b 8d 3c 12 bd 69 c2 a1 3d
       -0.06670941 0.00632033 -0.035702277 0.07898409
0001d0 4a a4 6b bd a0 fc 5d bd 37 cf f6 bb 41 e5 65 bd
       -0.057529725 -0.054196 -0.007532026 -0.056126837
0001e0 45 22 92 bc ee 4d 83 3d 15 5f ec bc 17 85 ad 3c
       -0.017838607 0.06411348 -0.028853932 0.021181626
0001f0 68 7d 9b 3b 84 2a 55 3d 80 1f 3d bb 61 5c aa bd
       0.004745174 0.0520425 -0.0028857887 -0.08318401
000200 74 0b 38 3d 6a 52 b0 3d cf 58 ea bc b4 d9 42 bd
       0.044932798 0.08609469 -0.0286068 -0.0475709
000210 5b c7 54 3d a2 ea 29 3c a5 92 83 bd f0 f4 b5 bd
       0.051947933 0.010370882 -0.064244546 -0.08884609
000220 3c 55 a0 3c c5 5a 91 3d c8 c9 8e 3d 53 a5 64 bd
       0.019571893 0.07097391 0.069720805 -0.055821728
000230 4f a8 95 3d f8 67 c6 bd a8 fb b5 3d ad d3 9b 3c
       0.07307493 -0.09687799 0.0888589 0.019021833
000240 a1 0b b0 bd 19 e7 b0 3d 35 f3 a3 3d 60 e1 cd bb
       -0.08595968 0.086378284 0.080053724 -0.0062829703
000250 0d a5 81 bd 49 c0 ae 3d 6e 26 ec 3c 2f 34 5f 3d
       -0.06330309 0.08532769 0.028826918 0.054493126
000260 aa ce c1 bd d2 82 85 3b b8 6f d5 bc 88 24 b1 3d
       -0.09463246 0.004074433 -0.026054248 0.08649546
000270 92 cc 9d 3c b0 cb aa bd 1d 1c 0a 3d d2 29 1e 3d
       0.019262586 -0.083396316 0.033718217 0.0386141
000280 58 c0 94 3d b5 4d 84 bd bd 8b c5 bd 29 21 49 3c
       0.07263249 -0.06460134 -0.096457936 0.012275972
000290 62 e4 43 bd d9 03 0e bd d4 dc 4d 3d 14 33 23 bd
       -0.047825225 -0.03467164 0.050259426 -0.039843634
0002a0 76 9d 6b 3d eb c3 56 bd 7f 36 76 bd a5 3c d2 3d
       0.057523213 -0.052432936 -0.060110565 0.10265473
0002b0 bd 5e 7b bc 9a c3 a5 bc 64 7e 89 ba d6 64 64 bd
       -0.015342412 -0.020234872 -0.0010489938 -0.055760227
0002c0 8d 32 15 3d 2d e4 5f 3c 87 db 4a bc 34 f8 ab bd
       0.036425162 0.013665241 -0.012381441 -0.0839695
0002d0 69 e7 89 3d e7 66 4b bd ba a5 65 3d ad f7 e1 3c
       0.06733591 -0.049658682 0.056066252 0.027583921
0002e0 2a 30 3b 3d cc 03 1b bd 37 d2 3b 3d 0a 72 40 bd
       0.04570023 -0.037845418 0.045854773 -0.046983756
0002f0 52 08 40 3d 41 90 d5 bc c6 82 91 bc c1 3a b6 3d
       0.046882935 -0.026069762 -0.017762553 0.08897925
000300 89 9d a0 3d 79 86 5f 3d 81 f2 50 bd 93 28 81 bc
       0.078425474 0.054571602 -0.05101252 -0.015766418
000310 00 c6 af bd 7a aa 8a 3d a8 f9 57 bd 92 ae 66 bd
       -0.085826874 0.06770797 -0.052728325 -0.056318827
000320 e7 cc 5c bd c9 be 99 bd fc f7 ae bd 58 20 81 bc
       -0.053906348 -0.075070925 -0.08543393 -0.015762493
000330 ca 04 ad 3d 2d f0 99 3d 46 3e cc 3d 58 bd 19 bd
       0.08448179 0.07516513 0.09972815 -0.037534088
000340 82 bd 96 bd c6 71 b7 bd 6d fc 12 bb fe 35 02 3d
       -0.073603645 -0.089572474 -0.002242829 0.031789772
000350 7c 97 50 bc a7 13 85 3d 31 d2 31 3d 21 11 6c 3c
       -0.012731429 0.06497889 0.043413345 0.014408381
000360 cc 4f ae bd 88 80 bd bd 5e 70 4d bd f5 f1 5e bd
       -0.08511314 -0.09253031 -0.05015599 -0.054429967
000370 f6 5d ba bd 42 71 72 3d 35 74 59 3b 7a 4d 04 bc
       -0.09099953 0.059190042 0.0033180837 -0.0080751125
000380 8b c1 96 3c 00 c1 08 3c 22 67 43 bc 61 b8 63 3d
       0.018402835 0.008346796 -0.011926444 0.05559576
000390 74 0c be bd dd 00 25 bd db 85 8b bd eb 8f 1a 3c
       -0.09279719 -0.040284026 -0.0681264 0.009433727
0003a0 47 07 f8 bc 6f 6c 57 bd 9b fe 51 bd d6 77 a8 3d
       -0.030276908 -0.052593645 -0.0512682 0.08225982
0003b0 ce 2d 93 bd b9 c6 2e 3d 5d 07 b7 bd 0e 72 38 bd
       -0.07186471 0.042669985 -0.08936951 -0.045030646
0003c0 2b a7 a5 3c 7f aa bb 3d fb 15 57 3d 97 78 3f 3c
       0.020221313 0.09163379 0.052511197 0.011686466
0003d0 e0 91 01 bd 93 27 18 3d 53 69 c0 bd c3 38 0b bd
       -0.031633258 0.037147116 -0.09395089 -0.03398968
0003e0 bb 59 f5 3c e7 5e bf 3d 91 e2 92 bd 2f 60 8f bd
       0.029950013 0.09344273 -0.0717212 -0.070007674
0003f0 28 c0 7e 3c 96 2c 4d 3a eb 82 91 bd 0a a3 c2 bd
       0.015548743 0.0007826773 -0.07105049 -0.095037535

enc_p.lstm.weight_hh_l0 f4 [384, 96]
000000 61 9f 16 bc 8f 2c 09 bc 29 d1 d5 bc e6 07 1e 3c
       -0.009193272 -0.00837244 -0.026100712 0.009645438
000010 75 0a f2 3c bc 1c 7b 3d ac da b0 bd 8e 2e b1 bc
       0.029546002 0.0613067 -0.08635458 -0.021628644
000020 e9 a4 2f bd d3 f6 be bd 2e 17 8d bd ef a0 33 3c
       -0.04288188 -0.09324422 -0.06889187 0.0109636625
000030 31 01 05 bb 30 73 b0 bd 5a e2 b9 3b 31 f2 9c 3b
       -0.00202949 -0.0861572 0.005672735 0.0047896137
000040 a2 65 c8 3d ec 38 a2 bd f7 11 82 bc 22 64 1f bd
       0.0978501 -0.07921013 -0.015877707 -0.038913853
000050 ec 2a a2 3d 9c af c2 bc fe f0 31 bd 55 9f c2 bd
       0.07918343 -0.023765378 -0.04344272 -0.095030464
000060 cf f1 8e 3d b7 9a 02 bd f6 38 bc 3c 63 71 99 3d
       0.06979715 -0.03188583 0.02297638 0.0749233
000070 a6 8e ad bd a9 c4 0d bd c1 f5 0e 3d ef e5 c7 3d
       -0.08474474 -0.034611378 0.034902338 0.09760653
000080 06 82 b8 bd 0d b1 87 bd 68 7b 8d bd 9f be ca bc
       -0.09009175 -0.06625567 -0.069083035 -0.024749098
000090 37 35 4a bd 34 dc ce bd 41 90 45 bd 9e 24 85 bd
       -0.049367156 -0.10100594 -0.048233274 -0.06501125
0000a0 97 74 a7 bc 90 42 f9 3c d3 7e 47 3d 11 48 ad bc
       -0.020441337 0.030427247 0.048704933 -0.021152528
0000b0 3e 4e 17 bd 3a 5d 19 3d 43 e3 a1 bc ba 40 be bc
       -0.036939852 0.037442423 -0.019761687 -0.023224223
0000c0 8b 6e 5e bd 5b db cf 3d ab e4 90 bc ca 5f 88 bd
       -0.05430464 0.101492606 -0.017687162 -0.06658895
0000d0 67 bb 41 3d df 26 1b 3c 8b 12 c5 bd 59 b9 3c bd
       0.04729786 0.009469717 -0.096226774 -0.0460752
0000e0 46 f6 cb 3d 03 18 6a 3d a1 df 6b 3c 84 7f da ba
       0.09959082 0.057151806 0.014396579 -0.0016670083
0000f0 50 3b 5c bd d7 52 30 bd 51 78 88 bd 18 4c c2 bd
       -0.053767502 -0.043047752 -0.066635735 -0.0948717
000100 b8 43 cd 3d dd c4 13 bd d9 37 95 bd a5 d4 1f bd
       0.10022682 -0.036076415 -0.07286043 -0.039021153
000110 5a 39 8f bd 74 24 3b bd f6 af 84 bc be 2f 6e 3b
       -0.06993361 -0.04568906 -0.016197186 0.0036344375
000120 5c d2 e2 bc 28 08 d4 bb 5f 1a 09 3a 24 88 41 3d
       -0.027688198 -0.006470699 0.0005230065 0.047248974
000130 8b f0 1c bd 24 ac f4 3c b7 fc be 3c 03 2e 3e bd
       -0.038315337 0.02986724 0.023313863 -0.0464306
000140 07 e8 b1 bd 2a 43 a3 bb cc 98 f0 3c 89 44 30 3d
       -0.08686834 -0.004982372 0.029369734 0.04303411
000150 d7 5f 9d 3c e5 03 71 3d 72 55 69 bd 57 77 34 3d
       0.019210739 0.058841605 -0.056966253 0.044059124
000160 0a 3e c8 3d 0e c1 b2 3c cb 90 07 3d dc 89 48 bd
       0.09777458 0.021820571 0.03309707 -0.048959598
000170 df 08 cd 3d 94 20 6d 3c 1b 12 cd 3d 8d 99 0f ba
       0.10011458 0.014473099 0.10013219 -0.0005477898
000180 1e e9 41 3d c7 6a 6b 3d ab c7 dd b9 e0 bb 73 3d
       0.04734146 0.057474878 -0.0004230117 0.059505343
000190 19 00 b0 bd 7e 28 82 3c 6f 50 b1 3d bc e4 8a bd
       -0.085937686 0.015888449 0.086579196 -0.06781909
0001a0 65 15 83 bd d2 c0 23 3d 57 68 af bd 90 93 7a 3d
       -0.06400565 0.03997881 -0.08564823 0.061175883
0001b0 2f 99 9e 3b 57 e8 3d 3d 84 45 31 3c b9 01 a5 bd
       0.0048400383 0.046364155 0.0108197965 -0.08056969
0001c0 f8 03 ad bd ba e6 66 bd 21 d9 10 bd fe 3d a6 bd
       -0.084480226 -0.05637238 -0.03536332 -0.08117293
0001d0 53 fb a3 3d 1b b4 88 bd 5a df cc bd 88 e2 aa 3d
       0.08006921 -0.066749774 -0.100035384 0.08343989
0001e0 2e 39 64 3d 13 2e 87 3d 2f 29 bc bc 25 86 4c bd
       0.055718593 0.06600585 -0.022968857 -0.049932618
0001f0 8e e7 a6 3c 85 36 ad 3d 61 24 0e 3c 2c 3f c5 3d
       0.020374086 0.084576644 0.008675666 0.0963119
000200 5f 76 86 bd 86 ce 89 bc dd cf a0 3b ca 66 b8 bd
       -0.06565546 -0.01682211 0.0049075917 -0.090039805
000210 78 7e ce 3b 21 4b 64 bd 24 c7 15 bd 51 5a 8b bd
       0.0063016973 -0.05573571 -0.03656687 -0.06804336
000220 85 fe b4 bd 2a 96 4b bd ab 5e c7 3d 91 b0 b2 bd
       -0.08837608 -0.049703754 0.09734853 -0.087250836
000230 60 81 cd 3b 1e f7 77 3d 08 09 43 3d 9d 8f b3 bd
       0.006271526 0.060538404 0.047616035 -0.087676264
000240 61 ed 41 bd dc 22 1c 3d 64 91 03 bd b7 7e 3d bd
       -0.047345523 0.038119182 -0.032121077 -0.046263423
000250 ea ed 56 bd c1 e5 d1 3d 55 29 33 3d 60 54 85 3d
       -0.052472986 0.102489 0.04374059 0.06510234
000260 da ad d0 3d 51 d2 85 bd f3 50 c0 3d 48 1d 06 3d
       0.101894096 -0.06534255 0.0939044 0.03274277
000270 b5 ab 9f bd 12 d3 61 bd 21 2f 8d bd 3b 86 8c bc
       -0.077964224 -0.055132933 -0.06893755 -0.01715385
000280 c8 14 3f 3d 3e a4 5b 3d 8a 63 c5 bd ea 63 aa 3d
       0.046650678 0.05362343 -0.09638126 0.08319838
000290 45 d6 8e 3d bc 39 85 3c 1d 26 b4 bc 0a 34 ef 3c
       0.069744624 0.016262881 -0.02199083 0.029199619
0002a0 a2 2b 19 3d ea f1 85 3d 92 99 a7 3d 98 7d 97 3d
       0.037395127 0.06540282 0.08183588 0.07397002
0002b0 96 19 50 3c 04 5f 84 3d 71 ff 3e 3c 87 26 b9 3c
       0.012701413 0.06463435 0.011657582 0.02260138
0002c0 7d a0 01 bd c7 30 91 3d 6d b3 99 3d 2a 11 11 3c
       -0.031647194 0.07089382 0.07504926 0.00885419
0002d0 85 43 d1 bc 46 24 c4 3d b2 da a5 3c f8 39 e4 bc
       -0.025544891 0.09577231 0.020245884 -0.027859673
0002e0 1f 5b 9b 3d ea 33 6c bd b6 e3 f2 bb db aa 96 bd
       0.07585739 -0.057666697 -0.007412399 -0.07356807
0002f0 f0 98 8d bd fc 12 ec 3c f7 84 57 ba d2 b3 ca 3d
       -0.06913936 0.028817646 -0.00082214124 0.09897579
000300 24 83 ef bc c6 2a 70 bd 5b 06 dc bc 92 6e ad bd
       -0.029237337 -0.058634542 -0.0268585 -0.08468355
000310 f1 82 6f bd ed d2 76 3d 83 79 89 3d b3 86 0c 3d
       -0.058474485 0.06025975 0.0671263 0.034308147
000320 1f 8a 1b bd 9b ca 36 bd 75 1c b3 bb d3 5e 21 bb
       -0.03797352 -0.044626813 -0.005466039 -0.002462317
000330 2e 24 18 bd b6 ed ae 3d 4f d5 87 3d 94 b8 4c bc
       -0.03714388 0.085414335 0.06632482 -0.012495179
000340 1e 91 c0 3d f6 2e a7 3d de 22 90 bd c8 3f 46 3d
       0.09402679 0.08163254 -0.070379004 0.04840067
000350 e5 b7 54 bd aa 61 76 bd cd bd c0 bd 45 9b d2 3d
       -0.051933188 -0.060151733 -0.094112016 0.102835216
000360 b1 c3 e5 bc 2a e5 e3 bc d5 32 79 bc 90 9e 36 bd
       -0.028047414 -0.027819235 -0.015209873 -0.04458481
000370 69 1d 9c bd 38 9a 81 b9 e7 3d c6 bd da 5d 6d 3d
       -0.07622797 -0.000247197 -0.09679776 0.057950832
000380 2a 17 88 3d e5 ec 55 3d 19 7e 82 3d cd 97 13 3c
       0.06645043 0.052227873 0.063717075 0.00900836
000390 d4 48 11 3d d1 f9 fd bc 63 ef 21 bd 24 2f 8b bd
       0.035469845 -0.03100291 -0.039534938 -0.06796101
0003a0 a3 b6 75 3d 0f 5f ba 3d 99 5c 6f bd a1 3c a5 bd
       0.05998863 0.09100162 -0.058437917 -0.08068205
0003b0 51 73 92 bc cb 20 13 3d f4 55 b0 3d ac 31 ee bc
       -0.017877253 0.035919946 0.08610144 -0.02907642
0003c0 82 00 07 3d 48 b5 9c 3d f7 d2 c6 bc 6b fc bd 3d
       0.03295947 0.07651764 -0.024270518 0.092766605
0003d0 13 80 a7 3d 1d 36 ed 3c a7 55 d6 3c 25 9e 40 3b
       0.08178725 0.028956467 0.02616389 0.0029391136
0003e0 3f 2e 6c 3d 92 47 9e bd 8e b1 2d 3d 51 10 b5 3d
       0.05766129 -0.07728495 0.042405657 0.08841003
0003f0 f1 2d 80 3d bd 1e a1 bc dd 1a be 3d 26 47 3b 3c
       0.06258763 -0.019667977 0.092824675 0.011430537

enc_p.lstm.bias_ih_l0 f4 [384]
000000 69 df 7b 3c 35 b3 11 bd a3 ba 9c 3d 8c cf 89 bc
       0.015373089 -0.035571296 0.07652786 -0.016822599
000010 7c c1 e7 3c 4a e1 9d 3d 1f b6 fc 3b be 89 37 3d
       0.028290503 0.07708986 0.00771214 0.044809096
000020 6e d4 4f bc 37 12 02 3b a7 3f 2e bd 47 0a 63 bd
       -0.0126849245 0.0019847283 -0.042541172 -0.055429723
000030 48 73 ad 3b 4b 96 93 3d d3 ba 94 bd 34 53 c2 3b
       0.0052932836 0.072064005 -0.072621964 0.0059303287
000040 c0 fc 98 bc 39 ca 92 3d 95 1a b2 3d 5e c1 1a 3c
       -0.018675208 0.07167477 0.08696476 0.009445516
000050 57 a9 80 bd e6 e1 9f 3d 7f be b0 bd 2e be c0 3d
       -0.06282299 0.078067586 -0.08630084 0.09411274
000060 4a 1d ac bd 49 ae c8 3d d0 93 2c 3d ea 0a 5c 3d
       -0.08404024 0.09798867 0.042133152 0.053721346
000070 32 e7 b6 3d c5 65 66 bc a5 69 c0 bb ac b2 ac 3d
       0.08930816 -0.01406235 -0.005871969 0.084325165
000080 e5 e8 db 3c 43 70 b7 3d fa 1e 2c 3d 37 3c 9f 3d
       0.026844451 0.08956959 0.04202173 0.07775157
000090 31 b8 85 3d bc a0 b7 bd 0a 71 ab bd 71 1f 8c 3d
       0.06529272 -0.089662045 -0.0837117 0.068419345
0000a0 7e 3e 8e 3d 25 eb 82 bd 96 76 ca 3b 7b 00 cb 3d
       0.06945513 -0.063925065 0.0061786873 0.09912201
0000b0 39 8b c3 3d f2 53 09 3d e4 32 68 3d ce 37 89 bd
       0.09548039 0.033527322 0.056689158 -0.06700097
0000c0 98 c6 cf 3d cd 51 ce 3d ae b1 39 bc 17 18 54 3d
       0.101453006 0.10074196 -0.011333866 0.051780786
0000d0 9d 59 6f 3d ef 00 85 3d 2e a0 e2 bc ab 97 b0 bd
       0.05843507 0.06494319 -0.02766427 -0.08622678
0000e0 1f ae ac 3d 3f 8d bd bd 28 d6 a8 bd 8f 41 9c 3d
       0.084316485 -0.09255456 -0.08243972 0.07629692
0000f0 80 05 b8 3d 68 e9 2f 3d 7d e3 99 3c 59 ad b2 3d
       0.08985424 0.042947203 0.018785233 0.0872447
000100 9d 25 7a bc 2d 1c a7 3c 86 42 5e 3d df 39 c6 3d
       -0.015267757 0.020399177 0.05426266 0.09679007
000110 71 6c 32 3d 06 fd 8c bc d7 85 20 3d c6 7e 92 3c
       0.04356045 -0.017210495 0.03919014 0.017882716
000120 8e 06 78 3d 54 a0 13 3d 16 cd ae bc 7c 51 88 bd
       0.060553126 0.036041573 -0.021338027 -0.06656167
000130 45 f0 c7 bd 38 4d 75 bb f4 2a ab bb c3 6c 91 3d
       -0.09762625 -0.003743006 -0.0052236263 0.07100823
000140 85 88 45 3d 20 60 33 bd 9f ea b0 3d 8c 5d 04 3d
       0.0482259 -0.043792844 0.086385004 0.032315776
000150 92 d7 22 3d f1 16 34 3d 93 e3 ab 3d da cd c5 3d
       0.039756365 0.04396719 0.08393016 0.09658404
000160 55 e3 14 3d cb 4c 94 3d 64 64 a9 3c 15 39 c2 3d
       0.036349613 0.072412096 0.020677753 0.09483544
000170 5f 5c fd ba cd 80 50 3d b2 4f e7 3c 7f 74 9e 3d
       -0.0019329897 0.050904084 0.028236244 0.077370636
000180 8b 8d 92 3d f8 f9 fb 3c 95 18 10 3d 11 10 ec 3b
       0.071559034 0.030758843 0.035179693 0.0072040637
000190 79 fe 9d bd 54 e3 09 3d 01 02 86 3d 0e ed 08 bd
       -0.077145524 0.033664063 0.06543351 -0.033429198
0001a0 3c 91 8e 3c f3 63 a7 bd fb 5c ab 3d 8a 35 09 bc
       0.017403238 -0.08173361 0.08367344 -0.008374581
0001b0 b3 f4 9e 3d 61 6f 0b bd 17 66 c5 bc b7 d6 a1 3d
       0.077615164 -0.034041766 -0.024096532 0.07902282
0001c0 b8 79 33 bd 34 64 83 bd ee bb ca 3d 36 ab ac 3d
       -0.043817252 -0.064155966 0.09899126 0.084310934
0001d0 d3 5f 36 bd ab 51 30 bd 74 82 a7 bd 01 7c 57 3b
       -0.04452498 -0.043046635 -0.08179179 0.0032880309
0001e0 41 71 95 bc 51 5b 85 bd c4 74 06 bd f2 b6 cd 3d
       -0.01824248 -0.06511558 -0.0328262 0.1004466
0001f0 4e 9f 18 3d 4f 2e f3 3c c6 1b 9b 3d 14 05 5a 3d
       0.0372613 0.029685168 0.07573657 0.0532275
000200 77 73 b3 3d 0f 9f 53 bd 4c 12 cf bd 52 01 1f 3d
       0.087622575 -0.051665362 -0.10110912 0.03881962
000210 51 b0 9d 3c fe 17 bd bd 4f 1f 65 3d 4b 4b 55 bd
       0.019249113 -0.09233092 0.05593806 -0.052073758
000220 ef a2 a0 3d b1 ac 87 bd d7 26 76 bc 2f 84 ba 3c
       0.07843577 -0.06624735 -0.015023909 0.022768108
000230 48 f3 92 bd 04 64 d5 bb ca 15 54 3c d6 a7 61 bd
       -0.071753085 -0.006512167 0.012944648 -0.0550917
000240 6a 76 f2 bb 7a ae c7 3d 80 d6 c2 3c 08 73 99 bd
       -0.00739937 0.09750076 0.023783922 -0.074926436
000250 63 14 c8 bd 5d b8 b2 3d 03 51 78 3d 81 35 e7 3b
       -0.097695135 0.08726571 0.060624134 0.0070559387
000260 fe b1 43 bd 02 bd b5 3d 15 ad 7f 3d b6 0b 7d 3d
       -0.04777717 0.08873941 0.062420923 0.061778747
000270 d8 58 a1 bd 2a 64 a4 3d db 8d 28 bd 60 a6 b5 bd
       -0.07878274 0.08026917 -0.04115091 -0.08869624
000280 f0 31 97 3d c7 7b 83 3d 48 6a c0 3d ab aa b9 bc
       0.07382572 0.06420093 0.093952715 -0.022664389
000290 f1 94 ad bc 3f f9 c6 bd f0 e3 4b bd 02 e5 c5 bd
       -0.021189185 -0.09715509 -0.049777925 -0.096628204
0002a0 32 04 cb bd 62 44 97 3c 78 65 f2 3b 43 1a ca bc
       -0.099129096 0.018465225 0.00739735 -0.024670726
0002b0 71 d2 29 3c 08 d1 c1 3d 22 5a 77 3d b7 54 1f bd
       0.010365115 0.09463698 0.06038869 -0.03889915
0002c0 b5 ac 8f bd 3a 3d ba 3d 51 5c d2 bc b8 79 17 3d
       -0.07015363 0.09093709 -0.025678786 0.036981314
0002d0 2e 5b 95 bc 2d b6 cf 3d 63 11 be 3d db bf 65 3d
       -0.018231954 0.10142169 0.0928066 0.05609117
0002e0 19 8f 34 bc ca 42 bd 3d ae 57 b5 bd 1c cb c0 3d
       -0.011020445 0.09241255 -0.08854614 0.0941374
0002f0 a7 99 74 bd d6 fb 27 bd 4f 1d 84 bd 09 a4 1c 3d
       -0.059716847 -0.041011654 -0.06450903 0.038242374
000300 36 a8 8b 3d 8d 75 f4 bc 52 34 4f bd 4c f6 6c 3d
       0.06819193 -0.029841209 -0.050587006 0.057852075
000310 4c 87 e2 3c 46 90 78 3d b3 f1 c4 bd 64 9d a0 bd
       0.027652405 0.060684465 -0.09616413 -0.0784252
000320 09 7d c0 3d b4 18 c0 bc 73 b2 87 3c da 46 63 bc
       0.093988486 -0.02344928 0.016564583 -0.013871873
000330 24 2b f9 3c 67 ae ce bd ab fd 5d bc ed e1 4f bc
       0.030416079 -0.10091858 -0.013549249 -0.012688142
000340 c8 ac 9e 3d b6 d5 a0 bd b2 dd 60 bc a0 e9 77 bd
       0.07747799 -0.07853262 -0.013724731 -0.060525537
000350 e2 44 12 bd 64 45 bf 3c d9 d0 ca bd 98 e4 46 3d
       -0.035710223 0.023348518 -0.09903116 0.048557848
000360 50 d8 6d bb 59 44 b8 bd fa 45 84 bd ff f6 8d bd
       -0.0036292262 -0.08997411 -0.064586595 -0.069318764
000370 b8 0e 30 bc 21 22 b7 3d ed de b1 bd 4e c8 09 3d
       -0.010745697 0.089420564 -0.08685098 0.03363829
000380 02 f4 41 3d 2a 48 9c 3d 76 13 14 3b b9 eb 79 3d
       0.047351845 0.07630952 0.0022594607 0.06101582
000390 3b cd 91 3d 2f ab 75 3d df 8e 68 3d 32 b2 c2 3d
       0.07119223 0.059977707 0.056776877 0.09506644
0003a0 d5 8c f0 bc 09 35 62 bd 55 59 c8 bd ab 12 07 bd
       -0.029364029 -0.05522636 -0.09782664 -0.032976788
0003b0 57 2e a5 3d 4f df fb bc 5c d2 8a bc 5c 5b a0 3d
       0.08065479 -0.03074613 -0.01694601 0.078299254
0003c0 8c 38 a8 3d df 40 82 bb 2a 7b 4e bd 2f 7a 91 bd
       0.082139105 -0.0039750184 -0.050410427 -0.07103383
0003d0 44 c9 c0 3d 75 b9 25 bd 5d 4d d1 bc d5 88 80 3c
       0.09413388 -0.04046007 -0.025549585 0.015690247
0003e0 19 b3 bc 3d 97 87 81 bc 79 5a 44 bd c9 e1 12 bd
       0.09213848 -0.015811725 -0.047937844 -0.035859857
0003f0 3e 81 03 3c 3c 3c 9c bd c1 f1 93 3d ac 92 81 bd
       0.008026419 -0.07628676 0.07223845 -0.063268036

enc_p.lstm.bias_hh_l0 f4 [384]
000000 a8 a6 a3 3c 5f 7c 61 3d f5 9e af 3d 09 1d 62 3d
       0.019976929 0.05505025 0.085752405 0.05520347
000010 81 5f 2a 3d e8 f0 c9 bd 30 d0 6a bd 8b 17 94 bd
       0.041594986 -0.09860402 -0.05732745 -0.07231053
000020 2c 8f 80 bd 25 6f 91 bc ef 06 b2 3c e5 95 9c 3c
       -0.06277308 -0.017753193 0.021731822 0.019114444
000030 36 61 ba bd b3 62 ce 3d cb 30 8e 3d 5a 65 93 bd
       -0.09100573 0.10077419 0.069429 -0.07197066
000040 91 2c 7c bd b5 4f 47 3d 92 30 83 3c ad dc 6a bd
       -0.06156594 0.04866 0.016014371 -0.05733936
000050 5c fc 76 bd b0 8d 1c bd 35 46 a6 bd db d0 ae bd
       -0.060299262 -0.03822106 -0.0811886 -0.0853593
000060 bc c8 93 bd aa b5 1f 3d b3 5a cb 3d 80 12 89 bd
       -0.072160214 0.038991608 0.09929409 -0.06692982
000070 6f 75 28 bd 99 22 b1 bd 59 e2 16 3d 8c c8 5e bd
       -0.04112762 -0.08649177 0.036836956 -0.054390475
000080 83 09 c0 3d 57 2c a2 3b b6 09 68 3d 6f 9a 43 3d
       0.09376814 0.0049491334 0.056649886 0.0477547
000090 b7 d6 cd 3d 77 26 b7 bd e2 3a d9 3c 13 95 84 3d
       0.10050719 -0.089428835 0.026517335 0.06473746
0000a0 2d 47 38 bd 70 9d 2a 3d db 28 1d bd f5 d4 85 bd
       -0.044989754 0.04165405 -0.03836904 -0.06534759
0000b0 6e 25 54 bd 26 b1 63 bc be 91 1e bd c7 7b a1 3d
       -0.05179351 -0.013897216 -0.03871321 0.07884937
0000c0 22 fc b1 3d d4 d0 45 3c 6d 6b e4 3c 13 00 b9 3d
       0.08690669 0.012073714 0.027883256 0.09033217
0000d0 e4 e6 a5 bd e1 9c 9c 3c 9e bc bc bc d0 29 7b 3a
       -0.081006795 0.019117774 -0.023039158 0.00095811207
0000e0 9c 75 ce bd b0 22 be 3d 72 8c d3 bd bf 7d b7 bd
       -0.10081026 0.0928396 -0.10329522 -0.08959531
0000f0 bd ad 22 bc 60 f4 69 bd 77 e5 69 3c 89 c2 82 bd
       -0.009929118 -0.05711782 0.0142759 -0.06384761
000100 3b 69 9c 3c b2 1d 9e 3d a0 7e c8 3d 05 b7 b6 bd
       0.019093147 0.07720508 0.09789777 -0.08921627
000110 05 2e c5 3d fc 53 a3 bd bf 6d 88 3d 16 51 ba 3d
       0.09627918 -0.07975003 0.066615574 0.09097497
000120 2f 90 c2 3c e0 f6 20 bd ec e9 c5 bd 22 6a 4c 3c
       0.023750393 -0.03929794 -0.09663758 0.012476476
000130 20 76 9e 3c ff c3 77 3d 3c b8 d0 3c 65 b0 9c 3d
       0.019343436 0.06048965 0.025478475 0.07650832
000140 11 5b 27 bc 6c 17 ef 3c 0b 0e 9c 3b 67 23 b5 bd
       -0.010214583 0.029185973 0.0047624162 -0.08844643
000150 15 3b 8c bd 9e ae c9 bd 71 55 92 3d 46 dd 3b bd
       -0.068472065 -0.09847759 0.07145203 -0.04586532
000160 e8 17 9b bd 53 1a ca bc cc a4 04 bb 25 22 00 bd
       -0.07572919 -0.024670755 -0.0020239828 -0.031282563
000170 87 c3 96 3d 72 e3 f4 bc 66 93 02 3d bd 2f b9 3d
       0.07361513 -0.02989361 0.03187885 0.090423085
000180 e3 21 68 3d b8 54 f1 3c 08 04 1c 3d 39 d7 cd bd
       0.056672942 0.029459342 0.038089782 -0.10050816
000190 d3 62 39 3d 55 6c ac bd 37 26 ac 3d 8a 39 08 bd
       0.04526026 -0.084191 0.084057264 -0.033258
0001a0 c0 69 ca 3d cf b3 37 3d c6 1b 02 bd 34 11 74 3b
       0.098834515 0.044849213 -0.031764768 0.00372417
0001b0 98 88 7c bd 69 c7 d7 bb b7 9a eb bc 57 05 3f 3d
       -0.061653703 -0.006585051 -0.028760297 0.04663595
0001c0 02 8d 0d 3d 7a cc 46 bd a7 49 9c 3c f5 aa b1 bd
       0.034558304 -0.048534848 0.019078089 -0.086751856
0001d0 14 a3 4e 3d 9d 93 c6 bd 80 f1 bb bd e8 4c c9 bd
       0.050448492 -0.09696124 -0.09176922 -0.09829122
0001e0 72 a4 08 3d 60 7c c7 bc 25 f6 dc bc 7b ba c2 bc
       0.033359952 -0.024351299 -0.02697284 -0.023770561
0001f0 d5 f1 ab bd 2e 47 76 3d 6e b1 c1 3d 63 47 bf bd
       -0.08395735 0.060126476 0.0945767 -0.09339788
000200 de e5 89 bc 57 4c 37 bd 9e 18 00 3d e0 46 a2 bd
       -0.016833242 -0.044750538 0.031273477 -0.079236746
000210 f1 84 51 3c 18 43 b3 bd 6f e1 82 bd b9 15 a5 bc
       0.012788043 -0.087530315 -0.06390654 -0.02015196
000220 ac 4c ff bc a1 05 94 bd 86 33 cb bd af ff 8f 3d
       -0.03116449 -0.07227636 -0.09921937 0.0703119
000230 56 64 9a 3d 6e 74 b6 bc cb 0c 41 3d 29 6f 9c bd
       0.07538669 -0.022272315 0.04713134 -0.076383896
000240 61 da 9c 3d 77 6c 23 bd b1 d6 31 bd 21 d4 a7 3d
       0.0765884 -0.039898362 -0.043417636 0.08194757
000250 ef c8 93 3c 82 52 50 bd aa 7a c8 bc bd 01 de bc
       0.018040149 -0.050859936 -0.024472553 -0.027100438
000260 cc ee 35 3b e8 a0 b0 3c 7a 67 ff bc ef d1 b9 bd
       0.0027760742 0.021561101 -0.031177271 -0.09073245
000270 1c 16 07 3d 53 b9 dd bc 1a 70 d9 bd d5 e6 a4 3d
       0.03298007 -0.027065909 -0.10617085 0.0805184
000280 52 bb d4 3c b9 c6 f2 3c 00 f1 d2 3d c4 4e 98 bd
       0.025968228 0.029635774 0.10299873 -0.07436898
000290 e5 64 8e 3d 06 96 e7 bc e4 20 de 3c 70 fc 85 3d
       0.06952838 -0.028269779 0.027115293 0.06542289
0002a0 b9 24 b3 3d 04 cd d4 3d 38 ac 97 bc cf 19 7b bd
       0.08747239 0.10390666 -0.018514737 -0.06130391
0002b0 be 1b 04 bd 40 fb ab bd 0f cf 69 3a 43 bc 14 bd
       -0.03225302 -0.083975315 0.0008919099 -0.036312353
0002c0 9b 08 c7 3c 26 c2 ae bd 00 f7 0b 3d 5f 16 a2 bd
       0.024296096 -0.085331246 0.034171104 -0.07914423
0002d0 53 48 0d bd 11 66 86 3d 99 b0 83 bd 1f 81 de 3c
       -0.034492802 0.06562436 -0.06430168 0.02716118
0002e0 d3 c6 21 bd ca 93 c5 3d a2 fe 9f 3d dc fd da bc
       -0.039496254 0.09647329 0.07812239 -0.026732378
0002f0 e5 44 68 3d 60 b8 2f bd fe 4a e7 bc ca 0c c2 3a
       0.056706328 -0.042900443 -0.028234001 0.0014804837
000300 e7 f2 58 bd 92 c6 0d bd 88 1a ef bc 78 33 ed bb
       -0.052966025 -0.0346132 -0.029187456 -0.0072388016
000310 49 8f d8 3d c6 be b4 3d 10 6b 1c bd 8e 2f 59 3c
       0.105742045 0.0882545 -0.03818804 0.013255967
000320 d5 17 9a 3d 55 88 2f bd 00 4f b0 bd 1f 7e c7 3d
       0.07524077 -0.042854626 -0.08608818 0.097408526
000330 05 a0 98 3d 1c ee f1 39 fd d6 0c bd 6d ed c0 3b
       0.07452396 0.00046144507 -0.034384716 0.0058876784
000340 12 ee b4 bd 64 37 b4 3d 1e 85 ab 3d 48 54 c1 3a
       -0.08834471 0.087996274 0.083749995 0.0014749849
000350 ca af 46 bd 07 f8 6c 3d cf 20 b2 bd 9e 37 08 bc
       -0.04850749 0.057853725 -0.08697664 -0.008314041
000360 c4 16 03 bc f5 f6 bc 3d f9 0e 22 bd 25 07 97 bd
       -0.008001033 0.09226791 -0.03956506 -0.073744096
000370 11 b7 9e 3d d9 16 bb 3d 41 5d 90 bc 6a c6 f0 bc
       0.07749761 0.09135217 -0.017622592 -0.029391486
000380 19 31 8a 3c 20 d8 8f bd 7f 28 62 3d 58 bc ca bc
       0.016869115 -0.070236444 0.0552144 -0.024748012
000390 9f 1f 78 3d 0b c1 73 3d b3 6c 63 3d 45 ca 15 3d
       0.06057703 0.059510272 0.055523586 0.036569852
0003a0 65 3e bb bc 65 93 91 3d 34 c3 39 3d c1 08 ca bd
       -0.0228569 0.071081914 0.045352176 -0.09864951
0003b0 2a c9 61 bc 1f df 3e bd 10 b3 b3 3d 4a b0 82 bd
       -0.013780871 -0.046599504 0.08774388 -0.06381281
0003c0 59 0c b9 3b 6f 75 45 3b 7b e7 9e 3d fc a7 ab 3d
       0.005647224 0.003012981 0.07758995 0.0838165
0003d0 2a 0f b0 3d 4b f9 53 bd 34 00 8d 3d 5f 19 e5 bc
       0.08596642 -0.051751416 0.06884804 -0.0279662
0003e0 4d c9 34 bd 1b 78 b0 3d 98 05 2c 3d 5b 60 26 bd
       -0.044137288 0.08616658 0.041997522 -0.040619235
0003f0 ab e4 24 3d fe 11 b5 3c bb 30 84 bd e5 1f 58 bd
       0.040257137 0.022103306 -0.06454607 -0.052764792

enc_f.lstm.weight_ih_l0 f4 [384, 4]
000000 f9 64 6d bd 0d 81 6c bd 6d 9d b7 3d 53 39 15 3d
       -0.057957623 -0.05774026 0.089655735 0.03643162
000010 f0 bb b9 3c f1 ee ee 3c 00 b4 86 bd e0 ca 77 bd
       0.022672623 0.02916667 -0.06577301 -0.06049621
000020 90 c4 35 3d dc 8c 89 3c 5c 30 a3 bd de 4c 64 bd
       0.04437691 0.0167908 -0.07968208 -0.05573737
000030 82 26 99 bd 8c e5 16 3d 97 63 fe 3c 63 4f 5e bd
       -0.07478048 0.036840007 0.031053348 -0.054274928
000040 a2 72 4f 3d 90 82 17 bd ea cb 85 bd 82 a9 c5 3b
       0.05064643 -0.03698975 -0.06533034 0.00603217
000050 c6 35 9f bd a7 d4 b7 3b 81 2f b3 3d 46 5a 88 bd
       -0.07773928 0.005610067 0.08749295 -0.06657843
000060 29 83 af bd 42 0d 37 bd 02 3b 90 bd 8c c2 68 3c
       -0.08569939 -0.044690378 -0.07042505 0.01420654
000070 a1 9d 5c 3d 57 78 b0 3d f3 45 a5 bd e1 27 72 3d
       0.053861264 0.08616703 -0.080699824 0.059120063
000080 75 85 7d bd 02 7f 84 3d 74 15 c2 3d 1f 34 b7 bd
       -0.061894853 0.06469537 0.09476748 -0.08945488
000090 07 c2 f8 bc 23 6a 93 bd bf d0 87 3d 40 b4 8e 3d
       -0.030365957 -0.07197978 0.06631612 0.06967974
0000a0 7d 95 80 3d d6 d6 b1 bc ae 55 55 bd 4d 62 fb bc
       0.062785126 -0.021708887 -0.052083664 -0.030686522
0000b0 39 fb c4 3d f6 d9 3d 3c 06 07 6b bd 10 ba 91 3d
       0.096182294 0.0115876105 -0.057379745 0.07115567
0000c0 e8 5c b9 3d e1 22 94 bd 99 88 9e bc b6 f5 60 bd
       0.090509236 -0.07233215 -0.019352244 -0.05492183
0000d0 8d 28 2b 3b 74 df f5 3c 19 d2 bf 3d 96 79 88 bd
       0.00261167 0.030013777 0.09366245 -0.06663816
0000e0 d5 56 91 3c fa 58 69 bd 99 e1 96 bc 9b e2 88 3d
       0.0177416 -0.05696962 -0.01841812 0.066838466
0000f0 ff da 16 bd 4f 65 b5 3c 86 94 88 3d a2 a0 b4 3d
       -0.036829945 0.022143034 0.066689536 0.08819701
000100 e0 e3 81 bb 41 5a ad bd d1 31 b2 3c ed 22 c0 3d
       -0.0039639324 -0.0846448 0.02175227 0.093816616
000110 18 b1 90 bd 3b ec 12 3d 78 b4 6b bd 3d 3d f3 3c
       -0.07065028 0.03586982 -0.057545155 0.029692287
000120 db a7 89 3c 5e b0 51 3d 81 cc e5 bc 71 7f d1 bc
       0.016803673 0.051193587 -0.028051617 -0.025573464
000130 3e be 68 3d e8 74 ce 3d 81 0d 5c bd 3c 06 43 3d
       0.056822054 0.10080892 -0.053723816 0.047613367
000140 30 90 17 3d ee 4b b5 bd e8 3c 6e 3d e0 37 c0 b9
       0.037002742 -0.08852373 0.058163553 -0.00036662724
000150 dd 63 51 ba 33 45 3b bc 20 90 c6 3d 4b 11 a6 bd
       -0.0007987598 -0.011430073 0.096954584 -0.08108767
000160 65 6d a0 bd d4 24 cf bc 65 e8 ae bd 8c a4 a5 bd
       -0.07833365 -0.025286116 -0.085404195 -0.080880255
000170 6c 38 89 3d f3 d1 db bc b3 a4 c6 bb 2c cf 4b bd
       0.06700215 -0.02683351 -0.006062114 -0.04975812
000180 e0 c6 9a bd 2d 4c af 3c 77 9a 9e bc e8 2b f9 bc
       -0.07557464 0.021398628 -0.019360764 -0.030416444
000190 85 2a ca bd c1 80 7d bd 6e 1e 01 bd 3a a7 9f bc
       -0.09871391 -0.061890367 -0.03152316 -0.01948892
0001a0 e8 a1 7b bd 3d 7b 83 bd 43 b4 ac bd 35 37 e6 3c
       -0.061433703 -0.0641999 -0.0843282 0.028102497
0001b0 9e b1 aa bc 25 1b b6 3b 59 3c 91 bc 48 d6 7e bd
       -0.020836648 0.005557435 -0.017728971 -0.062216073
0001c0 b9 f2 81 bd 9c b7 04 bc b0 35 9e bd f1 70 55 3d
       -0.06345124 -0.0081004165 -0.07725084 0.052109662
0001d0 67 c3 49 3d 2f ff 28 bd 6f aa ec 3b 36 ea 85 3d
       0.049258616 -0.041258987 0.0072224657 0.06538813
0001e0 70 12 b5 3d de 45 8f bd 5e 92 07 bd 2a 0f 65 ba
       0.08841407 -0.06995748 -0.03309857 -0.00087379164
0001f0 f6 35 a3 bd 96 77 0d bd e3 6b 36 3d 34 23 32 bd
       -0.079692766 -0.034537874 0.044536483 -0.043490604
000200 d6 43 ea 3c 39 25 c7 bd 4d e7 b1 3d 90 73 8d bd
       0.0285968 -0.097238965 0.08686695 -0.069068074
000210 0a f8 d2 bd 29 26 fd 3b ef d4 af bd 4e c7 ae 3b
       -0.10301216 0.0077254963 -0.08585536 0.0053338176
000220 d0 e6 01 bd 0d 9d 97 bd dd 45 5e 3d 76 ca ab bd
       -0.03171426 -0.07403002 0.054265846 -0.08388226
000230 67 f8 a9 bd 0a c3 45 3c ad 0f 88 3d 94 32 69 bb
       -0.08299332 0.012070427 0.06643615 -0.0035583125
000240 76 d6 be 3d 72 bc 9b bc 7e 76 c4 bd cb 95 ca 3d
       0.09318249 -0.019010756 -0.09592913 0.09891852
000250 3a bc c2 bd 54 ed ce bd 53 c4 64 bd 26 04 fa bc
       -0.095085576 -0.101038605 -0.055851292 -0.030519556
000260 76 0c fb 3a ca 61 84 bd 04 04 96 3d 6f e5 2a 3a
       0.0019153494 -0.06463964 0.07324985 0.00065191736
000270 cf f5 af bd 22 5f a4 bd 08 23 3a 3d 3f 63 b3 bd
       -0.08591806 -0.08025958 0.045443565 -0.08759164
000280 79 2a 5b 3d 3f 8f 87 bb 83 87 ca bd 6c d2 b6 3c
       0.053507302 -0.0041369493 -0.09889128 0.022317134
000290 55 a3 ae 3d 78 e0 9c bd 24 20 64 bd 72 4c 85 bd
       0.08527247 -0.076600015 -0.055694714 -0.065087214
0002a0 3f 01 b0 bb b5 58 9e 3d f6 01 c5 bd 61 f0 fa bc
       -0.0053712423 0.07731763 -0.09619515 -0.0306322
0002b0 32 6d c4 3d d7 32 31 3d f7 ae 5b bc 8d 73 4b 3d
       0.0959114 0.043261375 -0.013408414 0.049670745
0002c0 b6 5e c5 3c fe cb 28 3d 68 4b ab 3c 4a 66 95 3d
       0.024093013 0.041210167 0.02090998 0.07294901
0002d0 f6 68 92 bc 3f 76 c1 3d 84 39 12 bd eb 6b 43 3d
       -0.017872315 0.09446382 -0.035699382 0.04771034
0002e0 ac 64 f8 bc 62 f4 7c 3c 59 c9 b7 3c 36 8c ac 3c
       -0.030321442 0.015439125 0.022434877 0.021062952
0002f0 f9 27 11 3d 92 4e a3 3d 2e 1f 8b 3c 2e ee c5 bd
       0.03543851 0.079739705 0.016982641 -0.0966457
000300 05 c8 a6 3d fb 84 ab 3d a0 ac 8c 3d 29 e4 f0 bc
       0.081436194 0.083749734 0.06868863 -0.02940567
000310 ac 1f f7 3c d5 b0 cc 3d 4f aa 79 3d 88 ac ca bd
       0.03016647 0.099946655 0.060953435 -0.09896189
000320 47 e0 c4 bc 5a 45 79 bd bc 8d 0b 3c fc 52 28 bd
       -0.024032725 -0.060857154 0.008517679 -0.041094765
000330 b3 af df bc 10 97 77 bd 4f d0 b0 bd 02 8e 16 bd
       -0.02730546 -0.0604468 -0.08633482 -0.036756523
000340 20 f5 75 3d 48 04 8d bb 72 24 a2 3c 60 e8 18 bc
       0.060048223 -0.004303489 0.01979277 -0.009332746
000350 cd 12 c4 bd b7 45 7e 3d 85 c8 06 3d 74 f1 aa 3d
       -0.095738985 0.062078204 0.032906074 0.08346835
000360 81 8a da 3c 4a f5 51 bd 60 17 b4 bd cf 99 06 3d
       0.026677372 -0.051259317 -0.08793521 0.032861527
000370 64 18 0f bd e2 b4 96 bd d2 f8 36 3d 98 80 c7 bc
       -0.03493537 -0.073587194 0.044670887 -0.02435331
000380 c5 36 d8 3c 36 d5 45 bc 07 5b c6 bc a0 3c 6e 3d
       0.026393304 -0.012074759 -0.024213327 0.058163285
000390 9e aa d3 3d f1 74 79 bb 12 d0 34 3d 4f d0 24 bd
       0.10335277 -0.0038064087 0.044143744 -0.04023772
0003a0 0e 51 be bd eb fc 33 3d c7 c0 d1 bd f3 cc 07 3c
       -0.09292804 0.043942373 -0.102418475 0.00828861
0003b0 48 29 9f 3d c8 2a d1 3c d2 71 bc 3d 30 71 2d 3d
       0.07771546 0.025533095 0.09201397 0.042344272
0003c0 35 9a 0d 3d 3f b3 21 3d 63 df 99 3d 1c cb a5 3d
       0.03457089 0.039477583 0.07513311 0.08095381
0003d0 03 55 b0 3d 4d d7 a0 bd 48 05 7f bd be 09 5b 3c
       0.08609965 -0.07853565 -0.062260896 0.013369022
0003e0 38 00 98 bd 60 3b ca bb 47 3c f2 bc 70 09 78 bd
       -0.07421917 -0.006171629 -0.029569758 -0.060555875
0003f0 87 3e ba 3d 09 44 a4 3d e8 e1 d8 bb f2 e8 c0 bd
       0.090939574 0.08020789 -0.006618727 -0.09419431

enc_f.lstm.weight_hh_l0 f4 [384, 96]
000000 cb b4 46 3d a8 74 46 bc cc b3 85 bd b6 98 8d bd
       0.04851226 -0.012112774 -0.06528434 -0.06913893
000010 97 31 47 bd 5d 91 35 3a 45 35 91 3d 1f f0 5a bc
       -0.048631277 0.0006926263 0.070902385 -0.013362913
000020 a3 8d 8b bc 5c 87 73 bd a5 ed 6c bc ea ca b1 3d
       -0.017035311 -0.05945526 -0.014460956 0.08681281
000030 3b ea bb 3c a3 4f 9f 3d d1 80 20 3d 25 a8 70 bd
       0.022938838 0.077788614 0.03918535 -0.058754105
000040 dd 02 d2 3a bf 9e be 3d d1 fd cb 3d 79 38 83 3d
       0.0016022582 0.09307622 0.09960521 0.06407256
000050 8d 27 c1 bc f8 45 28 3d b0 9a 07 3d ff ae 6d 3d
       -0.02357843 0.041082352 0.033106506 0.058028217
000060 a2 fb be 3d a6 81 88 bd c7 b6 87 bd 4c 2c 64 3d
       0.09325339 -0.066653535 -0.06626659 0.055706307
000070 5d d3 ce bd aa d1 0a bd 0a ce 87 bd 51 41 ec bc
       -0.10098908 -0.033891357 -0.06631096 -0.028839739
000080 1a a3 56 bc 64 36 f8 bc 81 8b 38 3d 99 91 bc bc
       -0.01310041 -0.030299373 0.045054916 -0.023018645
000090 84 3a c7 3d fb 41 c0 bd 77 c9 44 bd 58 61 92 bd
       0.09727958 -0.09387585 -0.048043694 -0.07147473
0000a0 05 c9 e3 3c 12 3c 8e bd 3a c7 82 bd b5 80 d4 3c
       0.027805815 -0.06945051 -0.06385656 0.025940279
0000b0 01 f2 2b 3d 9d 16 00 3d d6 fa bd 3d ea a9 ca 3d
       0.04197884 0.031271566 0.09276359 0.0989569
0000c0 7b 20 89 bd cf 7a 6f 3d 4e 65 8c bd 30 3c c5 bd
       -0.06695648 0.05846673 -0.0685526 -0.096306205
0000d0 cf a7 48 3d 55 d4 04 bd e6 f4 7b 3d b4 72 a6 3d
       0.04898816 -0.032429058 0.06151285 0.08127347
0000e0 cd 0d bf bd da ff b6 3d ff 04 44 3d 6d fc 21 bd
       -0.09328804 0.089355186 0.047856327 -0.039547373
0000f0 e5 4e 0c 3d d4 91 7d bd a7 34 b5 3d 4f a6 c3 bd
       0.034254927 -0.06190665 0.08847933 -0.09553205
000100 77 38 c5 bd f8 7c a9 bd 70 96 9f 3d dd 7a 1a bc
       -0.096299104 -0.08275789 0.077923656 -0.009428707
000110 0b 32 92 3d 2e 1f 02 3d b8 c4 72 3d fb c4 1f 3d
       0.07138451 0.031768017 0.059269637 0.039006215
000120 04 1c 36 bb fc 75 c3 3d 7f ae b4 3c 1e ad a6 bd
       -0.0027787695 0.09543988 0.022055862 -0.08138488
000130 e6 0c c5 bd c7 e5 bd 3d 16 34 90 bd bd b5 d2 bd
       -0.09621601 0.09272342 -0.070411846 -0.1028857
000140 69 a8 a0 bd 30 6a 3c bc 70 ed 6a bc c8 05 51 bd
       -0.07844622 -0.011499926 -0.014338836 -0.051030904
000150 62 ec 4e 3d 7d 2e b8 3d 6f fb 83 bd 19 93 18 bc
       0.0505184 0.08993242 -0.064444415 -0.009312415
000160 f4 da cd bd 2b 74 89 3d f2 8e 88 bc 94 6b d1 bd
       -0.100515276 0.067116104 -0.016669724 -0.10225597
000170 9f 8c 00 3d e8 3c b6 3d 73 c4 aa 3d bf c8 86 bd
       0.031384107 0.08898336 0.08338251 -0.06581258
000180 33 f5 a6 3b 0c b7 2a 3c a9 b5 6b 3d 0e 21 7b 3c
       0.005095148 0.010419618 0.05754629 0.015327705
000190 2f 3e be 3d a6 4f a1 bd cf 63 c6 bc a8 3a e7 ba
       0.09289204 -0.0787652 -0.024217514 -0.0017641382
0001a0 98 14 35 3d 34 c5 8a 3d d5 28 85 3d 00 18 a8 3d
       0.044209093 0.06775895 0.06501929 0.08207703
0001b0 d5 99 f5 3c eb 4c 77 3d ad 42 d1 3d 9c 13 e6 bc
       0.02998058 0.06037609 0.102177955 -0.028085522
0001c0 50 5f ae ba b8 f1 16 bd a0 e6 2b 3d fc d5 2a 3d
       -0.0013303552 -0.036851615 0.041967988 0.041707978
0001d0 62 c1 ce 3d ba 1b a3 bd 61 69 e0 3c 52 8e 99 bd
       0.100954786 -0.07964273 0.027393999 -0.074978486
0001e0 fb de 68 3c 69 41 ae 3d 4e 28 c5 3d 47 00 28 3d
       0.014213319 0.0850857 0.09626828 0.04101589
0001f0 77 38 a2 3d d8 f0 cd 3c 28 c0 d7 3c 2e 42 b0 3c
       0.07920926 0.025139257 0.026336744 0.021515932
000200 09 8c 17 bd 6c e4 7a 3d fd 0d 80 3d cf 1d ad bd
       -0.036998782 0.061252996 0.06252668 -0.08452951
000210 c2 84 25 bd 4e 4b 99 3d df f8 34 bb c6 21 6b bd
       -0.04040981 0.07485066 -0.002761416 -0.057405256
000220 2a 17 87 3d 32 ad 8c 3c a5 ab 52 bd b1 4e b6 bd
       0.06596215 0.01717243 -0.051433224 -0.08901728
000230 8e c7 61 3c 0b b5 b7 bd b5 50 83 3d bb 90 7b bd
       0.013780488 -0.08970078 0.06411878 -0.061417323
000240 4b 28 d1 3d 1e 6d 6f bc 12 5b 2c bd 3a 37 0b bd
       0.102127634 -0.014613418 -0.04207904 -0.033988215
000250 6a d1 d6 bc cc 51 8d bb 32 66 2a 3d fa 1f aa 3d
       -0.026222903 -0.0043127295 0.041601367 0.0830688
000260 b7 26 7a bd e7 35 07 3d 96 1b 51 bc 09 04 4d 3d
       -0.061072078 0.03301039 -0.012762925 0.050052676
000270 6e 64 86 bd 47 cf 97 3d 2c 4d 2a bd a0 60 cd 3c
       -0.06562124 0.07412582 -0.041577503 0.025070488
000280 67 f2 64 3d ec 3f 0d 3d 37 4d c7 3d 5b c0 53 bd
       0.055895235 0.03448479 0.097315244 -0.051697116
000290 ec dc 81 bc 14 b5 48 3d 1d 5f b5 bd 9a f7 9e 3d
       -0.015852414 0.049000815 -0.08856032 0.0776207
0002a0 fd 5b 86 bd 85 21 ab 3c 76 08 93 3d 52 ab 8d bb
       -0.06560514 0.020890007 0.07179348 -0.0043234015
0002b0 00 8a a0 bd a7 50 bb 3d e7 e3 c4 3d 86 1b 84 bd
       -0.078388214 0.091462426 0.096137814 -0.06450562
0002c0 05 5c 33 bd b4 bb 6d bd 32 af 77 3d d5 39 ad 3d
       -0.04378893 -0.058040336 0.060469814 0.08458296
0002d0 18 1c 9c bc b2 29 ce bd 1d 16 a7 bd a8 4b da 3c
       -0.019056365 -0.100665465 -0.08158515 0.026647404
0002e0 38 a5 9e bd cc 42 16 bd 3f b6 77 3d 71 ee a9 bb
       -0.07746357 -0.036684796 0.060476538 -0.005185895
0002f0 9e 34 00 3d a8 25 84 bd 98 9d 7b 3d cb f7 1c bd
       0.03130018 -0.06452495 0.06142959 -0.03832225
000300 09 c8 82 3d 23 97 a8 3d d7 e3 09 bd 32 b2 56 bd
       0.0638581 0.08231952 -0.03366455 -0.052416034
000310 3b 9a 91 bc 8b b6 5d bd b4 80 a4 3d 3a e0 92 3c
       -0.017773738 -0.054129165 0.08032361 0.017929185
000320 41 36 c3 3d ef 08 17 3d 2c 23 8d bd e6 75 de bc
       0.095318325 0.036873754 -0.06891474 -0.027155828
000330 a0 a8 4b 3d 43 fe c0 bd 1e 47 d9 3c 56 2b 95 bc
       0.04972136 -0.094234966 0.02652317 -0.01820914
000340 51 1d bc 3d c5 1c ce 3c cc 78 b9 bd 26 34 d9 bc
       0.09185279 0.025160203 -0.09056243 -0.026514124
000350 73 29 c8 3c 12 be 67 bc 2e 56 9e bd 8b 0e 43 3d
       0.024433827 -0.014144437 -0.07731281 0.04762129
000360 d7 1c 25 bd a5 4f 32 3c f3 ca 79 3d ac 2b 19 3d
       -0.040310707 0.010883247 0.060984563 0.037395164
000370 29 ef 59 bd 60 67 b6 3a 95 2a ab bd 24 49 36 3c
       -0.053206597 0.0013916306 -0.08357731 0.0111258365
000380 db 3e e5 3c 59 20 cf 3d 4f 89 98 bd 31 f2 23 3d
       0.027984073 0.10113592 -0.074480645 0.040025894
000390 5b c2 a7 3c a7 f2 64 bd 27 45 ad 3d cc 9f 66 3d
       0.020478418 -0.055895474 0.084604554 0.056304738
0003a0 83 5f 0f 3d fb b4 68 bd 84 35 2e bd 93 3e 91 bd
       0.035003196 -0.05681322 -0.042531505 -0.07092013
0003b0 de dc 27 3d 08 d4 f3 3c 85 a3 6b 3d 98 d6 98 3d
       0.04098212 0.02976419 0.05752899 0.074628055
0003c0 d8 b5 36 bd 0a 6f fd bb 08 5b f9 bc 60 f1 a7 3d
       -0.044607013 -0.007734184 -0.030438915 0.082003355
0003d0 91 22 ec bc 33 b5 93 bb 1e 40 59 3d a4 c8 88 3d
       -0.028825076 -0.0045076846 0.053039663 0.06678894
0003e0 bd 9e 7b bc 95 44 80 3d 9a 6e d1 bc 72 32 ff bc
       -0.01535767 0.06263081 -0.025565434 -0.031151984
0003f0 05 ce b2 3d f5 28 45 bd 1e 7d d0 bb 36 cc 2c bd
       0.08730701 -0.048134763 -0.0063625714 -0.04218694

enc_f.lstm.bias_ih_l0 f4 [384]
000000 bb a9 d3 3d f0 ac c0 bd 90 3b b9 bd 19 b0 c9 3d
       0.10335108 -0.09407985 -0.09044564 0.09848041
000010 20 57 7a bd 46 91 11 bd ed d2 a1 3d 07 97 63 3c
       -0.061118245 -0.035538934 0.07901559 0.013890988
000020 ad 8f d9 3c c8 35 11 3d ca 5b 76 3d f5 71 b6 bd
       0.026557768 0.03545168 0.06014613 -0.08908454
000030 91 26 5f bd ac 17 b9 bb 0d d7 81 bb a4 47 17 bd
       -0.05448014 -0.005648574 -0.0039624036 -0.036933556
000040 aa 71 9a bd e7 bb 55 3d e8 5c 9e 3d 2f ad 82 bd
       -0.07541211 0.05218115 0.07732564 -0.063806884
000050 6e 3e b7 3c 80 ca a9 3d f8 ff a1 3d 94 31 8f bd
       0.022368636 0.08290577 0.0791015 -0.06991878
000060 59 3a 53 3c 29 69 1e bd a6 d6 8c bd b4 32 e2 3c
       0.012892329 -0.038674507 -0.068768784 0.027612068
000070 77 ac 90 3b a1 57 08 3d f6 97 29 3d 92 11 bc 3d
       0.0044150907 0.033286694 0.041404687 0.09183039
000080 b5 6e a1 bd 77 8e bc 3a 96 27 16 3a 1a 32 05 bd
       -0.07882444 0.001438572 0.00057279447 -0.032518484
000090 7b 03 91 3c 86 ea 9f bd 33 06 64 bd 88 85 1f bd
       0.017701855 -0.07808404 -0.055669975 -0.038945705
0000a0 78 96 57 3c e3 5b ae 3d 25 b9 36 bd 4a 02 7d 3b
       0.013158433 0.0851362 -0.04461016 0.00386061
0000b0 91 7e 4d 3b be 81 db bb ad e9 3a bd 0e 6e bd bd
       0.0031355957 -0.006698816 -0.045633007 -0.09249507
0000c0 80 f3 ad bd 83 cc 81 3c e9 d9 b1 3d f8 ad a6 3d
       -0.084937096 0.01584459 0.08684141 0.08138651
0000d0 d5 0f 05 bd c5 5d 49 bc 0e c1 9b bd 24 72 01 3d
       -0.0324858 -0.012290423 -0.07605182 0.031602994
0000e0 09 02 5b 3d 75 e5 a5 bd 37 57 03 bc 6e 35 9a bd
       0.053468738 -0.08100406 -0.008016399 -0.07529722
0000f0 f6 4f cc bd c2 73 12 bd ae 2c 95 3d 73 ee 2f bd
       -0.09976189 -0.035754927 0.072839126 -0.042952012
000100 55 f8 29 bc 96 f2 bc 3c c9 c8 89 3d 2f 0e 59 bd
       -0.010374148 0.023064893 0.0672775 -0.052992042
000110 0d 28 98 3d 66 0b e9 3b 77 50 a9 bd 7b c7 6b bd
       0.07429514 0.0071119545 -0.082673006 -0.057563286
000120 c2 5f 7b bd 00 55 a9 3d b9 9c 02 3d 15 59 59 bd
       -0.06137062 0.082681656 0.031887744 -0.05306347
000130 57 21 99 3d 42 f6 ad 3d ac 9d a9 bd 70 5d d1 bc
       0.07477062 0.084942356 -0.08282027 -0.02555725
000140 a0 bf c2 bb 44 73 2b 3d 24 d5 90 3d 57 49 16 bd
       -0.0059432536 0.041857973 0.07071903 -0.036691036
000150 90 a6 bf bd dd b4 b7 3d 7b bc 19 bd 02 74 b3 bd
       -0.09357941 0.08970044 -0.037533265 -0.08762361
000160 f5 1f 7d bc a1 ca 38 bd d3 a5 7e bd de 3c ce bd
       -0.015449514 -0.045115117 -0.06216986 -0.10070203
000170 e0 a5 87 bd 3d b0 bd 3c 6e 33 10 3d 3e 40 83 bd
       -0.06623435 0.023155326 0.035205297 -0.064087376
000180 70 9b 54 bd 5f 16 70 bd 6e b9 e6 3c ae 96 81 bd
       -0.05190605 -0.058615085 0.028164592 -0.06327568
000190 47 09 94 3d cd 61 fe 3b 6c 94 67 bc 1a df 51 3d
       0.07228332 0.0077631236 -0.014134508 0.051238157
0001a0 e7 61 bc 3d fc a8 41 bb c7 3f ad bc 08 ff 55 bc
       0.09198361 -0.0029550185 -0.021148575 -0.0130612925
0001b0 f6 13 bc 3d ed 03 ee bc 84 7d be bd 8c 61 74 3c
       0.09183495 -0.029054606 -0.09301284 0.014915835
0001c0 2e b9 55 bd fb 07 9c 3d 37 d3 40 bc c0 72 b9 3d
       -0.052178554 0.0761871 -0.011769108 0.0905509
0001d0 5b 6a ba 3d 1a e2 c9 bd e4 f7 e7 38 a9 aa 88 3d
       0.09102317 -0.098575786 0.000110611116 0.06673176
0001e0 ed 26 07 3c 9c ed 8d bb 63 7f 13 bd 13 39 c6 bd
       0.008249027 -0.0043313038 -0.036010157 -0.09678855
0001f0 3b d4 0d bd cb 33 0d 3d 0d c9 c3 3d 81 e5 7d 3d
       -0.034626227 0.03447322 0.09559832 0.06198645
000200 d5 66 cb 3d 0b 75 de bb e5 7e 62 3d 9d dd 02 bc
       0.09931723 -0.006788855 0.055296797 -0.007987407
000210 d9 c6 5e bd fe c9 24 3d 32 b1 66 bd 1c 63 8f bc
       -0.054388855 0.040231697 -0.05632133 -0.017503314
000220 31 85 c3 3d f4 5e 85 bd 38 08 48 3d 84 7b 1e bd
       0.095468886 -0.065122515 0.048835963 -0.038692012
000230 39 c7 3b bd 17 6b 8a 3c 18 1c 8e bd c4 aa 83 bd
       -0.04584429 0.016896768 -0.06938952 -0.06429055
000240 75 1d b5 bd b6 b0 23 bc 4d 33 29 bd 10 a0 2d bd
       -0.08843509 -0.009990862 -0.04130869 -0.042388976
000250 72 af 87 bd 8b 58 27 3d f8 69 d3 3d f4 34 b7 3d
       -0.066252604 0.040855926 0.10322946 0.08945647
000260 04 cc b1 3d f9 55 d4 3c ad f7 48 bd f5 45 be bb
       0.08681491 0.025919901 -0.049064327 -0.0058066794
000270 c0 7b ab bc f6 ab 31 bd 70 d0 a7 bd 89 be b5 3d
       -0.020933032 -0.043376885 -0.08194053 0.08874232
000280 56 42 64 bd c4 e1 83 3d 9d 92 09 3d 30 24 9c 3d
       -0.055727325 0.06439546 0.033587087 0.0762409
000290 af 1d 03 3d 55 28 1d bd 66 df bb bc d9 a3 6a bd
       0.03201073 -0.03836854 -0.022933673 -0.057285164
0002a0 e5 ac c3 3d d0 b4 05 bd 75 76 49 bd df 59 2f 3c
       0.095544614 -0.03264314 -0.049185235 0.010702579
0002b0 d2 88 4c bd d4 a3 7e bd 69 ac b3 bc cb c0 85 bd
       -0.04993517 -0.062167957 -0.021932798 -0.06530913
0002c0 45 a7 a6 bd d3 0c a6 bc 4b 1c 00 bd 5a 32 9d 3d
       -0.08137373 -0.020269787 -0.031276982 0.076756194
0002d0 b8 c7 aa bd 26 f1 09 bd 5a ef b5 bd f8 32 bf bc
       -0.083388746 -0.033677243 -0.08883543 -0.023339733
0002e0 4e f9 c8 3d 3e df ac 3d 9f c7 8c bc 2e 86 a6 39
       0.09813176 0.084410176 -0.01718503 0.0003176196
0002f0 4f 08 72 3d c5 d4 33 3c 1b bc a1 bd 56 2f 70 3d
       0.059089955 0.010976021 -0.078972064 0.058638893
000300 41 30 f2 bc c5 7b d9 3c 01 1a c4 3d fc 16 b1 3d
       -0.029564025 0.026548276 0.09575272 0.08646962
000310 a5 5e 05 3d 0d 80 21 bd 97 2e 62 bd 14 0c 6b bd
       0.032560963 -0.03942876 -0.055220213 -0.057384565
000320 43 ab 80 3d ba bc 39 3d cb 64 44 bd 59 64 1e bc
       0.062826656 0.045346 -0.047947686 -0.009667479
000330 c1 67 96 bd 24 4e be 3b a2 db 97 bd 78 80 60 bd
       -0.07344008 0.005807655 -0.074149385 -0.054810017
000340 58 8a a8 3d 7a dc d3 3d 74 f2 1b bd 5e e9 11 3d
       0.08229512 0.10344787 -0.03807302 0.035622947
000350 26 46 85 bd 4b a1 ce 3d c0 9d 39 bd 1a 7a 8a 3d
       -0.065075204 0.10089358 -0.045316458 0.0676157
000360 95 92 83 bd 30 c2 9c bd 3c 7c 97 3d d0 f1 3b 3d
       -0.06424443 -0.07654226 0.07396743 0.045884907
000370 0c 2b b7 bc 04 d9 01 bd 1e 37 ae bc 38 b7 46 bd
       -0.022359394 -0.031701103 -0.021266516 -0.048514575
000380 68 c4 71 3d bd 2c af 3d dd 8b 2a bd af f8 bf 3d
       0.0590252 0.08553455 -0.04163729 0.093736045
000390 5d 9e 81 3c 4b e5 fa bc 0a c1 0c bc ed 46 b0 bd
       0.015822584 -0.030626914 -0.008590946 -0.08607278
0003a0 d9 bb b2 bd 31 39 d4 3d 35 4a 3f 3d a9 bb 94 3d
       -0.08727235 0.10362471 0.04670163 0.07262356
0003b0 b8 20 40 bd c6 01 2d bc 33 f2 6b bd 1e 62 ad bd
       -0.046906203 -0.010559505 -0.057604026 -0.0846598
0003c0 2c 8b 28 3b 8b 0e 9d 3d 66 63 85 bd c4 09 90 3d
       0.0025717719 0.076687895 -0.06513099 0.07033113
0003d0 a1 e1 cc bc 2f 81 9a bc 32 bc b4 bd ed 31 39 3d
       -0.025009932 -0.018860428 -0.08824958 0.04521363
0003e0 26 82 a4 bd e2 3a 2a bd d6 b3 4d 3d 78 ba 52 3c
       -0.08032636 -0.04156006 0.050220333 0.01286184
0003f0 a5 6b 1d 3d 02 23 84 bd 19 37 c4 bd d2 ef 86 3d
       0.038432736 -0.0645199 -0.095808215 0.06588711
