_train/_models/20250924/지역난방공사(071320)_20250924.pt (torch, 831847 bytes, 20 tensors)

enc_p.lstm.weight_ih_l0 f4 [384, 6]
0	0xbd278c98	-0.040905565
1	0xba43bfd4	-0.0007467244
2	0x3d59feb0	0.053221405
3	0x3c22b56c	0.00993095
4	0xbd54ccdb	-0.051953178
5	0x3d69121d	0.05690204
6	0xbd3b917e	-0.04579305
7	0xbd310cc5	-0.04322507
8	0x3d9ed3d4	0.07755247
9	0x3d2b1382	0.04176665
10	0x3ab5edbc	0.0013880054
11	0xbb8226a0	-0.0039718896
12	0xbd011cf7	-0.031521764
13	0x3cdf4265	0.027253339
14	0xbdc0fe6b	-0.094235264
15	0xbc87d83a	-0.016582597
16	0x3d43db2d	0.047816444
17	0xbd1af030	-0.037826717
18	0xbdb05690	-0.086102605
19	0xbc19c881	-0.009386183
20	0x3d9ccb51	0.07655967
21	0x3cadfe07	0.021239294
22	0x3d66037a	0.05615566
23	0xbdc5c3ee	-0.09656511
24	0xbd2b9666	-0.041891478
25	0xbd919f5c	-0.071104735
26	0xbdcd4095	-0.10022084
27	0x3d99824c	0.07495555
28	0x3cb63254	0.022240795
29	0xbd8e6bec	-0.06954178
30	0x3d0cfd17	0.034421053
31	0x3d955b79	0.07292838
32	0x3c625c10	0.013815895
33	0xbd3bd62b	-0.045858543
34	0x3cb01266	0.021493148
35	0x3d818f24	0.0632613
36	0x3cc0c459	0.023531126
37	0xbcf4786b	-0.029842576
38	0xbd490ebf	-0.04908633
39	0x3d89f8fc	0.06736943
40	0x3dd01749	0.10160691
41	0x3c2a20c9	0.010383793
42	0xbdc9f293	-0.098607205
43	0xbcc79c32	-0.024366472
44	0xbdbeb384	-0.09311584
45	0x3d831aba	0.06401582
46	0x3d34031a	0.04394827
47	0xbbfad734	-0.0076550487
48	0xbd2ea33c	-0.04263614
49	0xbd037f78	-0.032103986
50	0x3dacdf06	0.08440976
51	0xbb233be4	-0.0024907524
52	0x3d4044c7	0.04694059
53	0xbd8142b9	-0.063115545
54	0xbd2395ef	-0.03993791
55	0x3dab9ca5	0.08379487
56	0x3db359f9	0.08757395
57	0x3a8eeafc	0.0010903771
58	0xbc8829d8	-0.016621515
59	0x3dc65ec2	0.09686042
60	0x3db859f5	0.09001533
61	0x3d0ddfc0	0.034637213
62	0xbd541a58	-0.051782936
63	0xbd06a39e	-0.03287088
64	0xbcef8bb1	-0.029241415
65	0xbd903ce9	-0.07042868
66	0x3d0511af	0.032487568
67	0x3d820868	0.063492596
68	0xbd43c77c	-0.047797665
69	0x3dbb4fa4	0.091460496
70	0xbdce98a0	-0.10087705
71	0x3db6ce0e	0.089260206
72	0x3d97f1b3	0.07419147
73	0x3dd44f9b	0.10366746
74	0xbc1397ea	-0.009008387
75	0xbd30b964	-0.043145552
76	0xbd191c83	-0.037380707
77	0x3d39d8e4	0.04537286
78	0xbd8a07cf	-0.067397706
79	0xbdcd6270	-0.10028541
80	0xbd21fbcd	-0.039546777
81	0x3d747b9a	0.059688188
82	0xbd8f1676	-0.06986706
83	0x3b4798ca	0.003045606
84	0xbce59970	-0.028027266
85	0x3c4a3234	0.012341071
86	0xbd8ad238	-0.06778377
87	0x3dd0303a	0.101654485
88	0x3cb1bd62	0.02169675
89	0xbd2f3211	-0.042772356
90	0x3c1a4d8e	0.009417905
91	0x3c41a91f	0.011820107
92	0x3dab6dda	0.08370562
93	0x3d6b6528	0.057469517
94	0x3d1ec501	0.038762096
95	0x3da460a5	0.08026246
96	0xbda8a2f5	-0.082342066
97	0xbdc66c7c	-0.096886605
98	0xbdd34cc3	-0.103173755
99	0x3d02f4c1	0.031971697
100	0xbd063dc0	-0.032773733
101	0xbdb7c1ef	-0.08972537
102	0xbd5bc3d2	-0.053653546
103	0xbcce52a7	-0.025185896
104	0x3db6b2ee	0.08920847
105	0xbbe67acf	-0.007033683
106	0x3ca87f49	0.020568507
107	0x3c15340d	0.009106648
108	0xbdceb0f6	-0.10092346
109	0x3c534c81	0.012896658
110	0x3da57203	0.08078387
111	0xbd8f04e2	-0.06983353
112	0x3dd0dd31	0.10198439
113	0xbd5eb347	-0.05437019
114	0x3c01ee43	0.007930341
115	0xbc36e835	-0.011163761
116	0xbc65f7a3	-0.014036092
117	0xbc04d9b4	-0.008108545
118	0x3d5f581c	0.054527387
119	0xbd5bb23c	-0.053636774
120	0x3d543eb9	0.05181763
121	0x3d860a1e	0.065448985
122	0x3daab9c8	0.08336216
123	0x3c8845a9	0.016634779
124	0x3d468966	0.048470877
125	0x3d9a7045	0.07540945
126	0xbcdb1125	-0.026741574
127	0x3d0325b5	0.032018382
128	0x3d0ace87	0.033888366
129	0x3dc23be1	0.09484077
130	0x3d5f51ab	0.054521244
131	0xbc82ee5b	-0.015982797
132	0x3cbff46e	0.023431983
133	0xbd6eff5b	-0.058348995
134	0xbd16038d	-0.03662448
135	0xbd91360e	-0.07090388
136	0x3dc73f66	0.09728889
137	0xbb357b45	-0.0027691883
138	0x3cebb612	0.028773341
139	0x3bdd7361	0.006758139
140	0x3a9d341d	0.001199368
141	0xbc875a5d	-0.01652258
142	0x3d2a14b9	0.04152367
143	0xbdc93812	-0.09825148
144	0x3db7c58b	0.08973225
145	0x3c43d784	0.011953238
146	0xbd4dc8f3	-0.05024047
147	0x3d3f9249	0.046770368
148	0x3d00df03	0.03146268
149	0x3d9fee85	0.07809166
150	0x3dc556ed	0.096357204
151	0xbda75700	-0.08170891
152	0x3c8d4a75	0.017247418
153	0xbbd4969a	-0.0064876797
154	0xbdbe72c1	-0.09299231
155	0xbb82e9dc	-0.0039951634
156	0xbdccc67a	-0.09998794
157	0xbd226901	-0.03965092
158	0x3da42fbe	0.080169186
159	0xbcc343e3	-0.023836082
160	0xbd62fc87	-0.05541661
161	0xbdad8e52	-0.08474411
162	0xbcb93fce	-0.022613432
163	0x3d8af881	0.067856796
164	0x3d35a050	0.04434234
165	0xbc47d976	-0.012197843
166	0xbdb95fd1	-0.09051479
167	0x3c0209ac	0.007936876
168	0xbd929c36	-0.07158701
169	0x3db61690	0.08891022
170	0xbce59304	-0.028024204
171	0xbc1fe3ed	-0.009758932
172	0xbd8243eb	-0.063606106
173	0xbc8ac0c8	-0.016937628
174	0x3da0b509	0.0784703
175	0x3d9010dc	0.07034466
176	0x3c59145e	0.013249485
177	0xbdaf481b	-0.08558675
178	0xbc92a567	-0.017901136
179	0x3db9e742	0.09077312
180	0xbd461652	-0.04836113
181	0xbda40349	-0.08008439
182	0x3dadcf40	0.084867954
183	0x3ceff84d	0.029293204
184	0x3dcc38a9	0.099717446
185	0x3d85102c	0.06497225
186	0xbc5661f7	-0.01308488
187	0x3dd2887e	0.1027994
188	0xbd1778ac	-0.036980316
189	0x3d571d5e	0.05251824
190	0xbd6766c6	-0.056494497
191	0x3d451a0b	0.04812054
192	0xbd886a8e	-0.06660949
193	0xbdbac159	-0.091189094
194	0x3c46bdd0	0.012130216
195	0x3dcd332e	0.100195274
196	0xbdce1837	-0.10063212
197	0x3d0f2a72	0.03495259
198	0xbd322c42	-0.04349924
199	0xbcd71fde	-0.026260313
200	0x3d930bc9	0.07179982
201	0x3da7531b	0.08170148
202	0xbd13abd0	-0.036052525
203	0xbcb96f7d	-0.02263617
204	0x3da7abdf	0.08187079
205	0x3c6086a1	0.013703973
206	0x3d523b88	0.051326305
207	0x3d64155b	0.05568443
208	0x3db02280	0.0860033
209	0x3db68ef7	0.08913987
210	0xbb79ecd9	-0.0038135557
211	0xbbaa2fdb	-0.005193693
212	0x3cf9d967	0.030499173
213	0x3dcb8a95	0.09938542
214	0x3da10886	0.07862954
215	0xbda31b0e	-0.07964145
216	0x3d3bdd82	0.045865543
217	0xbd49c243	-0.049257528
218	0x3d2aab3f	0.04166722
219	0xbd3275ea	-0.043569483
220	0x3d179a0b	0.03701214
221	0xbcbbbea9	-0.022918062
222	0xbd789db1	-0.06069726
223	0x3d8d1e63	0.068905614
224	0xbc5fe1a2	-0.013664635
225	0x3c7fc473	0.015610802
226	0xbd9547d6	-0.07289092
227	0x3cd7c462	0.02633876
228	0xbd985505	-0.07438091
229	0x3d8ea348	0.06964737
230	0xbc331f67	-0.01093278
231	0x3d6ffc96	0.058590494
232	0x3c930e53	0.017951166
233	0x3d39090f	0.045174655
234	0x3d108b72	0.035289235
235	0x3d1cf1ba	0.038316466
236	0x3d7d7d37	0.061886992
237	0xbdad7a78	-0.08470625
238	0xbc75bc8d	-0.014998567
239	0x3c69bc10	0.014266029
240	0x3c383475	0.0112429755
241	0xbd0f255f	-0.03494775
242	0x3ce60457	0.028078241
243	0x3dc9c3e2	0.09851815
244	0x3d5b1449	0.053486142
245	0x3d83f08a	0.064423636
246	0xbd4abdae	-0.0494973
247	0x3da6a367	0.08136635
248	0x3cac0317	0.020997567
249	0x3c151f74	0.009101737
250	0xbd1a94ee	-0.037739687
251	0x3d1395e7	0.03603163
252	0xbd8780af	-0.06616341
253	0xbb90308d	-0.004400319
254	0xbd644cca	-0.055737294
255	0xbd45c79f	-0.048286077

enc_p.lstm.weight_hh_l0 f4 [384, 96]
0	0xbd64d0ec	-0.055863306
1	0xbc1a8637	-0.009431413
2	0x3c3ef06a	0.011653999
3	0x3db51a4c	0.08842906
4	0xbd15e5c6	-0.036596082
5	0xbda8ba59	-0.08238668
6	0xbdb05a81	-0.08611012
7	0x3dc47976	0.09593479
8	0x3db2860e	0.08716975
9	0xbd636a5f	-0.055521365
10	0x3d73260c	0.059362456
11	0xbcc37b12	-0.023862395
12	0x3db86335	0.09003297
13	0xbcd3a9bf	-0.025837777
14	0x3c6bd8fc	0.014394995
15	0xbdc22ee8	-0.09481603
16	0x3d9e58c2	0.07731773
17	0x3d430056	0.047607742
18	0x3d207d10	0.03918177
19	0x3db550cd	0.08853302
20	0x3d4a0d62	0.04932917
21	0x3d977247	0.073948435
22	0x3da68cdd	0.08132336
23	0x3cb81b00	0.022473812
24	0x3ceac772	0.028659556
25	0xbd082a36	-0.03324338
26	0x3d5649c9	0.05231646
27	0x3da45028	0.08023101
28	0x3ca42531	0.020037265
29	0xbdca0b67	-0.09865456
30	0xbd8c1551	-0.06840003
31	0xbcb9d117	-0.02268271
32	0xbd8aeaee	-0.067830905
33	0x3d5e1b4f	0.054225262
34	0x3daf9e8b	0.085751615
35	0xbd9bd797	-0.0760948
36	0x3cd51c09	0.026014345
37	0xbdc2315f	-0.09482073
38	0xbc58f8bd	-0.013242898
39	0x3d402ecb	0.046919625
40	0x3ba2a9df	0.004964098
41	0xbc7c1492	-0.015385764
42	0xbcdd21be	-0.026993629
43	0x3cfa913f	0.030586837
44	0xbcae3c91	-0.021269115
45	0xbd0029be	-0.03128981
46	0x3cd2a325	0.025712559
47	0x3d0bcfd1	0.034133736
48	0xbd3b5c31	-0.045742217
49	0x3c9cfa4e	0.019162323
50	0xbdabcad3	-0.08388295
51	0x3d72c056	0.059265457
52	0x3dbef28f	0.09323608
53	0xbc955f92	-0.018234048
54	0x3c81ba8e	0.015836027
55	0xbce7f31d	-0.028314168
56	0x3dab77b2	0.083724394
57	0x3d8ea6f1	0.06965435
58	0x3b9f4d74	0.004861528
59	0xbdbd72de	-0.09250425
60	0xbd94c402	-0.07263948
61	0xbc91d42c	-0.017801367
62	0xbceec1e7	-0.029145194
63	0x3da8b83e	0.082382664
64	0x3d79fd57	0.06103262
65	0xbda4d6eb	-0.08048805
66	0xbd7ef40f	-0.06224447
67	0x3b6184bb	0.003441139
68	0x3c9f2340	0.019425988
69	0x3b028ae5	0.0019919213
70	0x3d8a8d89	0.06765277
71	0x3d9e1526	0.077188775
72	0xbd6ba6c7	-0.0575321
73	0xbdc9fbf6	-0.09862511
74	0x3c63c1ff	0.013901233
75	0x3d92f4f0	0.07175624
76	0x3d3d60d4	0.04623492
77	0x3dc74601	0.09730149
78	0x3d087034	0.03331013
79	0xbdacb048	-0.084320605
80	0xbdad5c0e	-0.08464824
81	0xbdb4fa1f	-0.08836769
82	0x3d45df77	0.048308816
83	0x3d9a93ef	0.07547747
84	0xbd15abff	-0.03654098
85	0x3d3d0193	0.04614408
86	0xbd8de815	-0.06929032
87	0x3dc57594	0.09641567
88	0x3da84e08	0.08218008
89	0x3d9b7a00	0.07591629
90	0x3d090fd6	0.033462368
91	0xbdabb085	-0.08383278
92	0x3c218873	0.009859192
93	0xbdcb661c	-0.09931585
94	0xbd800d90	-0.06252587
95	0x3db672a3	0.08908584
96	0x3d1c8082	0.038208492
97	0x3ca86175	0.020554284
98	0xbd7a24e1	-0.061070327
99	0x3c25861d	0.010102776
100	0x3dc8b63b	0.09800383
101	0x3c72517d	0.014789936
102	0xbcfe0254	-0.03100697
103	0x3d9a35c3	0.075297855
104	0xbd012e32	-0.031538196
105	0xbd2c84f0	-0.042118967
106	0xbdccdf21	-0.10003496
107	0xbd864cda	-0.06557627
108	0x3d618866	0.05506172
109	0x3dc0fca4	0.094231874
110	0xbdb79836	-0.08964579
111	0xbcd3c555	-0.025850931
112	0xbcda0d46	-0.026617657
113	0xbc063fa8	-0.008193888
114	0xbdb9c3ad	-0.09070525
115	0x3d99ffee	0.07519518
116	0xbdc7b0b7	-0.097505026
117	0xbbbb80c4	-0.005722137
118	0xbdae0b74	-0.08498278
119	0x3db787e1	0.08961464
120	0x3db5091a	0.088396266
121	0xbd80568e	-0.06266509
122	0xbdb91bfb	-0.0903854
123	0xbd1b52ed	-0.03792088
124	0xbd49926c	-0.049211904
125	0xbd874d43	-0.066065334
126	0xbd8c999b	-0.068652354
127	0xbd52af4f	-0.05143672
128	0x3d4b2ed3	0.049605202
129	0xbd768112	-0.060181685
130	0xbda8e348	-0.082464755
131	0x3d9467cd	0.07246361
132	0x3d6495a1	0.05580676
133	0x3d8eba46	0.069691226
134	0x3c24aa17	0.010050318
135	0xbd00243d	-0.03128456
136	0x3d91d288	0.07120234
137	0xbd47ff38	-0.04882738
138	0x3dae722b	0.085178696
139	0x3cbcf478	0.02306579
140	0xbdc378c5	-0.09544519
141	0xbbc5395b	-0.0060188
142	0xbd9e3fb1	-0.07726992
143	0x3d9556a1	0.07291914
144	0xbd02a3f6	-0.031894647
145	0x3d8f670f	0.07002079
146	0x3d3a6266	0.045503996
147	0xbd834ff6	-0.06411736
148	0xbdb46244	-0.08807805
149	0x3d287f7e	0.04113721
150	0x3cd1299b	0.025532534
151	0x3d2a4fc9	0.041579995
152	0x3dc96429	0.09833557
153	0x3d9c82d4	0.07642141
154	0x3cba86e2	0.022769395
155	0x3db67e58	0.08910817
156	0x3d8df8d3	0.06932225
157	0xbdc5dc17	-0.096611194
158	0xbb84fe0b	-0.0040586046
159	0xbd9c253a	-0.07624288
160	0x3dabc9b9	0.08388085
161	0xbd3b4fd3	-0.045730423
162	0xbda29224	-0.0793803
163	0x3d23b0c8	0.039963514
164	0xbdc44635	-0.095837034
165	0xbdbc38fd	-0.09190557
166	0xbb891d2a	-0.004184385
167	0xbdd37008	-0.10324103
168	0xbd413467	-0.047169115
169	0x3c1d2f39	0.009593778
170	0x3dbd0bb7	0.0923075
171	0x3d71e936	0.059060298
172	0xbdcc2504	-0.09967998
173	0xbd2423e4	-0.04007329
174	0x3d42d5ef	0.047567304
175	0x3ca709a7	0.020390345
176	0x3c4f546b	0.012654404
177	0x3d8e79d2	0.06956829
178	0xbdc07070	-0.09396446
179	0x3d620fb8	0.05519077
180	0x3be587cb	0.007004713
181	0x3da00708	0.07813841
182	0xbccfccf7	-0.02536629
183	0xbbe03ca0	-0.0068431646
184	0x3d8f9a0b	0.07011803
185	0xbd9cd38c	-0.07657537
186	0xbc782062	-0.015144439
187	0xbd23e887	-0.040016677
188	0x3db724cd	0.08942566
189	0xbb4dd555	-0.0031407673
190	0xbd9ba2d9	-0.0759942
191	0xbc712f75	-0.014720787
192	0x3dae95be	0.08524655
193	0x3d970c2f	0.07375371
194	0x3da8c9a0	0.08241582
195	0xbd9d414d	-0.07678471
196	0xbcfb531f	-0.030679284
197	0xbdbe8c8b	-0.0930415
198	0xbd31f958	-0.043450683
199	0x3db794a7	0.089639
200	0xbb23e7da	-0.002501002
201	0xbc0d1c7c	-0.008612748
202	0x3d8bae6f	0.0682038
203	0xbd7698b7	-0.060204234
204	0x3d13be6e	0.03607028
205	0xbdb3f413	-0.08786788
206	0x3d00ac3c	0.031414255
207	0x3dcbfc0b	0.09960183
208	0xbda03d85	-0.07824234
209	0xbc1f69c2	-0.0097298045
210	0xbd06188f	-0.032738265
211	0x3da2de6e	0.07952581
212	0xbd325888	-0.04354146
213	0xbc75454a	-0.014970133
214	0xbdc9727b	-0.098362885
215	0x3dbd493b	0.09242483
216	0x3d18f905	0.03734686
217	0xbd1de51b	-0.03854857
218	0xbd8f34c5	-0.06992487
219	0x3ce02510	0.027361423
220	0xbd51b985	-0.051202316
221	0xbd1a464b	-0.037664693
222	0x3d2728ec	0.04081051
223	0xbd2bc05a	-0.041931488
224	0x3d0a5323	0.03377069
225	0xbd41bd37	-0.04729959
226	0xbcaf6fd2	-0.021415625
227	0xbd21a32a	-0.039462246
228	0x3c031b04	0.0080020465
229	0x3d5dd25d	0.054155696
230	0x3d8b79e6	0.0681036
231	0xbc8fb68e	-0.017543104
232	0xbd8842c2	-0.06653358
233	0xbda70f42	-0.08157207
234	0x3dbad1e3	0.09122064
235	0xbd09ffbd	-0.033691157
236	0x3cf6f4b7	0.030145986
237	0x3d0661ab	0.032807987
238	0x3dad3693	0.08457675
239	0x3d6fdb3f	0.0585587
240	0x3da8b32d	0.082373
241	0x3db98c8b	0.090600096
242	0xbdd26bf2	-0.10274495
243	0xbd590262	-0.052980788
244	0xbca155a9	-0.019694166
245	0xbd9562da	-0.07294245
246	0x3c925853	0.017864382
247	0xbd1ab524	-0.037770405
248	0x3d879006	0.06619267
249	0x3d700989	0.058602843
250	0xbd6b3ab7	-0.05742904
251	0x3d59d0fd	0.053177822
252	0x3d5d81e7	0.054078963
253	0xbce7d6ff	-0.02830076
254	0x3d9bbb27	0.07604056
255	0xbd0efbe7	-0.0349082

enc_p.lstm.bias_ih_l0 f4 [384]
0	0xbbeb278d	-0.0071763457
1	0x3d20d3f7	0.039264645
2	0xbd4d608b	-0.0501409
3	0x3db4c26b	0.08826145
4	0xbd457ff3	-0.048217725
5	0x3cec6f74	0.028861739
6	0x3d03c990	0.032174647
7	0x3c8e32f1	0.017358275
8	0x3d97a70f	0.07404911
9	0x3d7272d1	0.05919153
10	0xba173598	-0.0005768179
11	0x3d2c15c3	0.04201294
12	0x3bc44026	0.0059890924
13	0x3d396016	0.04525765
14	0x3d80ca92	0.06288637
15	0xbd734db0	-0.05940026
16	0x3c87d7ba	0.016582359
17	0xbdc02cb2	-0.09383525
18	0x3d4ba252	0.049715348
19	0x3dcdc6f4	0.10047713
20	0xbdc4d081	-0.096100815
21	0xbcd95398	-0.026529118
22	0x3da6efb7	0.08151191
23	0xbd3ae921	-0.045632485
24	0x3dc2af2d	0.095060684
25	0x3d9593d6	0.07303588
26	0x3dc507a6	0.096205994
27	0xbd083733	-0.033255767
28	0xbd54c01a	-0.051941015
29	0x3d322bb7	0.04349872
30	0xbdab63a3	-0.083686136
31	0x3d1c73c4	0.03819634
32	0xbc6d018c	-0.014465701
33	0xbd4b2012	-0.04959113
34	0xbdc31295	-0.095250286
35	0x3d992ecc	0.07479629
36	0xbdc0dece	-0.094174966
37	0xbdbfc0f4	-0.09362975
38	0xbd0a63cf	-0.03378659
39	0xbd36d6d8	-0.044638485
40	0xbd9fdc9a	-0.07805748
41	0xbd26050b	-0.040532153
42	0xbd8e3a61	-0.06944729
43	0x3d8883bc	0.06665751
44	0xbdbbd3ae	-0.09171234
45	0xbd3b3705	-0.045706768
46	0xbdb23bfc	-0.08702847
47	0x3c6fb6b1	0.014630959
48	0xbdba320a	-0.090915754
49	0x3cb75903	0.022381311
50	0x3d3f4303	0.046694767
51	0xbdbd173a	-0.09232946
52	0x3c820f30	0.015876383
53	0x3d4a3c36	0.049373828
54	0x3d85a63b	0.065258466
55	0x3d832f97	0.064055614
56	0xbcc9a320	-0.024613917
57	0xbcaa5945	-0.02079452
58	0x3d0ef8ad	0.034905124
59	0xbd72a555	-0.059239704
60	0xbd89c285	-0.06726555
61	0xbda94803	-0.08265688
62	0xbb0507cd	-0.002029884
63	0xbd65d0f6	-0.056107484
64	0x3c8f2c73	0.01747725
65	0x3da2c27b	0.079472505
66	0x3da611d5	0.0810887
67	0xbb89eb64	-0.004208969
68	0xbcd91de3	-0.026503509
69	0x3cea5d53	0.028608954
70	0x3d4b26cd	0.04959755
71	0xbda6db4d	-0.08147297
72	0x3d27eeec	0.040999338
73	0x3d6b9ff9	0.05752561
74	0xbd46d7fa	-0.048545815
75	0xbb5730cd	-0.0032835484
76	0x3dcfa720	0.101392984
77	0xbd209a85	-0.03920986
78	0xbd731a0c	-0.059351012
79	0xbdc3230e	-0.095281705
80	0x3d9ae2b9	0.07562775
81	0x3c31a361	0.010842175
82	0x3cec8fd4	0.028877176
83	0x3d730832	0.059333988
84	0xbdb680c8	-0.08911282
85	0xbda95d97	-0.08269804
86	0xbd3e43f1	-0.046451513
87	0x3d33eb80	0.043925762
88	0x3bcd40af	0.0062638144
89	0x3d38f5df	0.045156356
90	0xbd3baef4	-0.045821145
91	0xbdc6344a	-0.09677942
92	0xbdb4ad06	-0.08822064
93	0x3dc23137	0.09482043
94	0xbd8da8de	-0.069169745
95	0xbc2c64b9	-0.010522061
96	0xbd6744cc	-0.056462094
97	0xbdc9fb76	-0.098624155
98	0x3cc86dd5	0.024466434
99	0x3cca715a	0.024712253
100	0xbd81afa1	-0.06332327
101	0x3c61dbec	0.013785344
102	0xbd9bb00d	-0.076019384
103	0x3da703c0	0.08155012
104	0xbd1629b6	-0.036660872
105	0x3cca759a	0.02471428
106	0xbdb98c8b	-0.090600096
107	0x3dd293e8	0.10282117
108	0x3dbbda29	0.0917247
109	0xbdcdfdd1	-0.10058177
110	0x3d0ecc44	0.03486277
111	0xbd523fe7	-0.051330473
112	0xbd772413	-0.060337137
113	0x3d2300aa	0.039795555
114	0xbd53a876	-0.05167433
115	0xbdc29f8c	-0.095030874
116	0x3ae22c32	0.0017255603
117	0x3bc118ae	0.0058928346
118	0x3c9accdb	0.01889651
119	0xbcd94084	-0.026520021
120	0xbdd07964	-0.101794034
121	0xbdb6a302	-0.0891781
122	0x3d0ec100	0.034852028
123	0x3da9cca2	0.08290984
124	0x3d8d5918	0.06901759
125	0xbd15f962	-0.036614783
126	0x3cdd2bdf	0.026998458
127	0xbc6f38c8	-0.01460094
128	0xbd889642	-0.066692844
129	0x3d868d30	0.06569898
130	0x3c423b0b	0.011854897
131	0xbd4bd2d3	-0.049761605
132	0x3d304916	0.04303845
133	0xbdac1c93	-0.084038876
134	0x3c0fce1d	0.008777169
135	0xbd8e60e4	-0.06952074
136	0x3d1ab757	0.037772503
137	0x3d805de7	0.062679105
138	0xbd1cc9a4	-0.038278237
139	0xbc3a4429	-0.01136879
140	0x3b6a2fe4	0.0035734111
141	0xbd900604	-0.070323974
142	0xbcc365c0	-0.02385223
143	0xbcdc6716	-0.026904624
144	0xbda1f64a	-0.07908304
145	0x3cd97303	0.0265441
146	0xbdc4fae1	-0.09618164
147	0x3dcd42de	0.100225195
148	0x3d18e8b5	0.0373313
149	0xbc974c5c	-0.018469028
150	0xbc581fd1	-0.013191179
151	0xbd615456	-0.05501207
152	0x3dc8cd5d	0.09804795
153	0x3d892dd7	0.066981964
154	0x3d1fd86e	0.039024763
155	0x3da64b7a	0.08119865
156	0x3d094164	0.033509627
157	0x3cde1b9e	0.027112778
158	0x3dc3bee4	0.09557894
159	0x3dbbd08d	0.09170637
160	0xbd583784	-0.05278732
161	0xbd4fb69c	-0.05071126
162	0xbd020fd8	-0.03175339
163	0x3d62138a	0.055194415
164	0x3dc6a2f6	0.09699051
165	0x3bf186ba	0.007370797
166	0x3bce1344	0.0062889177
167	0x3c5990d0	0.013279155
168	0xbca9e251	-0.020737799
169	0xbd3b9ad1	-0.04580194
170	0x3ca69bc7	0.020337952
171	0x3ce82ceb	0.028341731
172	0x3c3d2da8	0.01154653
173	0x3c5e1b1e	0.01355627
174	0x3d16292c	0.03666036
175	0xbcded41f	-0.027200757
176	0x3d33eac6	0.04392507
177	0xbd0f803f	-0.035034414
178	0x3d220122	0.03955186
179	0x3ce8b5b3	0.028406953
180	0x3dcda6cd	0.1004158
181	0xbd1c6b5a	-0.038188316
182	0xbd24ae22	-0.04020513
183	0x3d7ecfc0	0.062209845
184	0x3d8abf47	0.067747645
185	0xbd2c5811	-0.042076174
186	0xbcd0b5b6	-0.025477272
187	0x3c5b60f5	0.013389816
188	0xbcbfa176	-0.02339242
189	0xbda71b49	-0.08159501
190	0x3c3318e3	0.010931226
191	0xbcf5a6eb	-0.02998682
192	0x3da5d6b2	0.080975905
193	0xba9159cc	-0.0011089384
194	0x3d9d695d	0.07686112
195	0xbdccc1fe	-0.099979386
196	0xbdbd49bb	-0.092425786
197	0x3dc21ce5	0.094781674
198	0xbd5d4a6b	-0.05402605
199	0x3d933a46	0.07188849
200	0x3dae4413	0.08509078
201	0xbd6e5f96	-0.058196627
202	0xbb2635e1	-0.0025361704
203	0x3d4f4e21	0.05061162
204	0x3dbc3b00	0.09190941
205	0x3d61f62b	0.055166405
206	0x3d88ef81	0.06686307
207	0x3d7a410d	0.061097194
208	0xbd73f0f5	-0.059555966
209	0x3dd244dd	0.10267041
210	0xbb0f53f4	-0.0021870108
211	0x3d1d01ea	0.038331904
212	0x3d8d4902	0.06898691
213	0xbbef7113	-0.0073071807
214	0x3dc8eb82	0.098105446
215	0xbdc8f2c7	-0.09811931
216	0xbbf75fa7	-0.0075492444
217	0xbd80545e	-0.06266092
218	0x3dbba4de	0.09162305
219	0xbbcc77de	-0.006239875
220	0x3d5e909d	0.054337133
221	0x3d5b4706	0.05353453
222	0xbd405d39	-0.046963904
223	0x3d93b935	0.0721306
224	0x3da7455c	0.08167526
225	0xbc6346ed	-0.0138718905
226	0x3c1d80cc	0.009613227
227	0x3bdbffe6	0.006713855
228	0x3d92b680	0.07163715
229	0x3cc836dc	0.024440221
230	0xbd1140d5	-0.03546222
231	0xbdc19cb7	-0.09453719
232	0x3db02bcd	0.08602104
233	0xbcd1977d	-0.02558493
234	0x3d14d593	0.036336493
235	0x3d144eaf	0.03620785
236	0x3d989cb4	0.07451764
237	0x3b8c394b	0.004279291
238	0xbd60df16	-0.05490025
239	0x3d36a790	0.044593394
240	0xbbc736e9	-0.006079544
241	0x3d85996e	0.06523405
242	0x3d0fa504	0.03506948
243	0x3dceda6f	0.10100257
244	0xbd4e8690	-0.050421298
245	0xbd7ff951	-0.062493626
246	0x3ca31829	0.019908981
247	0x3d07b1dd	0.033128608
248	0xbd4c57a2	-0.04988826
249	0xbd5b5412	-0.053546973
250	0xbc915f95	-0.017745772
251	0x3da25c44	0.079277545
252	0x3d319ed5	0.043364365
253	0xbd270720	-0.04077828
254	0xbd392907	-0.045205142
255	0x3d06f49f	0.032948133

enc_p.lstm.bias_hh_l0 f4 [384]
0	0x3d0580b2	0.032593437
1	0x3dbe98ee	0.09306513
2	0x3cefc948	0.029270783
3	0x3d810aea	0.0630091
4	0x3cac180c	0.02100756
5	0xbd1d3f08	-0.03839019
6	0xbd010c7d	-0.03150605
7	0x3dc08983	0.09401228
8	0xbdc6dcf7	-0.097101144
9	0x3daf4010	0.08557141
10	0xbd4cd2ea	-0.05000583
11	0xbbdefd2e	-0.0068050837
12	0x3d53b3cf	0.05168515
13	0xbd8564da	-0.065133765
14	0xbdca5529	-0.09879524
15	0x3d3f215b	0.04666267
16	0x3d002a29	0.031290207
17	0x3dc41a14	0.095752865
18	0x3da413a7	0.08011561
19	0xbdc5f472	-0.09665765
20	0x3dc6644b	0.09687098
21	0x3d15eed6	0.036604725
22	0xbd8b5d06	-0.06804852
23	0x3cbbf0e8	0.022942021
24	0xbbd49903	-0.006487967
25	0xbcd42ede	-0.025901254
26	0xbc52245c	-0.012826052
27	0x3d4a9f95	0.049468596
28	0xbdc3225d	-0.09528039
29	0x3d46e6df	0.04856002
30	0xbd11d10a	-0.035599746
31	0xbbf6f7df	-0.0075368728
32	0x3c64e08c	0.013969552
33	0x3ce209e9	0.027592616
34	0xbd0ef5a9	-0.03490225
35	0x3d3494aa	0.04408709
36	0xbdaac12a	-0.08337624
37	0xbdb9fcfb	-0.09081455
38	0x3d557bc7	0.052119996
39	0x3d918ae0	0.071065664
40	0xbdc9dacc	-0.09856185
41	0xbdcfb62e	-0.1014217
42	0x3d092508	0.03348258
43	0x3dcf5dcc	0.10125312
44	0x3c6815fa	0.014165396
45	0xbdcfa2b9	-0.10138459
46	0xbc15bf85	-0.0091399
47	0x3d61a1ce	0.05508595
48	0x3c13b061	0.00901422
49	0x3d3c3c9c	0.04595624
50	0x3cadd5a9	0.021220045
51	0xbd9be2ce	-0.07611619
52	0xbdc9a8df	-0.09846663
53	0xbb9a6dfc	-0.004712818
54	0xbb6a6ae4	-0.0035769278
55	0x3dbd7e2f	0.09252583
56	0x3d9154de	0.07096265
57	0xbdc1e399	-0.09467239
58	0xbd22ddf9	-0.03976247
59	0xbd631eae	-0.05544918
60	0x3ccff5e7	0.02538581
61	0x3d9889c7	0.07448154
62	0xbd94ef3f	-0.07272195
63	0xbc1a7d6d	-0.009429318
64	0xbc72be03	-0.01481581
65	0x3dc1816b	0.09448513
66	0xbd2bdc53	-0.041958164
67	0x3dd5e417	0.10443895
68	0x3d4de056	0.05026277
69	0x3d9daa8f	0.07698547
70	0x3d6cca29	0.057809982
71	0x3d352459	0.044224117
72	0x3d68db88	0.056849986
73	0x3d7159fd	0.05892371
74	0xbb31b0b9	-0.0027113392
75	0xbcbaa9c6	-0.022786032
76	0x3d25cada	0.040476657
77	0xbdabcaa6	-0.083882615
78	0x3d1175fb	0.035512906
79	0x3dc5c465	0.096566
80	0xbd5d75dc	-0.054067478
81	0xbd3a6026	-0.04550185
82	0x3d3f49df	0.04670131
83	0xbdaf17f7	-0.08549493
84	0xbdb69eb6	-0.089169905
85	0xbc189a64	-0.009314153
86	0xbda4acdc	-0.08040783
87	0xbc094a99	-0.008379602
88	0x3d36031a	0.04443655
89	0xbc60786b	-0.013700585
90	0xbdb408f5	-0.08790771
91	0xbd54f5b0	-0.05199212
92	0x3db9c5a5	0.09070901
93	0xbdcc9beb	-0.099906765
94	0x3d60bd2a	0.0548679
95	0xbd370408	-0.04468158
96	0x3dcaf38d	0.09909735
97	0xbd11b2c3	-0.03557087
98	0xbdb8e975	-0.090289034
99	0xbd9b76d7	-0.07591026
100	0xbcd99ed8	-0.026565
101	0x3c41b57c	0.011823054
102	0xbd15cf87	-0.036574867
103	0xbd8bc2a5	-0.06824235
104	0x3d431020	0.0476228
105	0x3da4c767	0.080458455
106	0xbdd0c705	-0.1019421
107	0x3cde3d3e	0.027128812
108	0x3d8b1499	0.06791038
109	0x3d932b8b	0.071860395
110	0xbda95b4f	-0.08269369
111	0xbd816428	-0.063179314
112	0xbd82ea51	-0.063923486
113	0x3d7d4b8a	0.061839618
114	0xbc9f589b	-0.01945143
115	0x3c7a70de	0.015285699
116	0xbd883ce5	-0.0665224
117	0xbccbacf4	-0.024862744
118	0xbd88c2b6	-0.06677763
119	0x3d32c2d9	0.043642852
120	0x3d035ac5	0.032068986
121	0xbd440848	-0.04785946
122	0xbd971f62	-0.07379033
123	0x3cd60ff8	0.026130661
124	0x3cc040af	0.023468344
125	0xbdc3fb5f	-0.095694296
126	0xbc4631a0	-0.012096792
127	0xbcfa8882	-0.03058267
128	0x3c4afb6c	0.012389045
129	0x3d1e9e0b	0.03872494
130	0x3cf3f9d7	0.029782219
131	0xbcc4ef42	-0.024039868
132	0x3d97eb4b	0.074179254
133	0x3ad9cdd7	0.0016617131
134	0x3d13e9fd	0.03611182
135	0x3dcb428e	0.09924804
136	0x3d84d12a	0.064852074
137	0x3d7ea897	0.0621725
138	0x3d47dce6	0.04879465
139	0x3c49844f	0.012299611
140	0xbd324864	-0.04352607
141	0x3d313511	0.0432635
142	0x3d181aac	0.03713481
143	0x3d556953	0.052102398
144	0xbcd798e6	-0.026318025
145	0x3d883344	0.06650403
146	0xbda10cf6	-0.078638
147	0x3c683aff	0.014174222
148	0x3dcfefbb	0.10153147
149	0x3d444ee2	0.04792679
150	0x3c7bcb57	0.015368304
151	0x3dce0daf	0.10061204
152	0xbd1363b5	-0.03598376
153	0xbdb1c8eb	-0.086809
154	0xbdb5eb08	-0.08882719
155	0x3c945677	0.018107636
156	0x3d86a9bb	0.06575342
157	0x3d4e6eec	0.050398752
158	0x3b9f0db2	0.0048539275
159	0xbdca3361	-0.09873081
160	0xbdbdbe46	-0.092648074
161	0xbd881a2b	-0.06645616
162	0x3dabbb41	0.08385325
163	0xbd9293f6	-0.071571276
164	0x3d634f88	0.05549577
165	0x3bc91bba	0.0061373385
166	0x3d4707bf	0.04859137
167	0x3d546e89	0.051863227
168	0x3d15ea96	0.03660067
169	0xbdbf5e16	-0.09344117
170	0x3be11e2d	0.0068700523
171	0x3db09856	0.08622806
172	0xbd694631	-0.056951705
173	0x3cf00867	0.029300882
174	0xbce103b9	-0.027467595
175	0x3c1e6158	0.009666763
176	0xbd2df489	-0.042469535
177	0x3c479c6d	0.012183291
178	0xbcd6ba59	-0.026211904
179	0x3dcd9fa7	0.10040217
180	0xbd1ba4d3	-0.037998985
181	0xbcdcc233	-0.02694807
182	0x3c8fcf37	0.017554862
183	0xbd19e0e6	-0.037567995
184	0x3d08a8ce	0.03336411
185	0xbdbf439a	-0.09339066
186	0xbd9bb05f	-0.076019995
187	0xbda13357	-0.078711204
188	0x3da1e267	0.07904511
189	0xbcca3656	-0.024684113
190	0xbd9bebeb	-0.07613357
191	0x3caef285	0.021355877
192	0xbdbdb6d1	-0.09263385
193	0xbcd36f50	-0.025809914
194	0xbd345452	-0.044025727
195	0xbd68c394	-0.056827143
196	0xbd3afdc9	-0.045652185
197	0xbd0a999b	-0.033837896
198	0x3cf6ba84	0.030118234
199	0x3d2b7700	0.041861534
200	0x3b98da8f	0.004664726
201	0xbc8d70af	-0.017265646
202	0x3d837d4f	0.06420385
203	0x3d7180d9	0.05896077
204	0x3c0edc76	0.008719554
205	0xbd8dfe60	-0.06933284
206	0x3da4f6d5	0.08054892
207	0xbcb4b7b0	-0.022060245
208	0x3d0e656c	0.034764692
209	0x3cd53bd2	0.026029501
210	0x3db5d162	0.08877827
211	0x3d9f343a	0.07773633
212	0x3c2521d5	0.010078867
213	0x3d00091d	0.03125869
214	0xbce7714b	-0.028252264
215	0xbd3c0067	-0.04589882
216	0x3aaf8cdf	0.0013393423
217	0x3c14efca	0.009090373
218	0xbcc71121	-0.02430016
219	0xbdac8a2d	-0.084247924
220	0x3d3850d9	0.044998977
221	0x3d963055	0.07333437
222	0x3a866cd3	0.0010255821
223	0x3b4cf275	0.0031272445
224	0x3c588ce4	0.013217185
225	0x3c1a7edb	0.009429659
226	0xbd428022	-0.04748548
227	0x3d16e65d	0.036840785
228	0x3db5877e	0.08863734
229	0x3c907e9c	0.017638497
230	0xbc1dd679	-0.009633654
231	0x3da2424b	0.07922801
232	0xbd80067a	-0.06251235
233	0x3dbc0129	0.09179909
234	0xbd34be8c	-0.044127032
235	0xbd998d84	-0.07497695
236	0x3db0ab5c	0.08626434
237	0x3d885179	0.06656165
238	0xbda4698a	-0.080279425
239	0x3da1af90	0.07894814
240	0x3d860b96	0.065451786
241	0x3c85f094	0.016350068
242	0x3dd2ed33	0.102991484
243	0x3daf5159	0.08560438
244	0x3d2c8ed9	0.042128418
245	0x3d7d558d	0.061849166
246	0xbda31fd8	-0.07965058
247	0xbdbbf04a	-0.09176691
248	0xbd0e89bb	-0.03479932
249	0xbd165dad	-0.03671043
250	0x3d834fbc	0.064116925
251	0x3cbae761	0.022815408
252	0x3d979da4	0.074031144
253	0x3dabd869	0.08390886
254	0x3d156338	0.036471575
255	0xbcf42efb	-0.029807558

enc_f.lstm.weight_ih_l0 f4 [384, 4]
0	0xbdbce986	-0.092242286
1	0xbd1a76aa	-0.037710823
2	0x3dc66c9d	0.09688685
3	0xbb48bf2e	-0.003063153
4	0xbdb40a6b	-0.087910496
5	0xbd809ab5	-0.06279508
6	0x3d0a69ca	0.033792295
7	0x3d817ec3	0.06323006
8	0x3b0a9de1	0.0021151232
9	0xbc1ccfd9	-0.009571039
10	0xbd2101e8	-0.03930846
11	0xbcb87503	-0.022516733
12	0x3cb8181c	0.022472434
13	0x3bf59ed2	0.0074957395
14	0xbd5a4e52	-0.05329735
15	0xbd5c6dba	-0.05381558
16	0xbd97370e	-0.07383548
17	0x3c34c4fd	0.011033294
18	0x3dd06956	0.10176341
19	0x3db6a274	0.08917704
20	0xbc5f29d1	-0.01362081
21	0xbcee8186	-0.029114496
22	0xbdcaa797	-0.098952465
23	0x3d9e3638	0.07725185
24	0xbcf89725	-0.030345509
25	0xbd907c60	-0.07054973
26	0x3da926b9	0.08259339
27	0xbc4870dd	-0.01223394
28	0xbc636cd1	-0.013880924
29	0xbdb55641	-0.08854342
30	0x3d8a7950	0.0676142
31	0x3dc7ea0e	0.09761439
32	0x3c60dfc8	0.013725229
33	0xbdb39050	-0.0876776
34	0x3d9cb872	0.07652368
35	0xbcf0756b	-0.029352864
36	0xbd51935f	-0.051165935
37	0x3a3a156b	0.00070985284
38	0x3cd2c917	0.025730653
39	0x3d0f1b10	0.03493792
40	0xbd0dae26	-0.03458991
41	0xbc979d3e	-0.018507596
42	0x3daf6b04	0.085653335
43	0x3dbcee0d	0.09225092
44	0xbd25a0ed	-0.040436674
45	0xbda140c9	-0.07873685
46	0xbcbaa794	-0.022784986
47	0xbd9f8828	-0.077896416
48	0x3c9352e5	0.017983863
49	0xbdc6e191	-0.09710992
50	0x3dbe87d4	0.09303251
51	0xbd8a1ac8	-0.06743389
52	0xbcf36988	-0.029713407
53	0xbd21e912	-0.039528914
54	0x3db4b65c	0.08823845
55	0x3db92f4b	0.090422235
56	0x3d5d5572	0.054036565
57	0x3db868b3	0.09004345
58	0xbdced38c	-0.10098943
59	0x3cc049f3	0.023472762
60	0xbdb47831	-0.08811987
61	0x3da79da2	0.08184363
62	0xbd40c95d	-0.047067035
63	0x3d9ee731	0.0775894
64	0x3d49bbeb	0.04925148
65	0xbd9c98b1	-0.07646311
66	0xbc3aae48	-0.011394091
67	0xbcd29e41	-0.025710227
68	0x3d51c5f3	0.05121417
69	0xbcc51cfb	-0.02406167
70	0x3d4bf990	0.04979855
71	0x3d995f5c	0.074888915
72	0xbdc0af87	-0.09408479
73	0xbda2fbca	-0.07958181
74	0x3cff34e8	0.031153157
75	0xbd630c45	-0.055431623
76	0xbcc3d8ee	-0.023907151
77	0xbd27719e	-0.04087984
78	0x3d37408f	0.044739302
79	0xbd3d7828	-0.046257168
80	0x3db6dcc0	0.089288235
81	0xbd931a93	-0.07182803
82	0x3b333f3e	0.0027350928
83	0x3d9cbd2f	0.076532714
84	0xbd6b5301	-0.057452206
85	0xbd1b4d3a	-0.037915446
86	0x3d981818	0.074264705
87	0x3cd79d09	0.026319997
88	0xbd256d83	-0.04038764
89	0xbd9886ba	-0.07447572
90	0xbbad952d	-0.005297324
91	0x3d2e1ad0	0.04250604
92	0x3ccd6eb5	0.025077203
93	0xbd73a4a0	-0.05948317
94	0x3d624676	0.055242978
95	0xbd196655	-0.037451107
96	0x3da72953	0.08162179
97	0x3db8a0b2	0.09015025
98	0x3cb4ce2a	0.022070963
99	0x3c29069a	0.010316515
100	0xbd616d47	-0.055035856
101	0x3d9a9cb5	0.07549421
102	0xbcb3cbdc	-0.021947794
103	0xbd4fc9e1	-0.050729636
104	0x3dab4adf	0.0836389
105	0xbcd016c4	-0.02540148
106	0xbdcd36d6	-0.10020225
107	0xbd69b8bb	-0.05706094
108	0xbc555a55	-0.013022025
109	0xbcc60ce7	-0.024176074
110	0xbd6c5647	-0.057699468
111	0xbdbd3587	-0.09238725
112	0xbc85d146	-0.01633514
113	0xbd001d41	-0.0312779
114	0xbc1d2966	-0.00959239
115	0x3d5c70e4	0.0538186
116	0x3d91ebd3	0.07125058
117	0xbc693de4	-0.014235947
118	0x3ad0b9d0	0.0015924517
119	0xbd34ea10	-0.044168532
120	0xbdb08463	-0.08619001
121	0xbd265765	-0.04061069
122	0x3d7d4beb	0.06183998
123	0x3d7ee978	0.062234372
124	0x3cfdee6a	0.030997474
125	0xbd4d423b	-0.05011199
126	0xbdb975e8	-0.09055692
127	0xbd0eb8f6	-0.03484436
128	0xbdbe9a42	-0.09306766
129	0x3bddd17f	0.0067693586
130	0xbd8601b3	-0.06543293
131	0x3da80167	0.082033925
132	0x3db57e10	0.08861935
133	0x3dad5100	0.08462715
134	0x3c992fc4	0.018699534
135	0xbbea8902	-0.007157446
136	0xbdc8dfe8	-0.09808332
137	0xbd27fa93	-0.04101045
138	0xbd6e6b75	-0.058207948
139	0xbdb59a03	-0.08867266
140	0xbd27a9da	-0.040933467
141	0xbcfd5f00	-0.030929089
142	0xbdb3e0a1	-0.08783079
143	0x3d54c843	0.051948797
144	0xbbacd916	-0.005274902
145	0xbdb3bd51	-0.087763436
146	0x3db4df39	0.08831639
147	0xbd1bec9a	-0.038067438
148	0xbc2f7ea4	-0.010711346
149	0x3b6fb621	0.0036577063
150	0xbd6c54f8	-0.05769822
151	0x3c7f44fd	0.015580413
152	0xbd3b06fe	-0.045660965
153	0xbdab8a6f	-0.083760135
154	0xbd450ea8	-0.04810968
155	0x3cc85895	0.024456302
156	0x3d83e526	0.06440191
157	0x3dbdc284	0.092656165
158	0x3d7d68a6	0.06186738
159	0xbd524844	-0.05133845
160	0x3d744927	0.059640076
161	0x3aeaa6e7	0.0017902524
162	0x3da0cd4b	0.078516565
163	0x3d82af78	0.06381124
164	0x3da925d2	0.08259167
165	0x3dca4f98	0.098784626
166	0x3d697272	0.05699391
167	0xb96d2543	-0.00022615962
168	0xbc819ebe	-0.015822764
169	0xbd4f11fe	-0.050554268
170	0x3ccf04dc	0.025270872
171	0x3dc1b63c	0.094585866
172	0xbd4aba3c	-0.049494013
173	0xbd8f7c7d	-0.07006166
174	0xbd1d48f7	-0.038399663
175	0xbc86bde9	-0.016447978
176	0x3da01639	0.07816739
177	0x3da92961	0.082598455
178	0xbd640c1c	-0.05567561
179	0x3db0c204	0.086307555
180	0xbd1f6b9f	-0.038920995
181	0xbd468bca	-0.048473157
182	0x3d014a08	0.031564742
183	0xbda9630e	-0.08270846
184	0x3c98d1fe	0.01865482
185	0x3d16fd28	0.036862522
186	0xbd89ff72	-0.067381755
187	0xbdca061c	-0.098644465
188	0x3d1a85ff	0.037725445
189	0xbdcaded1	-0.0990578
190	0xbd79b492	-0.06096322
191	0xbdb4bfc2	-0.088256374
192	0x3c90fbc6	0.01769818
193	0xbd250a23	-0.04029287
194	0xbd9e76d9	-0.07737512
195	0x3da4b4f6	0.08042328
196	0xbd9f69d4	-0.07783857
197	0x3d90b46f	0.07065665
198	0x3da332f7	0.07968705
199	0xbd836e5c	-0.06417534
200	0x3c8b1edc	0.016982488
201	0x3c924d7a	0.01785921
202	0x3d233493	0.03984506
203	0x3dbf5a82	0.09343435
204	0x3d9430ce	0.07235871
205	0x3d21d04b	0.039505284
206	0xba3a6eca	-0.0007111846
207	0xbdca835f	-0.09888338
208	0x3d2671b6	0.040635787
209	0x3d911f96	0.07086103
210	0xbd4dee8f	-0.050276335
211	0xbdb0e687	-0.086377196
212	0x3db756c7	0.08952098
213	0xbdc20ba5	-0.09474877
214	0x3dcaf766	0.09910469
215	0xbcf36827	-0.02971275
216	0x3d32c666	0.04364624
217	0xbd5384c4	-0.051640287
218	0x3dcb96ed	0.09940896
219	0xbd25b6f4	-0.04045768
220	0xbdd11c5e	-0.10210489
221	0x3cfb7fca	0.030700583
222	0xbdce37e3	-0.10069253
223	0x3cb3664a	0.021899361
224	0xbd614350	-0.054995835
225	0xbdada112	-0.08477987
226	0xbd2ebc23	-0.04265989
227	0x3d6e1bf5	0.05813213
228	0x3d27a867	0.040932085
229	0xbdcbb010	-0.09945691
230	0x3ccdaf34	0.025107957
231	0x3da1b8ca	0.07896574
232	0xbd5d1922	-0.053979047
233	0x3ba90de1	0.005159125
234	0xbda2cca3	-0.079491876
235	0x3da64b78	0.08119863
236	0x3c39d3df	0.011342018
237	0x3da1b746	0.07896285
238	0xbc632cff	-0.013865708
239	0xbc8b06a0	-0.016970932
240	0x3beeb571	0.007284813
241	0x3d98fd11	0.074701436
242	0x3d123784	0.035697475
243	0xbd87c846	-0.06629996
244	0x3d970e2b	0.07375749
245	0x3d2ac20f	0.041688975
246	0xbc96ce46	-0.018408906
247	0xbd095961	-0.033532504
248	0x3daf0fde	0.08547948
249	0xbd404134	-0.046937183
250	0xbceb6873	-0.028736329
251	0xbcf90f30	-0.03040275
252	0x3dbdafc4	0.0926204
253	0xbdc00941	-0.09376765
254	0xbdc8cd3b	-0.098047696
255	0xbda770ed	-0.08175836

enc_f.lstm.weight_hh_l0 f4 [384, 96]
0	0xbc9bc57b	-0.019015064
1	0x3c5f1229	0.01361517
2	0x3bf6940e	0.0075249737
3	0x3d5ac549	0.053410802
4	0x3d9b18d2	0.075730935
5	0x3db716f5	0.089399256
6	0xbd897604	-0.06711963
7	0x3d32d537	0.04366037
8	0x3d3e5e2c	0.046476528
9	0x3cbe8787	0.023257984
10	0xbdc30dcf	-0.09524118
11	0x3dd2f23e	0.1030011
12	0xbd0051d2	-0.03132803
13	0xbd839659	-0.06425161
14	0xbd95ae42	-0.07308628
15	0x3d901efa	0.07037158
16	0x3d56c0c1	0.05242992
17	0xbd90bb16	-0.07066934
18	0xbd765244	-0.06013705
19	0xbda2bbd3	-0.07945981
20	0xbd7857cf	-0.060630616
21	0xbb8a9257	-0.004228871
22	0x3ca2f994	0.019894399
23	0xbdb3f621	-0.0878718
24	0xbbab018d	-0.0052186907
25	0xbb446376	-0.002996651
26	0xbb83b7c3	-0.004019709
27	0x3d50a85d	0.050941814
28	0xbd8a7ef1	-0.067624934
29	0xbd8e718d	-0.06955252
30	0x3d89523c	0.06705138
31	0xbd49bcbb	-0.049252253
32	0x3da13de2	0.07873131
33	0x3da8c5bd	0.082408406
34	0x3cd74bd8	0.026281282
35	0xbd0b1183	-0.033952247
36	0xbd3e113a	-0.046403147
37	0x3dbff600	0.09373093
38	0x3d058eed	0.032607008
39	0x3d63d789	0.055625472
40	0x3b67253e	0.003527
41	0xbd1f747a	-0.03892944
42	0x3da92645	0.082592525
43	0x3d5a0dca	0.053235807
44	0x3d757dc9	0.05993441
45	0x3dd33525	0.10312871
46	0x3a91cc40	0.0011123493
47	0x3d8f8661	0.070080526
48	0xbd9e9037	-0.077423505
49	0xbda06322	-0.07831408
50	0xb9154410	-0.00014235103
51	0x3db74b3e	0.08949898
52	0x3ca8f1d8	0.020623133
53	0xbc554167	-0.013016081
54	0xbd9f17d2	-0.07768215
55	0xbd4d5399	-0.050128553
56	0xbc3ca740	-0.011514485
57	0xbd861c6f	-0.06548392
58	0xbd0ac536	-0.03387948
59	0xbd8ea080	-0.06964207
60	0xbd8fae4d	-0.07015667
61	0xbdbe74d9	-0.09299631
62	0x3d12298e	0.03568416
63	0xbd8deae1	-0.06929565
64	0xbdaf2287	-0.085515074
65	0x3c7ec84b	0.015550683
66	0xbd15eece	-0.036604695
67	0xbbb5b099	-0.0055447337
68	0x3bc9cd5a	0.006158513
69	0x3ccdd19b	0.025124362
70	0x3d22cf55	0.03974851
71	0xbce2cfe7	-0.027687026
72	0xbd57a182	-0.05264426
73	0xbd0fac59	-0.035076473
74	0x3d0de5bb	0.034642916
75	0x3d2a3e06	0.041563056
76	0x3d21f864	0.039543524
77	0x3da59c05	0.08086399
78	0x3d9a27ea	0.07527144
79	0xbdb5fc3e	-0.08886002
80	0x3cc98b19	0.02460246
81	0xbd3ae310	-0.0456267
82	0x3d7ef096	0.06224116
83	0x3dbe10b1	0.092805274
84	0x3d2195ec	0.039449617
85	0x3cb606d0	0.022220045
86	0x3d92ddb7	0.07171195
87	0xbd9c9e63	-0.07647397
88	0x3db73f48	0.08947617
89	0x3cf953a1	0.030435385
90	0x3dcf402e	0.10119663
91	0xbb5a72eb	-0.0033332657
92	0x3d24357d	0.040090073
93	0xbd545868	-0.051842123
94	0xbc5260f5	-0.012840499
95	0xbd1c3672	-0.03813786
96	0x3d631c15	0.055446703
97	0x3d80dd25	0.0629218
98	0xbdaa5868	-0.083176434
99	0xbdc52572	-0.09626283
100	0x3d858d47	0.06521087
101	0xbd915bea	-0.07097609
102	0x3dc577e0	0.09642005
103	0x3d97e5ec	0.07416901
104	0x3d11a5af	0.0355584
105	0xbd1d87bd	-0.03845953
106	0xbd917453	-0.07102265
107	0xbd460e86	-0.048353694
108	0x3d86b081	0.06576634
109	0x3d88de55	0.066830315
110	0x3db5a862	0.08870007
111	0x3d3efb61	0.046626452
112	0x3db110f1	0.086458094
113	0x3ccfeae6	0.025380563
114	0xbda607d6	-0.08106963
115	0x3dc77558	0.097391784
116	0x3b40ce98	0.0029420014
117	0xbd9d953b	-0.07694479
118	0x3da96fbc	0.08273265
119	0x3d1ebbc7	0.038753297
120	0xbcc4663e	-0.023974534
121	0xbdbbc8e5	-0.09169177
122	0xbdc67e9a	-0.09692116
123	0xbd2bfe48	-0.04199055
124	0x3d1c6da1	0.038190488
125	0x3c5e93ee	0.013585074
126	0x3db2c67a	0.08729263
127	0x3cb06645	0.02153314
128	0xbd897c35	-0.06713144
129	0x3a0a9d39	0.000528771
130	0xbdb1dd3e	-0.08684777
131	0xbcfc7960	-0.030819595
132	0xbda41ef8	-0.08013719
133	0x3da25723	0.07926776
134	0xbdaa3e41	-0.08312655
135	0x3db0c274	0.08630839
136	0x3dd15575	0.10221378
137	0xbbcc8ce8	-0.0062423833
138	0x3c144ed2	0.009051995
139	0x3ceeaa35	0.029133895
140	0x3d05be62	0.032652266
141	0x3d216ad1	0.03940851
142	0x3dc260cb	0.09491118
143	0xbc713420	-0.0147219
144	0xbdaa3907	-0.08311658
145	0xbd404345	-0.046939153
146	0x3d34b520	0.044118047
147	0xbdb8755b	-0.09006759
148	0xbc28746b	-0.010281662
149	0x3d28841e	0.04114162
150	0xbd66c657	-0.056341495
151	0xbc12231a	-0.008919502
152	0x3dc779e8	0.09740049
153	0xbcc1e82c	-0.023670278
154	0x3d80f442	0.062965885
155	0xbd45441b	-0.048160654
156	0xbcb9fab5	-0.022702554
157	0xbdb14ba0	-0.086570024
158	0x3c901774	0.017589308
159	0xbdad1422	-0.08451106
160	0xbda02575	-0.07819644
161	0x3d86c991	0.065814145
162	0x3c6f66f7	0.014611951
163	0xbda452fb	-0.0802364
164	0x3d95864d	0.073010065
165	0x3d5217c1	0.051292185
166	0xbd3a8820	-0.045539975
167	0x3d985637	0.07438319
168	0x3d412b4c	0.04716043
169	0xbdc80fbb	-0.09768625
170	0x3c1e3b4a	0.00965769
171	0x3d75d880	0.060020924
172	0x3dbe68a9	0.09297306
173	0x3dc7e133	0.0975975
174	0xbcfa63bf	-0.03056514
175	0xbd8a29a6	-0.06746225
176	0x3d88bd1d	0.066766955
177	0x3d9c6905	0.076372184
178	0xbd90e080	-0.0707407
179	0x3d716177	0.05893084
180	0x3d954e42	0.07290317
181	0x3cc31800	0.023815155
182	0xbd05f968	-0.032708555
183	0xbc020b94	-0.007937331
184	0xbdc90aa6	-0.09816484
185	0x3da7bae9	0.08189947
186	0xbb7fc91a	-0.0039029778
187	0x3d5e0b29	0.054209862
188	0xbd946a52	-0.072468415
189	0xbc874d08	-0.016516224
190	0x3d4897d7	0.04897293
191	0x3db0350a	0.086038664
192	0xbc2fe58f	-0.010735883
193	0xbd7921ff	-0.060823437
194	0xbc9a3d45	-0.018828044
195	0x3d0145a7	0.031560566
196	0x3ae7ac24	0.0017675203
197	0x3d8eaf17	0.069669895
198	0x3d45b9e9	0.048273
199	0xbd8f3896	-0.06993215
200	0x3c9cc7fc	0.019138329
201	0xbd49e270	-0.049288213
202	0x3cd46ff9	0.025932299
203	0x3c280ec8	0.01025743
204	0xbcb79af5	-0.022412756
205	0xbd93e8b0	-0.07222116
206	0xbd5b9de6	-0.05361738
207	0x3dadb67d	0.084820725
208	0xbdc76b06	-0.0973721
209	0xbcfaa6d5	-0.03059713
210	0x3dd1c3e0	0.10242438
211	0x3d685115	0.05671795
212	0xbd9cf8b6	-0.07664625
213	0xbdab0770	-0.08351028
214	0xbd238755	-0.039923985
215	0xbce24c1b	-0.02762418
216	0x3da71770	0.08158767
217	0xbd998813	-0.07496657
218	0xbd81db7f	-0.06340694
219	0x3dce3df9	0.10070414
220	0xbd4ad641	-0.049520735
221	0x3cadbf81	0.02120948
222	0xbcfab119	-0.030602025
223	0x3d951598	0.07279509
224	0xb927811c	-0.00015974458
225	0xbd7a807e	-0.061157696
226	0x3d835e3b	0.064144574
227	0xbd08d16c	-0.033402845
228	0xbd72d2c0	-0.059283018
229	0xbca88203	-0.020569807
230	0xbd4455e3	-0.04793347
231	0x3d364ef1	0.04450888
232	0x3d8d746d	0.06906972
233	0xbaf4c3ba	-0.0018674054
234	0x3d127ddd	0.035764564
235	0xbb97b566	-0.0046297787
236	0xbda076e6	-0.07835178
237	0xbc0c9973	-0.008581507
238	0x3d072b74	0.033000425
239	0xb9f5dcf4	-0.00046894664
240	0x3d632b2b	0.05546109
241	0xbd6b7e4e	-0.0574935
242	0x3dce619b	0.100772105
243	0xbdae6ba6	-0.08516626
244	0x3db6bf8c	0.089232534
245	0xbd5efc93	-0.054440092
246	0x3dc0a9dd	0.09407399
247	0xbd51b2d6	-0.051195942
248	0x3ca095b7	0.01960264
249	0x3db1a03d	0.08673141
250	0x3db0ca02	0.0863228
251	0xbcdc4534	-0.026888467
252	0x3d979e9a	0.07403298
253	0xbd306e2e	-0.043073826
254	0x3a6f373b	0.00091253564
255	0x3cb07535	0.021540264

enc_f.lstm.bias_ih_l0 f4 [384]
0	0xbda921dc	-0.08258411
1	0x3d40bc63	0.04705466
2	0xbbdd58d5	-0.0067549744
3	0x3daeef64	0.08541754
4	0xbdb5cc98	-0.08876914
5	0xbd98bf45	-0.07458357
6	0x3a8a5c05	0.0010555988
7	0x3d4475a3	0.04796375
8	0xbd282701	-0.041052822
9	0x3d5c942d	0.05385225
10	0x3daef62e	0.08543049
11	0xbc72581a	-0.014791513
12	0xbc9102dc	-0.017701559
13	0xba0d8b5d	-0.000539949
14	0x3d020b75	0.031749208
15	0x3cf2236d	0.029557908
16	0xbda07000	-0.07833862
17	0x3d99dfcf	0.07513391
18	0x3d2690d3	0.04066546
19	0x3be8c7c4	0.007103892
20	0x3d2dfe3c	0.042478785
21	0xbce3e945	-0.027821193
22	0x3da060b1	0.078309424
23	0x3dcfd49e	0.101479754
24	0xbdd0d600	-0.10197067
25	0x3c55ff30	0.01306133
26	0x3d83c163	0.0643337
27	0xbd9d4433	-0.076790236
28	0x3d93624f	0.07196485
29	0xbd8bb965	-0.068224706
30	0x3d7332e9	0.059374724
31	0x38bf4d21	9.121956e-05
32	0xbda18037	-0.07885783
33	0x3cf17635	0.02947531
34	0x3d4bea2a	0.049783863
35	0x3dc06183	0.09393599
36	0x3daeb549	0.08530671
37	0xbd733a5c	-0.059381828
38	0x3d01b8f2	0.03167052
39	0x3dc2bbc5	0.095084704
40	0xbda42895	-0.08015553
41	0xbdbd4fba	-0.09243722
42	0xbd2665da	-0.040624477
43	0x3d571cdc	0.052517757
44	0xbcf2c379	-0.029634224
45	0xbda673e4	-0.08127573
46	0x3d2816e0	0.04103744
47	0x3db20d85	0.08693985
48	0x3d0f6808	0.03501132
49	0x3d82c018	0.06384295
50	0x3d5f6c3a	0.054546572
51	0x3c421a65	0.011847113
52	0x3c2ae69b	0.010430957
53	0x3aab35ee	0.0013062337
54	0x3cde6552	0.027147923
55	0x3c934685	0.017977962
56	0x3c235238	0.009968333
57	0xbd8449c3	-0.064593814
58	0xbdd2236e	-0.10260664
59	0x3d963bf4	0.07335654
60	0xbcc7c493	-0.024385726
61	0xbb57d5ec	-0.0032933904
62	0x3d0ef013	0.03489692
63	0x3dabab57	0.0838229
64	0x3a42da10	0.00074330065
65	0xbc5aeb81	-0.013361813
66	0xbdadaf93	-0.08480754
67	0xbd026062	-0.0318302
68	0x3cfe73e0	0.031061113
69	0x3dbc1fcc	0.09185752
70	0xbcfaf38b	-0.030633708
71	0xbdc8bc92	-0.09801592
72	0xbaf33ddb	-0.0018557863
73	0x3ccf076f	0.0252721
74	0x3a934af9	0.0011237554
75	0xbdb25538	-0.087076604
76	0xbdbbfc6e	-0.091790065
77	0xbdc60a9f	-0.096699946
78	0x3cbf035a	0.023317028
79	0x3c01234a	0.007881949
80	0xbd59a779	-0.05313823
81	0xbd317312	-0.04332263
82	0xbdaee60c	-0.08539972
83	0xbc4b4139	-0.012405687
84	0xbd6e2ffa	-0.058151223
85	0xbdb1b969	-0.08677942
86	0x3d90e35a	0.07074614
87	0xbd01b971	-0.03167099
88	0x3d36e7c2	0.044654615
89	0x3d57439b	0.052554708
90	0x3dba7f4b	0.091063105
91	0xbda42b50	-0.08016074
92	0xbd16bbb0	-0.036800086
93	0x3ca5a578	0.020220503
94	0x3bfd6917	0.007733475
95	0x3d9476fd	0.07249258
96	0x3c5c1f53	0.013435203
97	0x3d14a4eb	0.03629009
98	0xbd0e9406	-0.034809135
99	0xbc83ae02	-0.016074184
100	0xbd588cb6	-0.052868567
101	0x3dc1b094	0.09457508
102	0x3d212bcf	0.03934842
103	0x3da94fd8	0.08267182
104	0xbd2293e5	-0.039691824
105	0xbd5a8c45	-0.053356428
106	0x3cb89994	0.02253417
107	0x3dd2e6c8	0.10297924
108	0xbd7d6ac8	-0.061869413
109	0xbc808d58	-0.015692398
110	0xbd22bcc2	-0.039730795
111	0x3c54b37d	0.0129822465
112	0x3da6ca14	0.08144012
113	0x3d68be37	0.056822028
114	0xbda08fe7	-0.07839947
115	0x3cf30abe	0.029668208
116	0x3dc64490	0.09681046
117	0xbdbd9301	-0.092565544
118	0x3d0ef330	0.03489989
119	0x3d807d59	0.06273908
120	0xbc380a64	-0.011232946
121	0xbd1da320	-0.038485646
122	0x3c8e4d87	0.017370952
123	0x3d0571ee	0.032579355
124	0xbd7d83c8	-0.061893255
125	0xbd9105f0	-0.070812106
126	0xbd38d832	-0.045128055
127	0xbc0a563b	-0.0084434105
128	0x3cc1e53c	0.023668878
129	0xbc4d3183	-0.012524012
130	0xbd9dc4b0	-0.07703531
131	0x3b1b4162	0.0023690094
132	0xbda7c42d	-0.081917144
133	0xbdbe11f9	-0.09280772
134	0xbcfbc7c9	-0.030734913
135	0xbd9b2978	-0.07576269
136	0xbd9a35f6	-0.075298235
137	0x3d80fe8d	0.06298552
138	0x3da440cc	0.080201715
139	0x3dca691c	0.09883329
140	0xbd334d75	-0.04377504
141	0xbc78d446	-0.015187329
142	0xbc074bed	-0.008257848
143	0x3d0c3e6f	0.03423923
144	0xbc9ceb55	-0.019155184
145	0x3bae9130	0.0053273663
146	0x3d33fa88	0.043940097
147	0xbd2bde41	-0.041960005
148	0x3c8cde9c	0.017195992
149	0x3bba8638	0.0056922697
150	0xbb6ee6ca	-0.003645348
151	0x3d82899f	0.063739054
152	0x3d74334d	0.059619237
153	0x3d99852d	0.074961044
154	0xbc9a5fba	-0.018844474
155	0xbd7e484b	-0.062080663
156	0x3c12ad65	0.008952473
157	0x3c993b10	0.018704921
158	0x3da8860c	0.082286924
159	0xbd53d483	-0.05171634
160	0x3d97edbb	0.0741839
161	0xbd9fe1ea	-0.078067616
162	0x3d95691a	0.07295437
163	0x3dc683fb	0.09693142
164	0xbc407033	-0.0117455
165	0x3d1421e4	0.036165133
166	0x3dc8da68	0.09807283
167	0xbd854448	-0.06507164
168	0xbd068e1b	-0.032850366
169	0x3dc32843	0.09529164
170	0x3cdaa2dd	0.026688987
171	0xbdc8d411	-0.098060735
172	0x3c6b5e92	0.014365809
173	0xbdc375dd	-0.09543965
174	0xbbadaa6d	-0.0052998574
175	0xbd4c70bc	-0.0499122
176	0x3cfc88de	0.030826982
177	0xbcbcf392	-0.023065362
178	0x3ce7fa98	0.028317735
179	0x3d38ab72	0.045085378
180	0x3bfafbf3	0.007659429
181	0xbd0ea6af	-0.03482693
182	0x3c48daeb	0.012259225
183	0x3db17ea2	0.086667314
184	0x3ad27329	0.0016056049
185	0xbd9482ec	-0.07251534
186	0x3bfd0a80	0.007722199
187	0xbd8b8af4	-0.068136126
188	0x3d565a4f	0.05233222
189	0xbd4adec3	-0.04952885
190	0x3dc9e636	0.098583624
191	0x3d062d13	0.03275783
192	0xbd3c0b9e	-0.045909517
193	0xbdc54027	-0.09631377
194	0xbc4f54bc	-0.01265448
195	0x3d28c68e	0.04120498
196	0x3cf2f0ed	0.029655898
197	0xbd6f48a2	-0.058418877
198	0xbcd2940e	-0.025705364
199	0xbcecde5d	-0.028914625
200	0x3db22ca0	0.08699918
201	0xbd09582c	-0.033531353
202	0xbd82108f	-0.063508146
203	0xb969ad43	-0.00022285157
204	0x3cc52b48	0.02406849
205	0xbae99659	-0.0017821296
206	0xbd822402	-0.06354524
207	0x3d34ab64	0.044108763
208	0x3d19729a	0.03746281
209	0xbcaf1b27	-0.021375252
210	0x3d291ef9	0.041289303
211	0x3ba5c404	0.0050587673
212	0x3cd250b6	0.025673252
213	0xbd8ea8e7	-0.06965809
214	0xbda88630	-0.08228719
215	0xbd31a380	-0.043368816
216	0xbd0a3ae7	-0.03374758
217	0x3982b448	0.00024929852
218	0xbc14abfa	-0.0090742055
219	0xbcef9664	-0.029246517
220	0x3cc7f0ea	0.024406869
221	0xbda8182d	-0.08207736
222	0xbcb6973f	-0.022288917
223	0xbd6616cd	-0.05617409
224	0xbdca2af5	-0.09871475
225	0xbd85078e	-0.064955816
226	0x3d24c957	0.040231075
227	0xbdb2d188	-0.08731371
228	0x3d5f13e0	0.054462314
229	0xbd984fac	-0.07437071
230	0xbcfb0ebd	-0.030646676
231	0xbc1d2a3c	-0.009592589
232	0x3dab1fe3	0.08355691
233	0xbd5efc63	-0.054439913
234	0x3dc74312	0.097295895
235	0xbd7bba1f	-0.061456796
236	0xbdcd26b3	-0.10017147
237	0x3ce327ff	0.027729033
238	0xbc9da5fe	-0.01924419
239	0xbd498db5	-0.049207408
240	0xbd49d468	-0.049274832
241	0x3cf77133	0.030205345
242	0xbd8aab18	-0.06770915
243	0xbd907968	-0.070544064
244	0x3c83a7ed	0.016071284
245	0xbbba94c4	-0.005694004
246	0x3bfa771f	0.007643595
247	0x3a9e1b9f	0.0012062675
248	0xbcec19dd	-0.028820926
249	0xbd16ccb5	-0.036816318
250	0xbdaca8cb	-0.08430632
251	0x3d4380ad	0.047730137
252	0xbdb105cb	-0.08643683
253	0x3dd73097	0.10507315
254	0x3c76304f	0.015026166
255	0x3d915af9	0.0709743
