_train/_models/20250924/한미약품(128940)_20250924.pt (torch, 831847 bytes, 20 tensors)

enc_p.lstm.weight_ih_l0 f4 [384, 6]
0.061766908 0.0052244966 0.036193147 -0.09331843 0.042695187 0.030565923 0.022710241 0.05892066
0.029807791 0.0029962806 -0.005100017 -0.03168882 -0.048594594 0.05372891 -0.030261239 0.059370678
-0.067110576 0.010009493 -0.10257198 -0.06895322 -0.05534187 -0.0034551192 -0.049565114 0.01852175
-0.00031929841 -0.025602017 -0.038454834 -0.0824725 0.07576904 -0.08847958 -0.06509848 -0.048486482
-0.08150988 0.07705286 -0.0041070515 0.04314763 -0.08399294 0.015073721 0.0047317706 -0.012309898
0.052583605 -0.06465321 -0.09135435 -0.09746956 0.051724356 0.07701914 0.005182239 -0.08819406
0.076829396 0.0725862 -0.07332937 -0.09113962 -0.020648407 -0.06184175 -0.036364883 0.06992568
-0.07491856 0.054453444 0.050896842 -0.032494146 0.047132242 -0.0115055265 0.077327974 -0.050319202
-0.081112556 -0.095783606 -0.07227272 -0.008902898 0.09665247 -0.029029451 0.018614521 -0.07166359
0.0064136228 -0.038952846 -0.012211279 -0.07409955 0.032873213 -0.06723047 -0.059997108 0.049107414
0.020469768 0.040577114 0.08299639 0.0121193845 -0.09232288 -0.07497254 -0.027910491 -0.07615609
0.06846402 -0.0791546 0.028188772 -0.023372471 -0.03467994 0.090407416 -0.044024184 -0.042025845
-0.042196795 -0.0973027 -0.09042376 0.044319827 -0.012309897 0.0395698 0.028315004 -0.09062661
-0.0724433 -0.101482145 -0.0686228 0.045806188 0.048159383 0.042590637 -0.014841836 0.0010593791
-0.04743473 0.05148002 0.03392658 0.0969792 -0.06804 0.056979693 -0.019610845 -0.008473332
0.0013942702 0.07596086 0.04259104 -0.03074625 -0.02881197 0.07150464 -0.013241024 0.07208848
0.07890504 -0.03556797 0.01720785 -0.08158755 -0.0709043 0.026881693 -0.07155762 -0.042879067
0.08920481 0.07281515 0.068074174 -0.074791856 -0.0970351 -0.08189788 0.06431548 -0.034225944
0.074265845 0.0042053987 -0.0005501552 0.0010058471 -0.07611471 0.08078544 0.09016097 0.05622326
0.031578504 0.060185373 0.06386182 -0.03598492 0.043320674 -0.048305284 -0.05187064 -0.089897074
0.021322839 -0.088221066 -0.064261764 0.025914973 0.08190929 0.0030349144 0.07892816 -0.011984212
-0.038665038 0.09305139 -0.0026067102 -0.053757392 0.0568962 0.057142057 -0.04095254 0.08745941
0.02564771 -0.0007003789 -0.026084064 0.032402754 0.008033273 -0.0011277441 -0.09149311 -0.02338977
0.03942505 -0.06689397 0.01985192 -0.0990032 0.044041082 -0.10034687 -0.018279307 -0.055143178
-0.02287275 0.08452343 0.054401394 0.096322395 -0.09184054 0.07441756 0.06949114 -0.015710713
0.07437687 0.099642314 -0.060449805 -0.043281976 -0.059912488 0.008413493 -0.10188189 0.063836396
-0.0679375 0.0548321 0.08143058 0.05775619 0.003176186 -0.0922974 -0.0890333 -0.09127552
-0.0013496429 0.024418306 -0.01301496 0.06953312 -0.051408906 0.058111984 0.011612443 -0.08881693
-0.06652194 -0.039517134 0.071114905 -0.026444765 -0.0055470946 -0.014450679 0.09909327 -0.10061017
-0.08505949 0.058120646 0.07713335 0.08277956 -0.095929615 -0.06693489 0.01595078 0.035994425
0.049174126 -0.10251604 -0.0015041917 -0.04428822 -0.052181657 0.06287388 0.071111694 -0.07085044
-0.06566166 -0.020923099 -0.058883213 -0.038903974 -0.035181098 -0.056343395 0.09133291 -0.0050421194
00000000: 4cff 7c3d 4132 ab3b 443f 143d bc1d bfbd
00000010: 26e1 2e3d 6365 fa3c d40a ba3c ca56 713d
00000020: 782f f43c 3f5d 443b 0b1e a7bb 23cc 01bd
00000030: 200b 47bd d812 5c3d 6be6 f7bc ab2e 733d
00000040: 4571 89bd dbfe 233c 4211 d2bd 5937 8dbd
00000050: 28ae 62bd 486f 62bb ca04 4bbd edba 973c
00000060: 8267 a7b9 52bb d1bc d182 1dbd 58e7 a8bd
00000070: cc2c 9b3d c834 b5bd 5a52 85bd c399 46bd
00000080: a7ee a6bd e4cd 9d3d 7294 86bb 92bb 303d
00000090: 7e04 acbd c5f7 763c f80c 9b3b 74af 49bc
000000a0: e861 573d e768 84bd fd17 bbbd 1f9e c7bd
000000b0: ebdc 533d 36bc 9d3d c6cf a93b 169f b4bd
000000c0: bb58 9d3d 13a8 943d b52d 96bd 69a7 babd
000000d0: d926 a9bc c64d 7dbd 58f3 14bd 3235 8f3d
000000e0: e76e 99bd 930a 5f3d 3579 503d 9518 05bd
000000f0: bd0d 413d ad81 3cbc 215e 9e3d 821b 4ebd
00000100: 571e a6bd 322a c4bd b803 94bd 76dd 11bc
00000110: bbf1 c53d 2ccf edbc 7b7d 983c 5cc4 92bd
00000120: 5e29 d23b 058d 1fbd d111 48bc 81c1 97bd
00000130: 10a6 063d 21b0 89bd 87bf 75bd db24 493d
00000140: 37b0 a73c 3034 263d 03fa a93d 6290 463c
00000150: c713 bdbd 348b 99bd 8ba4 e4bc b9f7 9bbd
00000160: dd36 8c3d cf1b a2bd 24ec e63c a077 bfbc
00000170: 8e0c 0ebd 8627 b93d b452 34bd 4b23 2cbd
00000180: 8cd6 2cbd a346 c7bd 1830 b9bd b588 353d
00000190: 73af 49bc f113 223d def4 e73c 729a b9bd
000001a0: 275d 94bd dfd5 cfbd 1c8a 8cbd 459f 3b3d
000001b0: c642 453d 8573 2e3d 2c2b 73bc ddda 8a3a
000001c0: eb4a 42bd b7dc 523d 99f6 0a3d 089d c63d
000001d0: 8e58 8bbd 8a63 693d eca6 a0bc bbd3 0abc
000001e0: f2bf b63a 5e91 9b3d f173 2e3d 8fdf fbbc
000001f0: 1507 ecbc 0671 923d e1f0 58bc 20a3 933d
00000200: f798 a13d b8af 11bd 7af7 8c3c 6017 a7bd
00000210: 4636 91bd ff36 dc3c cd8c 92bd f6a1 2fbd
00000220: 03b1 b63d 1c20 953d 796a 8b3d 792c 99bd
00000230: 57ba c6bd 13ba a7bd d6b7 833d 8130 0cbd
00000240: b118 983d 71cd 893b 4a38 10ba a1d6 833a
00000250: 07e2 9bbd d672 a53d 51a6 b83d 5c4a 663d
00000260: 7658 013d f084 763d fcc9 823d ec64 13bd
00000270: 0571 313d c3db 45bd 4f76 54bd f51b b8bd
00000280: 3cad ae3c 3fad b4bd ac9b 83bd a34b d43c
00000290: 0fc0 a73d 6ae5 463b 16a5 a13d 6e59 44bc
000002a0: 3b5f 1ebd ba91 be3d 57d5 2abb b630 5cbd
000002b0: fd0b 693d ca0d 6a3d dabd 27bd eb1d b33d
000002c0: 251b d23c a299 37ba 3fae d5bc c0b8 043d
000002d0: fd9d 033c d0d0 93ba bd60 bbbd e79b bfbc
000002e0: 297c 213d b5ff 88bd 7ea0 a23c 31c2 cabd
000002f0: 6c64 343d a982 cdbd 7cbe 95bc d0dd 61bd
00000300: a25f bbbc 9f1a ad3d ffd3 5e3d ad44 c53d
00000310: e516 bcbd 3c68 983d 5f51 8e3d c1b3 80bc
00000320: e752 983d 4511 cc3d 379a 77bd 7148 31bd
00000330: cc66 75bd bfd8 093c 74a7 d0bd a8bc 823d
00000340: d122 8bbd a097 603d 13c5 a63d c191 6c3d
00000350: 8f27 503b 6b06 bdbd 1757 b6bd a9ee babd
00000360: 80e6 b0ba e608 c83c b33c 55bc 6167 8e3d
00000370: 2592 52bd d506 6e3d 1e42 3e3c a7e5 b5bd
00000380: a83c 88bd b8dc 21bd b1a4 913d b1a2 d8bc
00000390: 67c4 b5bb 8ac2 6cbc 6af1 ca3d b40c cebd
000003a0: ab33 aebd ea0f 6e3d 17f8 9d3d 5488 a93d
000003b0: bf76 c4bd 2915 89bd 36ab 823c e46e 133d
000003c0: cf6a 493d eef3 d1bd 4c28 c5ba 9167 35bd
000003d0: 6fbc 55bd 05c4 803d 02a3 913d 091a 91bd
000003e0: 9f79 86bd eb66 abbc 862f 71bd c659 1fbd
000003f0: 0e1a 10bd 55c8 66bd c00c bb3d 5d38 a5bb

enc_p.lstm.weight_hh_l0 f4 [384, 96]
-0.018954385 -0.0023873548 0.04976734 -0.00062872394 0.093435 0.008796776 0.09521153 -0.06394611
0.05432104 0.09543659 -0.07842623 0.018069405 -0.10202686 0.0020195013 -0.04037687 0.017148007
0.038781554 -0.088070646 0.090322524 0.092066005 0.066665895 0.01964423 0.10350603 -0.085935816
-0.0011806024 -0.047977056 -0.016438078 0.08587167 0.09603968 -0.022245483 0.07771515 -0.017661626
-0.05801834 -0.0047648833 -0.09911404 -0.095230736 0.08702245 0.07362784 0.049175166 -0.08532711
0.0617319 0.09372978 0.052358273 -0.051068258 0.07905699 0.036578324 -0.099101335 -0.010839138
-0.05605383 0.08152863 0.07309153 -0.012201153 -0.04963008 -0.03958027 -0.09497185 0.07793375
0.051554687 -0.0011253188 0.08752472 0.082779735 0.039094653 -0.0067802533 0.031599544 -0.044356484
0.02387596 -0.08622328 0.04651571 0.04699521 0.050001655 0.10304755 -0.013959106 -0.08986912
-0.010604472 0.014278602 0.045858633 -0.011246448 -0.0109267235 -0.035485283 -0.033274446 0.006300261
-0.0023021754 -0.024191182 0.020063994 -0.011162012 -0.033509564 -0.07939597 -0.006532789 -0.06464734
0.06877863 -0.0018676689 0.043852374 -0.0138071 -0.09424138 0.07031101 0.09009951 -0.09286094
-0.096416324 -0.033611458 -0.016847203 0.06691437 0.050492488 0.036485694 0.0554177 -0.086094484
-0.0662439 -0.042771693 -0.08934287 -0.028721878 0.034201223 -0.039040647 -0.08163119 0.06508637
-0.08612787 -0.032012057 0.09010593 0.061726473 0.0964456 -0.06687108 -0.01862858 0.08391529
-0.040012784 -0.046809077 -0.089046724 -0.0742579 -0.08866591 -0.027412253 -0.055618003 -0.00741826
0.06433962 0.069311194 -0.036891714 0.059409697 0.091127135 -0.048695173 -0.08351436 -0.029238414
0.09122598 0.003068163 -0.01979923 -0.015622849 -0.062217765 0.08386484 0.028541928 0.020124285
-0.087552324 -0.04783165 -0.046776365 -0.02438417 0.094064385 0.033896144 0.060325537 0.09752471
0.006274295 -0.061142586 0.046912704 0.09069253 -0.046619963 0.010668362 -0.031916175 -0.05917787
0.09586593 -0.019465473 0.052282844 0.06787631 -0.012575836 0.037266795 0.10200515 0.006363693
0.07322382 0.0062463237 -0.03327065 -0.04828868 -0.01874356 -0.02178288 -0.028947894 -0.06312051
0.07281007 -0.09997963 -0.048226792 -0.03467505 0.093415536 -0.0069877524 -0.075488605 -0.046706505
0.050299145 0.08188297 -0.07341707 -0.07108071 0.04795025 -0.06916777 -0.045432843 0.06399591
0.046400838 0.09993993 0.055611122 0.0375709 -0.050592184 0.086512 0.04528041 -0.01268975
0.09393136 -0.019380325 -0.0471285 -0.053928345 -0.050186083 -0.08823445 0.09551654 -0.029897908
-0.02367083 0.016494282 0.09800652 0.047336083 -0.08638395 0.05072561 0.07018175 -0.0849638
0.057989713 0.08027575 -0.0671766 0.035536893 -0.06274323 -0.08870893 -0.04013522 0.10028307
-0.08777777 0.07388787 -0.09215304 0.03951552 0.07611834 0.048649006 -0.0935812 0.024352046
0.09642614 -0.05379857 -0.10250454 -0.09426847 -0.012678084 0.010396113 -0.09239377 0.0020914318
0.029779915 0.035017796 0.011214467 0.06400324 0.06517652 0.032285504 -0.10036256 -0.083788164
0.018106682 -0.101149544 -0.04455245 -0.078515336 0.07833 -0.083494306 -0.05399136 0.044643678
00000000: 3a46 9bbc 2b75 1cbb d7d8 4b3d f3d0 24ba
00000010: d95a bf3d 5a20 103c 43fe c23d 2ef6 82bd
00000020: bd7f 5e3d 4274 c33d ee9d a0bd 4a06 943c
00000030: 75f3 d0bd 9c59 043b 3862 25bd fa79 8c3c
00000040: 68d9 1e3d 625e b4bd 04fb b83d 1a8d bc3d
00000050: 2188 883d f0ec a03c f8fa d33d 1eff afbd
00000060: 71be 9aba 9783 44bd 26a9 86bc 7cdd af3d
00000070: 74b0 c43d 293c b6bc 1f29 9f3d 1daf 90bc
00000080: a4a4 6dbd bd22 9cbb 4dfc cabd 5508 c3bd
00000090: d438 b23d 31ca 963d e66b 493d fbbf aebd
000000a0: 97da 7c3d 66f5 bf3d a175 563d f32c 51bd
000000b0: a2e8 a13d 27d3 153d a4f5 cabd a496 31bc
000000c0: b398 65bd 7bf8 a63d 03b1 953d 58e7 47bc
000000d0: e948 4bbd ec1e 22bd 9a80 c2bd bb9b 9f3d
000000e0: 022b 533d 6f7f 93ba 2940 b33d 6c88 a93d
000000f0: b721 203d e32c debb 866e 013d 25af 35bd
00000100: 8497 c33c d595 b0bd 4287 3e3d 0d7e 403d
00000110: 89ce 4c3d 980a d33d bcb4 64bc 4d0d b8bd
00000120: 61be 2dbc ccf0 693c 43d6 3b3d 0643 38bc
00000130: 0006 33bc 0459 11bd c94a 08bd 6b72 ce3b
00000140: 18e0 16bb 962c c6bc 3f5d a43c dfe0 36bc
00000150: 5341 09bd 5b9a a2bd 0211 d6bb d365 84bd
00000160: cfdb 8c3d 92cc f4ba 8c9e 333d 2d37 62bc
00000170: a001 c1bd 38ff 8f3d 1886 b83d e02d bebd
00000180: ec75 c5bd 2bac 09bd 2503 8abc 670a 893d
00000190: 36d1 4e3d 0672 153d acfd 623d 4e52 b0bd
000001a0: e2aa 87bd 5f31 2fbd 65f9 b6bd 254a ebbc
000001b0: 9516 0c3d 16e9 1fbd 412e a7bd 014c 853d
000001c0: cf63 b0bd 131f 03bd 7589 b83d e6d4 7c3d
000001d0: 4585 c53d b4f3 88bd f79a 98bc c8db ab3d
000001e0: 72e4 23bd e0ba 3fbd 215e b6bd 8714 98bd
000001f0: 7996 b5bd a98f e0bc b4cf 63bd e014 f3bb
00000200: 7ec4 833d 07f3 8d3d c41b 17bd 9557 733d
00000210: dda0 ba3d 9774 47bd 9409 abbd 6685 efbc
00000220: b0d4 ba3d 3c13 493b ff31 a2bc faf6 7fbc
00000230: 0ed8 7ebd 54c1 ab3d c3d0 e93c afdb a43c
00000240: a24e b3bd 1feb 43bd 9398 3fbd 50c1 c7bc
00000250: d4a4 c03d afd6 0a3d e917 773d 09bb c73d
00000260: 9a98 cd3b a670 7abd 8927 403d 01bd b93d
00000270: 93f4 3ebd 5aca 2e3c 89ba 02bd 7f64 72bd
00000280: 5b55 c43d 0e76 9fbc 8926 563d bc02 8b3d
00000290: e10a 4ebc 11a5 183d 13e8 d03d 8786 d03b
000002a0: 5ff6 953d f6ad cc3b ce46 08bd 5aca 45bd
000002b0: 188c 99bc 0372 b2bc 2224 edbc 5345 81bd
000002c0: 721d 953d 1fc2 ccbd 7589 45bd 6d07 0ebd
000002d0: a550 bf3d 84f9 e4bb c599 9abd 524f 3fbd
000002e0: 7a06 4e3d 42b2 a73d b05b 96bd c392 91bd
000002f0: 7b67 443d d5a7 8dbd ca17 3abd 4a10 833d
00000300: ce0e 3e3d 4ead cc3d 7dc8 633d f2e3 193d
00000310: c039 4fbd 342d b13d f477 393d abe8 4fbc
00000320: 165f c03d 7dc3 9ebc d009 41bd f8e3 5cbd
00000330: ec8f 4dbd 43b4 b4bd 2d9e c33d 75ec f4bc
00000340: 54e9 c1bc 041f 873c a4b7 c83d 7be3 413d
00000350: 12ea b0bd a8c5 4f3d 73bb 8f3d 8001 aebd
00000360: 9f86 6d3d 9d67 a43d e393 89bd 228f 113d
00000370: 867f 80bd 07ad b5bd d464 24bd 3661 cd3d
00000380: d5c4 b3bd 8652 973d bcba bcbd 07db 213d
00000390: efe3 9b3d 2e44 473d 80a7 bfbd f17d c73c
000003a0: 117b c53d e45b 5cbd e6ed d1bd d40f c1bd
000003b0: bdb7 4fbc 7554 2a3c f238 bdbd 6710 093b
000003c0: 02f5 f33c d26e 0f3d e2bc 373c 2114 833d
000003d0: 447b 853d ce3d 043d e38a cdbd 2199 abbd
000003e0: 7754 943c 7e27 cfbd a17c 36bd a6cc a0bd
000003f0: 7b6b a03d 10ff aabd 0b26 5dbd 4adc 363d

enc_p.lstm.bias_ih_l0 f4 [384]
-0.03431282 0.021946367 -0.08662967 -0.073946215 0.034887683 0.07777512 -0.09473823 0.042708054
-0.018800426 0.012864278 0.07200831 -0.08188489 0.09180931 0.092860654 0.082576536 -0.075973645
-0.02250426 0.01123381 -0.022837473 -0.04656042 0.039907493 -0.019809356 -0.024624947 -0.041737955
-0.07834995 0.09666454 -0.104102544 -0.057324126 0.07393452 0.084933035 -0.0583534 -0.026188405
0.07769223 -0.000107404114 -0.09175912 -0.060233198 -0.007816619 -0.0012730669 -0.09780917 0.04927029
-0.099672146 0.065533705 0.04413051 0.095207885 -0.059726015 -0.07680635 0.07482636 0.09857552
-0.069143474 0.013801217 -0.08932599 0.016756192 -0.016977536 -0.09087825 0.042415734 -0.021472942
-0.029493755 0.053199455 -0.09384593 -0.050136056 0.061485987 -0.053502943 -0.010913025 0.00795485
0.028704142 0.09282646 -0.0029151565 -0.09630501 -0.0071433284 -0.026084797 0.044420168 -0.08498912
0.030034821 -0.0065871277 0.07597585 -0.033284895 0.09921716 -0.0989044 0.01684964 -0.10158059
-0.07941952 -0.0066186776 0.07048673 0.053858113 0.08103282 -0.08640432 0.050961964 -0.092654034
-0.07249554 -0.061070696 0.09430906 0.025723021 0.05601561 0.09462521 0.08187334 0.08271554
-0.050861355 -0.024990737 -0.0589273 0.06578918 0.020982323 0.06484758 0.017247593 -0.018302029
0.017639222 -0.021307427 0.10484416 -0.019569851 -0.010736876 -0.07382045 -0.02645757 -0.043790624
-0.002128719 -0.006075965 0.08230448 -0.07719272 0.0968112 -0.089152135 -0.044373482 0.050006006
0.051134 -0.09921756 -0.102775216 0.085633874 0.02797554 0.05497332 -0.011966696 -0.10188168
-0.014686554 0.05811492 0.08259902 0.09020498 -0.06876184 -0.0078057037 0.05391868 0.063193075
0.0018042446 0.068825096 0.0064532966 -0.09478061 0.008073756 0.044756167 -0.006988611 -0.03455267
-0.10089217 0.06257314 -0.07340203 -0.08376125 -0.003889631 -0.052481227 -0.020521015 0.07651768
-0.04687469 0.08868959 -0.081980176 -0.1004041 -0.013500441 -0.06374251 0.044830322 0.097064406
-0.061006892 0.040333327 0.03861399 0.012578722 -0.015348107 0.014216994 0.07954145 0.095952384
0.0062987045 -0.09120211 0.07408873 0.015543751 -0.035073824 -0.020072041 -0.08059752 0.01887665
0.027006589 0.029231064 -0.082533404 0.012222905 0.034404047 -0.058673877 0.010324697 0.0026699833
-0.027875511 -0.009574992 -0.02046338 -0.0008490682 0.017463045 0.059614595 -0.045337584 0.08210452
0.02775972 -0.102563955 -0.087054394 -0.07027484 0.04701949 -0.047722775 -0.07364309 -0.014989452
0.10154546 0.045030236 0.10322587 -0.072147116 -0.011439513 0.0018292955 0.017678838 -0.042396087
-0.02703376 0.069969 0.07257614 -0.0541891 -0.003916819 -0.07672979 0.041074928 -0.0083039915
-0.095337786 -0.02685862 -0.0019478563 -0.06112833 0.05855491 0.06318326 -0.0938806 0.096977405
0.0104359435 -0.06919557 -0.02549089 0.061497655 0.05932769 -0.030542333 -0.08283417 -0.0059995446
0.08422738 -0.07745337 0.035164032 -0.07267297 -0.03993161 -0.06539137 -0.10257538 -0.0020097722
0.06768677 0.07922597 0.044063102 -0.08224606 -0.029246401 0.09949482 0.05706973 -0.043910936
-0.02582325 -0.023095291 -0.04752742 -0.029571438 -0.07296911 0.018221246 0.069264576 0.007996253
00000000: 998b 0cbd dec8 b33c e56a b1bd 1d71 97bd
00000010: 63e6 0e3d 9048 9f3d 1e06 c2bd a4ee 2e3d
00000020: 5a03 9abc b1c4 523c 1879 933d 44b3 a7bd
00000030: 8506 bc3d ba2d be3d e31d a93d 1298 9bbd
00000040: db5a b8bc 040e 383c a715 bbbc 24b6 3ebd
00000050: 0a76 233d 3b47 a2bc 42ba c9bc 6bf5 2abd
00000060: f075 a0bd 0ff8 c53d b733 d5bd b4cc 6abd
00000070: fb6a 973d 5ff1 ad3d fa03 6fbd 1189 d6bc
00000080: 1b1d 9f3d 253e e1b8 35ec bbbd 16b7 76bd
00000090: 4711 00bc 09dd a6ba 2d50 c8bd a5cf 493d
000000a0: e920 ccbd 8936 863d 32c2 343d 5afc c23d
000000b0: 44a3 74bd a64c 9dbd 903e 993d f6e1 c93d
000000c0: 189b 8dbd 801e 623c 8bf0 b6bd 4844 893c
000000d0: 7914 8bbc 601e babd 1fbc 2d3d 06e8 afbc
000000e0: e39c f1bc ace7 593d 4c32 c0bd 775b 4dbd
000000f0: bbd8 7b3d e725 5bbd 8bcc 32bc 0f55 023c
00000100: f324 eb3c cd1b be3d 360c 3fbb 903b c5bd
00000110: 9512 eabb c9af d5bc ecf1 353d c70e aebd
00000120: 960b f63c d5d8 d7bb 3a99 9b3d be55 08bd
00000130: 5e32 cb3d 648e cabd 4208 8a3c 7c09 d0bd
00000140: b4a6 a2bd 7ee1 d8bb 595b 903d 539a 5c3d
00000150: 89f4 a53d c0f4 b0bd 7ebd 503d 66c1 bdbd
00000160: 8b78 94bd 4425 7abd 1c25 c13d 16b9 d23c
00000170: a070 653d ddca c13d 36ad a73d c466 a93d
00000180: ff53 50bd 60b9 ccbc c15d 71bd 7abc 863d
00000190: 1fe3 ab3c cfce 843d d34a 8d3c 23ee 95bc
000001a0: 2180 903c ea8c aebc 89b8 d63d f450 a0bc
000001b0: b9e9 2fbc 2d2f 97bd 8cbd d8bc cc5d 33bd
000001c0: fa81 0bbb e318 c7bb 408f a83d 3717 9ebd
000001d0: f344 c63d 6595 b6bd f8c0 35bd 19d3 4c3d
000001e0: e371 513d 9332 cbbd d07b d2bd d060 af3d
000001f0: f62c e53c b42b 613d f60f 44bc 58a7 d0bd
00000200: df9f 70bc e909 6e3d ad29 a93d 63bd b83d
00000210: 02d3 8cbd fdc6 ffbb d5d9 5c3d 5f6b 813d
00000220: 677c ec3a 2cf4 8c3d 2d76 d33b 561c c2bd
00000230: c947 043c 3e52 373d b800 e5bb 1a87 0dbd
00000240: 8ea0 cebd 5926 803d ce53 96bd 058b abbd
00000250: 2ee9 7ebb 8ef6 56bd b01b a8bc 4db5 9c3d
00000260: adff 3fbd e3a2 b53d 39e5 a7bd aaa0 cdbd
00000270: f430 5dbc 6f8b 82bd 00a0 373d b4c9 c63d
00000280: 5de2 79bd 8f34 253d b429 1e3d fc16 4e3c
00000290: a076 7bbc 65ee 683c a1e6 a23d af82 c43d
000002a0: 5d65 ce3b 2cc8 babd d5bb 973d 38ab 7e3c
000002b0: 92a9 0fbd 1f6e a4bc 5010 a5bd 34a3 9a3c
000002c0: ec3c dd3c fc75 ef3c 4607 a9bd 9442 483c
000002d0: 42eb 0c3d 0554 70bd eb28 293c e3fa 2e3b
000002e0: 2f5b e4bc 6de0 1cbc d1a2 a7bc 0194 5eba
000002f0: a90e 8f3c 6f2e 743d e7b3 39bd 6a26 a83d
00000300: 5a68 e33c 0d0d d2bd 9349 b2bd 41ec 8fbd
00000310: 8297 403d f578 43bd 30d2 96bd 5296 75bc
00000320: 11f7 cf3d a071 383d 1668 d33d dec1 93bd
00000330: cc6c 3bbc f9c4 ef3a 36d3 903c 85a7 2dbd
00000340: e775 ddbc e84b 8f3d cda2 943d 64f5 5dbd
00000350: a958 80bb 8224 9dbd 2f3e 283d 770d 08bc
00000360: 7540 c3bd 9c06 dcbc 364f ffba b361 7abd
00000370: 46d7 6f3d 3a66 813d 7944 c0bd 179c c63d
00000380: 85fb 2a3c 68b6 8dbd 45d2 d0bc f7e4 7b3d
00000390: 9801 733d ea33 fabc f6a4 a9bd d497 c4bb
000003a0: 687f ac3d df9f 9ebd 2908 103d 91d5 94bd
000003b0: 548f 23bd e9eb 85bd 0a13 d2bd 62b6 03bb
000003c0: 5c9f 8a3d 3a41 a23d 837b 343d 9f70 a8bd
000003d0: 2696 efbc f1c3 cb3d f3c1 693d f4db 33bd
000003e0: 488b d3bc 5632 bdbc 1dac 42bd cd3f f2bc
000003f0: d470 95bd b944 953c 96da 8d3d b702 033c

enc_p.lstm.bias_hh_l0 f4 [384]
0.036562268 0.022746336 -0.07245598 0.015532378 0.031814612 0.025052637 -0.026962861 0.044810608
0.06931956 0.003447018 -0.048215408 0.099669635 0.104179926 -0.017926622 0.0118527375 -0.012667614
0.07032197 0.0133216195 -0.078212924 0.054146416 -0.012937839 0.009483395 -0.0074925655 -0.07830097
-0.08382863 0.021565553 0.09479801 0.089734785 0.09575433 -0.09259538 -0.012975737 0.0530583
-0.017867876 -0.006315556 -0.08799231 -0.030184116 0.0064791525 -0.037439056 0.07884781 0.089871936
0.043062896 0.0842248 -0.054162525 0.04819005 -0.029282885 0.07500234 -0.03720369 -0.050286237
0.03580716 0.089025885 -0.09403922 -0.022014238 -0.09337634 0.09460342 -0.0054160827 -0.0024752058
-0.019729143 0.023872128 0.0007717729 -0.03829612 0.033893794 -0.09605273 0.08424571 0.03205551
0.07808222 -0.09069932 0.06307607 0.0535663 -0.06852337 0.013062278 0.058295727 -0.03944923
-0.026591372 0.034160327 0.083942726 0.024833111 0.020220993 -0.05410401 0.09586196 0.049522106
-0.08713919 0.008229401 -0.044468656 -0.06668184 -0.07082651 -0.08554778 0.052761234 -0.020754127
0.016418453 0.081314445 0.061234005 0.006821865 -0.022265047 -0.058800563 -0.059365615 0.059006948
-0.0047794976 0.040425453 0.077931814 0.08833891 -0.010601059 -0.0006830209 0.0065783695 -0.038819876
-0.0038350034 0.0018616804 -0.073817596 -0.021326348 -0.08343189 -0.09017831 0.012820464 0.04307926
0.07053023 0.058121607 -0.052399132 -0.0714002 0.0031512768 0.020313794 -0.08841692 -0.0624019
-0.089262776 -0.09780487 0.07079472 0.02220663 -0.070450366 -0.05339226 -0.08979344 0.07036323
0.100862905 0.03055617 -0.017691225 0.049089726 0.008645183 0.03040101 -0.0878251 -0.037429977
-0.03753317 0.055328563 -0.052379236 -0.04187461 0.05647326 0.03571517 -0.08242651 0.043497942
-0.02228257 -0.016691685 -0.040184367 -0.0005586838 0.06582619 0.07562824 -0.012840816 0.08679811
-0.08155927 -0.0043365443 0.0693793 -0.0022133726 0.10022239 0.09991076 0.008829561 0.027410287
-0.0710575 -0.019071588 -0.036800615 0.070817694 0.060197692 -0.025539836 0.030333325 -0.007908753
-0.00616152 0.008297421 0.09631283 -0.040798996 0.010539261 -0.0010903552 -0.0063863085 0.09125042
-0.0400347 0.041613217 0.012253911 0.097033724 -0.056669302 -0.0038687207 0.10183735 -0.09359746
0.025245102 0.070417605 -0.05111578 0.064867795 -0.040113147 -0.04752718 0.09037863 -0.042368494
0.07990677 0.06774969 -0.049038198 -0.05531497 0.03229619 -0.08851202 0.052803237 -0.0579713
0.045376975 0.051892728 0.07021634 0.06066536 -0.03205007 -0.041475393 0.07740152 -0.08116972
0.008816531 -0.08319692 -0.014554041 0.0675125 0.06923244 0.035079982 -0.020487389 0.03825744
0.01283161 -0.08129312 0.01809327 -0.050577085 -0.019812077 0.011817004 -0.043223027 -0.05823245
-0.0025488525 -0.08896744 -0.09346642 0.03910039 -0.073025934 0.07664204 -0.07512715 0.0055416133
0.091615126 -0.03659277 -0.012738464 0.0908465 -0.05575051 0.0046076966 -0.033364773 -0.024024962
0.092314795 0.046894975 -0.06337457 0.031110207 -0.058540575 0.0939566 0.05698229 -0.021202063
-0.015005988 0.08655742 -0.021690415 0.012686316 -0.087997876 -0.017054318 -0.08568603 0.016197953
00000000: 51c2 153d 8656 ba3c cd63 94bd 847b 7e3c
00000010: 0a50 023d 303b cd3c 38e1 dcbc 548b 373d
00000020: 6af7 8d3d 5ee7 613b 857d 45bd 981f cc3d
00000030: 495c d53d dada 92bc fc31 423c d38b 4fbc
00000040: f704 903d ec42 5a3c 192e a0bd a2c8 5d3d
00000050: 3bf9 53bc 3e60 1b3c 3284 f5bb 425c a0bd
00000060: 58ae abbd 3eaa b03c 7625 c23d dfc6 b73d
00000070: d91a c43d a6a2 bdbd 3098 54bc a953 593d
00000080: a75f 92bc b9f2 cebb 5035 b4bd ae44 f7bc
00000090: 124f d43b b259 19bd f67a a13d c70e b83d
000000a0: b862 303d 0d7e ac3d 86d9 5dbd ee62 453d
000000b0: a9e2 efbc d49a 993d e562 18bd f1f8 4dbd
000000c0: 87aa 123d 3453 b63d a297 c0bd 3457 b4bc
000000d0: 183c bfbd 70bf c13d 6579 b1bb 1037 22bb
000000e0: 039f a1bc 7b8f c33c cd50 4a3a 64dc 1cbd
000000f0: 38d4 0a3d 4bb7 c4bd 0489 ac3d a34c 033d
00000100: 92e9 9f3d 91c0 b9bd 072e 813d 5668 5b3d
00000110: fb55 8cbd 2a03 563c 80c7 6e3d 8495 21bd
00000120: 26d6 d9bc b3eb 0b3d 2aea ab3d cf6e cb3c
00000130: 7fa6 a53c 2b9c 5dbd 4653 c43d b1d7 4a3d
00000140: 0876 b2bd 9cd4 063c c424 36bd 7d90 88bd
00000150: 7d0d 91bd ad33 afbd 2a1c 583d 8f04 aabc
00000160: fe7f 863c 3088 a63d 82d0 7a3d f489 df3b
00000170: 3065 b6bc dcd8 70bd 5c29 73bd 45b1 713d
00000180: 559d 9cbb 2995 253d b79a 9f3d 08eb b43d
00000190: 10b0 2dbc c20c 33ba 5d8f d73b 9701 1fbd
000001a0: ae54 7bbb a103 f43a ae2d 97bd 98b4 aebc
000001b0: 57de aabd 68af b8bd ec0c 523c e173 303d
000001c0: 2772 903d ec10 6e3d 79a0 56bd 453a 92bd
000001d0: a785 4e3b 1d69 a63c ee13 b5bd 2299 7fbd
000001e0: 67cf b6bd eb4d c8bd d2fc 903d aeea b53c
000001f0: 4848 90bd d8b1 5abd a0e5 b7bd 991a 903d
00000200: 3691 ce3d ef50 fa3c 30ed 90bc 4f12 493d
00000210: 87a4 0d3c 8a0b f93c a5dd b3bd 2d50 19bd
00000220: 62bc 19bd 34a0 623d 9c8b 56bd b684 2bbd
00000230: 8150 673d 124a 123d 3bcf a8bd e62a 323d
00000240: f089 b6bc 00bd 88bc 5d98 24bd a374 12ba
00000250: e2cf 863d fbe2 9a3d 4962 52bc 35c3 b13d
00000260: 8c08 a7bd 9219 8ebb bc16 8e3d 3b0e 11bb
00000270: 6541 cd3d 039e cc3d dda9 103c 8a8b e03c
00000280: 9886 91bd 053c 9cbc 3ebc 16bd de08 913d
00000290: db91 763d eb38 d1bc 987d f83c b793 01bc
000002a0: 93e6 c9bb e8f1 073c a93f c53d d91c 27bd
000002b0: ddac 2c3c 40ea 8eba 3d44 d1bb 80e1 ba3d
000002c0: 6dfb 23bd 9f72 2a3d a1c4 483c 9eb9 c63d
000002d0: 121e 68bd 5d8a 7dbb 1a90 d03d 06b0 bfbd
000002e0: d1ce ce3c 1b37 903d c85e 51bd 68d9 843d
000002f0: af4d 24bd dcab 42bd 6e18 b93d 968a 2dbd
00000300: 29a6 a33d 59c0 8a3d 47dc 48bd f391 62bd
00000310: 0249 043d ca45 b5bd 3548 583d 5073 6dbd
00000320: 35dd 393d 788d 543d 96cd 8f3d 3e7c 783d
00000330: ef46 03bd 1ae2 29bd b084 9e3d 4f3c a6bd
00000340: 3673 103c 2663 aabd 1374 6ebc fe43 8a3d
00000350: bdc9 8d3d 07b0 0f3d 2bd5 a7bc d5b3 1c3d
00000360: ac3b 523c 027d a6bd 5638 943c eb29 4fbd
00000370: f04c a2bc 1b9c 413c a10a 31bd 2685 6ebd
00000380: a60a 27bb 9034 b6bd 536b bfbd bb27 203d
00000390: 9f8e 95bd 80f6 9c3d 43dc 99bd 6c96 b53b
000003a0: b6a0 bb3d 4de2 15bd feb4 50bc bb0d ba3d
000003b0: a65a 64bd 29fc 963b 80a9 08bd ffcf c4bc
000003c0: 8a0f bd3d f214 403d 87ca 81bd d5da fe3c
000003d0: 3ec8 6fbd 516c c03d 4366 693d f3af adbc
000003e0: addb 75bc 0445 b13d 19b0 b1bc 44da 4f3c
000003f0: 3b38 b4bd 7fb5 8bbc 287c afbd 92b1 843c

enc_f.lstm.weight_ih_l0 f4 [384, 4]
0.07590572 0.0027578387 0.007431016 0.07419688 -0.029430086 -0.022063477 0.007826847 0.0077175284
-0.013395196 -0.06612034 -0.08061725 0.06440373 -0.0069995397 0.076705106 -0.07753704 -0.031644993
0.039802555 -0.0012114057 -0.0987814 0.018129313 0.06840118 -0.06722271 -0.023481507 0.038415767
0.04794585 0.07360868 0.10188336 -0.10281702 0.06967201 -0.095962726 0.074748255 -0.04672166
0.05123317 -0.008225589 -0.035215423 0.08200237 -0.02725402 -0.048243277 0.011214073 0.052653033
-0.014306404 0.077756464 -0.09545036 -0.07744736 -0.028646037 -0.018198274 0.017714012 -0.06423358
0.08403719 0.036044583 -0.00800888 0.03900627 -0.07990734 0.053691152 0.054408148 -0.081932
0.03832605 -0.059387445 0.04120323 -0.024295514 0.0095412955 0.091694444 0.032297783 -0.023775088
-0.08985234 0.036982086 0.08751508 0.041063745 0.036139674 -0.091999464 0.023383925 0.0028917957
0.05861256 0.026147474 0.018231796 -0.005985549 -0.07777066 0.07505607 0.0069106235 -0.005619062
0.029743409 0.006139033 0.008187087 -0.02070936 0.015355347 0.100688085 -0.09601417 0.030253107
-0.078419685 0.0501987 -0.09753397 0.0694066 -0.101082385 0.098983735 0.09413377 0.06279469
-0.021951625 -0.03328173 -0.036688346 -0.084665895 0.08418159 0.09711872 -0.05216447 -0.08015783
-0.099381834 -0.06087055 0.007984711 -0.09112601 -0.055032022 0.06241431 -0.042529803 0.03701547
-0.0011025239 0.08416559 0.09814331 -0.020665266 -0.09418906 -0.03544231 -0.00031710946 0.04199288
0.029952776 -0.010747828 -0.035519145 -0.07954693 -0.00352292 -0.018325383 -0.03558024 -0.06033644
0.037966743 -0.071821325 -0.09673756 -0.022667058 -0.047843553 0.08045246 -0.07761895 -0.013096172
0.005704112 -0.08391365 0.052014925 0.06772953 -0.060809575 0.026430327 0.09050294 0.03173344
0.050308835 0.0912238 -0.042115677 0.09893162 -0.07383249 -0.068309575 -0.021677153 0.07687846
-0.03602203 0.011873056 -0.072460294 -0.06759757 -0.0221415 -0.051086158 0.015032955 -0.064074904
-0.08822138 0.03093776 -0.07541875 0.075358324 -0.017685812 -0.047349006 0.08566539 0.010075251
-0.041254412 0.054730922 0.0350737 0.077479094 -0.017653301 0.045650378 0.04065447 0.020116236
-0.01302379 0.086947575 0.04670352 0.06347647 -0.06776554 0.010812628 -0.08434529 0.024336088
0.07114314 0.087559395 -0.03932615 0.027823865 0.08013457 0.04783622 0.004059962 -0.07155759
-0.09241065 -0.059791137 -0.08607808 -0.0071992697 -0.0984074 0.08869435 0.090058915 0.080604784
0.021732278 -0.073365755 0.08225437 0.045985386 -0.077342704 -0.095396 0.09563393 0.064311735
0.029318206 0.0017631808 -0.029903071 -0.014308356 0.0792764 0.08007305 0.02076982 0.052243292
0.073233426 0.035736337 -0.019115971 0.029450163 0.07222383 0.015390706 -0.04619524 -0.014499947
0.00043276214 -0.04554171 0.020045295 -0.08420641 0.06639985 0.027305456 -0.091037504 0.07028734
0.0028255845 -0.037139904 -0.05868219 0.038154215 0.056588177 -0.0059352266 -0.0647394 0.08421054
-0.057471562 0.060293213 -0.0072063114 -0.056252792 -0.04257473 -0.08480215 0.070028156 0.023697957
-0.06627939 0.007870928 -0.026288958 -0.047162335 0.05089196 -0.06505923 -0.051816564 0.053711105
00000000: 7574 9b3d dbbc 343b e17f f33b 89f4 973d
00000010: 5d17 f1bc 77be b4bc 2d3c 003c 52e3 fc3b
00000020: 8677 5bbc 1a6a 87bd a81a a5bd 1ae6 833d
00000030: 655c e5bb 9117 9d3d bdcb 9ebd 2e9e 01bd
00000040: 0108 233d 08c8 9eba e74d cabd ed83 943c
00000050: eb15 8c3d 0fac 89bd 4a5c c0bc da59 1d3d
00000060: de62 443d 26c0 963d 39a8 d03d bb91 d2bd
00000070: 33b0 8e3d 1b88 c4bd 9d15 993d 365f 3fbd
00000080: dfd9 513d 9fc4 06bc 0c3e 10bd dcf0 a73d
00000090: d343 dfbc be9a 45bd 3bbb 373c b5aa 573d
000000a0: 6865 6abc c83e 9f3d 7a7b c3bd b99c 9ebd
000000b0: 18ab eabc 8c14 95bc fa1c 913c e58c 83bd
000000c0: b11b ac3d 7ca3 133d ad37 03bc 0ac5 1f3d
000000d0: 76a6 a3bd 41eb 5b3d 14db 5e3d f7cb a7bd
000000e0: c7fb 1c3d 4040 73bd b8c4 283d 6307 c7bc
000000f0: 1853 1c3c 4cca bb3d ae4a 043d f9c3 c2bc
00000100: 8104 b8bd 877a 173d 1b3b b33d 7532 283d
00000110: 3207 143d 376a bcbd a58f bf3c 4884 3d3b
00000120: b913 703d 3a33 d63c d95a 953c 6d22 c4bb
00000130: 3946 9fbd ffb6 993d 8372 e23b 1c20 b8bb
00000140: 73a8 f33c f129 c93b 2223 063c ada6 a9bc
00000150: fe94 7b3c 8e35 ce3d 14a3 c4bd 5dd5 f73c
00000160: 809a a0bd 279d 4d3d e4bf c7bd 0c25 8e3d
00000170: 4804 cfbd fcb7 ca3d 35c9 c03d 819a 803d
00000180: e5d3 b3bc 6c52 08bd 8546 16bd 5065 adbd
00000190: 6667 ac3d 2ee6 c63d 69aa 55bd ca29 a4bd
000001a0: b488 cbbd 6653 79bd 4ed2 023c 46a0 babd
000001b0: 4269 61bd 26a6 7f3d bb33 2ebd 899d 173d
000001c0: 9082 90ba 025f ac3d 5cff c83d 344a a9bc
000001d0: 32e6 c0bd f52b 11bd b641 a6b9 ba00 2c3d
000001e0: 865f f53c a817 30bc 867c 11bd 80e9 a2bd
000001f0: cae0 66bb 1d1f 96bc 96bc 11bd 5823 77bd
00000200: 0483 1b3d 0f17 93bd 581e c6bd 44b0 b9bc
00000210: 9af7 43bd 42c4 a43d aff6 9ebd 5491 56bc
00000220: 8fe9 ba3b ebda abbd 9a0d 553d c8b5 8a3d
00000230: 7613 79bd 6a84 d83c 9b59 b93d ecfa 013d
00000240: a310 4e3d 8bd3 ba3d 7d81 2cbd a99c ca3d
00000250: 7d35 97bd e4e5 8bbd 4994 b1bc 7472 9d3d
00000260: d68b 13bd 3587 423c 1066 94bd 9870 8abd
00000270: 1762 b5bc b83f 51bd c94c 763c b439 83bd
00000280: 69ad b4bd 2f71 fd3c 2575 9abd 7755 9a3d
00000290: d6e1 90bc 08f1 41bd 5671 af3d aa12 253c
000002a0: 63fa 28bd 882d 603d 71a9 0f3d 5cad 9e3d
000002b0: a89d 90bc e4fb 3a3d 4d85 263d ceca a43c
000002c0: bc61 55bc 9211 b23d 314c 3f3d f4ff 813d
000002d0: a9c8 8abd 7327 313c 39bd acbd 7a5c c73c
000002e0: 7fb3 913d 5752 b33d 7514 21bd e0ee e33c
000002f0: 981d a43d eaef 433d 6e09 853b c98c 92bd
00000300: cb41 bdbd 8de7 74bd b449 b0bd dae7 ebbb
00000310: d289 c9bd 62a5 b53d cf70 b83d 1f14 a53d
00000320: e407 b23c c940 96bd fb74 a83d 2c5b 3c3d
00000330: da65 9ebd fa5e c3bd b9db c33d dfb5 833d
00000340: bc2c f03c 881a e73a 49f7 f4bc 986d 6abc
00000350: aa5b a23d 57fd a33d 7825 aa3c 10fd 553d
00000360: 68fb 953d 4460 123d 1999 9cbc 7841 f13c
00000370: 16ea 933d 4d29 7c3c 3837 3dbd 3091 6dbc
00000380: 5ae4 e239 f289 3abd 0836 a43c 6974 acbd
00000390: a5fc 873d b1af df3c df71 babd cff2 8f3d
000003a0: 712d 393b 0320 18bd bc5c 70bd 9847 1c3d
000003b0: 01c9 673d 4a7c c2bb 1796 84bd 9376 ac3d
000003c0: 4d67 6bbd 04f6 763d ec22 ecbb 5469 66bd
000003d0: d762 2ebd c0ac adbd ec6a 8f3d 3822 c23c
000003e0: 7dbd 87bd 11f5 003c f15b d7bc 4b2d 41bd
000003f0: 1674 503d c63d 85bd 9b3d 54bd 2d00 5c3d

enc_f.lstm.weight_hh_l0 f4 [384, 96]
-0.048812587 0.0016681523 0.0845605 -0.053835023 0.06716477 -0.054042947 -0.030552706 -0.08100313
0.037652694 -0.0246226 -0.09383942 -0.023241533 -0.09125714 -0.059948727 -0.062314946 -0.08222089
0.0132918935 0.0010205527 0.08036318 0.0578701 -0.012299435 0.057506446 -0.009373901 0.085603304
0.0529257 -0.0637148 0.06929343 -0.09574036 0.09820114 -0.03090841 0.095261425 -0.052838925
0.025436053 0.07426677 -0.08579038 -0.041621957 0.035598405 0.09327071 -0.06778257 -0.0056485697
0.05435871 0.02227874 0.0584633 -0.056637805 0.08503476 0.015293105 0.034968838 -0.085271195
-0.016360855 0.0019814607 0.08508228 0.06058256 0.026222078 -0.06914853 -0.0963906 -0.0032771768
0.041478842 0.048348468 -0.0535197 0.046791274 -0.09522619 -0.011652726 0.012249421 0.03648655
0.008779875 -0.009060744 -0.090854436 0.08823744 0.05374838 0.019573184 0.07790366 0.04641667
0.014749623 -0.009788684 0.10358132 -0.0052064224 -0.09117466 0.030529728 0.046769034 -0.05138047
-0.075046256 -0.079639964 0.04961004 0.09920481 -0.026275905 0.021593515 0.0017851746 -0.04509487
-0.023953255 -0.0065436536 0.040063433 0.035958327 0.07834076 -0.08318574 -0.050210245 -0.049174543
-0.09842724 0.044220917 0.076736934 0.0141479075 0.017145405 0.066793345 -0.0046365797 0.008763422
0.06909005 -0.0131244 0.0008125182 -0.098789394 0.030740635 0.09873699 -0.06786868 -0.043235708
0.022857092 -0.098659374 -0.07234571 0.09871323 -0.021515999 0.095892765 -0.09058599 0.009779328
0.007432833 0.029607905 -0.07069994 -0.09112114 -0.04769951 -0.022738624 -0.0140142245 -0.053301096
0.031320702 0.02162473 -0.081924334 -0.060175195 0.055998676 0.071678884 0.030564096 -0.09325263
0.02841905 0.07863507 0.008814505 0.03075858 -0.020244632 0.007474934 -0.09953142 -0.09717089
-0.084495455 0.05712952 0.019650256 0.083040364 -0.00018067444 0.021576993 0.030905107 -0.026491115
0.081658125 -0.009397164 -0.027389722 0.08470931 -0.018913036 -0.07523305 -0.04843893 0.007498421
-0.10253321 -0.07104889 -0.043258104 0.016618485 -0.09794659 0.09292381 0.05582624 0.009191471
0.005318799 -0.012474664 -0.093320735 0.022004249 0.0320486 0.050466273 0.06482917 0.00022371819
0.07690752 -0.036249537 -0.036675066 -0.07080542 -0.034617186 0.0812673 -0.031777207 0.07222594
-0.08540717 -0.025896821 -0.09223049 -0.037398808 0.07715275 0.0064002974 0.06503748 0.08885795
-0.03369822 -0.0685735 -0.079166055 -0.049677525 0.065364815 -0.08938986 -0.038967762 0.07061943
-0.056256086 -0.09818718 0.09318362 -0.07881468 0.07877612 -0.0118051795 0.078810304 -0.08547631
-0.059351906 0.041578542 -0.048973862 0.09816836 0.0129152695 0.07793457 -0.07867556 0.020888016
0.009418255 -0.023551065 -0.09251982 -0.03473141 0.066192076 0.04310413 0.035084132 0.00317628
0.060012754 -0.09866825 -0.08395032 0.050403226 0.021906378 -0.06803 0.030190052 -0.05823754
0.032554373 0.067951225 -0.027839225 0.029002013 0.033858273 -0.009739834 -0.10165765 -0.09646208
-0.047434565 -0.023145564 -0.013045517 0.07403599 0.007829393 0.038694534 0.007166669 0.013622668
-0.048494842 -0.1001626 -0.09424298 0.04029419 -0.0960473 0.06276769 0.0040431977 -0.011889563
00000000: b5ef 47bd e7a5 da3a 0e2e ad3d 1d82 5cbd
00000010: af8d 893d 235c 5dbd ab49 fabc f8e4 a5bd
00000020: b639 1a3d 56b5 c9bc e22e c0bd 0765 bebc
00000030: 06e5 babd cc8c 75bd f53d 7fbd 6d63 a8bd
00000040: 3ec6 593c 11c4 853a 7395 a43d 3309 6d3d
00000050: 9283 49bc e18b 6b3d fe94 19bc c950 af3d
00000060: 9ec8 583d e87c 82bd b7e9 8d3d 8613 c4bd
00000070: ae1d c93d a233 fdbc 6c18 c33d a16d 58bd
00000080: 455f d03c 2d19 983d deb2 afbd c97b 2abd
00000090: a2cf 113d b704 bf3d 97d1 8abd a317 b9bb
000000a0: 3da7 5e3d e781 b63c 3777 6f3d 0bfd 67bd
000000b0: b426 ae3d ee8f 7a3c 7c3b 0f3d aaa2 aebd
000000c0: 3307 86bc 65db 013b 9e3f ae3d 6b25 783d
000000d0: afcf d63c bf9d 8dbd 6f68 c5bd e7c5 56bb
000000e0: b8e5 293d 0b09 463d 7937 5bbd 35a8 3f3d
000000f0: f305 c3bd 13eb 3ebc ccb1 483c ec72 153d
00000100: 77d9 0f3c 8473 14bc e411 babd d5b5 b43d
00000110: 4327 5c3d f157 a03c f48b 9f3d 681f 3e3d
00000120: 67a8 713c b760 20bc 7122 d43d a39a aabb
00000130: c8b9 babd 7b19 fa3c e390 3f3d 5474 52bd
00000140: dab1 99bd 471a a3bd e633 4b3d e42b cb3d
00000150: 9140 d7bc e2e4 b03c 85fc e93a 66b5 38bd
00000160: 9e39 c4bc 256c d6bb 8e19 243d 0a49 133d
00000170: 1f71 a03d 495d aabd 42a9 4dbd 3f6b 49bd
00000180: 3994 c9bd fe20 353d 4128 9d3d a0cc 673c
00000190: 8574 8c3c f3ca 883d 73ee 97bb 7594 0f3c
000001a0: 167f 8d3d b907 57bc 2cff 543a 1852 cabd
000001b0: c9d3 fb3c 9e36 ca3d bcfe 8abd ed17 31bd
000001c0: cc3e bb3c ed0d cabd fd29 94bd 292a ca3d
000001d0: 5242 b0bc 6d63 c43d 2685 b9bd 7939 203c
000001e0: 1f8f f33b 478c f23c 21cb 90bd b89d babd
000001f0: 9060 43bd 5a46 babc eb9b 65bc 4052 5abd
00000200: 234a 003d 5926 b13c f2c7 a7bd 447a 76bd
00000210: de5e 653d 61cc 923d 8e61 fa3c 3cfb bebd
00000220: 11cf e83c 6c0b a13d b76a 103c 6bf9 fb3c
00000230: 12d8 a5bc 4bf0 f43b 21d7 cbbd 8801 c7bd
00000240: f40b adbd a500 6a3d 93f9 a03c 1111 aa3d
00000250: 6d73 3db9 3cc2 b03c b52c fd3c e503 d9bc
00000260: 603c a73d 90f6 19bc 6960 e0bc 137c ad3d
00000270: 83ef 9abc c913 9abd e667 46bd 50b5 f53b
00000280: eefc d1bd 1582 91bd 692f 31bd 7d23 883c
00000290: 3998 c8bd d74e be3d 0eaa 643d d397 163c
000002a0: 5249 ae3b 8862 4cbc f11e bfbd 4142 b43c
000002b0: 6545 033d b9b5 4e3d 28c5 843d e595 6a39
000002c0: b181 9d3d 657a 14bd 9838 16bd 6f02 91bd
000002d0: c0ca 0dbd 786f a63d d128 02bd 32eb 933d
000002e0: f4e9 aebd 9225 d4bc 57e3 bcbd 7e2f 19bd
000002f0: 4302 9e3d 96b9 d13b 5f32 853d 28fb b53d
00000300: 2507 0abd 4370 8cbd d021 a2bd a97a 4bbd
00000310: fddd 853d 0812 b7bd a99c 1fbd eba0 903d
00000320: c86c 66bd 5c16 c9bd 0ed7 be3d 9769 a1bd
00000330: 6055 a13d 836a 41bc 4c67 a13d 340e afbd
00000340: fc1a 73bd 434e 2a3d d198 48bd 7e0c c93d
00000350: 919a 533c 299c 9f3d a720 a1bd 581d ab3c
00000360: 064f 1a3c 2aee c0bc 087b bdbd 8642 0ebd
00000370: b68f 873d f58d 303d 61b4 0f3d 2329 503b
00000380: efcf 753d 9412 cabd 25ee abbd 9d73 4e3d
00000390: 0175 b33c 5053 8bbd 2151 f73c 7d8a 6ebd
000003a0: bc57 053d 032a 8b3d 160f e4bc a195 ed3c
000003b0: f9ae 0a3d d393 1fbc e331 d0bd e98d c5bd
000003c0: bf4a 42bd c49b bdbc ddbc 55bc 2ea0 973d
000003d0: db46 003c 297e 1e3d 60d6 ea3b 9c31 5f3c
000003e0: 87a2 46bd 0d22 cdbd 7702 c1bd 850b 253d
000003f0: 72b4 c4bd 598c 803d cd7c 843b 71cc 42bc

enc_f.lstm.bias_ih_l0 f4 [384]
-0.042237245 -0.0060760276 0.061114542 0.07731286 -0.08089652 0.0372563 0.006347087 0.09183587
0.02990444 0.0075238934 -0.060871616 -0.053866092 0.10289261 -0.08266038 -0.0028569053 -0.07559775
-0.02503456 0.07732438 0.035263933 0.035994615 0.057154838 -0.019788673 -0.04801022 -0.083637305
0.057543408 -0.046209615 -0.012335669 -0.06157604 -0.06257 0.08999965 0.019038951 -0.095967546
-0.058841594 0.040037435 0.07879376 0.07407203 0.018903771 0.031963494 0.0902781 -0.08837287
0.05104326 -0.048194632 0.07954336 -0.0714881 0.09350463 0.031488128 -0.08352943 -0.061156217
-0.09722855 -0.023550574 -0.03699562 -0.09797132 -0.06401282 0.09706351 0.08215141 0.02477659
0.0027387794 0.04432958 -0.098305374 0.09163927 0.063907154 0.024452575 0.00033455435 -0.059887495
-0.01855037 -0.015394913 0.07957158 -0.08544157 -0.08008763 -0.09234617 0.00034626096 0.096211344
-0.017595392 -0.07261933 -0.055862688 -0.08325846 -0.069085576 -0.047335003 -0.023448134 0.016895123
0.03337358 -0.06660978 0.05312558 0.05374189 -0.04963629 -0.05133542 0.08053407 0.087387025
0.09460522 -0.0038499546 0.049128752 0.018147072 0.10024268 0.0673476 0.0034396895 0.03080892
-0.012111928 -0.024231965 -0.0739427 -0.08896412 0.00026756647 -0.057548422 -0.09450475 0.0046960046
0.08189042 0.026542576 -0.006054887 0.058316834 0.09056391 0.103256896 0.06003604 0.01192051
0.04961357 -0.096839 0.009522479 -0.06873408 -0.08245659 -0.06497453 -0.060091827 -0.06963535
-0.08545736 0.093328185 0.07624503 0.0877885 -0.071043886 -0.063170254 0.0035271281 -0.09704454
0.053339288 -0.01192492 -0.038041886 -0.0115937535 -0.06970357 0.09024866 -0.032085784 0.048853196
0.070431806 -0.015884362 0.07331715 -0.08274035 -0.042916164 -0.065074064 -0.0060188477 -0.072109714
0.05860919 0.034726202 0.08230612 -0.062159438 -0.020006334 -0.00253226 0.012035041 0.029301438
-0.08200529 0.004685821 -0.08798207 0.007068959 -0.100551605 0.061738122 -0.010039849 0.047104187
0.039094895 -0.057936963 -0.011017775 0.069400996 0.06399736 -0.059077952 -0.004994459 -0.08017165
0.05632473 0.024634438 0.0387342 0.048582446 -0.03878985 0.096400104 0.05121003 -0.0060769822
0.07100219 0.045561768 -0.0043504843 0.012075184 0.06478105 0.011827516 -0.017921118 -0.0786148
-0.09540172 0.035084117 0.03470107 -0.065648556 -0.059654996 -0.0637194 -0.06083051 0.09553532
0.03728729 0.089525156 0.032698665 0.0010202709 -0.06700463 0.09587968 -0.025670815 0.045580905
0.018537166 -0.058965385 -0.05235885 0.10087093 0.024984697 -0.09096186 0.059487015 -0.07127528
0.068963006 -0.009762071 -0.0036824 -0.05582322 -0.08981517 0.053290363 0.04396 0.033835296
0.054088365 -0.09198878 0.059169017 -0.01782969 -0.08806302 0.08460787 -0.0055987113 -0.089187816
-0.03366671 0.08600995 -0.058451552 -0.03878107 -0.010269779 0.025124492 0.042630207 -0.013384965
-0.09256596 -0.08739096 0.031152748 0.08363454 -0.016370595 0.037228446 0.017720662 0.024535771
-0.080993935 0.04331672 0.086458884 -0.03179342 0.07042719 0.05730702 -0.03720471 0.021442648
-0.03841041 -0.06140314 0.015043938 -0.025525205 -0.067447186 0.014568226 -0.040990606 0.050732553
00000000: f600 2dbd 6a19 c7bb 3e53 7a3d 3456 9e3d
00000010: 13ad a5bd 109a 183d 3afb cf3b 7214 bc3d
00000020: 28fa f43c fe8a f63b 8454 79bd b1a2 5cbd
00000030: 5cb9 d23d d849 a9bd eb3a 3bbb fed2 9abd
00000040: 4715 cdbc 3f5c 9e3d ea70 103d 176f 133d
00000050: 311b 6a3d db1b a2bc 5da6 44bd 094a abbd
00000060: a3b2 6b3d 4b46 3dbd 8c1b 4abc 2837 7cbd
00000070: b324 80bd bd51 b83d 93f7 9b3c a28a c4bd
00000080: e203 71bd 4bfe 233d 9f5e a13d 14b3 973d
00000090: 15dc 9a3c 27ec 023d b9e3 b83d d6fc b4bd
000000a0: bd12 513d bc67 45bd a1e7 a23d 5a68 92bd
000000b0: 5b7f bf3d b2f9 003d 7a11 abbd f17e 7abd
000000c0: c31f c7bd 22ed c0bc b888 17bd 30a5 c8bd
000000d0: 2719 83bd 3cc9 c63d 003f a83d 46f8 ca3c
000000e0: 187d 333b ef92 353d 5454 c9bd 5fad bb3d
000000f0: c1e1 823d c450 c83c 2067 af39 974c 75bd
00000100: f2f6 97bc f23a 7cbc 6df6 a23d fdfb aebd
00000110: fc04 a4bd fd1f bdbd 5c8a b539 740a c53d
00000120: 3624 90bc 71b9 94bd 46d0 64bd 6983 aabd
00000130: bd7c 8dbd 59e2 41bd 4d16 c0bc a467 8a3c
00000140: bcb2 083d b56a 88bd 359a 593d 7520 5c3d
00000150: 6c4f 4bbd 1745 52bd 0cef a43d f8f7 b23d
00000160: 62c0 c13d 854f 7cbb 3b3b 493d 2ba9 943c
00000170: 094c cd3d 8aed 893d 6a6c 613b fd62 fc3c
00000180: 1c71 46bc 1d82 c6bc 456f 97bd d232 b6bd
00000190: 2a48 8c39 e5b7 6bbd b58b c1bd f1e0 993b
000001a0: 2ab6 a73d d16f d93c 1368 c6bb a2dd 6e3d
000001b0: 9279 b93d 5a78 d33d 5ae8 753d 3e4e 433c
000001c0: 9937 4b3d 8753 c6bd 2c04 1c3c 74c4 8cbd
000001d0: 00df a8bd 5e11 85bd d922 76bd fa9c 8ebd
000001e0: 4504 afbd d922 bf3d 5b26 9c3d 75ca b33d
000001f0: 757f 91bd 685f 81bd 6427 673b 4abf c6bd
00000200: 4c7a 5a3d bd60 43bc cfd1 1bbd baf3 3dbc
00000210: bfc0 8ebd 4ad4 b83d 626c 03bd 4a1a 483d
00000220: 8d3e 903d ec1f 82bc 4d27 963d c673 a9bd
00000230: dcc8 2fbd 8d45 85bd c139 c5bb 42ae 93bd
00000240: 3110 703d 103d 0e3d 1c90 a83d e59a 7ebd
00000250: 53e4 a3bc 46f4 25bb 9f2e 453c 9209 f03c
00000260: 64f2 a7bd 848b 993b f22f b4bd baa2 e73b
00000270: 00ee cdbd 1de1 7c3d 2e7e 24bc 52f0 403d
00000280: f821 203d 4f4f 6dbd e683 34bc 1c22 8e3d
00000290: 0c11 833d b9fb 71bd 8fa8 a3bb 0931 a4bd
000002a0: c3b4 663d 29ce c93c c1a7 1e3d 63fe 463d
000002b0: 1be2 1ebd 6b6d c53d 9cc1 513d 6c21 c7bb
000002c0: 9969 913d fa9e 3a3d 828e 8ebb fed6 453c
000002d0: edab 843d 33c8 413c 4fcf 92bc cc00 a1bd
000002e0: fa61 c3bd 5db4 0f3d b622 0e3d c072 86bd
000002f0: cc58 74bd 517f 82bd 6a29 79bd 06a8 c33d
00000300: 8fba 183d f758 b73d 09ef 053d 9cba 853a
00000310: b939 89bd 915c c43d 9a4b d2bc 0bb3 3a3d
00000320: 41db 973c b085 71bd 3c76 56bd 6b95 ce3d
00000330: b5ac cc3c 364a babd a8a8 733d c6f8 91bd
00000340: 7a3c 8d3d 18f1 1fbc 6c54 71bb e4a6 64bd
00000350: 04f1 b7bd ff46 5a3d 670f 343d e196 0a3d
00000360: c38b 5d3d 9d64 bcbd 365b 723d 920f 92bc
00000370: 625a b4bd e446 ad3d 6575 b7bb 1aa8 b6bd
00000380: 1be6 09bd fc25 b03d e56a 6fbd e6d8 1ebd
00000390: 9342 28bc e1d1 cd3c 039d 2e3d 9d4c 5bbc
000003a0: 3993 bdbd 08fa b2bd 0c34 ff3c 9648 ab3d
000003b0: a01b 86bc db7c 183d ec2a 913c 3eff c83c
000003c0: 26e0 a5bd df6c 313d 5b11 b13d d139 02bd
000003d0: 213c 903d c4ba 6a3d f763 18bd 7ea8 af3c
000003e0: 3c54 1dbd dc81 7bbd d97a 763c 3c1a d1bc
000003f0: c021 8abd 92af 6e3c c4e5 27bd f0cc 4f3d
