_train/_models/20250919/LG디스플레이(034220)_20250919.pt (torch, 831847 bytes, 20 tensors)

enc_p.lstm.weight_ih_l0 f4 [384, 6]
00000000: 4957 08bc 8b51 b0bd 77a3 6a3d 3592 19bd
00000010: e9ea fd3b f201 16bd c771 1fbc 3a0f b13a
00000020: dc6d 5b3c f9d9 623d 59c6 2e3d 70bf 653c
00000030: da6d e23c ba5e c3bd 51a7 2f3c 9d5d 8b39
00000040: 9c5a a3bd 52fe b53a 1ce0 71bd eb5b 163c
00000050: 6756 7c3d 57d2 943c 7654 293d 1cd8 8a3d
00000060: e1e8 a73d 2a8f 8c3c c5b3 02bd 520b 26bc
00000070: 6b6b 193d ca65 ce3c 6df5 873c bc53 fabc
00000080: b421 913c 1921 debc 50e6 14bd 99ce d6bd
00000090: e5ca f6bc 53f0 af3d a5f3 59ba d7d4 7c3d
000000a0: 7d1a 9d3d dee1 90bd b66f eb3c b831 b83b
000000b0: 98f6 af3d c0e5 583c da6d 463d 771f c1bd
000000c0: df3d 6d3c c472 c93c 3f59 853d a049 90bd
000000d0: 94ec b23d 1943 df3b f791 083d 29bd 133d
000000e0: 3966 47bc 1238 73bb df77 c43c e5cd 0b3c
000000f0: 4019 aa3d 1eae 9d3d 7238 aebd 7d7f e0bc
00000100: eac9 ab3d 6ce1 37bd 851c 883d 6c42 263d
00000110: 606e 9e3d 6cee 01bd 3357 b33d f4d0 433d
00000120: 7135 88bd 2b48 a33d e83c 7a3d a704 92bd
00000130: 64b8 613d 8304 0b3d 1224 d93b 0691 913c
00000140: 2663 c0bc 16e4 5bbc 1b32 38bc 14bd d43c
00000150: 66c1 c8bd 65c2 babd e443 83bd 0013 6abd
00000160: ebc3 bcbc 9130 973d 583b 29bd d735 8abd
00000170: 4f30 233d 30f6 743d ed55 443a d2e1 9d3d
00000180: 986c c3bd d8b4 c13c e936 58bd be9b e5bb
00000190: 0b03 c5bd c948 a5bd 7460 8fbd 60b5 2b3c
000001a0: eb3b 14bd b987 883c 88a5 c5bd 5c97 f43c
000001b0: 6b4a 5ebd 3dd1 163d a257 a6bd befc cc3d
000001c0: c19c 7dbd 7d91 91bd b0e8 9e3d 9e35 cbbd
000001d0: 716d 9e3d 9f78 e73b ecb7 ca3d 416e b83c
000001e0: a03d ad3d a41e 0f3d 1455 a4bd 0510 c5bd
000001f0: 5e86 2c3d aa01 e33c 7154 063d 45b7 61bd
00000200: f361 8dbd abb5 453d ac96 8c3c 2393 c8bd
00000210: e7e4 853d 1d55 a3bd d6a0 b4bd bd64 b33d
00000220: 60d8 a23d c685 70bd 7de1 9a3d fc50 26bb
00000230: a3f2 11bd bcd4 76bd 899e 913d 3b3e 2dbc
00000240: b113 293d 1749 043c 3f76 7f3d a207 a9bd
00000250: 2e6c 03bd fa0a c23d 9784 94bd 8b98 7dba
00000260: 67a0 a23d d8fe 89bc 1fe4 533d 73cb 783a
00000270: 5394 86bd 3e16 75bd 17f4 b1bd 7faf f43c
00000280: cc16 933d 0de5 c13c 9adf 023d a0d2 c7bd
00000290: d2cc 153d e3e9 afbc 18d2 983a 5e24 b2bd
000002a0: 1619 b63d 1c53 143d fac5 2dbd 6212 c4bc
000002b0: af36 933d 7fd7 dfb6 fa66 303b 3935 1cbc
000002c0: 5947 a7bd cc40 7abd 7f1e a13d db8c 013d
000002d0: 535c 8bbd b052 79bc a318 903d 5ff1 b3bd
000002e0: d7ac 033d 1e56 c73d 9a5f ce3d c34b 85bd
000002f0: 4b29 9c3d e419 ce3d 8924 c33b 7797 d53c
00000300: ca63 8dbb 6aa3 9ebd 373a 123b 5292 9ebc
00000310: 3514 9ebd 7db8 5bbc 7276 78bd 997c 9abd
00000320: 5c06 8dbc 9deb d33c 3362 b33d bfa1 83bd
00000330: 3996 d03c 6516 2abd 4189 543d 5044 b73d
00000340: f994 b73d 6922 78bd 68dd 3e3c 9aaf 933d
00000350: 7e30 0b3d d11d b5bd 764f bb3d fd22 c9bd
00000360: b7a6 c3bc b120 a43d 1aeb cdbd 2248 cebd
00000370: 5f9a 0d3d 3ab8 21bc c00f 953d b937 c03d
00000380: 6ac5 d23d ede0 a43d 34f5 1c3d b605 7c3c
00000390: 214a 1f3c 8c84 283d 0b74 81bd 77ad 5a3c
000003a0: 6343 d13d d30b 10bd 0b55 cb3c fa9d 5cbd
000003b0: ef0d 9fbd 14a1 50bd 13c6 643b c3d4 b4bc
000003c0: 2cfd 943d 5e46 cebd bd96 bd3d 4e80 aa3d
000003d0: 1d18 aebd 73a4 e33c 211c c33d b938 aabd
000003e0: e7ee 103d 540b b0bd 8ed5 5fbc 2d54 9e3d
000003f0: 2762 c4bd 88d1 acbd 70bd 00bd 9414 45bc
-0.008321592 -0.08609303 0.0572848 -0.03749295 0.0077489507 -0.03662295 -0.0097317165 0.0013508566
0.013392892 0.055383656 0.042669628 0.014022693 0.027640272 -0.09539552 0.010721044 0.00026581893
-0.07976267 0.0013884997 -0.059051618 0.009177188 0.061605837 0.018166704 0.041340314 0.06779501
0.08198715 0.01715811 -0.031909723 -0.010134535 0.037455957 0.025195021 0.01659652 -0.030557506
0.017716266 -0.027115392 -0.036352456 -0.10488624 -0.030126045 0.0859076 -0.0008314199 0.061726417
0.07671068 -0.07074331 0.028739791 0.0056211613 0.08591956 0.01323837 0.048444606 -0.094298296
0.014480083 0.024590857 0.06511163 -0.07045293 0.0873653 0.0068134186 0.033342328 0.03606907
-0.012170368 -0.0037112278 0.02398294 0.008532976 0.08305597 0.07699226 -0.0850686 -0.027404541
0.083881214 -0.044892713 0.06646065 0.04059069 0.07735896 -0.031721517 0.08756866 0.047806695
-0.06650818 0.07972749 0.06109324 -0.071297936 0.05510749 0.03393985 0.0066266144 0.017769348
-0.023484778 -0.013421079 -0.011242415 0.025969066 -0.09802513 -0.09119109 -0.064094335 -0.057147026
-0.02304264 0.0738231 -0.04131636 -0.067485504 0.039840993 0.059805095 0.00074896106 0.077090874
-0.09542197 0.023645803 -0.05278674 -0.0070070913 -0.09619721 -0.08070523 -0.07000819 0.010480255
-0.036189955 0.01666628 -0.09650713 0.02985733 -0.05427019 0.03682064 -0.081221834 0.10009144
-0.06191707 -0.07107828 0.07759225 -0.09922336 0.07735718 0.0070639397 0.098983616 0.02251351
0.0845902 0.03494133 -0.0802404 -0.09622196 0.04212033 0.027710754 0.032795373 -0.05510642
-0.06903448 0.048268955 0.01716169 -0.09793689 0.065378 -0.079752184 -0.088197395 0.08759449
0.079514265 -0.058721326 0.0756254 -0.002537786 -0.035631787 -0.060261473 0.07110316 -0.010573919
0.041278545 0.008074067 0.062368628 -0.08253409 -0.03208559 0.0947475 -0.07251852 -0.0009673915
0.079407506 -0.016845152 0.051731225 0.00094907655 -0.06571259 -0.059835665 -0.086891346 0.02986884
0.071820825 0.02366879 0.031951524 -0.097569704 0.036572285 -0.02147383 0.0011659293 -0.08698343
0.088915035 0.03621207 -0.042425133 -0.023934547 0.071881644 -6.671005e-06 0.0026916848 -0.009534174
-0.08167905 -0.06109695 0.07867145 0.03162847 -0.06804719 -0.015217468 0.07035949 -0.08786272
0.032147255 0.097332224 0.10076828 -0.06508591 0.076250635 0.10063532 0.005955283 0.0260732
-0.0043148743 -0.077460125 0.002231253 -0.01935688 -0.07718698 -0.013410685 -0.060659833 -0.07543296
-0.017214946 0.025869185 0.087589644 -0.06427335 0.025462257 -0.041525263 0.051888708 0.089485765
0.08963961 -0.06057969 0.011649467 0.07211228 0.033981793 -0.08843578 0.09146015 -0.098211266
-0.023883207 0.08014048 -0.10054608 -0.10072352 0.034571048 -0.009870583 0.07278395 0.09385628
0.1029156 0.08050714 0.03831978 0.015382221 0.009722264 0.04114203 -0.063209616 0.013347021
0.10217931 -0.035167526 0.024820825 -0.053861596 -0.077663295 -0.050934866 0.00349081 -0.022074109
0.07274851 -0.10072015 0.09257267 0.083252534 -0.08500693 0.027788376 0.095268495 -0.083116
0.035384085 -0.08595911 -0.013661755 0.07730899 -0.095890336 -0.084384024 -0.03143066 -0.012028832

enc_p.lstm.weight_hh_l0 f4 [384, 96]
00000000: 1afb b8bc 0d25 0a3c 5e92 f83c b004 77bd
00000010: 8944 88bd 0c7e 8bbd fe32 a9bd 020b ab3d
00000020: 5249 b5bc 0977 9f3d 7f99 de3c d59d 90bd
00000030: fcdd c53c 5b0d b5bd 70ab 3fbd 1a31 c43c
00000040: 402b c23d 46ac c33d d495 2b3d 463f 1ebd
00000050: 4843 0cbd 7943 433d f52f d13d eef5 b1bc
00000060: 62e1 abbd 7961 95bc ed10 a43d d6fd 9dbd
00000070: b721 463d ae03 a43c dd04 e3bc 6a8c 7a3c
00000080: 4b8f 5c3d 3518 983d 1f1f a3bd 6362 d03d
00000090: a574 bb3d 2791 a03b c365 a43d 81b3 a23d
000000a0: 20e1 65bd d7e4 323d ec1c f8bb efa7 c33d
000000b0: 87b4 81bd bea5 34bb 8787 023d 89fa c03d
000000c0: e39a 603d 73c1 393d 90b9 c63d 0d7e 14bd
000000d0: 728c cd3d ce32 b2bd 038e 3c3d f509 6f3d
000000e0: ddc5 833d 9631 82bd a930 813d 7058 c53d
000000f0: 780e bcbd 3ee2 c6bc 6439 82bd 2112 b23c
00000100: 1cae a63d 23f4 c53d 3ac1 bd3d 788c cdbc
00000110: 4bdc ccbc af73 b63d fe86 7b3d 5926 173d
00000120: 16b2 f43b 8286 a43b 1b51 4b3d debe b8bd
00000130: c882 223d e544 8f3d 1ea4 93bc 6f7c 1a3c
00000140: db4c d2ba ccf6 ccbd 6218 9fbc 4b28 8c3b
00000150: b03d bf3d 6c83 7c3d 303f 92bc 301c 943d
00000160: f153 0d3c 88ae 89bd 747a 993d 0e45 983d
00000170: 90c5 c9bd b1b8 66bd 5d28 39bb d88c da3c
00000180: f53e 56bd d4cf ac3d f42d c6bd 7955 23bd
00000190: c4de b53c c5d9 2d3d 5c60 b43d 0b5b 343d
000001a0: 1ad2 8abd 75ab 34bd 3756 063c d0a9 43bc
000001b0: 23e4 9e3d 4f09 d03d de0a a23d 813b b03a
000001c0: a616 653d 7b64 99bd 8bf0 bb3c a378 ee3c
000001d0: 3e5b 663d ed08 4bbd e239 8c3d 6748 02bd
000001e0: cd6d cf3d 6152 bfbc 14a5 883d e81d 26bc
000001f0: b6ac c23c 10a9 bcbd ed79 b53d 6fbc 48bd
00000200: afe0 683d 7aaa c6bd 4258 bc3d 7b1d 62bd
00000210: f9ce 51bd 0560 763c 6916 823c 93bf a8bc
00000220: 1446 89bd 9ccb 7d3d b7a9 cd3d ad9e 9c3b
00000230: 0780 bb3b 7d02 aabc bf86 28bd 102d 683d
00000240: 01e2 acbd a1e3 60bc eeae 38bd a9d0 71bd
00000250: 0b77 ab3d be33 263c 7de6 78bd 38d7 96bd
00000260: 07e2 313d 0c9c cc3b c80c 093d 5686 bf3d
00000270: 23f9 d13d cee0 aebb c69b b7bc 59b5 6bbd
00000280: 7b14 7dbd fc9e 2e3d ac9f 82bb c59f a93d
00000290: 7e8f 71bc 5c49 cb3c b997 32bd 898f c7bc
000002a0: 9739 8cbd 3385 aebc f9f5 a93d 33c7 a03d
000002b0: 3e2b 84bd a65c 113c 4c9c 463d 360e 073c
000002c0: f021 913d df73 08bd f8be cd3d 4849 9cbd
000002d0: 124d 753c 54e2 42bd 3d19 a13b 0199 2bbc
000002e0: 6bb4 843c 015f 26bb fb44 8e3d dcc5 c5bd
000002f0: fe96 67bc 130c 843c 5646 a8bd d537 c63d
00000300: 44a9 56bd 592b 0f3d 2782 643c 8a08 233d
00000310: b66c d3bc a2d3 1b3d 5eac 89bd 936b 43bd
00000320: bc3d 293d bbed b53b d844 6e3d be1b f73b
00000330: 89b9 8bbd e2a5 883d 4805 c53b edd7 053d
00000340: d47d a13c 12d6 8bbc c25b 04bd 6c85 c2bd
00000350: d5e2 8cbc 6eb2 943d 9f94 a5bc c6fd 703c
00000360: 0d57 95bc b65d 97bd b6a5 813d af76 21bd
00000370: df3f 233b c3df 52bd b199 823d b746 773d
00000380: 28a9 c8bd 277c c93d 372d b13b 3c53 93bc
00000390: ac02 223d 1757 6b3d 0614 ab3c dcdd ce3a
000003a0: 3f1f a5bd 7d75 62bd 1da7 9b3d 93b7 cdbd
000003b0: 2bbe a53c 3685 753d 3ef2 5c3c 9945 3bbd
000003c0: 329a 3fbd 30f7 c9bd fda0 c3bd 8ada 53bc
000003d0: 1084 303c 2f08 923d 6eaf 89bb dc62 b4bd
000003e0: 5915 bb3c dde4 b53d e029 f63c ef7f 35bc
000003f0: d60b 23bd c541 03bd 71d4 963d 3256 4cbc
-0.022580672 0.008431685 0.03034323 -0.060307205 -0.06653697 -0.06811151 -0.08261679 0.08351709
-0.022129688 0.07786376 0.027172802 -0.07061354 0.024153702 -0.08840438 -0.046794355 0.023949195
0.094809055 0.09554343 0.041890934 -0.03863456 -0.034243852 0.04767177 0.10214225 -0.021723714
-0.08392598 -0.018234955 0.08011041 -0.07714431 0.048371997 0.020021286 -0.02771228 0.015292266
0.053847592 0.07426492 -0.0796492 0.10175016 0.091531076 0.004900116 0.08027222 0.07944394
-0.0561229 0.04367527 -0.007571807 0.09553515 -0.06333261 -0.002756461 0.03186753 0.09422786
0.05483521 0.045350503 0.09703362 -0.036253024 0.100365534 -0.087010965 0.04603387 0.058359105
0.06434224 -0.06357114 0.06308109 0.09636009 -0.09182447 -0.024277803 -0.06358603 0.02173716
0.081386775 0.09665706 0.09265371 -0.025091395 -0.025007388 0.08908784 0.061408035 0.036901806
0.0074675186 0.0050209174 0.049637895 -0.0902078 0.039675504 0.069955625 -0.018022593 0.009429081
-0.0016044633 -0.1000801 -0.019420806 0.0042772642 0.09337938 0.06164877 -0.017852396 0.07231939
0.00862597 -0.06722742 0.07494059 0.07435046 -0.09852135 -0.05632848 -0.0028252818 0.026678488
-0.052306134 0.084380776 -0.096767336 -0.039876435 0.02220095 0.04244401 0.088074416 0.044032138
-0.06778355 -0.044108827 0.008199266 -0.011942342 0.077583574 0.101580255 0.07912229 0.0013445468
0.055929802 -0.07489868 0.022941848 0.029110258 0.05623936 -0.04956906 0.06846978 -0.03180733
0.10128365 -0.023354711 0.06672111 -0.010138966 0.023763996 -0.092119336 0.08861146 -0.04900783
0.0568549 -0.097004846 0.09196521 -0.055203896 -0.051222775 0.015037541 0.015879827 -0.020599162
-0.067028195 0.061961755 0.10042136 0.004779658 0.005722049 -0.02075314 -0.04114413 0.0566836
-0.08441544 -0.013726146 -0.0450887 -0.059036884 0.08372315 0.010144172 -0.060766686 -0.073652685
0.043428447 0.006244188 0.033459455 0.093517944 0.10252597 -0.0053368574 -0.022413146 -0.057545993
-0.06178711 0.042632088 -0.0039863195 0.08282427 -0.014743684 0.024815254 -0.043601725 -0.024360435
-0.06846922 -0.021303749 0.08298869 0.07850494 -0.0645356 0.008872187 0.0484889 0.008243134
0.07086551 -0.03331363 0.1004619 -0.07631165 0.014971988 -0.047579125 0.0049163387 -0.010473491
0.016199311 -0.0025386217 0.06946751 -0.09656879 -0.01413512 0.016119039 -0.082165405 0.09678618
-0.052407518 0.03495345 0.013947046 0.039803065 -0.025808673 0.038043626 -0.067223296 -0.047710013
0.04131864 0.0055520213 0.058171123 0.007541149 -0.068224974 0.06672265 0.0060125925 0.032676626
0.01971332 -0.01706985 -0.03231407 -0.094981045 -0.017198006 0.07260595 -0.02021247 0.014708942
-0.018229986 -0.07390921 0.06330435 -0.039419826 0.0024909896 -0.051482927 0.063769706 0.060370173
-0.09797889 0.09838133 0.0054070014 -0.017984025 0.03955333 0.057456102 0.020883571 0.0015782672
-0.080626 -0.055287827 0.07600234 -0.1004478 0.02023228 0.059941493 0.013485489 -0.04572067
-0.04677791 -0.098616004 -0.095521905 -0.012930522 0.010773674 0.07130467 -0.004201821 -0.088079184
0.022837328 0.08881543 0.030049264 -0.011077865 -0.03980621 -0.032045145 0.07364739 -0.012471722

enc_p.lstm.bias_ih_l0 f4 [384]
00000000: 32e7 28ba 1851 db3c 2aea f7bc 346a 42bd
00000010: f03e ccbd 8e77 373d 0970 9c3d 33ac ef3c
00000020: 19fb 56bd ccd2 bdbd 6df2 adbd ba31 87bd
00000030: 8cfa 8c3c f405 84bd ff5f 823b 30a9 8b3c
00000040: e039 d13d 6570 41bc 5064 a5bd 8955 eebc
00000050: c9a1 7d3c f0a3 d53d 71e1 593d 443d a0bd
00000060: 3f59 093c 45d5 a43c 398d 053c ecbb c8bd
00000070: 0101 69bd edab 8cbd 7429 7fbc 8d45 adbd
00000080: f97d 5b3d afb9 8a3d af45 a73d a1f2 393d
00000090: 8c5f 843d b1e5 3cbb bde8 39bc 24c2 d3bb
000000a0: 81b5 7f3d 0a6c df3c baaa bc3d 8e4f ccbd
000000b0: 8968 4f3c 98f1 eabc 403a 3f3d 2303 03bd
000000c0: 7b92 b3bc 50e6 453d da54 aabb c96d 71bd
000000d0: 1e9f cc3c 3205 abbd b116 88bd 171b 493d
000000e0: 310e 87b9 7744 93bd 9db3 833c 97a1 293c
000000f0: b45a 573c 5005 a4bd 2187 673b 2f66 2c3d
00000100: d08f 30bd 5011 32bd 0699 53bd 15a5 45bd
00000110: a486 bcbc 6298 cd3c 3479 4dbc 33dd 4e3d
00000120: 1b99 683d 5d9b 193d ef75 b13d 5e46 453a
00000130: 1e5c 54bd 4efe 4fbd d20c 1e3d 0281 b03d
00000140: 7998 98bd f630 95bd 57ea c5bc c31c 193c
00000150: e47e 90bc 8c01 763d 7419 863d fbbb c73c
00000160: f838 31bb 954e 3fbd 630b d0bd 26ca ab3d
00000170: 3065 bc3c e065 c53c 04ae cdbc e593 8fbd
00000180: ff51 95bd 579a aebd 8e1c efbb dedb 233d
00000190: 0a33 a63c 96fd 773c b69d 8abd 841d ccba
000001a0: 4af1 613d 28ad cbbd 8688 bf3d 694e 96bd
000001b0: c152 8fbd 57a3 643d 17fe d0bd 0ae6 dfbc
000001c0: aabe 1a3d 5764 72bd c774 a1bd 6e77 b03d
000001d0: 55e7 093d 9fd7 19bc fe12 023b 786a cebc
000001e0: 885b 983d a74c b8bd 0726 c6bd f6e6 b1bd
000001f0: cf47 283d 80f1 a8bd 1f49 93bd 74bf c63d
00000200: 0759 d63c 11f9 423d 3166 343d 7310 c33d
00000210: 8e6d 173d 2e3d 05ba 2c64 c7bc 8f28 3b3b
00000220: 2a09 38bd 7ae2 e53c 8a60 bebd 144b 13bd
00000230: 994c 0e3d 8aac 7a3c 6d21 c7ba 6383 c53d
00000240: 07c8 63bc 60b3 1d3d 0d38 bdbc 075d 89bd
00000250: 2b54 efbc b1d4 ecbc 113d ea3c e48a bdbd
00000260: 26f3 c93c 8ae2 aebd 2ddc f53c 8b4e 813d
00000270: 2ba5 84bd 6f4c 8b3d 2f6d 933d 1065 d2bd
00000280: cfa0 5c3d 222e dabc 60c2 203d 465e d9bc
00000290: ae1c 6e3d 545d b1bd 1002 003d 3aac a33d
000002a0: cad7 a83d b80d bc3d 3c95 c5bd bdbf 603d
000002b0: b4d8 00bb 68c2 bc3d 9575 32bd b12c d7bb
000002c0: 894d 4dbd 79ec b03d d146 d03d feaa 703d
000002d0: b4db a73d ed9f 1d3c 4ece f63b f6bd 60bd
000002e0: 6988 353c 21a9 873d 621b f2bc 55b6 debc
000002f0: de6f 833b ef30 a13a 1afd 35bd 6a21 6bbd
00000300: 6d96 b1bd bac8 2c3c a0e8 eb3c e928 c3bd
00000310: a3e1 7a3d f469 26bd 4ed5 e43b 0d6b 0cbd
00000320: 9e4f bf3c 8295 a93b 85b8 57bd 46e6 c0bd
00000330: ebf8 623d 5f9d 5c3c fc64 b33d 506e 9dbd
00000340: d141 8bbd 80c4 a3bb ea51 983d 2e85 b2bc
00000350: e8e6 aebd 561c 3f3c cfe9 9fbd a6e0 683d
00000360: e093 1d3d 202c 15bd c94d b7bd a2d8 a33b
00000370: 63f5 213b 34d4 603d d3eb 613d c4c4 98bd
00000380: e062 8d3d 3a37 bf3d 14c9 99bd e225 43bd
00000390: 2645 bc3d 9a2f da3c a2fe a03d bd34 c8bd
000003a0: 944f 9c3d c034 dfbc f201 d33c c0e4 c83d
000003b0: d8b4 bd3c c2d4 c4bd 05e9 98bd 26b7 903d
000003c0: 226a b1bc 9546 c23c 510d babc 4b32 fd3a
000003d0: 3a3b c0bd 04f1 633d b73d 90bd 7fa4 313d
000003e0: 5117 2dbd ff94 bdbd 42ef 9bbd f5f9 343d
000003f0: 43eb a93d 0800 813c 3d0a 593d 5293 8dbd
-0.0006443142 0.026772067 -0.030263025 -0.047464564 -0.09972942 0.04479175 0.076385565 0.029256916
-0.05248556 -0.09268722 -0.08493505 -0.066012815 0.017209314 -0.06446448 0.003978729 0.017048448
0.10216117 -0.011806582 -0.08075774 -0.02909352 0.015480467 0.10431659 0.053193513 -0.078241855
0.008383094 0.020121226 0.008151346 -0.09801468 -0.056885723 -0.0686873 -0.015573848 -0.084605314
0.053586934 0.067736976 0.08167588 0.045397405 0.064635366 -0.002882343 -0.011346993 -0.0064623524
0.062428955 0.027273197 0.09212251 -0.09976111 0.0126592005 -0.028679654 0.04668641 -0.031985413
-0.021920433 0.048315346 -0.0051981034 -0.05894259 0.024978217 -0.083506 -0.06644953 0.0490981
-0.0002575978 -0.07190793 0.016076857 0.010353467 0.013144184 -0.08008826 0.0035328346 0.042089637
-0.0431059 -0.04347354 -0.051659606 -0.048253138 -0.02301342 0.025097076 -0.012541104 0.05050392
0.056786638 0.03750168 0.08665072 0.0007525439 -0.051845662 -0.050779633 0.038586445 0.08618356
-0.07450957 -0.07284729 -0.024159594 0.009345236 -0.017638631 0.06006007 0.065478235 0.024381628
-0.0027042013 -0.0467058 -0.10158422 0.08388166 0.022997469 0.02409643 -0.025107391 -0.070106305
-0.0729103 -0.08525532 -0.007297105 0.040004604 0.02028801 0.015136143 -0.06768362 -0.0015572761
0.05516175 -0.09945136 0.09352212 -0.07339174 -0.06998206 0.055819836 -0.10204714 -0.02733137
0.037779488 -0.059177723 -0.07883602 0.086165294 0.03366788 -0.009389787 0.0019847746 -0.025197253
0.07439333 -0.08998995 -0.09675222 -0.086866304 0.041084107 -0.082491875 -0.07191681 0.097044855
0.026165498 0.04760081 0.04404277 0.09524622 0.036969714 -0.0005082664 -0.024339758 0.002855811
-0.044930615 0.028062094 -0.09295757 -0.035960272 0.034741018 0.015299926 -0.0015192457 0.09644201
-0.013902671 0.038501143 -0.023098016 -0.06707197 -0.02921494 -0.028910013 0.028593572 -0.09255007
0.024652075 -0.08539303 0.030012215 0.06313809 -0.06476816 0.06801688 0.071985595 -0.102731824
0.053864297 -0.026633326 0.03924787 -0.02653421 0.05813282 -0.08660379 0.031251967 0.07991834
0.082442835 0.09182304 -0.09647605 0.054870356 -0.0019660415 0.092167675 -0.043569166 -0.006566607
-0.05012277 0.086388536 0.10169757 0.05875682 0.08196202 0.009620649 0.0075319177 -0.05486866
0.011079886 0.06624056 -0.029554073 -0.027186552 0.0040111383 0.0012297909 -0.04443083 -0.057404913
-0.086712696 0.010545904 0.028797448 -0.09529287 0.06125034 -0.04062839 0.0069834357 -0.03428178
0.023353394 0.0051752934 -0.052666206 -0.09418921 0.055413168 0.013465255 0.087594956 -0.07687056
-0.06799663 -0.00499779 0.07437499 -0.02179202 -0.085401356 0.011664471 -0.07808267 0.056854866
0.038471103 -0.036419034 -0.08950383 0.00500019 0.0024712912 0.054889873 0.05515654 -0.07459405
0.069036245 0.093367055 -0.07509056 -0.04764355 0.091928765 0.026634026 0.07861067 -0.09775684
0.07632366 -0.027246833 0.025757764 0.098092556 0.023157522 -0.09610893 -0.0746632 0.07066183
-0.021657053 0.023715297 -0.022711428 0.0019317357 -0.093862966 0.055649772 -0.07043021 0.043369766
-0.042258564 -0.092569344 -0.07613994 0.04418369 0.08296826 0.015747085 0.05298828 -0.06912865

enc_p.lstm.bias_hh_l0 f4 [384]
00000000: e297 b4bb a025 fe3c 5509 a33d 71dd c1bd
00000010: 0ffc e73b 285b bf3d 6536 12bd 7aa3 1abc
00000020: fbfc c8bd aef6 c7bc ff87 d3bd 169b 9abc
00000030: f759 8b3c 6c00 993d 9a90 2e3d a838 a43b
00000040: a02c 72bd 8935 95bc d840 1bbb 1b4f bc3d
00000050: 3972 9abd 4724 8c3c 7d5d 003d cd6e 95bc
00000060: 6ef7 42bd a957 8f3d 1ffe 36bc f373 94bd
00000070: efc5 77bd 1d45 3abd 3704 0d3d 71e8 ca3a
00000080: a9b0 4f3d 45a4 8d3d 2437 77bc 3567 35bd
00000090: 242a 763d c8f6 aa3c 9e80 323d 49f7 af3d
000000a0: 5209 ce3d 293f a03b ac96 963d d00b adbd
000000b0: 8143 4abd f0d4 a33d 753f a93d a4b8 9cbd
000000c0: 9369 b8bd 52c4 6fbd f786 c4bd bbce a93c
000000d0: 5594 bebd c661 8b3b af66 b5bd 43d4 6fbc
000000e0: 8018 b4bd 9898 53bc 098b c03d 0576 783b
000000f0: 220c e3bb 251c 58bd da56 533d 5242 213b
00000100: 3207 16bd 877d 323d 1506 9dbd 6f3d d13d
00000110: b05e 12bd 7ea3 a93d 65e2 a6bc 9de7 bfbd
00000120: 2637 86bd e6e7 913d 8fbf b5bd bfdc d33c
00000130: 8fc2 f93b 6db7 333d 0a72 033d 2d87 7abd
00000140: b775 9e3c 97af fdbc 4931 ce3c d5e8 b1bd
00000150: 5d3c 6ebd 2c63 253d a003 b73c 96d0 d93d
00000160: 94f4 a6bc 6683 a1bc 8764 863d 510e c3bc
00000170: 5bf3 5bbc 323d 45bd 4a5c 923d 7488 9f3d
00000180: 1ac8 b2bd 89c9 db3c ee2c 653d 63a7 983c
00000190: bf68 0b3c 3c60 c8bd b59f 45bc 24fe e6bb
000001a0: b9a2 eebc 4f9d 42bd 16c7 0f3d 90fb c1bd
000001b0: b94d 8fbc 24ca bd3d 9fcb 4e3d 5781 b2bd
000001c0: 7440 953d 2c4f df3c 861a c8bd 66a2 ca3d
000001d0: 929a c03c 4dc2 bd3d 036f 58bd e413 10bc
000001e0: 1899 7fbd 4049 b8bd b7af f8bc 639c b3bd
000001f0: 74ab c33c a193 94bd 0fcb c93d 46a3 61bd
00000200: 9307 81bc 3c12 3bbd e341 583c 84fa 41bd
00000210: 7e53 833d 4b24 03bd 7767 8e3d 6745 a63d
00000220: b83f 0fbd 0e0f 6fbd 7d18 35bc a923 ad3d
00000230: 5214 c6ba dfc9 f03c 90fc 85bb 605c b73c
00000240: c449 343d e898 a6bd 9d77 95bd 958a 99bd
00000250: 1b40 123d 17de 533a 4d30 34bd b3ac 4a3d
00000260: d634 b53c 216e 97bc 8ac4 9c3d 3e73 98bd
00000270: f5d2 ab3d 8b84 9abd 04e1 723d 8282 643d
00000280: 7fa3 343d dc24 97bd 4a6c 8cbd 7e81 8bbc
00000290: 1e58 dc3b 7973 8abc 1270 af3c 0515 a4bd
000002a0: 07db 6d3c f267 1c3d 0d64 d73d 392c 753d
000002b0: c74f 243d 4b8b 7abd e3b3 a9bd 2b34 cbbd
000002c0: d221 76bd c15c c8bd 828f b3bd fa58 5f3d
000002d0: 0c02 bb3d 49b6 87bd 49b9 eabc ba7e 47bd
000002e0: 9228 613d a52a c23c 4831 bdbd f319 753d
000002f0: 65a6 a0bd c952 ba3d 2672 83ba a12b c2bd
00000300: 46c4 c53d 2af6 b3bd f9b4 28bb dd05 53bd
00000310: 823e 4fbd 4a25 4fbd 67f2 a4bd 6016 663d
00000320: 0530 123d dfc2 4f3c f0a9 0e3d c063 40bd
00000330: 65c3 c23d 9ac7 393d c2f3 7fbd e6ae 823c
00000340: 3600 24bd 9903 67bc 27c1 5c3d e341 ad3d
00000350: 302a e03c 36df 783d 9eb4 21bd 0938 4bba
00000360: 983f 693d f6e7 833c 0852 cabc 930b 083d
00000370: b8bb 623d be29 98bd 3d30 c9bd 8dfd 6b3b
00000380: 486d 76bc 2f14 813d 50a9 a3bd 6c9a 8fbd
00000390: 98db 923b 24ea 54bd 5d9b 50bd 31c1 89bc
000003a0: 4cb9 8e3d b2a7 6dbd e31a b93a 2b56 83bd
000003b0: d46d 0ebd cac7 5dbd 017f 2f3d e0c5 c4bd
000003c0: 5679 a83c 8622 94bd 1a67 3d3d 04b4 6abd
000003d0: e87b 85bd 8e86 a6bd d59f be3c 8593 d3bd
000003e0: 8046 8c3c a26c 8f3d 0101 4fbd 9b8b d03d
000003f0: 5bcb 8d3d 8fe1 0bbc 3dcd 793d 980c b5bd
-0.00551127 0.0310238 0.07960764 -0.09466065 0.0070796083 0.093435585 -0.035696406 -0.00943839
-0.09813877 -0.024409618 -0.103286736 -0.018872779 0.017010672 0.074707836 0.04261837 0.0050116368
-0.05912459 -0.018214004 -0.0023689773 0.09194776 -0.075413175 0.017107142 0.031339157 -0.01824131
-0.04759925 0.06999142 -0.011168986 -0.07248678 -0.0604915 -0.045476068 0.034427848 0.001548065
0.050705586 0.069160976 -0.01508883 -0.04428788 0.060098782 0.020869628 0.04357969 0.08592088
0.100603715 0.004890342 0.07352957 -0.08449519 -0.049380783 0.07999599 0.082640566 -0.07652405
-0.09004512 -0.058536835 -0.09596055 0.02072846 -0.09305636 0.004253599 -0.08857476 -0.0146380095
-0.087937355 -0.012914799 0.09401519 0.0037912142 -0.0069289366 -0.052761216 0.0515965 0.002460618
-0.036627956 0.043576743 -0.07667176 0.10216796 -0.035734832 0.08283137 -0.020371625 -0.093703486
-0.065534875 0.07124309 -0.088744275 0.025862096 0.00762207 0.0438761 0.032091178 -0.06116407
0.01934324 -0.030967517 0.025169985 -0.08686987 -0.058163036 0.04037778 0.022340596 0.10635488
-0.020380296 -0.019715976 0.06562143 -0.023810538 -0.01342472 -0.048154064 0.07146509 0.07789698
-0.087295726 0.026829498 0.05595105 0.018634504 0.00850886 -0.0978398 -0.012062003 -0.007049339
-0.029130327 -0.047513302 0.035101973 -0.0947181 -0.017493116 0.09267071 0.050487157 -0.08716076
0.07287684 0.027259432 -0.09770684 0.09894256 0.023511205 0.092655756 -0.052840244 -0.008793805
-0.06240186 -0.08998346 -0.030357225 -0.08770063 0.023885466 -0.072547205 0.098531835 -0.05508735
-0.015750682 -0.045671687 0.013199302 -0.04735805 0.06412409 -0.032017034 0.06953328 0.08118706
-0.034972876 -0.058363967 -0.011053202 0.08454067 -0.0015112257 0.029393135 -0.0040889457 0.022382915
0.04401566 -0.08134633 -0.07298205 -0.074971355 0.035705667 0.0008082105 -0.043991376 0.049481105
0.02211992 -0.01848513 0.07654674 -0.07443856 0.08389846 -0.07544812 0.059296623 0.055788524
0.044101235 -0.07380077 -0.06856592 -0.01702952 0.0067243716 -0.016900765 0.021415744 -0.08011822
0.014517552 0.038185067 0.1051713 0.059856627 0.040115144 -0.061167996 -0.08286264 -0.099220596
-0.060090847 -0.097833164 -0.08767606 0.054528214 0.0913125 -0.06626565 -0.028652804 -0.04870484
0.05497033 0.023701975 -0.09237915 0.0598392 -0.07844237 0.09097821 -0.0010028526 -0.09480978
0.09656577 -0.087871864 -0.0025742634 -0.051519264 -0.05059672 -0.05057267 -0.08054047 0.056173682
0.035690326 0.012680738 0.034830034 -0.04697013 0.09509925 0.04535637 -0.062488325 0.015952539
-0.040039264 -0.014099979 0.053895142 0.084598325 0.027363867 0.060759746 -0.03947889 -0.00077521853
0.056945413 0.016101819 -0.024697319 0.033214163 0.055354804 -0.07429837 -0.09823654 0.0036009282
-0.015040703 0.06302678 -0.07991278 -0.070118755 0.004481744 -0.051981106 -0.050929416 -0.016815754
0.06968936 -0.058021255 0.0014122393 -0.064129196 -0.03477271 -0.05414561 0.04284573 -0.09608054
0.02056567 -0.07233147 0.046240903 -0.057300583 -0.06517774 -0.08131133 0.023269573 -0.103308715
0.01712346 0.07003142 -0.050538067 0.10182878 0.069235526 -0.008537664 0.060986746 -0.08840293

enc_f.lstm.weight_ih_l0 f4 [384, 4]
00000000: d51d 90bd c7d2 863d 80ba bf3d 7ffa b83c
00000010: 6766 4bbd bad3 1ebd 0d7a ed3c 1b21 93bc
00000020: c3fe d9bc 9687 97bc def9 12bc d3f9 af3d
00000030: 3089 c53d b399 e93c 8674 a5bc 8253 b83d
00000040: afb1 8a3d b3a0 b5bc c717 76bd 1cb4 62bd
00000050: d7eb 063d 27b9 023c 37ca 90bd 1c69 93bd
00000060: 7186 08bd c75e c3bd f58f 063d 58c5 493d
00000070: 2df9 c0bd c709 86bd 1a69 86bc caae 9cbd
00000080: d102 86bd 7561 4fbd 21aa 63bb aa55 a33d
00000090: cbd4 343d 6bbe c2bc 7991 babd 9afa a83d
000000a0: 873a e4bc 6f9b d1bd f03e d33c bfdd 4b3d
000000b0: 2347 b23d 60a3 48bd 1481 6f3c 91b1 2cbd
000000c0: e86d 023c c746 5cbd 0a24 b9bd bfa6 613d
000000d0: d4b7 9b3d 87d7 34bd 0bd4 b7bd f175 80bd
000000e0: 1f69 983c 29d5 b5bd f697 88bb d9bf c03c
000000f0: b12f 8fbd 0158 b7bb 7bbe 87bd b26d 1abd
00000100: 998d 293c ddd4 d33d b783 a1bd fa97 20bb
00000110: e13c 0ebc e4d1 643d bda5 d13c 51ab b73d
00000120: 7279 d43d 33ec 9bbc d5d7 e5bc 1c42 bbbd
00000130: 3da0 bcbd 50da f3bc a65e d2bc 0d4d 683d
00000140: 3b9a b43d 8681 c73d 26b7 913d 0120 81bd
00000150: c226 503d 66c1 4ebd c51e 5dbd 5bab bb3d
00000160: 7f1b 3a3c ca75 9cbd 1793 193d e689 953c
00000170: f032 f13b e9d6 a2bd 1078 5f3c 027f 133d
00000180: 3065 463c f4cf 5ebc 28c4 dcbb 697e 6d3d
00000190: 8f36 663d b07d cb3d 8b2c aa3c 4e96 67bd
000001a0: 7220 89bc 27d5 3bbd 473c dfbc ace3 ab3d
000001b0: 16ad 3d3d 18ae 2fbd d213 4cbd 5fea 0bbd
000001c0: ee7f 903c bdb3 33bd 2763 6ebc af4f f13b
000001d0: 248e 473d c1f4 8abb 2abf a8bd dcfd 973d
000001e0: de0a 5cbd e2f8 c2bb f78d da3c 1de9 01bd
000001f0: 3365 8f3d fa81 9ebd 3925 c1bd 43fb 34bc
00000200: 4c71 8a3b 383f 033d 9c50 633b 5efb 2f3d
00000210: 3cc2 50bd e298 c2bd f686 c23d b543 c93b
00000220: f477 963d 82cb 4cbd 57ea 92bd 1ad7 533c
00000230: bf15 da3b 959c c4bd 6df1 9dbd dc5f 933d
00000240: 1aef c1bd 1bfd c13b d959 a43d 9f0f 453d
00000250: cf98 913d 7fac 943d 8233 c0bb 7bf3 473d
00000260: 843c c13b dd4c be3b 9119 253d 2b1e 8c3d
00000270: e8c6 87bd ed38 3cbd 7abc 28bd a920 40bc
00000280: d50b 7d3d 1070 6d3d 5fd7 78bd 61cb 93bd
00000290: 0802 9bbc 7d08 a1bc 8ba6 aa3d ea9b 0dbd
000002a0: b2a3 323d f785 1c3d 7fb6 2a3d 3cb3 58bd
000002b0: e5d9 43bd f550 b4bc 955b e3bc 509e b5bd
000002c0: 299a 723d 8c51 d03d 8633 06bd 0b12 0abd
000002d0: 0f18 adbd 1d69 d43b 8652 b73d 0836 783c
000002e0: 953d 7d3d 3c7a 213d 1b14 84bd cfa7 b7bc
000002f0: c479 cb3d 1bc3 ba3d 30f6 c03c 8d6a ffbc
00000300: a782 b63d 25be 98bd 6fa5 8e38 2324 273d
00000310: 57a3 703d 5eae eebc e467 403a d0b6 60bd
00000320: b6ae c7bd a476 3a3d 0eef b6bd 3c35 333b
00000330: 700a 8d3d b167 e2ba e6aa 373d 2a2b 9abd
00000340: af97 073d a87d fd3c cd9d b1bd 487a 7ebd
00000350: 8616 06bd 66d9 053b 3c48 a3bd 75bd a4bc
00000360: 3d52 9bbd fd03 883d 029e f13c c3e7 c6bd
00000370: 6929 37bd dadc 88bd c18c 4ebd 07f7 453d
00000380: 8d5e cf3d cd36 b5bd 9421 6abd ed8c b43c
00000390: 611d d23d 4294 f23c 53eb bfbd 0c7c 89bd
000003a0: 82ed 473c c9d1 22bd c321 96bd 3b1a 62bd
000003b0: 623f a83d f7af cdbd 5db0 98ba 78e7 abbd
000003c0: e839 4fb8 b811 bc3d 8f19 babd d815 89bd
000003d0: 3da9 bdbd 6e3d d63d 0cae 4bbb 9d8b 043d
000003e0: d104 523d e448 3bbd d8da 343d 43b1 7bbd
000003f0: c25c 073d a524 6fbd 6937 cfbc bd81 ad3d
-0.0703694 0.06583171 0.09361744 0.022580383 -0.049658205 -0.038776137 0.028988862 -0.017960122
-0.026610738 -0.01849727 -0.008970706 0.08592572 0.09645307 0.028515672 -0.020197164 0.09000303
0.06772172 -0.022171354 -0.06008127 -0.055347547 0.03293976 0.007978714 -0.070698194 -0.071977824
-0.03333134 -0.09539562 0.032852132 0.049260467 -0.094225265 -0.06544834 -0.016407538 -0.07650526
-0.06543506 -0.05063005 -0.0034738856 0.079753235 0.044148248 -0.023772439 -0.09109778 0.082509235
-0.02785994 -0.10234725 0.025786847 0.04977202 0.087049745 -0.04898393 0.014618177 -0.042161528
0.007960774 -0.053778436 -0.09040077 0.055090662 0.07603422 -0.044150855 -0.08975991 -0.062724955
0.018604813 -0.08878548 -0.004168506 0.02352898 -0.06991518 -0.0055952077 -0.06628128 -0.03770227
0.010348701 0.10343335 -0.07886451 -0.0024504648 -0.008681507 0.05586423 0.025591725 0.08968223
0.10374726 -0.019033527 -0.028057018 -0.09143469 -0.092102505 -0.029767185 -0.025679898 0.056714106
0.088184796 0.097415015 0.07115011 -0.063049324 0.050818212 -0.050477408 -0.053984422 0.09163543
0.011359095 -0.07639654 0.03749379 0.018254232 0.0073608086 -0.07951147 0.013639465 0.036009796
0.012109086 -0.013599385 -0.006737251 0.057981882 0.056204375 0.09936082 0.020773193 -0.056539826
-0.016739104 -0.045857575 -0.027250422 0.08393034 0.046307646 -0.042890638 -0.04982359 -0.03415906
0.017639127 -0.043872584 -0.014550007 0.0073642354 0.04871954 -0.0042406027 -0.08239587 0.07421467
-0.0537213 -0.0059500793 0.026679022 -0.031716455 0.07001724 -0.07739635 -0.09430928 -0.011046234
0.004224932 0.032042712 0.0034685498 0.04296433 -0.050966486 -0.09501816 0.09498398 0.0061421045
0.07347098 -0.049998768 -0.07173603 0.012929702 0.0066554244 -0.09600178 -0.07712064 0.07196018
-0.09469433 0.005920065 0.080249496 0.0481106 0.07109224 0.072594635 -0.005865515 0.048816185
0.0058971066 0.0058075027 0.040307585 0.068416916 -0.06629735 -0.045952726 -0.04119537 -0.011726537
0.061778862 0.0579682 -0.06075227 -0.07216526 -0.018921867 -0.019657368 0.08332547 -0.03457252
0.043613143 0.038213696 0.041677948 -0.052905306 -0.047815222 -0.02201126 -0.02775363 -0.08868086
0.05922905 0.10171804 -0.03276398 -0.033708613 -0.084518544 0.006482257 0.08951287 0.015149601
0.061826307 0.039423212 -0.06449147 -0.022418885 0.09935334 0.09119245 0.023554891 -0.031178737
0.08911639 -0.07458142 6.801902e-05 0.040805947 0.058749523 -0.02913588 0.00073396997 -0.054861844
-0.0975012 0.0455233 -0.08932315 0.0027344963 0.068867564 -0.0017273334 0.044840716 -0.07527764
0.03310364 0.030943707 -0.08672676 -0.062128335 -0.032736324 0.002042377 -0.07972762 -0.020109871
-0.07584045 0.06641386 0.02949429 -0.09712174 -0.044717226 -0.06682749 -0.050427202 0.048331287
0.10125456 -0.08848343 -0.05716093 0.022039855 0.1025951 0.02961171 -0.093710564 -0.06713113
0.012202622 -0.039750848 -0.07330658 -0.055200797 0.08215214 -0.10043328 -0.001164924 -0.083937585
-4.9406575e-05 0.09183067 -0.09086906 -0.066936195 -0.09260795 0.104609355 -0.0031079082 0.032359708
0.051274125 -0.04572381 0.04415402 -0.061448347 0.033047445 -0.058384556 -0.025294976 0.08472011

enc_f.lstm.weight_hh_l0 f4 [384, 96]
00000000: 710f 403d 8273 923d 3cc9 c53d 6065 0f3d
00000010: c46e 553c 3ee1 c53b 4138 aabd 0671 133d
00000020: 1f9f bebd d95e adbd ce55 7a3c 6d16 c5bd
00000030: 27f7 cabc e6d0 b2bd a601 e0bc eb3e 14bd
00000040: 745c 213c 092a 853d 159c 2c3c 8816 1c3d
00000050: b889 20bd 81d9 a73a 5620 febb 6d0d a83d
00000060: 9ee2 c5bc 9925 c4bd 1f35 d33d eeac 473d
00000070: 2b2d fabc 8aa1 c83d 1a35 143c a2a5 b4bd
00000080: 10cc 883c d124 8fbb caed 523c 385c 723d
00000090: 6581 c03d fb3e 96bd 710e dbbc ed6f 6c3d
000000a0: 0413 9a3d 185b a03c 2f19 ba3c fec8 b53d
000000b0: c121 b3bd d8a7 6ebc f4e3 a4bd 97d6 aebd
000000c0: 23b0 0f3b 57f4 4cbc 56e0 813d d2ea c0bc
000000d0: 808a d4bd 389a 8d3d 2066 8ebd 7831 793d
000000e0: d32f 89bc 3772 cd3c 5a98 83bd 1f8a fa3c
000000f0: 5d8d c6bd 0de9 503c 4f99 343d 554d a83c
00000100: 3814 b8bd aea5 993c a3f2 5ebd d182 243d
00000110: 6b11 603d 46bc 313d 72aa 1e3d eb5f e23c
00000120: 9c19 83bc ca01 0dbd 87f1 32bd 483a 983d
00000130: 1466 bdbc f787 66bc ef25 babc e594 95bc
00000140: dfed 97bd 6d32 c13d 05bf 0abd 2678 20bd
00000150: c4e6 80bb aa09 883d 0bde 36bb 3fd4 bf3d
00000160: 2c37 523d a2eb 773c 4686 b3bc c262 4abb
00000170: 68c2 703c 3533 b0bd 1d4a bebd 49f9 cd3d
00000180: 42da 843c 1d20 c839 453d 8b3c c691 83bd
00000190: c7d4 4dbd 98f4 cdbc 4a72 0cbb 9c17 c8bd
000001a0: 57c0 373c b4ab 733d ae9c 2cbd da43 12bb
000001b0: f393 b23d f6ee 62bd daa7 a23c c4f0 263d
000001c0: 2d05 a4bc af50 d33c 21c5 f43c c969 bf3d
000001d0: 4ee4 7bbd 7f7b c9bd 56aa 233d 8ecf c1bd
000001e0: af8d 153d 6900 ec3c 9076 293d d8d3 863d
000001f0: 9b7f e93c 1249 3f3c 90aa 903d 9050 ba3d
00000200: 90f5 fa3c cc46 4dbc e654 bc3d 7dc1 8dbc
00000210: 0c64 c9bd 34b3 99bd 76da 943d b77f c43d
00000220: 976c a8bc 911c 173c 6715 853d 1a01 3cbd
00000230: 44c5 7d3d e998 c63d 7328 7bbd 63a4 3f3c
00000240: 93af b6bd 991b 4cbd d32f c6bd 864d 53bd
00000250: 4ac3 c53b 7a20 5cbd 8dc1 1e3d e632 9b3d
00000260: bf20 a33d 7530 afbc 704c 183d c8d0 92bc
00000270: ecf2 9abd 260e ed3c ee00 873d ee5d 823d
00000280: ab7f a3bd d7f9 813d 2532 59bc c630 96bc
00000290: 69a0 193d a1ad 0a3d ecff 99bd 17ea 8f3d
000002a0: 8f03 253d 1088 583d 9f09 dd3c 64f8 29bd
000002b0: a7c1 9f3d 2932 b7bd 19b6 8fbd ccdd 4f3d
000002c0: 05da 5bbd 6ab9 9c3c 9e4e 273d 43fa ce3d
000002d0: 28d2 9b3d b24d 1ebd 2fe2 403d e362 9a3d
000002e0: b2c5 c9bd 7b02 0ebd 78f7 b9bd 07c3 5cbc
000002f0: d3d2 ca3d cdb9 303d f8f8 8cbd 118e c5bd
00000300: c7c6 aabd e182 20bd b1ed 10bd 47d2 bb3a
00000310: eeeb 9cbd c460 c7bc a4db 623d 6824 8d3d
00000320: 6ee3 81bd 20d3 f8bc 1e92 aebc a777 e13b
00000330: 9ab9 2bbd 0835 d93c 5201 47bd 1a8d bfbc
00000340: 50c6 333d d61c c33d 4940 a8bd b63f ba3c
00000350: bea8 d2bd 90cf 84bd 5c33 ae3d 66eb e73c
00000360: 48e0 90bd 6d28 aa3d 4c0a 463d 79d9 823d
00000370: 0931 913d efef 97bd 4a0d c43d 6edc a43b
00000380: f886 14bd 0991 ebbc c1d3 683d 108d acbd
00000390: 2b0a b03d 68e4 22bd e78a 8d3d 4b93 a83d
000003a0: a307 313d 0870 a6bd 0118 01bd 0cc1 9ebd
000003b0: a5d0 153d 56da 543d 9427 5fbc 0f33 95ba
000003c0: 42e2 39bd 78ac 77bd 0939 b83d 05fd 873d
000003d0: d982 0d3c f251 f83c 33dc ba3d 737c 62bb
000003e0: 84ea 7bbd 0a2d 8ebd 1d2a e03b ab31 a83d
000003f0: 3c70 ce3b 3e27 7dbd e48d 0abc 3fae 6cbd
0.046889726 0.071509376 0.09657523 0.035008788 0.013026897 0.006038814 -0.08311511 0.03599646
-0.09307694 -0.084653564 0.0152792465 -0.09623418 -0.024776055 -0.087312505 -0.027344536 -0.036192816
0.009848703 0.06502158 0.01053526 0.038107425 -0.03919384 0.001280591 -0.0077553196 0.08205686
-0.024155911 -0.09577484 0.103128664 0.048748903 -0.030539116 0.09796436 0.0090458635 -0.088206545
0.016698867 -0.0043684025 0.012874076 0.059169978 0.0939968 -0.07336231 -0.026740285 0.05772393
0.07523158 0.019574687 0.022717087 0.08876227 -0.087466724 -0.014566384 -0.08051291 -0.085370235
0.0021925054 -0.012509427 0.06341617 -0.023549471 -0.10377979 0.069141805 -0.069530725 0.060838193
-0.016746437 0.025078876 -0.06425543 0.03058344 -0.09694932 0.012750876 0.04409152 0.020544687
-0.089882314 0.01875576 -0.054430615 0.04016382 0.05470411 0.043392442 0.038736768 0.027633628
-0.016003422 -0.034425534 -0.04368737 0.07432991 -0.023119964 -0.0140705025 -0.022723166 -0.018259475
-0.07418417 0.09433446 -0.033873577 -0.039177082 -0.0039337594 0.06642468 -0.0027903344 0.093666546
0.051322147 0.015131863 -0.021914613 -0.0030881618 0.014694788 -0.08603517 -0.0929148 0.10057313
0.016217355 0.000381709 0.016996989 -0.064242885 -0.05025175 -0.025141045 -0.0021430426 -0.09770128
0.011215291 0.05948992 -0.04214161 -0.0022318275 0.08719625 -0.055403672 0.019855428 0.040756956
-0.020022 0.025795309 0.029879155 0.09346349 -0.061497025 -0.09838008 0.039957367 -0.09463416
0.036512073 0.02880879 0.041372836 0.06583375 0.02850323 0.011675136 0.07063782 0.09097397
0.030634671 -0.012529086 0.091958806 -0.017304176 -0.098335356 -0.075048834 0.072682306 0.09594672
-0.020559592 0.009223119 0.06498223 -0.045899488 0.061955705 0.09697134 -0.061317872 0.011696908
-0.08920207 -0.049831007 -0.096770905 -0.051587604 0.006035243 -0.05374191 0.038758803 0.075780675
0.0796523 -0.02138541 0.03718227 -0.01792182 -0.07565865 0.02893741 0.06591974 0.06365572
-0.07983335 0.06346481 -0.013256584 -0.018333804 0.037506495 0.03385699 -0.07519516 0.07027071
0.040286597 0.052864134 0.026982127 -0.04149665 0.07800608 -0.08945114 -0.07017154 0.05074863
-0.053674717 0.019131381 0.04084646 0.101063274 0.076084435 -0.038648315 0.047090705 0.075383924
-0.098521605 -0.034670334 -0.09080404 -0.0134742325 0.09903493 0.043145943 -0.068834245 -0.09646238
-0.08338695 -0.039187316 -0.03538293 0.0014329635 -0.076621875 -0.024338134 0.055385247 0.068917096
-0.06342207 -0.03037411 -0.021309908 0.0068807187 -0.04192505 0.026514545 -0.048585244 -0.023382712
0.043890297 0.095269844 -0.082153864 0.022735458 -0.10286091 -0.06484902 0.0850589 0.028310489
-0.07074028 0.08308492 0.048349664 0.06389136 0.07089431 -0.074188106 0.09572847 0.00503116
-0.03626153 -0.028755682 0.05684257 -0.08425343 0.085956894 -0.039768606 0.06911259 0.08231219
0.043220174 -0.08126837 -0.031517033 -0.077516645 0.036575932 0.051966034 -0.013620276 -0.0011383014
-0.045381792 -0.060467213 0.089952536 0.066400565 0.008637154 0.030312512 0.09124031 -0.003455904
-0.06150295 -0.06942184 0.006840958 0.082125984 0.0063000005 -0.061805002 -0.008456681 -0.05778336

enc_f.lstm.bias_ih_l0 f4 [384]
00000000: ff38 b8bd 8612 04bd a633 373c 8c66 87bd
00000010: 6912 ab3d 5ee3 6dbd 95f4 283d ec31 bf3d
00000020: 05e5 37bd e8d7 a53d 8b2a 9fbd a96d 37bd
00000030: 1c0b 0cbd 38d6 a53d b789 6bbd 409d abbd
00000040: 22a4 7abd 7b76 983d 9915 3b3d 2edb 913c
00000050: a853 913d 941e c93d 5ecd af3d a755 99bc
00000060: 5cbb 7cbd 8b27 d33c 15a1 5cbd eb53 1cbd
00000070: cbdb e7bb 6c55 ac3c 6937 a03d 38b0 b437
00000080: 7cf9 643c 45b2 b33b 0409 6d3d fee3 35bd
00000090: 6950 c33d cf92 7d3d 074c 3fbd 70c8 41bd
000000a0: a06a 363d 687d c7bc 011a 7bbd cbde f93c
000000b0: d93f c03d 066d 93bd 34e3 b23d 01af 68bd
000000c0: dd31 483d da1c 8abc c5bd c63d 65a9 e33c
000000d0: 98ba 22bc 6825 2dbd 23aa 8dbc eae3 10bd
000000e0: b1c2 b1bd 9505 8b3d 222f e7bc 4cd6 7f3d
000000f0: 42e5 98bb 96e3 453d 81e9 afbc 942e 51bd
00000100: fe41 8fbd c0cc 803d a2a6 53bd 0a40 913d
00000110: 29ec bebd 569d c03d 8ba7 5bbc 42d8 803d
00000120: b5f7 8dbd 861a 00bc c831 823c 86df a43d
00000130: f5c3 363d d06f babd c181 c6bd 925c 003c
00000140: 32e5 2fbc 4695 aabd b886 873d 904a b6bd
00000150: 9f2e ad3d 0ac0 85bd c982 ce3c 36a4 ecbc
00000160: c3c6 60bd 52f1 7c3d f0e2 763d c382 a23d
00000170: abb1 afbc dcdb 4fbd 7936 353d ac7a 08bd
00000180: 31ff d9bc e24c 913d c44c 593c 3bcc c73d
00000190: d53b 7dbd 247f 523d 55e8 203d 0b5f 3e3d
000001a0: c09b d5bc bb4d c73c fef4 6dbd 2d36 9dbd
000001b0: 20e5 823d 5265 21bc 265e 42bb de37 823d
000001c0: 4709 883d 4a8b 383d ffee 7c3d 3346 9cbd
000001d0: 5550 bdbd e4fa 86bd 5bda 433d ac1c 97bd
000001e0: f7eb c6bd 433c 84bd fd90 99bc b5fb febc
000001f0: 8477 c23b 5c40 7c3d 43e5 853d 8435 adbc
00000200: d791 b93d c621 a3bc 9214 28bd b28b 803d
00000210: 4785 64bd 3296 7c3d dfca c6bd 13c3 e83b
00000220: eb24 fc3b 1a90 c33d ca4c 873c 976f 3a3c
00000230: a668 133d 9dc4 c23d 15f3 d5bc 1f09 2b3d
00000240: d93a 723d 5cfa 8f3d c644 aa3c 5f8d 603d
00000250: ae9a 07bd dd0a b23d e425 cc3d ec31 aa3d
00000260: 3489 e53b 2fc4 d4bd de5d b43d 83d7 02bd
00000270: c6ef 56bd 9257 c43d 68f4 603d 4d6c 8b3d
00000280: 6753 29bd ff0c aebc 5ff3 ca3d 3577 993d
00000290: 511e a83b d114 7fbd d663 223b 238b 353d
000002a0: adc4 3fbb 2779 8e3a 0969 3aba 8b3d 3dbd
000002b0: 2f1c febb d19f 94bd e867 a4bd 5f36 40bc
000002c0: 16c8 17bd 5809 55bd 1956 b1bc 6b56 f6bc
000002d0: af50 5f3d 7f78 a1bd 0548 373d 7c55 87bd
000002e0: a066 7abc 093d 6c3d 3467 873c e2ca 9abc
000002f0: a59c 9a3c c449 3bbd 9c05 623d 940d a53d
00000300: 6fb1 86bd 531f 333d 0285 5ebd 1a2f 01bc
00000310: 889b 97bd 6880 41bd 3bd4 abbd 370d 993c
00000320: a7c5 6bbd 6156 01bc a6c5 af3d 5253 15bd
00000330: de17 a0bb 4cd1 1c3d c477 213d e6a3 3cbc
00000340: a756 413d f8a0 34bc 4377 a1bb 8b0a 813c
00000350: 43db abbd fc18 aebd 6749 603d c888 153d
00000360: 2170 c83c 4d2f 163d 22cd 26bd 22ab 5abd
00000370: f755 a73d ea94 8f3d 6886 bb3d da48 8dbd
00000380: 9b8e 9c3d cf34 3a3c 4626 5dbd b404 22bd
00000390: 82e9 b9bb ce61 39bd 0d3e 89bd c135 663c
000003a0: e005 00bd e729 b6bc afb1 9c3d 2b14 7fbd
000003b0: 28c8 f23c e866 2b3d b265 823d 4db4 11bc
000003c0: eb0b c33d d701 a23d 7385 06bd 90ce 8ebc
000003d0: 63f9 8dbd d998 84bd af51 2dbd b324 88bd
000003e0: 0a2a 8c3d 6c58 393b fcd3 223d 862a de3c
000003f0: 0750 b13c 3ef2 ab3d 06d9 753a d9c2 8bbd
-0.08995246 -0.032244228 0.011181748 -0.06611356 0.08353121 -0.058078162 0.041248877 0.09335694
-0.044896144 0.080978215 -0.07771786 -0.044782314 -0.034190282 0.080974996 -0.057504382 -0.083796024
-0.061191685 0.07444473 0.045674894 0.017804708 0.07096034 0.098202854 0.085840926 -0.0187176
-0.061702117 0.025775691 -0.053864557 -0.038165968 -0.007075762 0.021036826 0.07823069 2.153973e-05
0.013975497 0.005483898 0.057869926 -0.044406883 0.095368214 0.061907586 -0.046703365 -0.047310293
0.04453528 -0.02435179 -0.061304096 0.030501744 0.09387178 -0.07198529 0.08734742 -0.05680752
0.04887568 -0.01685946 0.097041644 0.027790735 -0.009932183 -0.042272 -0.017293042 -0.035373606
-0.086797126 0.06788174 -0.028220717 0.06246023 -0.0046660015 0.048312746 -0.021473648 -0.05106981
-0.06995009 0.06289053 -0.051672585 0.070922926 -0.09322388 0.094050094 -0.013406645 0.06291248
-0.06932012 -0.007818824 0.015892878 0.08050446 0.044620473 -0.09103358 -0.09692717 0.0078345705
-0.010735797 -0.08329253 0.066174924 -0.089009404 0.08456158 -0.06530769 0.025208848 -0.028886896
-0.054877054 0.06175358 0.06027502 0.07935097 -0.021447023 -0.050746784 0.044241402 -0.033320114
-0.026610943 0.07094742 0.013262931 0.09755751 -0.06182464 0.051390782 0.03928407 0.04647736
-0.026075244 0.024329057 -0.05809497 -0.07676349 0.063913584 -0.009850817 -0.0029658168 0.06358312
0.066423945 0.04505471 0.061751362 -0.07630577 -0.09243838 -0.06590822 0.047815662 -0.073785156
-0.097129755 -0.064568065 -0.018745894 -0.031125883 0.0059346575 0.061584815 0.06537869 -0.021143682
0.0906102 -0.019913565 -0.041035242 0.06276645 -0.055791166 0.061666675 -0.09706663 0.007103333
0.0076948307 0.095489696 0.016516108 0.011379144 0.035988472 0.09510157 -0.026116887 0.041756745
0.059138153 0.07030174 0.020784747 0.054822322 -0.0331065 0.08693478 0.099681646 0.08310303
0.0070048813 -0.103889816 0.08806966 -0.03194381 -0.05247476 0.09587015 0.054920584 0.06807766
-0.041339304 -0.021246431 0.099097006 0.0749344 0.005130567 -0.06227571 0.0024778745 0.044322144
-0.0029261515 0.0010869846 -0.00071109884 -0.04620127 -0.0077548246 -0.07257045 -0.08027631 -0.011731713
-0.03705605 -0.052010864 -0.0216475 -0.030070504 0.054520305 -0.07884311 0.044746418 -0.06608102
-0.015283257 0.057675395 0.016528703 -0.01889557 0.018873522 -0.045724645 0.05518113 0.080592304
-0.065768115 0.043731045 -0.054326065 -0.007884765 -0.07402712 -0.0472416 -0.08390089 0.01868306
-0.057561543 -0.0078941295 0.0858262 -0.036456414 -0.0048856577 0.03828554 0.039420858 -0.011513686
0.04720178 -0.011024706 -0.004927547 0.015752098 -0.0839143 -0.08500859 0.054757502 0.036507398
0.02446753 0.036666203 -0.040722974 -0.05338586 0.08170693 0.07010825 0.09156495 -0.06898661
0.07644387 0.01136513 -0.05399158 -0.039555266 -0.0056735883 -0.04525929 -0.06701288 0.014050902
-0.031255603 -0.022236777 0.07651078 -0.062275093 0.029636458 0.041846186 0.06367053 -0.008893085
0.095237575 0.07910507 -0.03284211 -0.017432481 -0.06932332 -0.06474466 -0.042314228 -0.06647625
0.06843956 0.0028281463 0.039752945 0.027119886 0.021644605 0.083958134 0.00093783473 -0.068242736
