_train/_models/20250919/SK(034730)_20250919.pt (torch, 832799 bytes, 20 tensors)

enc_p.lstm.weight_ih_l0 f4 [384, 6]
0	0xbcedcd73	-0.02902863
1	0xbd878198	-0.06616515
2	0xbd3197aa	-0.04335753
3	0xbbcf42f2	-0.006325119
4	0x3d9163bd	0.07099102
5	0xbd3d1aa0	-0.04616797
6	0x3d8a455e	0.06751512
7	0x3d818d1c	0.063257426
8	0x3db7eb99	0.089804836
9	0xbce7fb93	-0.028318202
10	0x3a325a96	0.00068036595
11	0xbc082ca2	-0.008311423
12	0xbd80ec2c	-0.06295046
13	0xbdc336d2	-0.095319405
14	0xbdaefc3a	-0.08544202
15	0x3dbee662	0.09321286
16	0x3d3e7d3d	0.046506155
17	0xbd5d568f	-0.054037627
18	0x3d908603	0.07056811
19	0x3ce545f3	0.027987456
20	0x3d95547c	0.07291505
21	0x3d95be01	0.07311631
22	0x3dc85b2e	0.09783016
23	0xbd77bc11	-0.06048209
24	0xbd4faecd	-0.050703812
25	0x3dcd01b4	0.100100905
26	0x3d8d3000	0.06893921
27	0x3c317901	0.010832072
28	0x3d60a434	0.054844096
29	0x3d98f04b	0.07467707
30	0x3d035975	0.032067735
31	0xbdb01558	-0.08597821
32	0xbd95bf42	-0.0731187
33	0x3d7557f3	0.059898328
34	0xbcafb147	-0.021446837
35	0x3dc04e21	0.09389902
36	0xbd5c6a3a	-0.053812243
37	0xbdb079cf	-0.08616983
38	0x3db65c3e	0.089043126
39	0x3be5e9a5	0.007016378
40	0xbd5273a3	-0.05137981
41	0xbdc0d78b	-0.094161116
42	0x3dd03065	0.101654805
43	0xbd19a401	-0.037509922
44	0x3d93dcb6	0.07219832
45	0x3d8098ca	0.06279142
46	0xbdac6375	-0.084174074
47	0x3d81b738	0.06333774
48	0xbd9aac89	-0.0755244
49	0xbd24fdc1	-0.04028106
50	0x3da0a157	0.07843273
51	0x3ce4a117	0.027908845
52	0x3c61425e	0.013748733
53	0x3dd081f2	0.10181035
54	0x3cf41cb2	0.02979884
55	0x3d6828eb	0.056679647
56	0xbcaa8e77	-0.020819886
57	0xbd3b7073	-0.045761537
58	0x3d8d528e	0.06900512
59	0xbd78b3c5	-0.060718317
60	0x3c927623	0.017878598
61	0xbd8aa6e2	-0.067701116
62	0x3d95ea33	0.073200606
63	0x3d9731a9	0.07382519
64	0xbd8cbcd4	-0.068719536
65	0x3d894672	0.067028895
66	0x3d8c16c8	0.06840283
67	0xbc3a1292	-0.011356967
68	0x3d27c40d	0.040958453
69	0x3dc06be7	0.09395581
70	0xbd268801	-0.040657047
71	0xbdabb299	-0.08383674
72	0x3dabaa14	0.08382049
73	0xbd40b193	-0.047044348
74	0x3db2a7ca	0.087234095
75	0xbcc75cf1	-0.02433631
76	0xbc2402ae	-0.0100104045
77	0x3d5e8bbf	0.05433249
78	0x3dbaa601	0.09113694
79	0xbdbc3158	-0.09189099
80	0xbd28382d	-0.0410692
81	0xbce51a1f	-0.027966557
82	0xbd0c283c	-0.034218058
83	0xbaf35d3e	-0.0018567217
84	0x3dbf2d6f	0.09334838
85	0xbd48cbac	-0.04902236
86	0xbc96f301	-0.01842642
87	0xbdad19f1	-0.084522136
88	0x3d8c73a2	0.06857993
89	0xbd851b9f	-0.06499409
90	0xbdbb9bfd	-0.09160612
91	0x3d02632a	0.03183285
92	0x3db0b4f4	0.08628264
93	0x3d089300	0.033343315
94	0xbcacdb0b	-0.021100542
95	0x3dc235f5	0.09482948
96	0x3d6e57a9	0.058189068
97	0xbd114122	-0.035462506
98	0xbdc2b130	-0.09506452
99	0xbd1ecb48	-0.038768083
100	0x3d8bff29	0.06835777
101	0x3d77b9c2	0.060479887
102	0xbd873726	-0.066023156
103	0xbdba83c3	-0.09107163
104	0x3ca38537	0.019960983
105	0x3dd18da4	0.10232094
106	0xbd10da25	-0.03536429
107	0xbdbcebd0	-0.09224665
108	0xbd971c56	-0.073784515
109	0xbd643c76	-0.055721723
110	0x3d2ce687	0.042212036
111	0x3da73b7e	0.08165644
112	0x3d7e3eec	0.062071726
113	0x3d09eb54	0.033671692
114	0x3ce13032	0.027488802
115	0x3d8fdcd5	0.07024542
116	0x3d944e9f	0.07241558
117	0xbb94ac45	-0.0045371377
118	0xbd7b7707	-0.06139281
119	0x3d3bd122	0.04585374
120	0x3da449ee	0.080219135
121	0x3c436827	0.011926687
122	0xbdbbd58d	-0.09171591
123	0x3d58a66f	0.0528931
124	0x3d00e7c2	0.03147102
125	0xbd81cbdb	-0.063377105
126	0x3d8fe977	0.07026952
127	0xbd549d1b	-0.05190764
128	0x3c8e1438	0.017343625
129	0xbd963061	-0.07333446
130	0x3d537ef9	0.051634762
131	0x3da9519d	0.082675196
132	0xbcb4f226	-0.022088122
133	0x3d09f5fa	0.033681847
134	0x3d5aede1	0.053449515
135	0x3d3832e3	0.044970404
136	0x3da8394e	0.08214055
137	0x3d602fc4	0.054733053
138	0x3d236ec3	0.039900552
139	0x3da360b4	0.07977429
140	0xbd131e21	-0.035917405
141	0x3d878580	0.0661726
142	0xbd09d874	-0.03365369
143	0x3d963175	0.07333652
144	0x3d926ed7	0.07150047
145	0xbd0c5d3b	-0.0342686
146	0x3c4c53cb	0.01247115
147	0xbd61d010	-0.055130064
148	0xbdbf035f	-0.09326815
149	0xbdb7f256	-0.08981769
150	0xbce8bbcc	-0.028409861
151	0xbc6db905	-0.014509444
152	0x3ccf0458	0.025270626
153	0xbd9b93df	-0.075965635
154	0xbd41ac25	-0.04728331
155	0xbdb8b63b	-0.09019133
156	0xbdbfd80f	-0.09367382
157	0x3dbb5114	0.09146324
158	0xbdd1632a	-0.10223992
159	0xbd70bafc	-0.058772072
160	0xbd0c823d	-0.034303892
161	0xbd03c279	-0.032167885
162	0xbd934ea7	-0.07192736
163	0x3c9cb6c4	0.019130118
164	0xbd028945	-0.03186919
165	0x3d9f5b84	0.07781127
166	0x3dc0127a	0.09378524
167	0xbda52389	-0.080634184
168	0xbd99ba17	-0.07506197
169	0x3d9e13df	0.07718634
170	0xbcba7817	-0.022762341
171	0x3dc0719d	0.0939667
172	0xbdb9cabe	-0.09071873
173	0xbdaba694	-0.08381382
174	0x3db47f06	0.0881329
175	0xbd99de40	-0.07513094
176	0xbb6ac368	-0.0035822038
177	0x3c101a00	0.008795261
178	0xbcde3b9c	-0.027128033
179	0xbc995970	-0.018719405
180	0x3d565334	0.052325442
181	0xbcdd5610	-0.027018577
182	0x3cfeb395	0.03109149
183	0xbd2d805d	-0.042358745
184	0x3d5ae687	0.053442504
185	0x3ceb6df6	0.028738957
186	0x3d575bec	0.052577898
187	0x3d85ed18	0.06539363
188	0xbd1f1136	-0.038834773
189	0xbd490ea7	-0.04908624
190	0x3d42ae3f	0.047529455
191	0x3caaed6c	0.020865165
192	0xbdb6c382	-0.08924009
193	0x3d2fdbe8	0.04293433
194	0x3d913740	0.07090616
195	0x3daffe89	0.085934706
196	0x3ccca677	0.02498172
197	0x3d4b0dc3	0.04957367
198	0xbd857bbd	-0.06517742
199	0x3d816e36	0.06319849
200	0x3d828d39	0.06374592
201	0x3c149b09	0.009070166
202	0x3d0f20b4	0.034943298
203	0x3dc95c41	0.09832049
204	0xbb33c610	-0.0027431287
205	0xbc643dd0	-0.013930753
206	0xbcb91e2e	-0.022597399
207	0xbd77dd4f	-0.06051379
208	0xbd999dfa	-0.07500835
209	0xbd9e16ab	-0.07719167
210	0x3cbffe52	0.023436699
211	0x3d732b0a	0.059367217
212	0x3d93c28d	0.07214842
213	0x3cb7739f	0.022394
214	0xbd0b53c4	-0.034015432
215	0x3da47740	0.08030558
216	0xbd830f42	-0.063993946
217	0xba969c19	-0.0011490613
218	0x3d7faab7	0.062418666
219	0xbd9643be	-0.073371395
220	0x3d8c2acb	0.068440996
221	0x3dc5e8f1	0.09663571
222	0x3db192c5	0.08670572
223	0xbd29d4de	-0.04146277
224	0x3dbf354f	0.0933634
225	0x3c5fd7e3	0.013662311
226	0x3d4cec29	0.050029907
227	0xbd62762b	-0.055288475
228	0x3d9dc2eb	0.07703193
229	0xbdc5e9dc	-0.09663746
230	0xbd3e4b6c	-0.046458647
231	0xbb7f7b9b	-0.0038983587
232	0xbd71e5d9	-0.05905709
233	0x3d51f313	0.051257204
234	0x3d432f58	0.047652572
235	0xbd42d193	-0.047563147
236	0xbdd167c9	-0.102248736
237	0xbd0c9cc6	-0.0343292
238	0xbcd2310b	-0.025658151
239	0xbd2059c0	-0.039148092
240	0xbdc01d40	-0.09380579
241	0xbba3ffd1	-0.005004861
242	0xbdcdc7bf	-0.10047864
243	0xbdc79a6a	-0.09746249
244	0x3db1ec0b	0.086876
245	0x3d27cee6	0.040968798
246	0xbc95a374	-0.018266417
247	0x3d829b03	0.063772224
248	0x3cd75cac	0.026289307
249	0x3da193c8	0.07889515
250	0xbd007214	-0.031358793
251	0xbdc796d3	-0.09745564
252	0x3d7ec98d	0.062203933
253	0x3a6a288d	0.0008932434
254	0x3d04b662	0.032400496
255	0x3cb54bc2	0.02213085

enc_p.lstm.weight_hh_l0 f4 [384, 96]
0	0xbd99a8ea	-0.07502921
1	0x3d77ec43	0.06052805
2	0x3d1c6797	0.03818473
3	0xbdc5721c	-0.09640905
4	0x3c71d387	0.014759905
5	0xbcd7c2b9	-0.026337968
6	0x3b229623	0.0024808727
7	0xbda3a5bb	-0.07990595
8	0xbdc88fde	-0.097930655
9	0xbd317bbb	-0.04333089
10	0x3d9261ab	0.07147535
11	0x3d272d68	0.040814787
12	0x3dba184a	0.09086664
13	0xbd0d1711	-0.034445826
14	0x3d8e4048	0.069458544
15	0xbcdd1df7	-0.026991827
16	0x3d0cce41	0.034376387
17	0x3b347a24	0.0027538622
18	0xbd70e16f	-0.05880874
19	0x3cc325d3	0.023821747
20	0xbd02d842	-0.03194452
21	0xbc06a980	-0.008219123
22	0x3bb22aa0	0.00543721
23	0x3dae6c51	0.085167535
24	0x3d7e680e	0.062110953
25	0x3d30ed37	0.043194976
26	0x3dba9390	0.091101766
27	0xbd0b7919	-0.034051035
28	0x3d618397	0.055057134
29	0xbd89a5d0	-0.06721079
30	0xbca702c3	-0.02038706
31	0x3dab0f48	0.08352524
32	0x3d7a375a	0.061087944
33	0x3d62976c	0.05532019
34	0xbd4a3cb5	-0.0493743
35	0xbcc9d010	-0.024635345
36	0x3ce348d8	0.027744696
37	0x3d6fc5ff	0.058538433
38	0x3dc18511	0.094492085
39	0x3c1ee639	0.009698444
40	0xbdcd3b59	-0.10021085
41	0x3db8b468	0.09018785
42	0x3d02a930	0.03189963
43	0x3db16b08	0.08662993
44	0x3d4b3f4d	0.049620915
45	0x3dcd8247	0.10034614
46	0x3d074757	0.03302702
47	0xbda6e000	-0.08148193
48	0x3cde2a86	0.027119886
49	0xbcb34cef	-0.02188727
50	0x3d36b7bc	0.044608817
51	0x3d61552d	0.05501287
52	0x3d8a2b54	0.067465454
53	0x3d0062b8	0.031344146
54	0x3d2ee7a9	0.042701397
55	0x3d7c4f08	0.061598808
56	0x3d2c6211	0.04208571
57	0x3d87129a	0.06595345
58	0xbba54d56	-0.0050446196
59	0xbd038674	-0.032110646
60	0xbd805b97	-0.062674694
61	0x3c1ad563	0.009450289
62	0x3d73bf48	0.059508592
63	0xbc81a4dd	-0.015825683
64	0xbd1d2f94	-0.038375452
65	0xbdaf3038	-0.08554119
66	0xbda836ff	-0.08213615
67	0x3d4a46b5	0.049383838
68	0xbdabd9e9	-0.083911724
69	0x3c00ebe1	0.007868738
70	0xbd4bdd55	-0.049771626
71	0x3c9bfaaf	0.019040434
72	0xbc6e0286	-0.014526969
73	0xbd74b189	-0.059739623
74	0x3b6822c0	0.0035421103
75	0x3d1103d6	0.03540405
76	0x3caed2bb	0.021340718
77	0xbd7fcb27	-0.0624496
78	0xbdb64fde	-0.08901952
79	0xbc729369	-0.014805653
80	0xbceb6798	-0.02873592
81	0xbd726a79	-0.05918357
82	0x3dc42b1c	0.09578535
83	0x3d1f84de	0.03894507
84	0xbd927554	-0.07151285
85	0xbd88d66e	-0.06681524
86	0xbd008954	-0.031380966
87	0xbae7f900	-0.0017698109
88	0x3c601cf2	0.013678776
89	0xbd46f6ff	-0.048575398
90	0xbd8e7d71	-0.0695752
91	0x3dce4a91	0.10072816
92	0x3db04cc0	0.08608389
93	0x3d11290c	0.035439536
94	0x3d83b386	0.06430726
95	0x3c30f97e	0.010801671
96	0xbd7ebfe8	-0.062194735
97	0x3db6a818	0.0891878
98	0x3d846b2b	0.06465753
99	0x3c8101da	0.015747953
100	0x3b35f9b3	0.002776724
101	0xbd849ccf	-0.06475221
102	0xbbd72450	-0.006565608
103	0xbd8cd0b8	-0.068757474
104	0x3d3a5635	0.04549237
105	0xbd9ecef3	-0.07754316
106	0xbd8ed5d4	-0.06974378
107	0x3cb379c4	0.021908648
108	0x3d86097c	0.06544778
109	0xbdbdf61f	-0.092754595
110	0x3d9af919	0.07567043
111	0xbd1f5508	-0.03889945
112	0x3d0afbd6	0.033931576
113	0xbd820373	-0.06348314
114	0x3dc3155e	0.0952556
115	0xbda0186b	-0.07817157
116	0x3d030d23	0.03199495
117	0xbba23288	-0.0049498715
118	0x3dca8a90	0.0988971
119	0x3d55d046	0.05220058
120	0x3c95f1fd	0.018303866
121	0xbd8f8b78	-0.070090234
122	0x3d889108	0.066682875
123	0xbcb20651	-0.021731528
124	0xbcd92eb5	-0.02651153
125	0xbd2e0c9c	-0.042492494
126	0xbda4e67b	-0.08051773
127	0xbd3e6620	-0.046484113
128	0xbc9a6821	-0.01884848
129	0xbd1f77b1	-0.038932506
130	0x3db97335	0.09055177
131	0xbdb484d1	-0.08814395
132	0x3dc88d6a	0.097925976
133	0xbd8fe186	-0.07025437
134	0x3d2827d9	0.041053627
135	0xbdbdae58	-0.09261769
136	0x3d78fade	0.06078612
137	0xbd32fd43	-0.04369856
138	0xbd5abba8	-0.05340162
139	0x3da5e3df	0.081001036
140	0xbdb25ed8	-0.08709496
141	0x3dbbb177	0.09164708
142	0xbd474c3b	-0.048656683
143	0x3d56987e	0.05239152
144	0xbd2e3f15	-0.04254063
145	0x3dbec7ed	0.093154766
146	0x3ca10060	0.0196535
147	0x3d6fbc7d	0.058529366
148	0xbd31b444	-0.043384805
149	0x3d1f8012	0.038940497
150	0x3d7ccafc	0.06171702
151	0xbd26a427	-0.04068389
152	0x3d8f03da	0.069831565
153	0xbdcadbe1	-0.0990522
154	0x3bd61366	0.006533074
155	0xbd88065b	-0.06641837
156	0x3c51de4b	0.012809346
157	0xbb261973	-0.0025344759
158	0x3c60a7bf	0.013711869
159	0xbd9287c4	-0.071548015
160	0xbd55808a	-0.052124538
161	0x3d9ba33c	0.07599494
162	0xbb3aad94	-0.0028484808
163	0xbda574fd	-0.08078954
164	0x3cb4269b	0.021991065
165	0xbd6e5aa3	-0.058191907
166	0x3d9dc888	0.07704264
167	0x3a218248	0.0006161076
168	0x3daf4ac8	0.08559185
169	0xbdcf69e3	-0.10127618
170	0xbbf26a7e	-0.0073979488
171	0x3daba0d9	0.08380289
172	0xbd3e16ab	-0.046408337
173	0xbbe40360	-0.00695841
174	0x3d18bb55	0.03728803
175	0xbdb528a2	-0.08845641
176	0xbd986a70	-0.07442176
177	0xbd09d519	-0.03365049
178	0xbd3a535e	-0.04548966
179	0x3dc5578d	0.096358396
180	0xbd4e975f	-0.050437327
181	0xbd3ba625	-0.045812745
182	0x3c165e54	0.009177763
183	0x3d21a2fe	0.039462082
184	0x3c2b8e39	0.01047092
185	0xbd5aab6d	-0.05338614
186	0x3d99c8cc	0.07509002
187	0xbdc18331	-0.09448851
188	0x3d978229	0.07397873
189	0x3ca1a23d	0.019730682
190	0x3c5e42dd	0.013565746
191	0xbdb94b63	-0.09047582
192	0x3bbf6908	0.005841378
193	0x3d30f1c5	0.04319932
194	0x3dbc3c87	0.09191232
195	0x3ca2b598	0.019861981
196	0x3db17d3e	0.08666466
197	0xbd3bc14f	-0.04583865
198	0xbc4da998	-0.012552641
199	0xbd8cba9b	-0.0687153
200	0xbc032a2d	-0.008005661
201	0xbca09541	-0.01960242
202	0xbd94f1c0	-0.07272673
203	0x3d69e33f	0.057101484
204	0x3ceaba64	0.028653331
205	0xbc8a52a1	-0.016885104
206	0x3d17e59c	0.037084207
207	0x3d310c87	0.043224838
208	0xbdb03e87	-0.08605676
209	0x3d62ea7b	0.0553994
210	0x3d8e21fc	0.06940076
211	0x3cc46ffb	0.023979178
212	0x3dc9bf08	0.098508894
213	0xbd57634b	-0.052584928
214	0x3db60af0	0.08888805
215	0xbda87066	-0.08224563
216	0xbbccf9a6	-0.0062553464
217	0x3d895297	0.06705206
218	0xbd0b08a8	-0.033943802
219	0x3d6d1e31	0.05789012
220	0x3c947357	0.018121405
221	0xbd9b2244	-0.07574895
222	0xbd329295	-0.043596823
223	0xbdbc7e86	-0.0920382
224	0x3ccae81a	0.024768878
225	0x3a821fa4	0.0009927643
226	0xbdcf72d4	-0.101293236
227	0x3d611ef2	0.054961152
228	0xbcfb4150	-0.030670792
229	0x3c9c8aab	0.01910909
230	0x3b855ffe	0.004070281
231	0x3d4f663d	0.05063461
232	0xbdbb362e	-0.09141193
233	0xbc81c37e	-0.015840288
234	0xbce4817b	-0.027893772
235	0xbc8ea301	-0.01741171
236	0x3db522da	0.08844538
237	0x3dcdeb1b	0.100546084
238	0xbdaaf672	-0.08347787
239	0xbc2fa210	-0.010719791
240	0xbd291122	-0.041276105
241	0x3db7310f	0.08944904
242	0x3afcb62f	0.0019280369
243	0xbcb52405	-0.022111902
244	0xbd4d051a	-0.050053693
245	0xbd94234f	-0.07233297
246	0x3d7dd6fa	0.061972596
247	0xbd8a7ee7	-0.06762486
248	0x3b38d9bd	0.0028205954
249	0xbd1b06db	-0.037848335
250	0xbca0c33b	-0.019624343
251	0x3d8885d1	0.066661485
252	0xbcd35a3a	-0.02579986
253	0x3ca7c7ae	0.020480957
254	0x3b89c304	0.004204156
255	0xbd88545c	-0.06656715

enc_p.lstm.bias_ih_l0 f4 [384]
0	0xbda0c5c0	-0.07850218
1	0xbcfdf684	-0.031001337
2	0xbd6615f2	-0.056173272
3	0xbce13ce1	-0.02749485
4	0xbcb34266	-0.021882247
5	0x3cce10b5	0.02515445
6	0xbdce3842	-0.10069324
7	0xbc6c6630	-0.01442866
8	0xbd448729	-0.04798046
9	0xbd8ec676	-0.06971447
10	0xbc6bc195	-0.014389415
11	0x3d7febc4	0.062480703
12	0xbd120ae2	-0.03565491
13	0x3d973bcd	0.07384453
14	0xbd7e493d	-0.062081564
15	0xbdb3b780	-0.08775234
16	0x3dcf7022	0.101288095
17	0x3bdd2f50	0.006750025
18	0x3d97c384	0.074103385
19	0x3cc39284	0.023873575
20	0x3d4f2c2d	0.05057924
21	0x3d86b239	0.06576962
22	0x3d4153c9	0.047199044
23	0xbd6b8db0	-0.05750817
24	0x3b176adb	0.0023104462
25	0x3dbf7ffd	0.09350584
26	0xbd68718e	-0.05674892
27	0x3d0be4e2	0.034153827
28	0xbc81ec59	-0.01585977
29	0xbdbbd0ad	-0.09170661
30	0x3d297c77	0.041378465
31	0x3ce109d5	0.027470509
32	0x3c536381	0.012902142
33	0x3dc59ed9	0.096494384
34	0x3c1672e1	0.009182663
35	0x3d0a5bf3	0.033779096
36	0x3bb9a4de	0.0056654057
37	0x3c66cdd1	0.014087156
38	0xbd11bd98	-0.0355812
39	0xbc36721c	-0.011135604
40	0xba90c7b4	-0.0011045844
41	0x3d1256e5	0.0357274
42	0xbdc5b771	-0.09654129
43	0xbcebfbf1	-0.028806658
44	0xbbdb5eb5	-0.0066946396
45	0xbd6618cf	-0.056176003
46	0x3ce40a78	0.027837023
47	0x3c134f65	0.008991097
48	0xbdc98262	-0.09839322
49	0xbc8cbf16	-0.01718096
50	0xbd8d384e	-0.06895505
51	0xbdad969b	-0.08475991
52	0xbcb82811	-0.022480043
53	0xbd62afce	-0.05534344
54	0xbcea5877	-0.028606636
55	0xbd2b5025	-0.04182448
56	0x3da3b659	0.079937644
57	0x3d7d51eb	0.0618457
58	0x3dae5ddc	0.08513996
59	0xbdc23863	-0.09483411
60	0xbc0ac25f	-0.008469193
61	0x3d7bca42	0.061472185
62	0x3cc17b82	0.023618463
63	0x3d2eb4a5	0.042652745
64	0x3dc63c1f	0.09679436
65	0xbd3a7cff	-0.04552936
66	0x3a2efdfb	0.0006675419
67	0x3cc1e95b	0.023670843
68	0xbcc73b42	-0.024320249
69	0x3d80985b	0.062790595
70	0x3d79b175	0.06096025
71	0x3d84d79e	0.06486438
72	0x3d3b9d65	0.0458044
73	0xbdbe3657	-0.09287708
74	0xbd01f17b	-0.031724434
75	0xbc41e1e8	-0.011833645
76	0xbbb58c1a	-0.005540383
77	0xbd95a540	-0.073069096
78	0xbd8ff6a9	-0.070294686
79	0x3c8076d6	0.015681665
80	0x3d95a6a9	0.073071785
81	0x3d5b6166	0.053559683
82	0xbc2a7f47	-0.010406322
83	0xbb794033	-0.003803265
84	0xbd8c91b1	-0.06863726
85	0xbd9faad1	-0.077962525
86	0x3da0f503	0.07859232
87	0x3da18e97	0.07888525
88	0xbd2981ab	-0.041383427
89	0xbdcc7489	-0.09983165
90	0x3d060bc7	0.032726076
91	0x3dceec05	0.10103611
92	0x3d197b9d	0.037471402
93	0x3d18a644	0.03726794
94	0xbd192c12	-0.037395544
95	0xbd92ac01	-0.071617134
96	0x3dbcf2ad	0.09225974
97	0xbdc79950	-0.09746039
98	0x3d2ef95a	0.04271827
99	0x3d14e4df	0.03635108
100	0x3bf40600	0.0074470043
101	0x3c84a7e0	0.01619333
102	0xbd418da9	-0.04725424
103	0xbcd72ad9	-0.026265549
104	0xbca3916f	-0.01996681
105	0xbd985e21	-0.07439829
106	0xbd9e4649	-0.077282496
107	0xbcc0f3be	-0.023553725
108	0xbb17be22	-0.00231541
109	0x3d0787a8	0.033088356
110	0x3d6fe8a0	0.058571458
111	0xbd30bbc4	-0.043147817
112	0xbc88b9fd	-0.016690249
113	0x3d26f756	0.04076322
114	0xbd10987c	-0.03530167
115	0xbcad3115	-0.021141568
116	0xbd2a7d54	-0.04162343
117	0x3d907b69	0.070547886
118	0xbdcbef24	-0.09957722
119	0x3d7dede9	0.061994467
120	0xbd619fac	-0.055083916
121	0x3c5bec66	0.013423061
122	0x3d93e959	0.07222242
123	0xbcc71308	-0.024301067
124	0x3d632bf9	0.055461857
125	0xbcd91cf3	-0.026503062
126	0xbb51197c	-0.003190606
127	0x3c624600	0.013810635
128	0xbd000576	-0.031255208
129	0x3d3bdf96	0.045867525
130	0xbc25b58a	-0.010114083
131	0xbdba183a	-0.09086652
132	0x3d8f20e0	0.06988692
133	0xbd29db20	-0.04146874
134	0xbce3d243	-0.027810222
135	0x3daae8de	0.08345197
136	0x3db9e593	0.09076991
137	0x3cb2914d	0.0217978
138	0xbc7a7ef5	-0.015289058
139	0x3da93666	0.08262329
140	0x3d833b1e	0.0640776
141	0xbd3a6994	-0.045510843
142	0x3cb0bb5a	0.021573711
143	0x3c5ba0b8	0.013405018
144	0xbda915c7	-0.08256107
145	0xbd8153d5	-0.06314818
146	0x3d860e30	0.06545675
147	0xbd77c81d	-0.060493577
148	0xbc45493c	-0.012041386
149	0x3ca27196	0.019829553
150	0xbdae5cb2	-0.08513774
151	0xbdc5d778	-0.09660238
152	0xbdb70c3a	-0.08937879
153	0x3dbf9954	0.09355417
154	0x3d8bd54a	0.06827791
155	0x3d2d8371	0.04236168
156	0x3dbc0614	0.09180847
157	0xbda25adb	-0.079274856
158	0x3d4cdab6	0.050013267
159	0x3d43d9e6	0.047815226
160	0x3d8c0cdd	0.06838391
161	0x3b9ca65a	0.004780573
162	0xbd9f2617	-0.07770937
163	0x3d427b57	0.047480907
164	0xbd39c612	-0.04535491
165	0xbd09bd57	-0.033627834
166	0xbd285f84	-0.041106716
167	0x3d9e1d1c	0.07720396
168	0xbc7cfd0f	-0.015441193
169	0x3d75bafa	0.059992768
170	0xbd62fee2	-0.055418856
171	0xbdcae5e2	-0.09907128
172	0xbcb258a0	-0.021770775
173	0x3d1a488b	0.03766684
174	0xbd222aef	-0.039591726
175	0xbcc9e49a	-0.024645139
176	0xbce26763	-0.02763719
177	0x3bea142c	0.007143518
178	0xbda956c3	-0.082685016
179	0x3d5a66e6	0.053320788
180	0xbc8ead39	-0.017416583
181	0x3d288334	0.04114075
182	0xbd8f313c	-0.069918126
183	0x3db809b6	0.08986227
184	0x3bf6ddd1	0.007533767
185	0x3d756875	0.05991407
186	0xbc08357e	-0.008313535
187	0xbc43d6ff	-0.0119531145
188	0xbd2ee94d	-0.04270296
189	0x3d133ae7	0.035944846
190	0xbdbe25fc	-0.09284589
191	0x3c60d681	0.013723017
192	0x3bc299b9	0.0059387353
193	0x3d83f001	0.064422615
194	0x3d81d68d	0.063397504
195	0xbdc507af	-0.09620606
196	0x3acaaf48	0.0015463615
197	0xbbfdd12c	-0.0077458825
198	0x3d9bdfae	0.07611023
199	0x3d794795	0.06085928
200	0x3d9a1459	0.07523412
201	0xbdd0770c	-0.101789564
202	0xbd22cf5a	-0.039748527
203	0x3d7a0e0f	0.061048564
204	0x3dc30351	0.09522117
205	0x3c819ff3	0.01582334
206	0xbce09a95	-0.02741746
207	0x3ca79adf	0.02045959
208	0x3d9f9614	0.07792297
209	0xbba203eb	-0.0049443147
210	0xbcf65e40	-0.030074239
211	0xbbddefaa	-0.006772955
212	0xbd7a213a	-0.061066844
213	0x3ca65f04	0.020308979
214	0x3d4c8aa4	0.049936906
215	0xbd395f4d	-0.0452569
216	0xbda2fe57	-0.07958668
217	0x3cab6252	0.020920906
218	0xbd9e8c08	-0.077415526
219	0xbd587193	-0.052842688
220	0xbb3fcf4e	-0.002926785
221	0xbdaf6509	-0.08564193
222	0x3c91a90e	0.017780807
223	0x3d8e00d7	0.06933754
224	0xbdb3601e	-0.08758567
225	0x3dc0402e	0.09387241
226	0x3d7e8374	0.062137082
227	0xbd8147f3	-0.06312551
228	0xbaf750ad	-0.0018868648
229	0xbdb86dcd	-0.09005318
230	0xbd5d9599	-0.054097746
231	0xbcf4951d	-0.029856259
232	0xbdba6671	-0.091015704
233	0x3da11b47	0.07866531
234	0xbcfb9a48	-0.030713215
235	0x3ca76685	0.020434627
236	0x3db41c54	0.08794466
237	0x3cf0e7af	0.02940735
238	0x3dc37175	0.095431246
239	0x3daff233	0.08591118
240	0x3d8d2956	0.0689265
241	0x3d1b3555	0.03789266
242	0xbd2416ec	-0.040060923
243	0x3db3fb3e	0.08788155
244	0xbdafceee	-0.085843906
245	0xbd61fabe	-0.055170767
246	0x3d855b46	0.0651155
247	0x3cd13bd9	0.025541233
248	0xbd673c88	-0.05645421
249	0x3c77e98a	0.015131364
250	0xbdb4cab5	-0.08827726
251	0xbd95441c	-0.072883815
252	0x3dc4e9f2	0.09614934
253	0xbda4e8ba	-0.080522016
254	0xbd625acc	-0.055262372
255	0x3d863b40	0.0655427

enc_p.lstm.bias_hh_l0 f4 [384]
0	0x3d6fce49	0.05854634
1	0xbd80bab2	-0.06285609
2	0xbc8f9d8d	-0.01753118
3	0x3dc1c557	0.09461468
4	0xbd017a76	-0.03161093
5	0x3da7b794	0.081893116
6	0x3d86d381	0.0658331
7	0xbce3a18b	-0.02778699
8	0xbda2fe60	-0.079586744
9	0xbceb8e06	-0.028754245
10	0xbd64062d	-0.055669952
11	0xbd5b8dca	-0.053602017
12	0xbda8c81b	-0.08241292
13	0xbdb0c645	-0.08631567
14	0x3c4cb2bd	0.012493786
15	0xbdc6ad0b	-0.09700974
16	0xbd58eed7	-0.05296215
17	0x3bf9ad0d	0.007619506
18	0xbdbef843	-0.09324696
19	0xbd3dadac	-0.046308205
20	0xbdba44fc	-0.09095189
21	0x3c7c2c45	0.015391414
22	0x3dcaabf4	0.09896079
23	0x3dabde5d	0.08392022
24	0x3d38e6d5	0.045142014
25	0xbd832b1f	-0.06404709
26	0x3da477f9	0.080306955
27	0xbd317dff	-0.04333305
28	0x3d7705a1	0.060308103
29	0x3b93ac73	0.0045066415
30	0xbd180569	-0.037114535
31	0x3dc537f0	0.0962981
32	0x3d0af331	0.03392333
33	0xbd95848c	-0.07300672
34	0xbd891bc8	-0.06694752
35	0x3d6a9fc7	0.05728128
36	0x3c69f91a	0.014280582
37	0x3dc46f25	0.09591512
38	0x3dc0d2ba	0.09415193
39	0xbd4d6626	-0.050146244
40	0xbc068d6d	-0.0082124295
41	0xbd833189	-0.064059325
42	0x3d7726c9	0.060339723
43	0x3cbbc97b	0.022923222
44	0xbcfed088	-0.031105295
45	0x3d02d3a7	0.03194013
46	0xbcb3db0c	-0.021955036
47	0xbdad130c	-0.084508985
48	0xbcbcb9ea	-0.02303787
49	0xbcd835ef	-0.026392905
50	0x3d16ba6e	0.036798887
51	0x3dc3d3b7	0.09561866
52	0xbd5ecb91	-0.054393355
53	0xbdaa6a0d	-0.08321009
54	0x3d6f5d73	0.05843873
55	0xbd537212	-0.051622458
56	0x3b15a7b3	0.0022835552
57	0xbd3c58ce	-0.04598313
58	0xbd345462	-0.044025786
59	0x3ccab37a	0.024743784
60	0xbcc61444	-0.024179585
61	0x3d1b9bda	0.03799043
62	0x3d82a949	0.06379945
63	0xbdb29c83	-0.087212585
64	0xbd0caf15	-0.03434666
65	0x3caf503d	0.021400565
66	0xbd8527b6	-0.06501715
67	0xbc9f9aa5	-0.01948292
68	0xbd5ac6b1	-0.053412143
69	0x3bc26365	0.005932259
70	0xbdab5473	-0.08365717
71	0x3dbbbba8	0.09166652
72	0x3c20bd31	0.009810732
73	0xbc2cd568	-0.010548927
74	0xbba1d6e5	-0.0049389475
75	0x3d79c612	0.06097991
76	0xbbe53449	-0.0069947583
77	0xbd8dab8e	-0.06917487
78	0xbdcb0053	-0.09912171
79	0x3c94216e	0.018082347
80	0xbdb522d9	-0.08844537
81	0x3ce7b7e3	0.028285926
82	0xbcca8969	-0.024723725
83	0x3ca7488d	0.020420337
84	0x3cbe5b8c	0.023237012
85	0xbd7bb47e	-0.061451428
86	0xbd743ae4	-0.059626475
87	0xbd0d9807	-0.034568813
88	0x3d8fea82	0.07027151
89	0xbd637374	-0.055530027
90	0x3cfec6d7	0.031100674
91	0x3cdb717c	0.026787512
92	0xbc6ac3d3	-0.014328915
93	0x3d4f2240	0.050569773
94	0xbbc62155	-0.006046454
95	0xbc353a92	-0.0110613275
96	0x3d51fcde	0.051266544
97	0xbbcd85b6	-0.006272043
98	0x3c55b31f	0.013043194
99	0x3d1446b7	0.03620025
100	0x3c693b09	0.0142352665
101	0x3ce7dec2	0.028304461
102	0xbd09d52e	-0.03365057
103	0x3c89f03b	0.016838184
104	0xbda427e9	-0.08015425
105	0x3d96c351	0.073614724
106	0xbdcb971a	-0.0994093
107	0x3ae21e50	0.0017251465
108	0xbb98e221	-0.0046656285
109	0x3c814880	0.015781641
110	0xbd372e57	-0.044721927
111	0x3d9956f9	0.07487292
112	0xbd7db3a9	-0.061938915
113	0xbd0bb270	-0.034105718
114	0xbd639115	-0.055558283
115	0xbdbb6d29	-0.0915168
116	0xbd70bbfe	-0.058773033
117	0x3d5b00ce	0.053467564
118	0x3d3ee662	0.04660643
119	0x3d82f8de	0.06395124
120	0xbd007f92	-0.03137166
121	0x3d154745	0.03644492
122	0xbcb31ee0	-0.021865308
123	0x3dc11c49	0.09429223
124	0x3d93641d	0.071968295
125	0x3d2b8444	0.041874185
126	0x3da5e36f	0.0810002
127	0x3c9b71ec	0.01897522
128	0xbce6f6b5	-0.028193811
129	0xbdc36aae	-0.09541832
130	0xbda95010	-0.08267224
131	0xbd12a3c5	-0.035800714
132	0xbd8a120a	-0.06741722
133	0x3d965501	0.07340432
134	0x3b0c5b97	0.0021416896
135	0xbc882ea5	-0.016623804
136	0xbcc569a7	-0.02409823
137	0x3b32f55a	0.0027306885
138	0xbdbb922c	-0.091587394
139	0x3d02b853	0.031914067
140	0xbd501f48	-0.050811082
141	0xbc49a15e	-0.012306539
142	0x3d91857c	0.07105538
143	0x3d9e74a1	0.07737089
144	0x3bcf1277	0.00631934
145	0xbdb9ac21	-0.09066034
146	0xbd8af342	-0.06784679
147	0x3ce78324	0.028260775
148	0xbda062ad	-0.07831321
149	0x3dcceae2	0.10005738
150	0x3d283322	0.04106439
151	0x3d3d8b49	0.04627541
152	0x3be2130f	0.0068992446
153	0x3d9065f8	0.07050699
154	0xbd3ae340	-0.04562688
155	0xbdcf13b5	-0.10111181
156	0x3ca4ad14	0.020102061
157	0xbd5548c8	-0.052071363
158	0x3d66a652	0.05631096
159	0x3d678d6a	0.056531347
160	0x3c657bda	0.014006579
161	0x3d5ab6b8	0.05339691
162	0xbcbf2b77	-0.023336155
163	0x3d38aa5b	0.04508434
164	0x3c1fd1c8	0.009754606
165	0xbd93f413	-0.07224288
166	0xbceb6e67	-0.028739167
167	0x3c25011f	0.010071068
168	0xbcda8bd8	-0.02667801
169	0xbd92a315	-0.07160012
170	0xbc8d8e29	-0.017279701
171	0x3d91711e	0.071016535
172	0x3d7b28ac	0.061318085
173	0xbbaefe95	-0.005340407
174	0x3da5f6e2	0.0810373
175	0x3c0fcc3d	0.008776722
176	0x3b1845d9	0.0023234992
177	0xbcf0591e	-0.02933937
178	0x3bd651f4	0.0065405313
179	0x3ada85d6	0.0016671966
180	0x3d7f7c42	0.06237436
181	0xbd7839e9	-0.060602102
182	0xbdc68cb6	-0.09694807
183	0xbbb8262e	-0.0056197857
184	0xbd63c3a2	-0.055606492
185	0xbc3cd364	-0.011525009
186	0xbd9e16af	-0.0771917
187	0xbd83ed46	-0.06441741
188	0xbb8c242f	-0.0042767744
189	0x3c9cbbfd	0.019132609
190	0xbdc46733	-0.09589996
191	0x3d0a51f7	0.033769574
192	0x3d2e8b7a	0.042613484
193	0xbceb5abe	-0.028729793
194	0xbcded863	-0.02720279
195	0xbd8e3730	-0.0694412
196	0xbda07134	-0.07834092
197	0xbc9faed3	-0.019492542
198	0x3da4d812	0.08049025
199	0xbccd7e7e	-0.02508473
200	0xbc5526c6	-0.013009733
201	0x3c4dc9a8	0.012560286
202	0x3c466f7b	0.01211154
203	0x3d1a9f6f	0.037749704
204	0xbc7f7f17	-0.015594265
205	0xbd0cdba1	-0.034389142
206	0x3d80cb97	0.06288832
207	0x3d54cc21	0.051952485
208	0x3cd57008	0.026054397
209	0x3db1e01c	0.086853236
210	0x3cf8502b	0.030311665
211	0xbdb2aacb	-0.087239824
212	0xbdcbd73c	-0.09953162
213	0xbd8c524b	-0.06851634
214	0xbd9ace2f	-0.07558858
215	0xbaf08549	-0.0018350269
216	0xbbf040f3	-0.0073319613
217	0xbb964ea9	-0.0045870137
218	0x3cb2c910	0.02182439
219	0x3d5abea4	0.053404465
220	0x3c14cb83	0.009081724
221	0xbc8ca5b2	-0.017168853
222	0x3db345ab	0.087535225
223	0x3dc327cf	0.09529077
224	0x3db4c1c8	0.08826023
225	0xbbff8cf5	-0.007798786
226	0x3cf0ceb2	0.029395435
227	0xbd91fd42	-0.07128383
228	0x3d3290e0	0.043595195
229	0xbd66ed6e	-0.056378774
230	0xbd756664	-0.0599121
231	0xbd6ccc0e	-0.05781179
232	0x3d3f4ba3	0.046702992
233	0x3c844cc9	0.016149895
234	0xbcd580e8	-0.026062444
235	0xbd391055	-0.04518159
236	0xbd5eb249	-0.054369245
237	0xbd38844a	-0.045048036
238	0xbd59c378	-0.05316493
239	0xbd7cb96f	-0.06170028
240	0x3dd3b84c	0.10337886
241	0xbd911498	-0.07084006
242	0xbb738753	-0.0037159517
243	0xbd9c9d58	-0.076471984
244	0xbdcc12b0	-0.09964502
245	0x3dc06f9d	0.093962885
246	0xbccdc898	-0.025120065
247	0xbd1d4d58	-0.03840384
248	0xbc450e0c	-0.012027275
249	0xbd9ef541	-0.07761622
250	0xbda5f29f	-0.08102917
251	0x3d7d56db	0.06185041
252	0x3d303b3b	0.043025237
253	0xbd7d7b0a	-0.061884917
254	0xbd35821e	-0.044313543
255	0x3b2e76dc	0.0026621139

enc_f.lstm.weight_ih_l0 f4 [384, 4]
0	0x3d8d734c	0.06906757
1	0x3d861a6d	0.06548009
2	0x3db4f9d0	0.088367105
3	0x3d58b620	0.052908063
4	0x3c99f8ae	0.018795338
5	0x3d4f6644	0.050634637
6	0xbd6ee18b	-0.058320563
7	0x3d3295da	0.04359994
8	0x3d5d20bd	0.0539863
9	0xbd2166c6	-0.039404653
10	0xbbf4b00f	-0.007467277
11	0x3dc8f0b5	0.09811536
12	0xbd9f075a	-0.07765074
13	0xbcc5d11e	-0.024147566
14	0xbd632378	-0.055453748
15	0xbcde5061	-0.027137937
16	0x3bac455a	0.005257291
17	0x3d87427e	0.06604479
18	0xbd20a5d5	-0.03922065
19	0xbd29c689	-0.041449104
20	0xbcdb2e12	-0.026755366
21	0x3d5dd11e	0.054154508
22	0x3db865d4	0.09003797
23	0x3cc2ceeb	0.023780307
24	0xbc71e71d	-0.014764574
25	0xbb84dbc9	-0.0040545207
26	0x3d05bd0c	0.032650992
27	0xbd19188b	-0.03737692
28	0xbc41e704	-0.011834864
29	0xbdc3f98d	-0.095690824
30	0xbd8f637e	-0.070013985
31	0xbdc0f6a4	-0.09422043
32	0xbcc71b53	-0.024305021
33	0xbd1269a0	-0.035745263
34	0xbdbb1eac	-0.091367096
35	0x3d75e30f	0.060030993
36	0x3d1cdcb5	0.03829642
37	0xbd4f4582	-0.050603397
38	0x3d409ef5	0.047026593
39	0x3d39239d	0.04519998
40	0x3d27d6ae	0.04097622
41	0xbdbd2dd5	-0.092372574
42	0xbd33f43e	-0.0439341
43	0xbdce4091	-0.10070909
44	0xbdcd96d8	-0.10038537
45	0x3d983049	0.07431085
46	0x3cea37cd	0.028591061
47	0x3d6ee985	0.05832817
48	0x3cfae60e	0.030627277
49	0x3dc7b1ca	0.097507074
50	0xbdb94692	-0.09046663
51	0x3c2d3ca6	0.010573542
52	0xbd34c741	-0.044135336
53	0xbc704abb	-0.014666255
54	0x3d5877bf	0.052848574
55	0x3d03244c	0.032017037
56	0x3d16e13d	0.036835898
57	0x3d2c9848	0.042137414
58	0xbd285816	-0.04109963
59	0x3d82f856	0.063950226
60	0xbd84342a	-0.06455262
61	0xbd21d211	-0.039506976
62	0xbb71e6c0	-0.003691122
63	0xbd2f0744	-0.04273154
64	0x3d845386	0.06461243
65	0xbdca8ca6	-0.09890108
66	0x3d0d819e	0.03454744
67	0xbd2778db	-0.04088674
68	0x3c83d5c7	0.016093148
69	0x3cb8b674	0.022547938
70	0xbc0cb051	-0.008586959
71	0x3dc84162	0.09778096
72	0xbcb54b2b	-0.02213057
73	0x3d9f8a35	0.07790033
74	0xbda35a4f	-0.07976209
75	0x3885d969	6.38243e-05
76	0xbb21fef3	-0.0024718612
77	0xb9c98563	-0.00038437088
78	0x3cb20e14	0.021735229
79	0x3d5e6c4e	0.054302506
80	0xbd7725fc	-0.06033896
81	0xbdb65d91	-0.08904565
82	0x3d1d37ed	0.038383413
83	0xbc7e2709	-0.015512236
84	0xbc52e5c4	-0.012872163
85	0xbbab1274	-0.0052207056
86	0x3d8fcbb9	0.07021279
87	0x3d0fe60f	0.03513151
88	0xbd71aa45	-0.059000272
89	0x3d4046a7	0.04694238
90	0xbd22dc6a	-0.039760984
91	0xbc5b32cc	-0.01337881
92	0xbd8e234c	-0.06940326
93	0x3d7bd7c7	0.06148508
94	0xbd57c371	-0.05267662
95	0xbdad4628	-0.08460647
96	0xbdb447fe	-0.08802794
97	0xbd32ac83	-0.04362155
98	0x3d1b777c	0.037955746
99	0x3d950be8	0.072776616
100	0x3a07ce6a	0.00051805994
101	0xbd8ca68b	-0.06867703
102	0x3d956d71	0.07296265
103	0x3db24c2c	0.08705935
104	0xbc1fcbf6	-0.009753218
105	0x3d1f1efa	0.0388479
106	0x3d104960	0.035226226
107	0xbd39ec5f	-0.045391437
108	0xbd7c0a84	-0.061533466
109	0xbcfa9e03	-0.030592924
110	0x3a170908	0.00057615386
111	0x3d806159	0.062685676
112	0x3c968bac	0.018377148
113	0xbc503249	-0.012707301
114	0x3c466208	0.012108333
115	0x3d897e9b	0.06713601
116	0x3dcb10b3	0.099152945
117	0xbcba159b	-0.02271538
118	0xbccfcf70	-0.025367469
119	0xbdc239c8	-0.09483677
120	0xbcf33075	-0.029686192
121	0xbdc00395	-0.09375683
122	0x3db4e03a	0.0883183
123	0xbdc4fc27	-0.09618407
124	0x3d900556	0.07032268
125	0xbceb9df9	-0.02876185
126	0xbc9ca801	-0.01912308
127	0x3dcb8697	0.0993778
128	0x3dbb0a35	0.09132806
129	0xbd646d02	-0.05576802
130	0xbcc23be2	-0.023710195
131	0x3c1d7d23	0.009612354
132	0x3d0258d9	0.031823013
133	0xbd4d37a4	-0.05010189
134	0xbdb3919f	-0.087680094
135	0xbd98bc9f	-0.074578516
136	0x3c2af4b8	0.010434322
137	0xbd831231	-0.06399954
138	0xbd6fba2c	-0.058527157
139	0x3d527015	0.05137642
140	0x3d6d3cb3	0.057919215
141	0xbcfb59e0	-0.030682504
142	0xbc8a8ddb	-0.016913345
143	0xbd30e8a6	-0.04319062
144	0x3d8ae8a6	0.067826554
145	0x3d84c39d	0.06482623
146	0x3db82642	0.08991672
147	0x3d36961c	0.04457675
148	0xbce1ff62	-0.027587596
149	0xbcf9dc7c	-0.030500643
150	0xbdcd3078	-0.1001901
151	0xbdb8889d	-0.09010432
152	0xbdc3a4ed	-0.095529415
153	0xb9e40c62	-0.00043496775
154	0xbda84c1b	-0.08217641
155	0x3d9afffe	0.07568358
156	0xbd6a1a7b	-0.05715416
157	0xbdc07250	-0.093968034
158	0x3d2a6248	0.041597635
159	0x3d7d7215	0.061876375
160	0x3d6386ae	0.055548362
161	0x3db51f0e	0.08843814
162	0x3c4eef7d	0.012630341
163	0xbd307e08	-0.043088943
164	0xbdca82ba	-0.09888215
165	0x3cf3a9ec	0.029744111
166	0x3ae88e60	0.0017742626
167	0x3cb57fbb	0.022155633
168	0x3d4d1861	0.050072078
169	0x3d014ac1	0.03156543
170	0x3cc01914	0.023449458
171	0xbcb68ee4	-0.022284932
172	0x3cb3a4de	0.0219292
173	0xbb51d87c	-0.0032019904
174	0x3dafd35d	0.08585236
175	0x3d97e9a8	0.07417613
176	0xbc6ef0fa	-0.0145838205
177	0xbc177756	-0.0092447605
178	0x3adb1713	0.0016715251
179	0x3d0efd93	0.034909796
180	0xbd13ec23	-0.03611387
181	0xbdae048f	-0.08496963
182	0x3db96cd9	0.09053964
183	0xbcb6326a	-0.022240836
184	0x3d69ed7b	0.057111245
185	0x3d4621cd	0.04837208
186	0x3bc8b096	0.0061245663
187	0xbce69cc7	-0.02815093
188	0x3bf215fb	0.007387874
189	0xbda3dad5	-0.08000723
190	0xbdc02042	-0.09381153
191	0xbcaa5f21	-0.020797314
192	0xb8989098	-7.2748575e-05
193	0x3da9f749	0.08299119
194	0x3d70081f	0.058601495
195	0x3dccc229	0.099979706
196	0x3c8ca77d	0.017169708
197	0x3cb983ad	0.022645796
198	0x3ce6ebc6	0.028188597
199	0xbc03ee79	-0.008052462
200	0x3c3994ea	0.011327008
201	0xbd77564f	-0.060385045
202	0x3db9a035	0.0906376
203	0x3d0d4993	0.034493994
204	0x3c7ef3f7	0.015561095
205	0xbd9c7759	-0.07639951
206	0x3d281445	0.041034956
207	0xbcc59543	-0.024119025
208	0xbcf57e8b	-0.029967567
209	0xbd75c191	-0.059999052
210	0xbd080f4e	-0.03321772
211	0x3d686562	0.05673731
212	0xbd9f5b14	-0.07781044
213	0x3d85a97d	0.06526468
214	0xbd9e8f52	-0.0774218
215	0x3d41cc10	0.04731375
216	0x3d3e9960	0.04653299
217	0x3bb423be	0.005497425
218	0x3c356923	0.01107243
219	0xbcbc22f4	-0.022965886
220	0x3c73e7cd	0.014886809
221	0x3cd6051f	0.026125489
222	0xbdaaf20b	-0.08346947
223	0xbce81dd0	-0.028334528
224	0xbd9ee0a3	-0.0775769
225	0x3d85086a	0.064957455
226	0xbd3d766d	-0.046255518
227	0x3d89df77	0.06732076
228	0x3dbf4a6c	0.09340367
229	0x3c3976f2	0.011319863
230	0x3d675d0b	0.056485217
231	0xbdab7837	-0.083725385
232	0xbd10b6a5	-0.035330433
233	0x3c4f9933	0.012670803
234	0x3b80c66e	0.0039299047
235	0x3d03b55a	0.032155372
236	0xbdc94ceb	-0.09829124
237	0x3be70a94	0.0070508216
238	0xbcf283da	-0.029603887
239	0x3d9ce452	0.07660736
240	0xbd0c4e88	-0.03425458
241	0x3d50dd5e	0.050992362
242	0x3c1e6f82	0.00967014
243	0xbd5bcdf0	-0.053663194
244	0x3d9e8ad4	0.07741323
245	0xbd8cf6a0	-0.068829775
246	0x3d4f0071	0.05053753
247	0xbd05d250	-0.032671273
248	0xbdba2ec8	-0.09090954
249	0x3dbbfe96	0.09179418
250	0x3c592309	0.013252982
251	0x3dbdfdb6	0.09276907
252	0xbce2f7f8	-0.027706131
253	0x3dcea2f7	0.10089677
254	0xbbd6fe80	-0.0065611005
255	0xbd802e6e	-0.06258856

enc_f.lstm.weight_hh_l0 f4 [384, 96]
0	0xbc8b77d8	-0.01702492
1	0x3d54336b	0.05180685
2	0xbd0a457d	-0.033757675
3	0xbbe0a39e	-0.006855442
4	0x3d1698c8	0.036766797
5	0xbd36260a	-0.04446987
6	0x3dbf3d0b	0.09337815
7	0xbd56a052	-0.052398987
8	0xbacc77af	-0.0015599633
9	0xbca76af0	-0.020436734
10	0x3dc5467c	0.096325845
11	0xbc141a16	-0.0090394225
12	0xbdc10d5f	-0.094263785
13	0x3dae69fc	0.08516309
14	0xbd823acb	-0.0635887
15	0x3d3a4af3	0.045481633
16	0x3cc5b67a	0.024134863
17	0xbdc57c57	-0.096428566
18	0xbd51b81a	-0.051200964
19	0x3dbbe2bc	0.091741055
20	0xbdb18b3c	-0.08669135
21	0xbda72477	-0.08161252
22	0x3c7df6de	0.015500752
23	0xbdc533cf	-0.09629022
24	0x3d0c4eee	0.03425496
25	0xbdba025f	-0.090824835
26	0xbc6c98f4	-0.014440764
27	0xbd8a88a2	-0.06764342
28	0xbdbfbcab	-0.093621574
29	0xbda45977	-0.080248766
30	0xbbb319ca	-0.005465721
31	0x3dc93fcf	0.09826624
32	0x3d96efdb	0.073699676
33	0x3dc98a56	0.098408386
34	0xbc25d9e6	-0.010122752
35	0x3d4f2a21	0.050577287
36	0xbce887cd	-0.028385067
37	0xbd77f8b2	-0.06053991
38	0xbce28bdd	-0.027654583
39	0xbcbee23b	-0.023301234
40	0x3d4efe76	0.05053564
41	0xbd9a8e28	-0.075466454
42	0xbd537b58	-0.0516313
43	0x3cad51c8	0.02115716
44	0x3d68291f	0.05667984
45	0xbd05b8ae	-0.032646827
46	0x3d25bd81	0.040463928
47	0x3bbe353b	0.0058046854
48	0xbcfc87f9	-0.030826556
49	0x3d88ba24	0.066761285
50	0xbd8b9fed	-0.06817613
51	0x3da2bc63	0.07946088
52	0xbbf0195c	-0.007327242
53	0xbce8866e	-0.028384414
54	0x3b0830a2	0.002078094
55	0xbdcc54eb	-0.09977134
56	0xbd26ae09	-0.040693317
57	0x3d642a0c	0.05570416
58	0x3db9319b	0.090426646
59	0x3c952b5d	0.018209154
60	0x3c20606f	0.009788617
61	0xbdc5c74b	-0.09657153
62	0x3d8fba29	0.07017929
63	0x3d9c230f	0.076238744
64	0xbd5381c1	-0.051637415
65	0xbd212708	-0.039343864
66	0xbd4ffb83	-0.05077697
67	0xbd52645e	-0.05136525
68	0x3d218ec7	0.039442804
69	0x3dc52690	0.09626496
70	0xba28f903	-0.0006445797
71	0xbd903a6f	-0.07042395
72	0xbc7f0bf0	-0.015566811
73	0x3c37812d	0.0112002315
74	0xbc54858f	-0.012971296
75	0x3da98fcd	0.08279381
76	0x3cebd647	0.028788699
77	0xbc62ff54	-0.01385482
78	0x3db68385	0.08911804
79	0xbda31b73	-0.0796422
80	0xbbb95cc8	-0.0056568123
81	0xbc5f7d9f	-0.01364079
82	0x3d7738e5	0.060356993
83	0x3c11aba8	0.008891024
84	0xbc490d5a	-0.01227125
85	0xbda57076	-0.08078091
86	0xbdc2b80f	-0.09507763
87	0xbd63a6c2	-0.055578955
88	0xbdc25d06	-0.09490399
89	0x3dce42d3	0.100713395
90	0x3d36a91a	0.04459486
91	0xbd4d2f58	-0.05009398
92	0x3c13843a	0.009003693
93	0x3d029e8d	0.031889487
94	0x3d9dc2df	0.07703184
95	0xbd224045	-0.039612073
96	0x3c111a39	0.00885635
97	0x3da06358	0.07831448
98	0x3d86f30d	0.06589327
99	0x3ac60190	0.0015106667
100	0xbce01fc4	-0.027358897
101	0xbd07cf00	-0.033156395
102	0xbda85621	-0.08219553
103	0xbd8494d6	-0.06473701
104	0x3da9f2af	0.08298241
105	0xbdce5501	-0.10074807
106	0x3dcc374c	0.099714845
107	0xbd75d9e8	-0.060022265
108	0x3c91a026	0.01777656
109	0x3d916224	0.07098797
110	0x3da8ea8c	0.08247861
111	0xbc7ac4f4	-0.015305746
112	0x3d89c5b6	0.067271635
113	0xbd7a6ef7	-0.06114098
114	0xbda4c5db	-0.080455504
115	0x3d06cb2a	0.032908596
116	0x3cf94431	0.030428024
117	0xbca53a05	-0.020169267
118	0x3d1d357f	0.038381096
119	0xbda74b79	-0.08168692
120	0xbc564862	-0.013078781
121	0x3c3c9836	0.011510899
122	0xbd6eaa78	-0.05826804
123	0xbc14d902	-0.009084942
124	0x3bbefbdf	0.005828365
125	0x3d6f3454	0.058399513
126	0x3ce59068	0.02802296
127	0xbcd6c5e5	-0.02621741
128	0x3bcf2250	0.006321229
129	0xbdcb42d7	-0.09924858
130	0x3b02b910	0.0019946732
131	0x3d9cfc48	0.07665306
132	0x3d8ef747	0.06980758
133	0xbbc56412	-0.006023892
134	0xbd91db40	-0.07121897
135	0x3c015f8e	0.007896317
136	0xbdc264d1	-0.094918855
137	0x3c40205a	0.011726463
138	0x3d6425ec	0.055700228
139	0xbd83289c	-0.0640423
140	0xbdb569c1	-0.088580616
141	0x3d9347ec	0.071914524
142	0x3ca57706	0.020198356
143	0x3d80856c	0.06275448
144	0x3dccbe9b	0.099972926
145	0xbc6f9cff	-0.014624833
146	0xbd023b1d	-0.031794656
147	0xbd7f6c5e	-0.062359206
148	0x3d86ba8c	0.0657855
149	0x3d8c6640	0.0685544
150	0xbdcb2ce4	-0.099206716
151	0xbd4e4689	-0.050360236
152	0xbdc6f8b2	-0.097154036
153	0xbca77328	-0.020440653
154	0x3d798409	0.060916934
155	0xbd7a1aa9	-0.06106058
156	0x3dc69687	0.096966796
157	0x3c9c2559	0.019060778
158	0xbc197e74	-0.009368528
159	0x3da466ca	0.08027418
160	0xbd7eb9f1	-0.062189046
161	0xbdc1a887	-0.09455972
162	0x3d7b19ef	0.06130403
163	0xbdb7408b	-0.089478575
164	0xbd859d59	-0.06524152
165	0xbca495f6	-0.020091038
166	0xbdcd1e6a	-0.10015567
167	0xbd523ae8	-0.05132571
168	0x3c8c73da	0.017145086
169	0x3d5ee993	0.054421972
170	0xbd0511e4	-0.032487765
171	0x3d7eda11	0.062219683
172	0x3da595d0	0.08085215
173	0x3ac12cca	0.001473808
174	0x3b7a0ea2	0.0038155694
175	0xbd8db3af	-0.069190376
176	0xbbdb9e2b	-0.0067022047
177	0xbd72f632	-0.05931682
178	0x3d16e2d6	0.03683742
179	0xbd7e9f0f	-0.06216341
180	0xbdd2bebd	-0.10290287
181	0x3cef6939	0.029224979
182	0xbda2d296	-0.07950322
183	0x3b52c6a9	0.0032161868
184	0xbd8ae23f	-0.06781434
185	0xbdaa788e	-0.08323775
186	0x3d6a8756	0.057257973
187	0xbd1ffa75	-0.039057214
188	0x3dc1afc1	0.094573505
189	0x3daad386	0.08341126
190	0xbc93826f	-0.018006532
191	0x3da5c432	0.08094062
192	0xbd550db1	-0.05201501
193	0xbdb08cab	-0.0862058
194	0xbd2140ed	-0.03936856
195	0xbd9e2d1b	-0.07723447
196	0x3cbc39d1	0.022976788
197	0xbd529d26	-0.0514194
198	0x3ce7f863	0.028316682
199	0x3c685493	0.01418032
200	0x3ce0b8bc	0.027431838
201	0x3d2db43d	0.042408217
202	0x3d75ba31	0.05999202
203	0x3da66350	0.08124411
204	0xbcd36a09	-0.025807397
205	0x3da2ccf1	0.07949246
206	0x3b0d29e7	0.0021539868
207	0xbcde31f8	-0.027123436
208	0xbd87d615	-0.0663263
209	0xbba9133e	-0.0051597646
210	0x3d935e33	0.071957015
211	0x3cbd881f	0.023136197
212	0x3c6d0018	0.014465354
213	0x3d926114	0.071474224
214	0x3d8ce42f	0.0687946
215	0xbd912783	-0.070876144
216	0x3d9f1f4c	0.07769641
217	0x3db3ef8d	0.08785925
218	0xbd3fc6d0	-0.04682046
219	0xbb86e84c	-0.0041170474
220	0x3d75f3f5	0.06004711
221	0x3d07a9d5	0.03312095
222	0xbcba06b9	-0.022708284
223	0x3da3a888	0.07991129
224	0xbbfa2490	-0.007633753
225	0x3d825863	0.06364515
226	0xbda176b3	-0.07883968
227	0xbcece58b	-0.028918048
228	0xbc467dca	-0.012114951
229	0x3d089b9f	0.033351537
230	0xbd111b1f	-0.035426255
231	0x3d58f3a6	0.052966736
232	0xbc131789	-0.008977779
233	0xbd9152ed	-0.07095895
234	0x3d2b2ed0	0.04179269
235	0x3d56745d	0.052357066
236	0x3cb2207b	0.021744004
237	0xbc120d46	-0.008914297
238	0xbd9f9751	-0.07792533
239	0xbcefeafc	-0.029286854
240	0x3c352237	0.011055521
241	0xbdd18df9	-0.10232157
242	0x3d50f498	0.051014513
243	0x3cf76e12	0.030203853
244	0x3d464f70	0.0484156
245	0xbcf4fa7b	-0.029904595
246	0xbcea373e	-0.028590795
247	0x3d087c93	0.03332193
248	0x3d6360d0	0.05551225
249	0x3cf5fa12	0.03002647
250	0xbd5d869e	-0.05408346
251	0xbd0f77f0	-0.03502649
252	0xbd25273f	-0.04032063
253	0x3d5a96af	0.05336636
254	0x3d60d5ca	0.054891385
255	0x3dba0de2	0.09084679

enc_f.lstm.bias_ih_l0 f4 [384]
0	0x3cf5014c	0.029907845
1	0xbd01e63e	-0.031713717
2	0x3dc32c68	0.09529954
3	0x3d403415	0.04692467
4	0x3d15b003	0.03654481
5	0x3da04eb7	0.07827514
6	0xbdb5e03a	-0.088806584
7	0x3d7cb10f	0.061692294
8	0x3d803d82	0.06261732
9	0x3b9fd3e2	0.0048775533
10	0xbd153a35	-0.036432464
11	0x3c8cfc63	0.017210191
12	0xbdab75ce	-0.08372079
13	0xbd64631e	-0.055758588
14	0xbda87dda	-0.08227129
15	0xbcad56e5	-0.021159599
16	0xbd4e2095	-0.05032404
17	0xbaa1f651	-0.0012356733
18	0xbd77f9d6	-0.060540996
19	0xbb9f9049	-0.004869495
20	0xbcb68316	-0.022279304
21	0x3ce8eacd	0.028432274
22	0x3d168f44	0.036757722
23	0x3cf76d87	0.030203594
24	0x3db77df9	0.08959574
25	0x3d84ed3d	0.06490562
26	0x3d2712f4	0.04078956
27	0xbd56c251	-0.05243141
28	0xbdc1961b	-0.094524585
29	0x3c03df5f	0.008048861
30	0xbd164f25	-0.03669657
31	0xbd67fe85	-0.056639213
32	0x3baaa7c6	0.0052079884
33	0x3d930ef7	0.07180589
34	0x3bbe47d8	0.0058069043
35	0xbda4f88e	-0.080552205
36	0xbd5b7842	-0.053581484
37	0x3d7d9b53	0.061915707
38	0xbd85bc49	-0.06530053
39	0xbd8665fe	-0.06562422
40	0x3d681bb5	0.05666705
41	0x3d0577a1	0.03258479
42	0xbc75cb59	-0.015002095
43	0xbd3115f2	-0.04323382
44	0x3d856b1f	0.06514572
45	0x3db0612c	0.08612284
46	0x3d82a28c	0.063786596
47	0x3c732b7c	0.01484191
48	0xbdc6ff22	-0.097166315
49	0x3d27783a	0.04088614
50	0x3dc7ca53	0.09755387
51	0xbdbabe1e	-0.09118293
52	0x3dc99886	0.09843545
53	0x3c35b492	0.011090415
54	0x3d0e09bb	0.03467725
55	0xbda29957	-0.079394035
56	0xbd84b5c2	-0.0647998
57	0x3d8c2311	0.06842626
58	0x3d0ba4c9	0.0340927
59	0xbaeb47ae	-0.0017950439
60	0x3ce05edc	0.027388982
61	0x3d7d170f	0.06178957
62	0x3d4a51c2	0.049394377
63	0xbcf31dcc	-0.029677294
64	0xbd679088	-0.05653432
65	0xbd5f551e	-0.054524533
66	0xbd99b117	-0.0750448
67	0x3d83336f	0.064062946
68	0xbd75e7b0	-0.060035408
69	0x3dafd48a	0.085854605
70	0x3da75842	0.08171131
71	0x3d884ba1	0.0665505
72	0xbd4ac17a	-0.04950092
73	0xbd242e4a	-0.040083207
74	0x3db5ab87	0.08870607
75	0x3d0c7eaf	0.034300502
76	0x3bd379e2	0.0064537385
77	0x3dc934cd	0.09824524
78	0x3d9a5a24	0.07536724
79	0xbc77317d	-0.0150874825
80	0xbdc753a9	-0.09732754
81	0x3d3d182b	0.046165626
82	0x3d7de0a1	0.0619818
83	0x3d3e7de8	0.046506792
84	0x3d8800de	0.066407904
85	0x3d1d2208	0.038362533
86	0x3db32ac4	0.08748391
87	0x3da2ed52	0.079554215
88	0x3c914ee6	0.017737817
89	0x3d29090f	0.041268405
90	0x3d6a0622	0.057134755
91	0xbc921c35	-0.017835716
92	0x3d51f5ad	0.051259685
93	0xbce05747	-0.027385367
94	0xbd5c9d6f	-0.053861078
95	0x3d1947c8	0.03742197
96	0xbcfd3ea9	-0.030913668
97	0x3da808c9	0.08204801
98	0xbd53afca	-0.051681317
99	0xbd024016	-0.0317994
100	0x3d250671	0.040289346
101	0x3c4b4da6	0.01240865
102	0xbdc16807	-0.0944367
103	0x3d83d350	0.06436789
104	0x3d268914	0.04065807
105	0xbd9137fa	-0.07090755
106	0x3d95d534	0.07316056
107	0x3c75ef7c	0.015010711
108	0xbcd90575	-0.02649186
109	0xbd9bbb79	-0.07604117
110	0xbc9c09a7	-0.019047571
111	0x3d965d67	0.07342034
112	0x3dc8b360	0.09799838
113	0x3d128099	0.03576717
114	0x3dc222bb	0.094792806
115	0xbcee0e3c	-0.029059522
116	0x3c5cb6eb	0.013471345
117	0xbd20d741	-0.039267782
118	0x3d557fa1	0.05212367
119	0xbcfcc8b7	-0.030857427
120	0x3d6f5ab6	0.058436118
121	0x3da1b164	0.07895163
122	0x3c30a5a7	0.010781682
123	0x3d9d4d63	0.07680776
124	0x3c842b50	0.016133934
125	0x3cb8f5cf	0.022578148
126	0xbd866598	-0.06562346
127	0x3d9e90e7	0.07742482
128	0xbc3fb6ef	-0.01170133
129	0x3d70aa15	0.058755953
130	0xbd648d4c	-0.055798814
131	0x3dc646a9	0.09681446
132	0x3d9df799	0.07713241
133	0x39ac2324	0.00032832578
134	0x3ca7ba95	0.020474711
135	0x3a5107cd	0.00079738797
136	0xbdc29dc1	-0.095027454
137	0xbc0fbd72	-0.008773195
138	0x3cd79a35	0.026318649
139	0x3db47d89	0.088130064
140	0x3d4c12b5	0.049822528
141	0x3c4a58c2	0.012350263
142	0xbd428170	-0.047486722
143	0xbbca1390	-0.006166883
144	0xbd59cf3d	-0.053176153
145	0x3c655ecc	0.013999652
146	0xbdb645ef	-0.089000575
147	0xbd34f1df	-0.04417598
148	0x3d4cd500	0.05000782
149	0x3db1380e	0.0865327
150	0xbda53949	-0.08067567
151	0xbb63a44a	-0.0034735375
152	0xbda97553	-0.08274331
153	0x3c8dc56a	0.017306048
154	0x3b354d6c	0.0027664555
155	0xbd4d6f85	-0.05015518
156	0x3c6a4c9b	0.014300491
157	0x3d848689	0.06470973
158	0x3d9e848f	0.07740127
159	0xbd8d9801	-0.06913758
160	0x3d8272d1	0.06369556
161	0x3dc02597	0.0938217
162	0x3c8aadf6	0.016928654
163	0x3dc3896b	0.09547695
164	0xbdbbd067	-0.09170609
165	0xbced4ebc	-0.028968208
166	0x3d42f47b	0.047596436
167	0xbdaf8391	-0.08570016
168	0x3c9ebc29	0.019376831
169	0xbdc98485	-0.09839729
170	0xbd9a6f3d	-0.07540748
171	0x3dbdce9c	0.09267923
172	0xbb9ed575	-0.0048472234
173	0xbd474f5c	-0.048659667
174	0x3d2dc792	0.042426653
175	0x3da46ecc	0.08028945
176	0x3dcaeec0	0.09908819
177	0x3c9e999f	0.019360362
178	0xbd1ddc08	-0.038539916
179	0x3d469bb3	0.04848833
180	0xbc46cd07	-0.012133843
181	0xbda55503	-0.08072855
182	0x3dcfae64	0.10140684
183	0x3dc96ed5	0.09835593
184	0x3c992734	0.018695451
185	0x3a8fe604	0.0010978584
186	0xbdced73c	-0.100996464
187	0xbd9b8d1c	-0.07595274
188	0x3d9c0b0c	0.076192945
189	0xbc863482	-0.01638246
190	0x3dbfef1b	0.093717776
191	0xbdad448b	-0.08460339
192	0x3d646023	0.055755746
193	0x3d38da59	0.045130108
194	0xbd7822ce	-0.060580067
195	0xbd088dfb	-0.033338528
196	0xbd48d06a	-0.049026884
197	0xbdba972b	-0.09110864
198	0xbdb858fe	-0.09001349
199	0x3dabb86a	0.083847836
200	0xbd97f230	-0.074192405
201	0x3c682296	0.014168402
202	0xbdc6eace	-0.09712754
203	0xbc956512	-0.01823667
204	0x3ced807e	0.028991934
205	0x3d8eb6dc	0.069684714
206	0x3b4faca6	0.00316886
207	0xbd73e137	-0.059540953
208	0x3ceada90	0.028668672
209	0xbdad923a	-0.08475156
210	0xbd310c80	-0.04322481
211	0x3d80b9ca	0.062854365
212	0xbd7ecedc	-0.062208995
213	0x3c5c7ccf	0.013457491
214	0x3c866273	0.016404366
215	0x3d88ded8	0.06683129
216	0x3d022933	0.031777572
217	0x3d542697	0.051794615
218	0xbd9ec715	-0.07752816
219	0x3bf35942	0.007426412
220	0xbd6affd5	-0.057372887
221	0x3d0964c7	0.033543374
222	0xbd9b4a3f	-0.07582521
223	0x3c2e1af0	0.01062654
224	0x3d0cfcd4	0.034420803
225	0x3d793fa7	0.06085172
226	0xbdc402d7	-0.09570854
227	0xbcd6864c	-0.026187085
228	0x3cde2b8c	0.027120374
229	0x3db6dd80	0.089289665
230	0x3d002952	0.031289406
231	0xbb32ad0e	-0.0027263793
232	0x3daf8688	0.08570582
233	0xbd2837f5	-0.04106899
234	0x3d13265e	0.03592526
235	0x3db5b2c6	0.08871989
236	0x3dbe1e93	0.09283175
237	0xbd8834bd	-0.06650684
238	0x3d32c1cf	0.04364186
239	0xbcd90cda	-0.026495386
240	0xbce19930	-0.027538866
241	0x3d1c40eb	0.038147848
242	0xbca710b6	-0.02039371
243	0xbb8b14b2	-0.0042444104
244	0x3d3ade8a	0.045622386
245	0x3da2f322	0.0795653
246	0xbdae0b1e	-0.08498214
247	0x3d1034df	0.03520667
248	0x3dc67709	0.09690673
249	0x3d6d1c86	0.05788853
250	0x3ceb3bb9	0.028715001
251	0x3ce02587	0.027361644
252	0xbd626106	-0.05526831
253	0x3d7dade2	0.061933406
254	0x3d796576	0.060887776
255	0x3db63b69	0.0889805
