_train/_models/20250919/삼성물산(028260)_20250919.pt (torch, 831847 bytes, 20 tensors)

enc_p.lstm.weight_ih_l0 f4 [384, 6]
00000000: d7e0 253c 82c3 b33c 6669 68bd cb12 63bd
00000010: 8f88 b4bd d9ad 723d c46a df3c 858f a23b
00000020: 18d3 af3d 299e ae3d 472a 9dbd 037b 3e3d
00000030: eac0 32bb f98a 9a3c a697 7d3d 9623 873c
00000040: 686e d1bb e5cf 7dbc 2a95 b73d fa96 cdbd
00000050: 5147 823d ee30 9f3d b251 95bd 8b33 0f3d
00000060: 9ef9 abbd 79a8 0ebd b9f9 c0bd 02b7 1dbd
00000070: 7e37 a13d 5e0a 3abc 2029 983d d9b4 763d
00000080: 149b 13bd 64ab 753d 856a 65bd 8de7 7dbc
00000090: be71 a83d 753c 53bc 8e69 4abd 6ebd febc
000000a0: 1265 eebc 9b70 acbd 9d47 453d f4a8 123d
000000b0: 1e5b 893d 54e3 c13d 06fe 5d3d 0429 a4bd
000000c0: cddb c53d 5f93 433d aa3d 333d 6751 f3b9
000000d0: 6004 af3b 0b6c b0bc ae46 833d f8e2 c6bd
000000e0: 66e5 90bb e6e4 47bd 4095 0e3d c776 7e3d
000000f0: 781f 85bd 806c c2bd 1e5c 63bd 97cc 47bd
00000100: a366 f53c 5d7d dbbb 6ace f0bc 5723 c93d
00000110: a914 613d 9212 8ebd 300e 9cbd 8fd1 52bd
00000120: f178 65bd 127e b53d 7765 95bd 45b7 78bd
00000130: 1c06 17bb cfe1 ca3c 7f59 8b3d da80 1e3d
00000140: 7ec3 333d 1d19 473d d543 ae3d 1c4b 45bd
00000150: 343d 003d f9ec a5bd 6679 aabd a00a 893c
00000160: 8bc6 44bd 3874 7cbd ab18 43bd c9fe 7cbd
00000170: 2673 373d fdc9 be3d 532a 8ebd 9761 c63b
00000180: 805d a73d da66 5a3c 563b 283d b360 b73d
00000190: 1fc3 cbbd ab2c cabd 2400 283d d945 913d
000001a0: d05f 86bd cf58 05bd f0e9 33bd 5f84 efbc
000001b0: 98a3 95bd c0c3 abbb 67e4 c7bd b03f 0e3d
000001c0: 5eb0 743d 297d c13d b76c 763d dfe3 b8bd
000001d0: 6445 553d 447e bf3d 25f1 2b3c 0b42 79bd
000001e0: 702a ed3c 5c3f ac3c 0221 4cbd 68e9 d03d
000001f0: 6845 20bc 2dbf 4c3c 2ec2 163d d956 5cbc
00000200: 8286 7ebd eec3 56bd 93e5 26bc 2c0d 463d
00000210: ea54 1dbc fd54 a1bd 5aec c8bd 8dde cb3d
00000220: 4a89 4fbd db06 2fbd dd20 38bd f68c a6bd
00000230: 9baf 8ebd 6caa 573d d8c3 bb3c f897 74bd
00000240: 1944 aabd 718c 93bd 70b9 04bd ff64 a63d
00000250: e4f5 563d 5e6a bdbd da4a 6c3c 45b6 743d
00000260: c190 18bd bccc 8bbc 28e6 97bd 57ab 81bd
00000270: 49b5 41bc 4823 803c 53e0 91bd 3129 023c
00000280: 49b1 4f3d e882 b3bc 5919 843d ab7a f83b
00000290: 27ba ef3c d007 b8bd 0e3c 83bd f33a a4bd
000002a0: be59 ad3d edb1 b2bd 4d24 5c3d 9182 b1bd
000002b0: b6a7 733d ef43 f43c 84bf 463d be4b cebd
000002c0: a2d4 76bc 2339 803c 238e 73bd 4acc 4f3d
000002d0: 79b9 89bd fa05 773d 258f 7c3d efe6 1a3d
000002e0: b5aa 8abc 5e93 b0bd e75c c53c 2e35 0abd
000002f0: 056f 61ba bde7 113d ebfe 2f3d 0e28 cabd
00000300: 9473 b13c 0ddb 18bd 528b 2cbd 6f36 093d
00000310: 216f bd3d 6414 74bd 6a7a bd3d 85a1 63bd
00000320: 541d efbc 0fbc 64bd 59ba 36bd e165 5f3d
00000330: 219d fabc 507b 973c 44b3 ffbc 8565 c73d
00000340: d168 343d c5a1 31bd 9230 8fbc 3294 8fbd
00000350: c137 a43c 7d87 813d 2990 673d 4cc8 96bd
00000360: 1f8b 993d 7234 fabc 9a4f a7bb e61e da3c
00000370: 30a7 0c3d 925b 21bc bfea 86bb 91dd 463c
00000380: a37e 0b3c 2ba0 9dbd 307b 28bc 3483 a2bd
00000390: 7d75 5dbc 5c8f a93d fbf3 07bb 3341 f93b
000003a0: a0da c5bc 694c c73d d4c8 aebd e866 40bd
000003b0: 78f5 eebb 6287 493d 8967 a3bc 1df2 b2bd
000003c0: 6328 c0bc ba69 17bc 23bb 30bd c4c6 933d
000003d0: 6ff6 423d 09ba c0bc 1023 a6bd 19b3 96bc
000003e0: 7a3f cb3d ec0a be3d 2483 f7bc 2955 b5bc
000003f0: 0287 76bd c400 3f3d a40a cd3d a4cf 543d
0.010124407 0.021943811 -0.05674114 -0.055437844 -0.08815109 0.059247825 0.02727259 0.0049609565
0.08585185 0.085262604 -0.076740794 0.046504032 -0.002727563 0.018865095 0.0619122 0.01649646
-0.0063913353 -0.01549146 0.08963998 -0.10038562 0.06361259 0.077730045 -0.07290973 0.034961265
-0.0839722 -0.034828637 -0.09422631 -0.038504608 0.078719124 -0.011355011 0.07429719 0.060231064
-0.036036566 0.059977904 -0.056009788 -0.015497101 0.082248196 -0.012892832 -0.04941707 -0.031096186
-0.029100928 -0.08419915 0.048164 0.035805658 0.06706832 0.094671875 0.054197334 -0.080156356
0.09661064 0.047747966 0.04375998 -0.0004640922 0.0053410977 -0.021535894 0.064099655 -0.097112596
-0.0044218777 -0.04880228 0.034810305 0.062124994 -0.06500143 -0.09493351 -0.05550777 -0.048779096
0.029956168 -0.006698294 -0.0293953 0.09821194 0.054951344 -0.06937136 -0.076198936 -0.051469382
-0.05602354 0.08861937 -0.072947435 -0.060721654 -0.0023044413 0.024765877 0.068041794 0.0386971
0.043887608 0.048607934 0.08509032 -0.048167333 0.031308368 -0.081018396 -0.08323936 0.0167287
-0.048040908 -0.061634272 -0.047630947 -0.06176642 0.04478755 0.0931587 -0.069416665 0.006054114
0.081721306 0.013330186 0.041072212 0.08953991 -0.09949326 -0.09871801 0.04101576 0.070934005
-0.065612435 -0.032555398 -0.043924272 -0.029237924 -0.07306594 -0.005241841 -0.09760361 0.034728706
0.05973851 0.094477005 0.060162272 -0.09027838 0.05206813 0.09350255 0.010494505 -0.060854
0.0289509 0.021026306 -0.049836166 0.10200769 -0.009782173 0.012496752 0.036806278 -0.0134484405
-0.062139995 -0.052432947 -0.010186571 0.048352405 -0.009602765 -0.07877538 -0.098107055 0.099545576
-0.05066804 -0.042731147 -0.044953216 -0.08132355 -0.06967088 0.05265276 0.022920534 -0.05971524
-0.0831377 -0.072045214 -0.03240341 0.08124732 0.052480593 -0.092488036 0.014422143 0.05974414
-0.037247423 -0.017065398 -0.07416946 -0.063315086 -0.011823007 0.015641823 -0.071228646 0.007944391
0.05070618 -0.021913007 0.06450147 0.0075829825 0.029263569 -0.08985865 -0.06407939 -0.08019056
0.084643826 -0.08725343 0.053745557 -0.08667482 0.059486113 0.02981755 0.048522487 -0.100730404
-0.015065344 0.015652245 -0.059461724 0.050731935 -0.06724829 0.060308434 0.06165995 0.03781789
-0.016927103 -0.08621858 0.02409215 -0.033742122 -0.0008599612 0.035621393 0.042967718 -0.09870921
0.021661557 -0.037318278 -0.042125054 0.033499178 0.09249712 -0.05958976 0.09251864 -0.05557396
-0.02918879 -0.05584341 -0.04461131 0.05454052 -0.030592503 0.018491417 -0.03121341 0.0973616
0.044045273 -0.043367166 -0.017479215 -0.07010688 0.020046117 0.063246705 0.056533966 -0.07362422
0.07497238 -0.030542586 -0.005105925 0.026626062 0.03433913 -0.009848492 -0.0041173394 0.0121377865
0.008514079 -0.07696565 -0.010283276 -0.07935181 -0.013516781 0.08279297 -0.002074479 0.0076066493
-0.0241521 0.09731371 -0.08534399 -0.04697314 -0.0072924457 0.049201377 -0.01994683 -0.08737586
-0.023456758 -0.009241516 -0.043147217 0.07215646 0.0475983 -0.023526208 -0.081121564 -0.018395947
0.099242166 0.09279427 -0.0302139 -0.022135334 -0.060187347 0.04663159 0.10011795 0.051955834

enc_p.lstm.weight_hh_l0 f4 [384, 96]
00000000: 8356 af3d 27b1 4f3d 9c1c c6bd 8054 4d3d
00000010: 00ff 92bc 95a9 b0bd 77e1 a73d ca58 b53d
00000020: 5d45 aabd 2453 503d e170 113d d2ac 983d
00000030: 9a38 603c 751b 153d 23dc 7d3d 27c5 07bd
00000040: 18cb 44bc 6d68 8c3d b134 703d 66be 92bd
00000050: 839c a83d 922e e6bc 91e0 9d3d 1201 ca3d
00000060: e51d aabd 1788 8bbd 2195 a73d 6183 6a3b
00000070: 452e b0bd a6bd e3bc a30b bebd 743b 2abd
00000080: e2c3 93bc 11fd 093d b594 a4bd 1003 0fbd
00000090: 56fb cebc 5d72 e6bc ced6 983c c8e2 a53d
000000a0: d0a4 5cbc 0169 96bc cb19 54bd 6627 a2bd
000000b0: e219 82bd b10d 4fbc b0ae f63b 1f4f 51bd
000000c0: 6e61 eebc 9220 5d3d b6a3 6dbd af9b af3c
000000d0: a1c3 943c 6b94 ae3d 6465 103d 8c2f e9bc
000000e0: fc05 00bd a18a 533c 4d0b af3d e5d5 333d
000000f0: f287 b63d eeeb 9e3d a216 72bd 3e22 50bc
00000100: 3ab7 70bd c273 773d 3999 68bc 83fc 86bd
00000110: d6db c3bd 7564 163c 87b1 c83d 41ca 4fbd
00000120: a258 b3bd c8aa 9d3d fdf9 81bc 2fb9 8a3d
00000130: e698 293b 519b 1f3d caed 483c 520b 3abd
00000140: 8b03 1d3c e5fd c5bc ac8c 9ebd 3913 06bd
00000150: 4732 45bd 7c0f 673d 8f76 413d aa18 673c
00000160: 7755 c43d a76c 953d f5d4 3b3c 4ccb ae3d
00000170: 3b4a 3ebd d369 47bd d574 903d 926f f13c
00000180: 0a97 723d 94c8 0d3d a262 e23c b458 963d
00000190: 9882 c33c f84e bdbd a25e a13c c90f 9c3c
000001a0: b425 20bd 8d20 b93c ae88 abbc db9b 9dbd
000001b0: 657a e63c 72a4 acbd b67b 383d 44ef 37bd
000001c0: a206 cfbc d6a3 e5bc a98a d03d 33ba 6d3c
000001d0: 7ebd 93bd 6695 4d3d a0e2 c73d 50ff 4e3d
000001e0: 29cb 2bba ae95 15bc 2eed c63d ad3d ca3d
000001f0: 63a1 873c 09ae a6bd de59 bbbc c38e c4bb
00000200: e70a 32bb 91fe ae3d c591 82bd 02fd 58bd
00000210: f4ad e1bc e2f3 f1bc cdfc b33c ecc5 c83d
00000220: 204c 693d e55e 85bd 5f83 a0bd ad27 4b3d
00000230: f559 963d 5a46 83bd b2e1 c43d 9f31 c4bc
00000240: 9bfc a3bd f58c c53c 3a32 4bbd feb4 a1bd
00000250: cd33 a03d f9df 68bd d760 513d 3518 7a3d
00000260: 0531 96bd c648 b53d ce40 b7bc e7b3 523d
00000270: 7a4d bf3d 79b6 3d3c 01f2 1a3d 4947 e73c
00000280: cd27 543d a74a 9c3d 9292 94bd 3036 773c
00000290: d35a b1bc cbcf 85bd cebf 923d c896 94ba
000002a0: c592 873c 8323 a5bd 788f 593c 0b97 aebd
000002b0: 5d87 86bd 7138 733d 0b26 22bd 8b36 253d
000002c0: e623 b3bd 1b43 0b3d 9c5a ca3b 65eb babd
000002d0: 34b2 cbbc f057 633d 8bd8 653d 3d28 94bd
000002e0: af90 25bc 34c3 c7bd 1ed9 5abd 1eee 953d
000002f0: cb56 6d3d 6595 84bd aff3 86bc c420 9bbd
00000300: 8400 2fbd c9ef ad3d 7e1c 513d 0301 ccbd
00000310: 7b74 0d3d 9cfe 403d 7029 cabc b96e b63b
00000320: 83bd b4bd 57e9 b63d 4af1 333c 812d 083a
00000330: d6dd c8bd cfdf c2bd 6295 8b3d 6b69 a13d
00000340: 10ed 553d 0d05 36bd 793a 57bd 3b10 25bb
00000350: 8bf6 c13d 379d 153c 99f7 2cbd 3959 8a3d
00000360: 907f b7bd 3442 98bd 562a b6bd 4ed0 63bc
00000370: 4c0c 8bbc 6bd0 8f3d 40a4 63bd 27e9 d33d
00000380: 1ae1 f73b 5ace 043d 8272 063d 5f73 a6bd
00000390: 4d7c b83d ebca 8cbc 5d68 323d 119f a2bd
000003a0: d444 15bd 26e7 e73c 4bbc 26bd 5808 c43d
000003b0: 66f7 c23b 4064 3d3c f2a3 a6bc 3916 a6bd
000003c0: 0f47 93bb cc41 743b 4760 0c3d b69c b33d
000003d0: e806 0b3d 1937 36bd b1f7 573c 91aa 0e3d
000003e0: dd42 573d 30f5 a9bd 98c8 7fbd 21bd b63d
000003f0: 1b61 91bd 6c27 7abd d846 d3bc 35fd 913d
0.08561423 0.050706055 -0.096734256 0.050129414 -0.01794386 -0.08626095 0.08197301 0.08854826
-0.08314011 0.05086054 0.03550804 0.07454838 0.01368537 0.03640314 0.061977517 -0.033147004
-0.012011312 0.06855855 0.058644 -0.07165222 0.08232977 -0.028098378 0.07708848 0.098634854
-0.08306483 -0.068130665 0.08182741 0.0035783874 -0.08602575 -0.027800392 -0.09279563 -0.041560605
-0.01803774 0.03368861 -0.08036176 -0.03491503 -0.02526633 -0.028130705 0.018657114 0.08099896
-0.013467029 -0.018360617 -0.05178241 -0.07917671 -0.06352593 -0.012637542 0.0075281486 -0.051100846
-0.029099192 0.05398614 -0.058017455 0.02143654 0.01815969 0.08524402 0.035252944 -0.028465055
-0.031255707 0.01291147 0.08547077 0.043905158 0.08912648 0.07759844 -0.059103616 -0.0127034765
-0.05876849 0.06041313 -0.014196687 -0.065911315 -0.09563415 0.009179224 0.09799486 -0.050729994
-0.0875714 0.076985896 -0.015866274 0.06773602 0.0025878488 0.03896648 0.012263725 -0.045420952
0.009583364 -0.024168918 -0.07741675 -0.032733176 -0.04814365 0.05641125 0.047232207 0.014105001
0.095866136 0.072961144 0.011464347 0.085348696 -0.04645751 -0.048684906 0.07053534 0.029472146
0.059226073 0.034615114 0.027634922 0.073411375 0.023865983 -0.09243578 0.019698445 0.019050496
-0.039098457 0.02259853 -0.020939197 -0.07695743 0.028134534 -0.08429803 0.045039855 -0.044905916
-0.025271717 -0.028032225 0.10182697 0.014509725 -0.07213877 0.050191306 0.09760022 0.050536454
-0.00065534055 -0.009129925 0.09713207 0.09875045 0.016556447 -0.08138663 -0.02287 -0.005998464
-0.0027167143 0.085446484 -0.063754596 -0.052975662 -0.027548768 -0.029535238 0.02197113 0.098033756
0.056957364 -0.0651224 -0.07837557 0.049598385 0.07341377 -0.06409903 0.096133605 -0.023949442
-0.08007165 0.024115065 -0.049608447 -0.0789585 0.0782238 -0.056854222 0.051117744 0.061058242
-0.073335685 0.08851771 -0.022369768 0.0514411 0.09340949 0.011579149 0.03782845 0.028232234
0.05179577 0.07631426 -0.072545186 0.015088603 -0.021649754 -0.06533774 0.0716549 -0.001133644
0.016549477 -0.08063414 0.0132788345 -0.08524903 -0.06568787 0.05938 -0.03958706 0.04033522
-0.087470815 0.033999544 0.0061753523 -0.09126929 -0.024865247 0.055503786 0.056114715 -0.07234237
-0.010105296 -0.09754029 -0.053429715 0.07320808 0.0579441 -0.06473807 -0.01647362 -0.07574609
-0.0427251 0.08493001 0.051052563 -0.099611305 0.034534913 0.047117814 -0.024677962 0.0055673984
-0.08825209 0.08931225 0.010982821 0.0005194769 -0.09807937 -0.09515344 0.06815602 0.07881435
0.052228034 -0.04443841 -0.052546 -0.0025186676 0.094708525 0.009131721 -0.042228315 0.06755299
-0.089598775 -0.07434502 -0.08894794 -0.013904644 -0.016973637 0.070221744 -0.055576563 0.10347205
0.007564676 0.032423355 0.032824047 -0.08127474 0.090080835 -0.017186603 0.04355656 -0.07940496
-0.036442593 0.028308462 -0.040706914 0.09571904 0.0059499023 0.011559546 -0.020341847 -0.081097074
-0.004494555 0.0037270663 0.034271505 0.087701246 0.033942133 -0.04448614 0.013181613 0.034830634
0.052554 -0.08298719 -0.06244716 0.08922792 -0.070985995 -0.061072752 -0.025790617 0.071283735

enc_p.lstm.bias_ih_l0 f4 [384]
00000000: 12d7 a83d 8f19 c9bd b90e 893d 5144 b6bd
00000010: c103 113c 31ef 22bd 24bd c13d 4eef a23d
00000020: f6ad c13d 01ae 9fbd 08d9 39bd b584 0cbd
00000030: 4fc7 d43c 330c bd3b 7682 cbbc 715c 2c3c
00000040: 45ce a6bb b698 24bd f3be 03bd 993a 7ebd
00000050: 1754 a7bd 6e20 b9bd 8270 6fbd f072 033b
00000060: 7b60 cbbc 1987 39bd fbd7 7fbd 6992 9e3d
00000070: 5af3 7bbd 1e2e 05bd 490c 723c 0435 9cbd
00000080: 2b15 bf3b c951 b1bd 119a 343d 3e98 cc3c
00000090: 018c 823c f1e1 86bd 947f da3c d727 c8bd
000000a0: 85b1 9cbd 5f80 27bc e0c0 4b3d b2e8 4fbd
000000b0: 7dbf 943d 4efc 52bd bcdc 603d fa5e ba3c
000000c0: 90e9 903d 3e7a c73c 43d8 ebbc 425f 26bd
000000d0: b0c0 fbbc 103b 1b3c 9537 823c 5606 bf3d
000000e0: a7ec ebbb e4d3 0dbd 0b5c 71bc 08c8 993c
000000f0: b580 b13d ad54 8cbd 09b9 c83d 9950 b3bd
00000100: f815 cd3c ca5f 53bd e16d 8b3d 356a 37bd
00000110: 5260 933c 1baf 853d 4756 febc 21da 7abd
00000120: b75a 6f3d 0429 673d 8689 ccbd 2e3b 4cbd
00000130: 1089 9bbc 051b 8bbb ed54 38bc 70b7 4b3c
00000140: 71c0 b63d 14a0 a63d 548c 53bb 6493 613c
00000150: f5a4 b43b b253 913c f19a 13bd b931 f1bc
00000160: fd19 c03c cd6f cdbd 9e0f a8bd 75ba bf3d
00000170: 7b14 1ebd 2970 5cbd 8f63 82bd 17f7 d23d
00000180: 862d d13d 4935 a93d 1dc6 493c c731 b7bd
00000190: 191a a8bd cbc7 b73d 3b7a 323d 8c2a b4bd
000001a0: e545 90bd 6aee 0c3d 86a5 b3bd 6106 80bd
000001b0: 8a5b 173d 41c3 a53c 8b50 903d f20e 3f3d
000001c0: 1eb9 553d 5030 bf3c ecc1 1a3d 9eba 9d3d
000001d0: 7c02 1eba 7d93 a13d d293 033d ef2c 77bd
000001e0: e206 963d d1c8 bfbd 2013 82bd 055d 393d
000001f0: a27b 4fbd bfd5 b33d 0f72 c3bd 6b55 ff3c
00000200: dadb 95ba 64bf 1a3d 927e cabd f954 883d
00000210: 20b7 14bd e7aa 453d c094 02bd 79e3 953d
00000220: 8ac3 ba3d 211c 2a3d d57f 103d d346 963d
00000230: 1a61 973a d73d 333c 25a7 2a3c cef6 f83c
00000240: f62e 7d3d 3a8d 873b 7a1c 9dbd aad4 b7bd
00000250: 2e06 a7bd b590 febc 9297 71bd 9fb4 4abc
00000260: da30 c63c 6ab7 bebd 51ae babc a677 b83d
00000270: 5d05 813d 9fd5 c73d abef 48bd 0706 5ebd
00000280: b37e 663a dc01 74bd 703c 373d 9c7f 62bb
00000290: 4d9f 3ebd e799 1d3d 4661 c13d f70e 4cbd
000002a0: c669 bb3d d76a 86bd 7f18 c43d a79d b23d
000002b0: a89e 54bc b2f3 b9bd 38f6 043d a9bb afbd
000002c0: 7bcf b13d add1 51bd 7655 43bc eafc 9b3d
000002d0: 4d0d a8bd 6f4d 3a3d 9fbc 84bd 75fb debc
000002e0: 37b8 8f3c df7d c23d c23c b4bd 2483 053a
000002f0: 1074 973d de4d a6bb 82e5 b83d cc37 313d
00000300: 19b7 cabd be36 9dbd c053 35bd 6d4c abbb
00000310: 1787 8fbd 1c09 32bd 2535 873d 637b abbd
00000320: 3580 a13b d37e 18bd 42d8 64bc dfdb 94bd
00000330: 17ef 883c d6a5 97bd 92fa 293c fe2e babc
00000340: 22fd 4dbd 586c 9b3c fb77 9abd b3cc 033d
00000350: 7276 a2bd 4ed2 c0bd a8e5 b8bd eb5a 483c
00000360: 89e5 a33d 7314 9f3d 96a5 86bd c548 f9bc
00000370: 9a16 5c3d f489 513d 5b3b 223d c126 64bd
00000380: 6ad5 b83d 3192 01bd b5fd d9bc 0774 f9bc
00000390: 5fb2 ba3c 865e c9bb 44a8 4e3b ee56 983d
000003a0: 0bba 9ebb 8c49 63bd 4b94 88bd e0a4 65bc
000003b0: 4d09 28bb c995 b13d ead6 52bd 0cf4 3a3d
000003c0: 2f15 28bd a165 90bb c193 a3bd c9d3 9ebd
000003d0: 99c9 a9bd 8841 ad3d a7b6 f0bc 71b5 43bd
000003e0: 6391 523d fa6f ba3d e68d cdbd 39b7 f43b
000003f0: dcf9 c53d d3a7 c9bd b07a b03c 595c 803d
0.082441464 -0.09819328 0.06692261 -0.08899749 0.008850993 -0.039778892 0.09459904 0.079558
0.094570085 -0.077968605 -0.045372993 -0.034306247 0.025973944 0.0057692765 -0.024842482 0.010520087
-0.005090507 -0.0401847 -0.032164525 -0.0620676 -0.08170336 -0.090393886 -0.058456905 0.0020057522
-0.024826279 -0.045294855 -0.062461834 0.07742769 -0.061511375 -0.032514684 0.014773437 -0.076272994
0.005831381 -0.086581774 0.04409224 0.024974938 0.0159359 -0.06586064 0.026672162 -0.09773224
-0.07651047 -0.010223477 0.049744487 -0.050759025 0.07263086 -0.051510148 0.05489801 0.022750366
0.070757985 0.024350282 -0.028789645 -0.04061819 -0.030731529 0.009474531 0.015895644 0.0932738
-0.007199842 -0.034625903 -0.014731417 0.01877214 0.08667127 -0.06852088 0.09800918 -0.08755607
0.02503489 -0.051605023 0.06808067 -0.04477902 0.017990265 0.06527539 -0.031047 -0.06124318
0.05843612 0.0564356 -0.09987168 -0.049861126 -0.018986255 -0.0042451643 -0.011250717 0.012433872
0.08923424 0.08136001 -0.0032279687 0.013768051 0.0055128285 0.017740104 -0.036036436 -0.029442655
0.023449892 -0.1003109 -0.08206104 0.09361736 -0.03859375 -0.0538179 -0.063666455 0.10301035
0.10213761 0.082621165 0.0123153 -0.08945041 -0.08208103 0.08973654 0.0435736 -0.08797178
-0.07044581 0.034407057 -0.087718055 -0.06251217 0.036952533 0.020234706 0.07046612 0.046645112
0.052178495 0.023338467 0.037782595 0.0770161 -0.0006027592 0.07889459 0.032123394 -0.060345586
0.073255315 -0.093644746 -0.06351304 0.045254726 -0.050655015 0.08781003 -0.09543239 0.03116866
-0.0011433319 0.03778018 -0.098874226 0.06656832 -0.036307454 0.04825869 -0.03188014 0.073187776
0.09119327 0.041530732 0.03527816 0.073377274 0.0011549324 0.010940037 0.010415827 0.030391123
0.061812364 0.0041367086 -0.07671447 -0.08976109 -0.081554756 -0.031074861 -0.05898244 -0.012372165
0.024193216 -0.09312327 -0.022788199 0.09007196 0.06299851 0.09757542 -0.04905669 -0.054204967
0.00087926834 -0.059572086 0.044735372 -0.0034560924 -0.04653864 0.03847685 0.094423816 -0.04981896
0.09151034 -0.06563347 0.09574985 0.08721476 -0.01297728 -0.09079684 0.032461375 -0.08580715
0.08682152 -0.051225353 -0.011922231 0.07616599 -0.08205662 0.045484003 -0.06481289 -0.027219513
0.017543895 0.09496664 -0.08800651 0.0005093089 0.07395184 -0.0050752005 0.0902815 0.043266103
-0.09898204 -0.07676457 -0.044269323 -0.0052276165 -0.07008188 -0.04346572 0.066019334 -0.083731435
0.0049286135 -0.037230324 -0.0139675755 -0.072684996 0.01671557 -0.074046776 0.010374682 -0.022727486
-0.050290234 0.01897256 -0.07542416 0.03217764 -0.07932748 -0.094151124 -0.090281785 0.012228708
0.08002765 0.07767572 -0.06574552 -0.030430207 0.053732492 0.051156953 0.039607387 -0.05570102
0.090250805 -0.03163356 -0.026610235 -0.030450834 0.022790132 -0.0061453013 0.00315334 0.074384555
-0.0048439554 -0.05549006 -0.0666891 -0.01401636 -0.002564031 0.086711474 -0.05147449 0.045642897
-0.041035827 -0.0044066464 -0.07987166 -0.077552386 -0.08290405 0.08459765 -0.02938397 -0.047780458
0.051408183 0.09103389 -0.100368306 0.007468131 0.096667975 -0.09846463 0.021542877 0.06267614

enc_p.lstm.bias_hh_l0 f4 [384]
00000000: ecc4 b0bd e280 503d b148 03bd 3bb0 d23c
00000010: c244 d1bd 8718 07bd 86ae 1b3d 9653 92bd
00000020: f6d1 663d b27d 06bd a691 ac3d 211d 193d
00000030: 929e 02bd b3ae 8e3c 5199 8a3d f795 533d
00000040: 439e 3abd 0e45 8bbd f666 b0bc 2ca3 d3bc
00000050: 035d 133d 66c1 94bc ac62 8e3d d6ce ac3d
00000060: dc36 19bd b861 95bd 772a 14bd 56e9 72bd
00000070: 445a 813c 79c8 b23d 99b7 803d 880e 843d
00000080: 6935 b7bd 08a2 533c 56a7 21bd 43d9 babd
00000090: 30cc 423d 1e2d 5dbd bce3 67bd f885 c7bc
000000a0: 7a3f 74bd 059d c03d 5878 1f3d 1263 1a3c
000000b0: dd0a 5e3d 26a0 e53b 4048 c2bd d3bb bc3a
000000c0: 6033 ab3d 5f3f 2ebb cc95 d13b e354 6e3c
000000d0: 8c35 c5bd e632 b7bd 53e5 d1bd 460c 2a3d
000000e0: 3284 833d c473 7f3d e303 213d a6aa 693d
000000f0: 1986 043c f419 423d 0326 cdbd 729b 453d
00000100: c05b 293d 0bf8 693c afce 1b3d f3ac 563d
00000110: 4adb 223d 6f0e bf3d 9fac 863d 03f9 893b
00000120: 05cf 07bd 461c c4ba cf2f 913d f6c7 03bd
00000130: 6cb5 57bd 8b49 cd3d 4ac8 6f3d be92 7e3d
00000140: c7bf 993d 6653 c73d ec81 e53c 172c b73d
00000150: c093 91bd 53c4 263d 279d a33d 485d 113d
00000160: 3a42 2e3d 803f ddbc fa9f 953d 4ca3 6abd
00000170: 4cd5 b43d 3e6c 623d ac71 623d 8935 cb3d
00000180: 759c 55bd 602a 343d 4f4a 0a3d ffb9 21bd
00000190: ca14 1ebd 28a8 373d 599e a4ba 95eb 86bd
000001a0: 9800 b9bd 4fee a03d cb13 8f3d c915 93bd
000001b0: f628 443d 91cb c0bd f3d7 863d 277d 82bd
000001c0: 15b8 40bd d060 e3bc 075d b33d 32a9 a43d
000001d0: 5302 c5bc 254e 6dbd 3aa8 7e3d 3cad bfbd
000001e0: 487f a0bd abf4 373d 78d0 933d 418b 7c3d
000001f0: dca7 cc3d 97ad acbd dc54 69bd 6903 15bd
00000200: d7cf aebd da0e a9bc 471b 9bbd cc46 c23c
00000210: 1076 563d 0461 d8bd 3429 61bd d0f5 61bd
00000220: 10e4 2c3c 03af b13d 6386 2abd fc3e c2bd
00000230: 7363 873d 79bc 6cbd e763 bb3d 4b4e 46bd
00000240: ba6b b2bd d8b8 b53d c08f 5a3d 25bd 7ebd
00000250: d516 a1bd 33c2 c1bd 394c 5bbd f812 8cbd
00000260: b6d3 b2bd f939 f0bc 4645 a93d ab17 c7bd
00000270: 6774 9f3d 8c6c 213b 8060 1a3d 346b be3d
00000280: c01a 143d a57e c2bd f0e9 0ebd c122 23bc
00000290: 3795 babc ff4c 96bd fc1c b53d e7cc 8dbd
000002a0: d0fd b23d e08a 4d3c 3abf 223d d960 c6bd
000002b0: 21f0 683b 3ce5 b9bd aac9 8f3d 9dcf 99bd
000002c0: 233e 9fbd db1a c33b b01b 35bd 366c aebc
000002d0: cdaa b3bd f5e1 acbc 3f6c ac3d 9f7a 073b
000002e0: 6b9b c43d 199e 76bd d087 00bd 0550 9fbd
000002f0: 77dc a9bd 1c51 be3d 16fc b73a 7188 dc3a
00000300: 6ef8 7a3d a3f3 d93c 1720 4abc 8aec 15bd
00000310: cd73 39bd 3048 b13d 0be6 c4bd 5746 b5bd
00000320: bf03 5fbb bac5 a73d f1f9 b5bd 4d3e 9fbd
00000330: b1aa 18bd b149 093d db89 083d 4251 863d
00000340: e5a7 d43b a258 a93d d733 68bc a8d0 bc3d
00000350: 4e26 183d 77dc dd3b 35cb a83d 9b7f 463d
00000360: c1e3 97bd 4dc0 bb3b 2194 8d3d 3119 c9bc
00000370: b46c 02bd 4fa9 0dbc c722 b0bd b3ae 5f3b
00000380: 96d8 a53d 361e 753c 800b 83bd 9305 bc3d
00000390: 208e 6bbd 0f33 b23d 48a7 62bd e1c9 bbbd
000003a0: 3daf 9b3d 6cdc d2bd 6f55 abbd 7564 86bb
000003b0: 2df2 083c f666 6d3c 839e fbbc 2829 ad3c
000003c0: b973 0c3d 0f78 92bd 1c4a 1cbd aa46 1fbd
000003d0: 2dd7 8fbd 3e95 85bd e590 a7bd fdb6 513c
000003e0: 96df b83a 4a4d 883b cc37 6dbd 1cd9 c7bd
000003f0: 80be cabd b047 773c 3900 b5bd 23ba 66bd
-0.0863131 0.050904162 -0.032051746 0.025718799 -0.10218193 -0.032982375 0.038008235 -0.07144849
0.056352578 -0.032834716 0.08426218 0.037381295 -0.031889506 0.017417287 0.06767524 0.05165669
-0.045561086 -0.068002805 -0.02153347 -0.025834642 0.035977375 -0.018158626 0.06952414 0.08437888
-0.037405834 -0.07294029 -0.03617331 -0.059304558 0.015790112 0.087296434 0.062850185 0.06448084
-0.08945734 0.012917049 -0.039466225 -0.09123471 0.04755801 -0.053998105 -0.05661367 -0.024355873
-0.05963085 0.09404949 0.038933128 0.009423034 0.05420958 0.0070076166 -0.09486437 0.0014399238
0.083594084 -0.0026588065 0.006396031 0.014546606 -0.09629354 -0.08945255 -0.10248818 0.04151561
0.06421699 0.062366262 0.039310347 0.05704751 0.008088612 0.047388032 -0.10017016 0.048243947
0.041347265 0.014280329 0.038038906 0.05241103 0.03975991 0.09328925 0.065758936 0.0042105927
-0.033156414 -0.001496204 0.07089197 -0.03217312 -0.05266325 0.10023793 0.05854062 0.062151663
0.07507282 0.09732704 0.028016053 0.08943956 -0.07108259 0.040714573 0.07988959 0.03548935
0.042543627 -0.027007818 0.07305904 -0.05728464 0.08829746 0.05527901 0.055284187 0.099223204
-0.052151162 0.043985724 0.033762272 -0.03948402 -0.038594045 0.0448381 -0.0012559398 -0.065879025
-0.090333164 0.07857954 0.06986197 -0.071818896 0.047890626 -0.09413827 0.06584158 -0.06371527
-0.047050554 -0.027756125 0.08757978 0.08040084 -0.02404896 -0.057935853 0.062172152 -0.09359214
-0.07836777 0.044911068 0.07217497 0.06165624 0.09992954 -0.08431547 -0.056965694 -0.036380205
-0.08535736 -0.020636965 -0.07573562 0.0237154 0.052358687 -0.10565379 -0.054970935 -0.055166066
0.010552421 0.08675959 -0.041632067 -0.094846696 0.06610765 -0.05779693 0.09149914 -0.04841451
-0.087119535 0.08873147 0.053359747 -0.0621921 -0.07865683 -0.09460869 -0.05353949 -0.068395555
-0.08731787 -0.029324519 0.08265166 -0.09721311 0.07785874 0.002463135 0.037689686 0.09297791
0.036158323 -0.09496812 -0.03489107 -0.009957016 -0.02277623 -0.073389046 0.08843419 -0.06923848
0.08739817 0.012545317 0.03973315 -0.09686441 0.0035543519 -0.09076926 0.07020886 -0.07510302
-0.077755235 0.005954129 -0.044215858 -0.021291833 -0.08772812 -0.021103838 0.08419084 0.0020672453
0.09599956 -0.060209367 -0.03137952 -0.077789344 -0.082940035 0.09292814 0.001403692 0.0016825331
0.061272077 0.026605433 -0.012336752 -0.036602534 -0.04527645 0.08656347 -0.0961419 -0.08851307
-0.0034029332 0.0819201 -0.08885563 -0.07775555 -0.03727216 0.033517543 0.033334594 0.065584674
0.006489741 0.082688585 -0.014172516 0.092194855 0.037145905 0.006770666 0.08241884 0.048461538
-0.074164875 0.005729711 0.06913019 -0.024548145 -0.03184195 -0.008646323 -0.08600383 0.0034131228
0.08097951 0.014960816 -0.06398678 0.09180751 -0.057508588 0.08701145 -0.055335313 -0.09169365
0.076017834 -0.102959484 -0.083659045 -0.004101331 0.00835852 0.01448988 -0.030715233 0.021137789
0.03429005 -0.071518056 -0.038156614 -0.03888575 -0.070234634 -0.06522606 -0.08181933 0.012799975
0.001410472 0.004159604 -0.05791454 -0.09758207 -0.09899616 0.015092775 -0.08837933 -0.056329858

enc_f.lstm.weight_ih_l0 f4 [384, 4]
00000000: 3fd3 37bc 0055 3dbd 19a4 973d 702b 423d
00000010: 1f5d a23c bbec 803d 5221 ea3c 7262 83bd
00000020: 2612 a83d c618 adbd 4e6c 5abd a2ff 533d
00000030: 27f0 b9bc e89f d1bd a949 c93c 6b9f c3bd
00000040: 851c 613c b1fb 9a3d 60ef 36bd 10ac b03d
00000050: 6368 d3bc 2417 e83c 2a39 b53d ec34 55bd
00000060: 0825 2bbd 9513 053c a153 463d faf2 543d
00000070: bac0 94bd 41f3 82bd 4f58 0dbd 4e3c 523d
00000080: 6aeb 3e3a 83b7 c03c 607b 043d 6a1b 37bd
00000090: cd43 8d3d 3c31 253d 1e34 c63d dcaa 0b3d
000000a0: 7092 81bd 9a50 803c f7cc 093d 7276 c1bd
000000b0: 5150 343c 1bff 49bc 4027 8d3d 72b3 43bd
000000c0: 4831 fe3c 1745 6d3c 4bfa a0bd e3c4 82bd
000000d0: 2fca c23d 8b12 053d e177 973d d494 ef3c
000000e0: 6596 09bd 9de9 863d 616b bfbd 9aa6 203d
000000f0: 49f6 bebd b49e 95bd 321f 9a3b aa5e cb3b
00000100: ee9a c53d bf31 05bd f059 8b3d b565 3cbd
00000110: 8b54 113c 634b 94bd 6bef bf3c 06f0 9fbd
00000120: 5862 3ebd cf4c 48bd f62c 813d 2924 be3d
00000130: ff80 313d acd6 36bd 3bfd 8abd 381b 923d
00000140: ae27 93bd f7cb a4bb 12dd ab3d 6f90 643d
00000150: a42d 793d a04c e3bc e6f4 1ebd 937e 26bc
00000160: 2612 c7bc a157 a73b ddc5 aabd e948 bebd
00000170: 25d9 b03d 2408 48bd 40dd 493d c98b b0bb
00000180: 177c dc3c c55a 9fbd 4592 21bd 972a febb
00000190: d090 bd3d 2816 66bd bead 4e3d 33ac 21bd
000001a0: edd9 17bd c6aa c93d e34d b3bd 677c 9d3d
000001b0: de12 d2bd 3c23 413c 2a2f 86bc eace 993c
000001c0: 78c4 853d f809 883d 0b07 9abc b030 113a
000001d0: 7200 883d 9312 53bd b700 b7bd 6d98 ac3d
000001e0: d81b 38bd b8c9 c0bd 195b 503d bc89 1abd
000001f0: 0503 063d adad babd 1eb8 603d 27ed babc
00000200: d34c 8d3d 1732 0e3b 3569 46bd 12f9 16bd
00000210: 4aef b8bd 7e1a 123d 26c1 2c3c e2cf 5dbd
00000220: 10f6 463c 6aa3 b53d 812d 9e3c 507b 993d
00000230: c047 c63c 06a3 a5bc b3ba 083d ef34 54bd
00000240: e1bf 1a3d aba3 22bd ab64 833d 8c9f 5c3d
00000250: b43d 803d 77b4 6a3d 2808 8f3c 2bad 69bd
00000260: 2337 c9bb 2f9f e6bc 8b0e c0bd 0659 86bd
00000270: c38e bc3c 2335 79bd b130 ad3d 6262 423d
00000280: 48cf 10bd c6b3 b63d a075 c53d 527d acbc
00000290: a458 ab3d 69a2 a5bd dab6 8c3d 1354 0abd
000002a0: 80d2 1d3d 850a b53d e43a 5f3d 2aa6 c9bd
000002b0: cc6a fd3b c50c 3cbd 2074 1e3d 85a2 02bd
000002c0: 4572 26bb 47b2 853d fcc8 443d 636e 4fbd
000002d0: 3210 37bd 8465 f8bc f443 413d 0e20 833c
000002e0: 994e 0b3d 5298 c6bc 17fc b0bc 91d0 afbd
000002f0: 20d5 5cbc 6c43 97bd 323c a53d 20d1 8ebd
00000300: 2fb3 973d 0637 5e3b a8bd 6cbd cf0c 10bc
00000310: 5f03 8cba afcb 8d3d 4401 8cbd abee 983b
00000320: f6b8 6bbc 68bf 5d3d f2f3 563d 6467 443b
00000330: 9d71 9f3d 4544 513d 67f5 7d3d 5d4a 9b3d
00000340: 8c84 a0bc 786f 403d b65d 8b3d 06b6 ab3d
00000350: af77 f63c 768c c03d 601d b2bd e764 5f3d
00000360: 81de 6e3d 8b11 20bd 671d 973d c937 193d
00000370: d48c fa3c b451 c5bc 14aa 5f3b f5d1 a43d
00000380: 0a5e 8fbc 98c4 193d 845f e6bc b80c c13d
00000390: de4d a4bc e4f8 00bc 7f8c 9ebd 592d 35bd
000003a0: e638 9abd b4f4 ae3d e926 473c 9dbb 0bbd
000003b0: e280 4a3d 6d45 31bd 79fc 5f3d 42a2 c6bd
000003c0: 262d 663b 995b bdbd ae40 7ebc 0bef c53d
000003d0: eb84 babd feb0 a73d 3c17 77bd 90c1 d2bc
000003e0: 6d3a 1ebc 2f22 ab3b 0b6a 84bd f266 9a3b
000003f0: 3c82 82bc bc88 bfbd 02e5 89bd 86e5 3abd
-0.011219799 -0.04622364 0.07404346 0.047404706 0.019819794 0.06295153 0.028580341 -0.06415261
0.082065865 -0.08451991 -0.053325944 0.051757462 -0.022697521 -0.10235578 0.024571257 -0.09551891
0.01373971 0.075675376 -0.04466188 0.08626568 -0.025806611 0.028331347 0.08848794 -0.052052423
-0.041783363 0.0081223445 0.0484196 0.051989533 -0.07263322 -0.06394053 -0.034508046 0.051327042
0.0007283004 0.023525005 0.032344222 -0.04470388 0.068976976 0.040330157 0.09677909 0.03409849
-0.06326759 0.015663434 0.033642735 -0.0944642 0.011005477 -0.012328888 0.06892252 -0.047778554
0.031029359 0.014481804 -0.078602396 -0.063852094 0.0951122 0.032488387 0.07395912 0.029245771
-0.033590693 0.06587527 -0.09346653 0.039221384 -0.09324319 -0.07305661 0.004703426 0.006206353
0.09648691 -0.032518145 0.068042636 -0.045995433 0.008870254 -0.072409414 0.023429593 -0.07809453
-0.046480507 -0.048901375 0.06307404 0.09284241 0.04333591 -0.04463832 -0.06786581 0.07134098
-0.07185303 -0.0050291973 0.08391775 0.055801805 0.060834542 -0.027746499 -0.038807772 -0.010162014
-0.024300646 0.0051068817 -0.08338521 -0.0929125 0.08635167 -0.04883589 0.049283266 -0.0053877574
0.02691464 -0.07780985 -0.039446134 -0.007756542 0.092561364 -0.056173474 0.050458662 -0.039470863
-0.037073065 0.098470256 -0.0875509 0.076897435 -0.10257505 0.011788186 -0.016379911 0.018775422
0.06531614 0.066425264 -0.018802186 0.0005538566 0.0664071 -0.051531386 -0.08935683 0.084275104
-0.04494843 -0.09413475 0.050868127 -0.03772901 0.032717723 -0.09115157 0.054863088 -0.022818161
0.06899419 0.0021697336 -0.048440177 -0.036858626 -0.09030016 0.035669796 0.010544097 -0.05415333
0.012143627 0.088690594 0.019308807 0.07494223 0.024204135 -0.020219337 0.033381175 -0.051808294
0.037780646 -0.039706867 0.06415685 0.053863093 0.06261769 0.05730101 0.017459944 -0.05704991
-0.006140606 -0.028152077 -0.09377774 -0.065599486 0.023017293 -0.06084169 0.08456553 0.047457106
-0.03535393 0.08921008 0.09641576 -0.021055851 0.08366516 -0.08087618 0.06870814 -0.033771586
0.038530827 0.08839897 0.05449952 -0.098461464 0.0077336784 -0.045910615 0.038684964 -0.031893272
-0.00253977 0.06528144 0.048043236 -0.050642382 -0.04469318 -0.030321844 0.047183946 0.016006496
0.034010503 -0.024242554 -0.02160458 -0.08584703 -0.013478547 -0.073859066 0.08068122 -0.06973481
0.074072234 0.0033907308 -0.057798058 -0.008792116 -0.0010682157 0.06923615 -0.06836179 0.0046671233
-0.01438736 0.054137617 0.052478738 0.0029968852 0.07785342 0.051090498 0.062001612 0.07582543
-0.019594453 0.046981305 0.06804983 0.083843276 0.030086366 0.09401791 -0.08697009 0.054539587
0.058317665 -0.03907923 0.07378655 0.037406716 0.03058473 -0.02408681 0.0034128474 0.080478586
-0.017500896 0.037541002 -0.028121717 0.09426254 -0.020056661 -0.00787184 -0.07741641 -0.0442327
-0.07530384 0.08542767 0.012155273 -0.03411447 0.04943932 -0.0432791 0.054684136 -0.09698917
0.0035122125 -0.092459865 -0.0155183505 0.096647345 -0.09107383 0.081880555 -0.060324892 -0.025727063
-0.0096574845 0.005222581 -0.064655386 0.004711979 -0.015931241 -0.09352252 -0.06733133 -0.045629047

enc_f.lstm.weight_hh_l0 f4 [384, 96]
00000000: 030b 8c3d 664e 953d 47ba acbd 6913 12bd
00000010: 15c2 d1bc eabe 993d f84d 9e3d af57 b7bd
00000020: d9b5 bdbd a0c6 1ebd d69f 053d c1a3 9ebc
00000030: 8d40 593d 0829 a23d 8062 dbbc 05fc 863d
00000040: 7f03 a73d 1c8c 48bd 9180 3f3d bd78 00bd
00000050: 2367 323a 59d1 9cbd 42da 0abd c131 a33d
00000060: 3fb6 c5bd 0ea1 4a3c 9a55 79bd c173 c8bd
00000070: 3205 92bd 36fa 1b3a 5e0f c33c 52fb 8bbd
00000080: 2262 72bc 0d32 bf3d 3703 83bc 0bb8 9cbd
00000090: 3050 26bd d0ef 6cbc 5ec5 833d 47a2 1cbd
000000a0: 738a 17bd 13b9 d1bd cf7b 6dbd aaec 933d
000000b0: 5819 a1bd de7e 9bbd d5e5 df3b 541e 0dbd
000000c0: a51c 9dbd b40f 843d 701b b3bd 5fc8 503d
000000d0: 53d1 fe3b 27f3 47bd 7263 2abb 5ecc 7bbd
000000e0: 3010 9d3d 12e1 f83c ef06 45bc 1e90 af3d
000000f0: 62df 7d3d 1d71 933d 51c1 b6b8 7618 833d
00000100: 56d7 ae3d c3b0 ec3c 6141 ab3c 6006 983c
00000110: e458 a0bd 34d0 fa3c 1356 bebd 3d93 b8bc
00000120: 6e75 3fbd 21ee 8cbd d195 b3bd 9353 c6bd
00000130: 3b76 b7bd bf5e 81bd 8030 8abd 928e b6bd
00000140: 59ef a2bd 4e77 b83c 1a64 443d 479b 713d
00000150: 6067 1fbb f48e b43c 2716 47bd 8b80 a33d
00000160: ed15 33bd 8d46 343d e462 4abc 8edf 873d
00000170: f453 a33d d801 c33d 9ee1 433d ab82 4c3d
00000180: d3e1 b83d d869 803d 94e5 25bd e924 aabd
00000190: bddb 853d c085 7cbd 9ceb 42bd e414 d73c
000001a0: 78b5 ef3c a814 12ba 143d 143d 1ab8 6abd
000001b0: 383e af3d 24f1 86bd f78d 3f3d f94e 3abd
000001c0: 1ea6 b03d 3f27 2fbb 44db 2d3d 2b98 c03d
000001d0: 67c2 b33d bf73 743b fd02 d43d fb15 403d
000001e0: dc28 9cbd 5b62 a0bd c905 b93c e866 3bbd
000001f0: e41d 653a 6037 683d 6c1b a7bc c796 f43c
00000200: 8ce6 d13d f9da bdbc 611d 9bbd 587f a8bd
00000210: 9c00 bb3c 57c6 aa3d d682 713c e9f9 0c3d
00000220: ad0a 8dbc 6077 963d 7991 0ebc 7e0e 833d
00000230: bc92 4cbd f9d1 8cbc 9a2f ddbc 2c60 393d
00000240: b180 b8bd b785 ac3d cbf0 883d f974 05bd
00000250: acc0 03bd b842 a03b fa36 4ebc c140 39bd
00000260: 7886 1dbd c889 85bd ee7d 91bd dcf4 27bd
00000270: b6eb 9dbb 2e0e bf3d ce87 5b3d c5d1 9c3d
00000280: 41c8 cb3d 665c 323d 57b5 9abd 023c 9e3d
00000290: 860e bf3d 599f f4bc 63fb 273d b8c3 993d
000002a0: 2967 87bd 137f 87bd 58a7 6bbd 585a 56bd
000002b0: 8ce1 b4bd 1483 c9bd 927f 38bd 2d4b a93d
000002c0: 26b8 e03c 3350 0ebb f027 873c 695a 4a3c
000002d0: 3640 90bd e92d a1bc 20e2 71bd 21af 78bd
000002e0: 6f04 cd3d 0edd 7abc a07f aabd c159 613d
000002f0: 190e 7d3d eecb c6bd 1698 37bd 5ba0 2ebb
00000300: d048 c6bd fc2d 8e3c 9666 513c ebd2 bdbd
00000310: 43a4 383c 8c62 92bd dab8 97bd 8fbd 473b
00000320: db21 0dbd 8162 afbd 5453 823c 73d8 8abb
00000330: 787e b53d 1854 91bc 3109 fa3c 7e61 673c
00000340: b395 12bd 923b 793d 76e4 22bd 97e4 71bd
00000350: 62aa d3bd c0b2 733d 8d8d a13d c03a b2bd
00000360: dd88 75bd b237 acbd d3ec 5c3d cede 883d
00000370: 4e66 533d cd10 f03c 3c1a 51bd 1f24 39bd
00000380: 9ad1 34bd f37b 57bd 0ca3 8c3c 0d20 4d3d
00000390: 5991 b23d c852 2e3d 3632 133c 3d5b 963d
000003a0: c184 403d b701 60bd 8f48 bd3d 0321 8bbd
000003b0: 8840 2a3b 3ca3 973c a1b1 053d eb40 84bd
000003c0: 3f5b 33bb e702 993c d614 ae3b 5e4b 8bbb
000003d0: 5766 b33b a734 2d3d 6e6a 8b3d 7614 bb3c
000003e0: 2826 7f3d bc2b 2c3d b2c5 acbd d874 6fbd
000003f0: 6f07 8d3d a958 91bc f8dc 0a3d c05a f9bb
0.06838038 0.07290344 -0.08433967 -0.035663042 -0.02560524 0.07507117 0.07729715 -0.08952271
-0.092632 -0.038763642 0.032623135 -0.019365193 0.053040076 0.07917982 -0.026780367 0.06591038
0.08154964 -0.048961744 0.04675347 -0.031365145 0.00068055297 -0.076571174 -0.033899553 0.07968474
-0.09653901 0.0123675 -0.06087265 -0.09787703 -0.07129897 0.0005950065 0.023811039 -0.06835045
-0.0147939045 0.09335718 -0.015992744 -0.07652291 -0.040603817 -0.014461473 0.06434129 -0.038240697
-0.03699727 -0.10240378 -0.0579794 0.072228745 -0.07866162 -0.07592557 0.006832818 -0.03445275
-0.07671479 0.06448308 -0.08745468 0.05097234 0.0077764182 -0.048815873 -0.0025999215 -0.061474197
0.07669103 0.03038076 -0.012025579 0.0857241 0.061980613 0.07199309 -8.714444e-05 0.0640115
0.08537166 0.02889288 0.020905199 0.018557727 -0.078294545 0.030616857 -0.09293761 -0.022531146
-0.04674285 -0.06881357 -0.087688096 -0.09683909 -0.089580975 -0.063168995 -0.06747532 -0.08913912
-0.07955808 0.022517826 0.047947027 0.058985975 -0.002432309 0.022040822 -0.04860511 0.07983502
-0.043722082 0.044012595 -0.012352679 0.066344365 0.07974997 0.09521836 0.047822587 0.049929302
0.090274476 0.06270188 -0.040502146 -0.08307821 0.065360524 -0.06165099 -0.047587976 0.026255079
0.029261336 -0.0005572536 0.03619106 -0.05730448 0.08556789 -0.06588963 0.046766248 -0.04548547
0.08625434 -0.0026726273 0.042445436 0.09404024 0.08777314 0.0037300435 0.103521325 0.046895962
-0.07624981 -0.0783126 0.022585766 -0.045752436 0.0008740111 0.056693435 -0.020398818 0.029857052
0.102490515 -0.023175703 -0.07573963 -0.08227414 0.022827439 0.083386116 0.014740666 0.03441802
-0.017217005 0.07346988 -0.008701676 0.063992485 -0.049944624 -0.017189967 -0.027000237 0.045257732
-0.09008921 0.084239416 0.066865526 -0.032582257 -0.032166168 0.004890766 -0.01258635 -0.04522777
-0.038458318 -0.0652042 -0.07104097 -0.041005 -0.0048193587 0.093288764 0.05359631 0.07657198
0.09950305 0.04354515 -0.07554119 0.07726289 0.09328942 -0.02986114 0.041011225 0.075080335
-0.06611473 -0.06616034 -0.05753264 -0.052332252 -0.08832082 -0.09839454 -0.045043536 0.08266292
0.027431559 -0.0021715283 0.016498536 0.012350657 -0.07043497 -0.019675212 -0.05905354 -0.06071389
0.10010611 -0.015311493 -0.08325124 0.055017237 0.061781023 -0.09706865 -0.044822775 -0.0026645872
-0.09681857 0.017355911 0.012780806 -0.09268745 0.011269632 -0.071477026 -0.074083045 0.0030477976
-0.034456115 -0.0856371 0.015908875 -0.0042372285 0.088620126 -0.017740294 0.03052196 0.014122365
-0.035787296 0.060847826 -0.03976866 -0.05905589 -0.10335232 0.05949664 0.07888327 -0.08702612
-0.059944976 -0.084090605 0.05393679 0.066831216 0.051611237 0.029304886 -0.05105041 -0.045200463
-0.044145204 -0.05260844 0.01716759 0.050079394 0.08719129 0.042559415 0.008984139 0.07341621
0.047001604 -0.054689135 0.09242355 -0.06793406 0.0025978405 0.018510453 0.032640103 -0.064576946
-0.002736762 0.018678142 0.0053125424 -0.004250928 0.0054748463 0.04228654 0.06807409 0.022836905
0.062292248 0.042033896 -0.08436145 -0.05846104 0.068861835 -0.017742472 0.03390214 -0.007609695

enc_f.lstm.bias_ih_l0 f4 [384]
00000000: fd56 5c3d c07c 82bb 7a81 7ebd d388 1e3c
00000010: c3e6 753d 29e1 d03c 9db0 40bd f0ce a6b8
00000020: 8510 a8bd f031 313c cfcf 343d c4e7 b6bb
00000030: d04b 893d c05e 96bd 21c8 83bc 0900 8a3d
00000040: 0198 37bd a8fe 5a3d 1376 08bd 7ea6 27bd
00000050: 0617 873d ee2b 0c3d 38bb 523d 54a6 d5bb
00000060: f90f 75bd eb69 703d e22b 003d 23df bb3d
00000070: c33a 793d cf1f 433d 4a94 b3bd 55d2 f63c
00000080: 300c a8bd af23 38bd 015e b5bd 0a0e b8ba
00000090: 9842 d93c 871e c33d 505d d93c 0026 493d
000000a0: bbeb 7e3d f5af ce3d 4fa4 5c3d 9d95 2bbd
000000b0: 6ce9 c1bd 02ef 833d 9d48 40bd 9161 683d
000000c0: b0eb 9dbd 2710 e33c 41c1 cd3d 80c4 5b3d
000000d0: 2e66 8a3b 3a61 933d 889b 483d e2ff 97bd
000000e0: 8f20 e33c 2a48 92bd 1f54 c1bc 0caa ed3c
000000f0: 893e 4f3c 3f39 d6bc aee3 b9bd b00e 81bd
00000100: fd36 a23d 13a7 cabd 8317 b4bd 0af6 b13d
00000110: af53 73bd 8501 e6bc 1430 043d 6284 26bd
00000120: 14fa 473d 6e3e 22bd c3f3 6238 92e5 babd
00000130: 5675 ae3d 7b2a 12bc 08db 5fbd 3e53 26bd
00000140: 0208 a33d 1d45 60bd 3365 83bd 4b46 c43d
00000150: 2242 b33b 88a8 933c 3148 04bc c28f ecbc
00000160: b7b4 f43c 40a9 c6bc 8597 623c bafa ecbc
00000170: 694e 82bc 22d4 39bb 9542 abbd 493d 8b3b
00000180: 61c9 2b3d 7620 c4bc e4c8 8bbd b095 67bc
00000190: 675c 343c fcb6 99bd 7464 333d 43b5 703d
000001a0: 0814 423d 77d5 a93d f3b7 c8bd a063 323d
000001b0: 6456 613d f4bb 62bd 806a a13d fa01 c43d
000001c0: 4c58 903c 4659 583b 3b2b 47bd fdc5 903d
000001d0: dbcd 07bd 056a c43d bdf2 49bd 5ef6 22bd
000001e0: f4b2 ff3c 7845 ec3c 313f 963c 7667 923d
000001f0: 56fd a23c 7e73 8a3d ec07 84bd edff a03c
00000200: 84fc ba3d 1b47 c4bd f27d a23d 9717 623d
00000210: 196c 903c 5db5 a13d c281 bb3d 23b3 803d
00000220: 4a51 cfbd 541d a33d 4691 85bd d603 ce3d
00000230: b316 1d3d 23d4 d13d c7ba 163d 99e2 23bd
00000240: 6300 663d c206 4d3d e1c2 0b3d 35eb 95bc
00000250: cf10 2a3d 8160 b13d 95aa 653c 8f84 e5bc
00000260: 7878 1d3d 3053 e9bc 6406 693c 70ea 3abd
00000270: 456a 73bb 7dd6 393d f135 043d 422d 873d
00000280: d17a cabd 1478 da3c cc46 50bc b21c 5f3d
00000290: b20b a23d d29f ae3d cc52 01ba 3680 80bc
000002a0: be48 9bbd d64f f4bc 46c9 aabd 42ea b93d
000002b0: 74d4 993c e75d cebc a771 c6bd 2f28 64bd
000002c0: 00f8 9e3d f072 cdbd d54a 6cbb b40e 9cbc
000002d0: f559 5c3d 9b54 70bd d112 603c 6241 253d
000002e0: e5a1 a73d 8950 b93d f403 003d 14d8 4f3d
000002f0: 19f6 843d b099 753d be3f c5bd 42f6 b7bc
00000300: 8f15 d0bd a229 60bd a936 213c e1d9 4cbc
00000310: 57d5 80bd ea60 2d3c 7633 8e3d ff64 973d
00000320: 55eb c7bc 6b28 46bc 472b 733d 1afb 81bd
00000330: 30d5 89bd 04ab a8bd d741 5e3c 9e93 a13d
00000340: f43a aebd 7697 603b 71f6 303c 2dac a53d
00000350: 4737 3a3d 589a efbc f61b d03d f5c5 b03c
00000360: 2fb5 dbbb a4fb f83c 8db9 69bd 2ad4 b1bc
00000370: 89b2 913c 5e13 b93d a6ba 113d cb93 9c3d
00000380: 1f9b c53d af26 403d 17f8 83bd f604 603d
00000390: e4b2 58bc 09f3 fe3b 5614 33bb ae16 343c
000003a0: 792f bf3c 421a 8fbd 7c39 403d 6b01 b73d
000003b0: 52f0 bbbd 64f2 2e3c ada5 1b3c 723b ccbd
000003c0: dc66 303d 01c6 f33c 0895 c23d f775 9ebc
000003d0: 7a94 cf3d 1274 7ebd 29dd 44bd faeb 16bd
000003e0: 4b2a b13d 33ca 743d e689 a63b efd7 9cbc
000003f0: 5217 6e3d fd90 0abd 77f6 303d cac5 d23d
0.053793896 -0.0039821565 -0.062135197 0.009676176 0.060034525 0.02549799 -0.04704343 -7.954042e-05
-0.08206276 0.010815129 0.044143494 -0.005581828 0.06703913 -0.07342291 -0.01608664 0.06738288
-0.044822697 0.053465515 -0.03331573 -0.040930264 0.06596188 0.034221582 0.051448077 -0.006520072
-0.059829686 0.05869476 0.03129185 0.09173419 0.060847055 0.047637757 -0.08768518 0.030129591
-0.082054496 -0.044955906 -0.088558204 -0.001404227 0.026521012 0.09527307 0.026533753 0.049108505
0.06223653 0.10092155 0.053867634 -0.04189073 -0.0946835 0.064420715 -0.04694425 0.05673367
-0.077109694 0.027717663 0.10046626 0.053654194 0.0042236065 0.07196279 0.04897645 -0.07421853
0.027725486 -0.071426705 -0.023599682 0.029011749 0.012649187 -0.026150344 -0.090766296 -0.063016295
0.079206444 -0.09895148 -0.08793547 0.08689506 -0.05940598 -0.028076896 0.032272413 -0.040653594
0.048822477 -0.03961032 5.410962e-05 -0.09125818 0.08518474 -0.008921261 -0.054652244 -0.04060673
0.07960512 -0.05475341 -0.064157866 0.0958372 0.00547053 0.018024698 -0.008073852 -0.028877143
0.029871328 -0.024250627 0.01383007 -0.02892815 -0.01590653 -0.00283552 -0.08362309 0.004249249
0.041940097 -0.02394126 -0.06825426 -0.014134809 0.011008359 -0.075056046 0.04379697 0.058766615
0.047382385 0.08292668 -0.098007105 0.04355204 0.05501403 -0.055355027 0.078816414 0.095706895
0.017620228 0.0033012195 -0.048625212 0.07069013 -0.033155303 0.09590534 -0.04930376 -0.039785735
0.031213261 0.028841719 0.018340679 0.0714864 0.01989619 0.0676031 -0.064468235 0.019653285
0.09130195 -0.09583875 0.079341784 0.05519828 0.01762967 0.078959204 0.09155609 0.062841676
-0.101229265 0.07964578 -0.06521849 0.100593254 0.038351726 0.1024554 0.03679922 -0.040011022
0.056152713 0.050055273 0.034121398 -0.018300632 0.041519936 0.08660985 0.014017721 -0.02801731
0.038444966 -0.02848205 0.014222715 -0.045633733 -0.00371422 0.045370568 0.032278005 0.06600429
-0.098867066 0.026668586 -0.012712192 0.054470725 0.07912387 0.08526577 -0.0004933297 -0.015686136
-0.07582234 -0.029823225 -0.08339171 0.09077884 0.018778063 -0.02519126 -0.09689646 -0.055702385
0.07762146 -0.10031688 -0.0036055346 -0.01904998 0.053796727 -0.058674436 0.013676361 0.040345557
0.08185176 0.09048564 0.03125377 0.050743178 0.06492252 0.05996102 -0.096312985 -0.022456292
-0.10160362 -0.054727204 0.009839692 -0.012503118 -0.06290691 0.010582188 0.06943409 0.0739231
-0.024404207 -0.012094597 0.059367444 -0.06346722 -0.067301154 -0.08235744 0.013565502 0.07889484
-0.08507338 0.0034269965 0.010800944 0.080894805 0.045462873 -0.029248402 0.10161583 0.021578768
-0.0067049484 0.03039343 -0.05706172 -0.021707613 0.017785328 0.09036897 0.035578392 0.07645377
0.096487276 0.04691189 -0.06443804 0.05469223 -0.013226245 0.007780437 -0.0027325354 0.010991735
0.023338066 -0.0698743 0.04692982 0.08935817 -0.09176697 0.010677908 0.009499949 -0.09972276
0.043066844 0.029757502 0.09501082 -0.01934336 0.101357415 -0.062122412 -0.048062477 -0.03684614
0.08650645 0.059763145 0.0050823567 -0.019145934 0.05812771 -0.033829678 0.043203797 0.102916315
