_train/_models/20250919/삼성전자(005930)_20250919.pt (torch, 831847 bytes, 20 tensors)

enc_p.lstm.weight_ih_l0 f4 [384, 6]
000000 c0 29 b5 bd ec ba a4 3c e2 de b2 bd 2c b6 bd 3c
       -0.08845854 0.020108663 -0.08733918 0.023158155
000010 01 e2 ba bd f4 19 05 3c 89 83 c8 bd 0a f6 71 bc
       -0.09125138 0.0081238635 -0.09790713 -0.014768133
000020 ef f4 2a bc 07 91 05 bd 7c c1 bc bd f3 db 97 3d
       -0.010434373 -0.032609012 -0.09216592 0.07414999
000030 7a e3 1a bd 28 ff 45 3d ec 53 64 bd 42 24 a4 bc
       -0.037814595 0.04833904 -0.055744097 -0.02003682
000040 dc 0c 93 3c 0f 09 76 3d 00 33 c3 3d e6 b4 35 3d
       0.017950468 0.060067233 0.09531212 0.04436197
000050 80 55 d2 ba 1f a0 92 bd a6 a1 35 bc 7a 9a e6 b9
       -0.001604721 -0.07159447 -0.011085903 -0.00043984113
000060 7a a5 3b 3d 8a 73 3f bb 09 bc 88 3d f6 49 a8 bd
       0.045812108 -0.0029213154 0.0667649 -0.08217232
000070 9a f8 93 3d 6d 2c f1 bc dd af cf bd 13 0c a1 bd
       0.07225151 -0.02944013 -0.10140965 -0.07863631
000080 f7 25 05 bd 3d 8b a5 3b 6b 40 49 3c fb 6a 0a bd
       -0.03250691 0.005051999 0.012283425 -0.03379343
000090 79 67 de 3c 82 1f 42 bd 90 b3 80 bd 04 08 a9 3d
       0.027148949 -0.04739333 -0.06284249 0.08253482
0000a0 09 c4 84 bd fc 78 0a 3d 36 22 07 bc e9 90 9d 3c
       -0.06482703 0.033806786 -0.008247903 0.019234138
0000b0 0d c3 80 3d a6 ba af bd bf 7c be bd c4 e1 8f bd
       0.06287203 -0.08580522 -0.09301137 -0.07025483
0000c0 1c 33 c7 bd 72 b9 74 bc 59 a2 72 3d ce be 95 3d
       -0.09726545 -0.014936792 0.059236858 0.07311784
0000d0 24 b4 8a bc c0 47 a7 bd 1b 07 8f bc 0b c7 38 bd
       -0.0169316 -0.08167982 -0.017459443 -0.045111697
0000e0 6f 98 af 3c 32 cd a2 bd 27 09 b9 bd 58 90 7d 3d
       0.02143499 -0.07949294 -0.09034949 0.061905235
0000f0 bf b4 28 3b 39 e3 91 bc 8a 5f 81 3d ac 8e 9d bc
       0.0025742499 -0.017808544 0.06317051 -0.01923307
000100 86 64 00 3d a7 67 37 3c 36 56 95 bc 6f 8c 41 3d
       0.031345867 0.011194146 -0.018229585 0.04725307
000110 bb 97 b5 3d 31 94 cd 3a e9 62 57 3d 1b 32 a9 3d
       0.08866831 0.0015684423 0.052584562 0.0826151
000120 f2 ad 36 bc 0d 15 ae 3d bb 19 51 bd d6 84 b7 3d
       -0.01114987 0.08500109 -0.05104993 0.08960883
000130 0a 79 ae bd 4a e0 bc bd ea 81 ac 3d 32 4e cb bb
       -0.0851918 -0.09222467 0.08423217 -0.00620439
000140 68 0d 9b 3c e4 74 46 bb 89 d7 00 bc 83 54 5c bb
       0.018927291 -0.0030282075 -0.007863888 -0.003361971
000150 c6 3f b1 bc 06 fb ae bd 0e 1b 5a bd da ab 7e bb
       -0.021636855 -0.08543973 -0.053248458 -0.0038859756
000160 71 f3 2d bd 15 e5 a0 3a 99 dc 19 bd c7 35 9b bc
       -0.042468492 0.0012275303 -0.037563894 -0.018946541
000170 86 fd a1 bd 41 50 40 bd 77 d0 bd bb de 74 a7 3d
       -0.07909684 -0.046951536 -0.005792673 0.081765875
000180 de 4c b5 bb b7 23 ab 3d 2f de b8 3d a4 da 9d 3d
       -0.005532845 0.083564214 0.09026753 0.07707718
000190 5f dd 02 3d 85 16 cf bc 16 15 72 bc e3 08 be bc
       0.031949397 -0.025279293 -0.014775535 -0.023197597
0001a0 18 d7 3e bd 9d 6b 7e 3d 9e 83 ca 3d f8 5c b3 bd
       -0.046591848 0.062114347 0.09888385 -0.08757967
0001b0 09 33 bc bd fe ee a7 bc 57 9d 00 3d 2a 06 39 3c
       -0.09189422 -0.020499703 0.03140005 0.0112929735
0001c0 66 fa 1d bd 2d d3 cc bd e7 ac 4d 3d 11 5b 34 3d
       -0.038568877 -0.10001216 0.05021372 0.04403216
0001d0 5d fc a6 3d b1 8c 9b bd 99 51 44 bc f2 5e 75 bc
       0.08153603 -0.07595194 -0.011982345 -0.01497625
0001e0 fc cc 88 3c 2a 96 b7 3d f4 38 fb bc 8b 17 1a 3d
       0.016699307 0.089641884 -0.030666806 0.03762011
0001f0 d4 b9 f6 bc 21 fa a8 3c c8 cf 14 bd a3 7e 7d 3d
       -0.030117907 0.020627083 -0.03633097 0.06188835
000200 09 ea b4 bb 76 66 50 3d c9 60 0f bd 0c af dc 3c
       -0.005521063 0.050878964 -0.03500441 0.026938938
000210 49 10 66 3c 67 4b 91 3b df d8 6e bc ba 00 c3 bd
       0.014041969 0.0044340375 -0.014578073 -0.09521623
000220 66 7c 4d bd 2b ab a5 bd 98 eb d4 bd 5f fc ad bd
       -0.050167464 -0.08089288 -0.103964984 -0.084954016
000230 54 6b 80 bd ae 28 f2 3c c5 a4 6d 3d 6c 27 f2 bc
       -0.06270471 0.029560413 0.058018465 -0.029559813
000240 ee 39 c8 3d e7 87 4f 3d ca 09 96 bd 9c 9b be bd
       0.09776674 0.050666716 -0.07326086 -0.09307024
000250 25 a8 17 bd 88 ac 14 3d 00 cf f1 bc a4 15 ca 3d
       -0.03702559 0.03629735 -0.02951765 0.09867409
000260 ca 01 7d 3d 28 36 94 bd 8a e9 ae bc 7a 6d e4 bb
       0.061769284 -0.07236892 -0.021351594 -0.0069710584
000270 44 37 82 bd 40 a1 68 bd 11 6a 67 bd 11 32 75 bb
       -0.06358197 -0.056794405 -0.056497637 -0.0037413875
000280 bd d7 9b 3d 63 57 cc 3c 08 13 83 3d cf 6a a1 3d
       0.07609508 0.024944013 0.06400114 0.078817
000290 59 96 c3 bd db cb 44 bc 4a 34 37 3d 09 77 58 bd
       -0.09550161 -0.012011494 0.0447276 -0.052847896
0002a0 7c 11 cc bc b2 bf f6 bc 40 3d 81 bd 49 34 cd bc
       -0.024910681 -0.030120704 -0.06310511 -0.025049346
0002b0 b6 a2 b1 bd 61 54 12 bd a1 36 a0 3c 4e fd d1 3d
       -0.08673613 -0.035725 0.0195573 0.10253392
0002c0 32 0d a0 3d e6 41 b6 bc 61 8b 64 bc 20 29 e7 bc
       0.07815017 -0.02224822 -0.013949246 -0.028217852
0002d0 06 b9 c2 bc 7b b0 e1 bb ab b0 c5 bd eb 8b 9b bb
       -0.023769867 -0.006887493 -0.09652837 -0.004746904
0002e0 0e 4f e5 3c 31 bc fa 3b b3 98 a7 3d ee f2 bb bd
       0.027991798 0.0076518287 0.08183422 -0.091771945
0002f0 c5 50 cb 3c ae b9 d7 3c e7 6f 9d 3c 6f 7a 89 bd
       0.024818787 0.026333656 0.019218398 -0.067128055
000300 82 8e 62 bd f5 8d 89 3d b8 8e e5 3c 2f 61 9c 3d
       -0.055311687 0.06716529 0.028022155 0.07635724
000310 8e db 89 3d 1c 01 b2 bc b3 fb aa bd 3e b1 cb 3d
       0.0673133 -0.021729045 -0.08348789 0.09945916
000320 2c f1 cc 3d 30 e9 cf 3b af b5 b5 bd 28 92 64 bd
       0.100069374 0.006344937 -0.08872544 -0.055803448
000330 69 86 bd bb 90 48 a1 bd a4 f2 a0 3c 62 4c 8f 3d
       -0.005783845 -0.07875168 0.01964695 0.06996991
000340 eb 67 85 bd 79 a7 c1 3b b4 71 95 3d 2e f1 66 3d
       -0.065139614 0.005909857 0.07297078 0.05638235
000350 94 9e 3e 3d 2a bc f2 bc 7e 37 68 3d 1c 01 6a bd
       0.04653795 -0.02963074 0.056693546 -0.057129964
000360 ec 99 c1 bc c3 5e af 3d 70 16 62 3d 44 ad 92 bd
       -0.023632966 0.08562996 0.05519718 -0.07161954
000370 e1 67 b0 3c b2 c1 3e bd b5 4a 79 3d 05 be 80 bc
       0.021533908 -0.04657144 0.06086226 -0.015715608
000380 af 7c b6 3d 65 1e b4 3d 4a 5c ac 3d 9a 85 03 bd
       0.089105 0.0879486 0.0841604 -0.032109834
000390 03 de 66 bd e6 4f 85 3d 74 0a 8d bd 1d 05 8e 3c
       -0.05636407 0.0650938 -0.068867594 0.017336423
0003a0 e5 e9 ae bd a6 76 50 3c 53 7c c0 bd 01 d2 b7 bd
       -0.085407056 0.0127236005 -0.09398713 -0.08975602
0003b0 1f 3b 89 3d f1 46 01 3c 2a d3 3a bd cd 33 b6 3d
       0.067007296 0.007890449 -0.045611538 0.08896599
0003c0 8e 48 62 3d 0f f9 89 bd f5 90 94 bd 74 ca bb bd
       0.055244975 -0.06736957 -0.07254211 -0.09169474
0003d0 a7 e2 1c bd cf 91 85 3d 27 28 18 3d 9c 41 f6 3c
       -0.03830209 0.065219514 0.037147667 0.030060582
0003e0 42 ef 2d bd d0 c9 fa 3c f0 34 03 3d 1c 26 f4 bc
       -0.042464502 0.03061381 0.032032907 -0.029803328
0003f0 4b 18 93 bc de 02 37 bd 2e a7 09 bd 73 69 94 bd
       -0.01795592 -0.04468047 -0.0336067 -0.07246675

enc_p.lstm.weight_hh_l0 f4 [384, 96]
000000 78 c6 af bd 63 24 6f bd 7e 95 e4 3b 84 5f 82 bd
       -0.08582777 -0.05838431 0.0069758287 -0.063658744
000010 1d 88 89 bc 8b 20 ee bb 14 ed 20 3d e4 08 97 bd
       -0.016788537 -0.007267063 0.039288595 -0.073747426
000020 2d 9d 1d bd dd 9c a7 3c 72 74 b2 3d 9e 7d 6f bd
       -0.038479973 0.02046054 0.087136164 -0.058469407
000030 b1 40 b1 3c 30 44 85 3c 42 01 d7 bc 00 1d 97 bc
       0.021637293 0.016267866 -0.026245717 -0.018446445
000040 08 36 d1 3c 3a 5b 61 bd ff ff be 3b 75 af 86 3c
       0.02553846 -0.05501864 0.005828857 0.016441086
000050 35 75 ab bb 71 b2 1f ba ee 71 b2 bd fb 7a c0 bc
       -0.005232478 -0.00060919585 -0.087131366 -0.023496142
000060 0e ee c2 3d df 4c df ba b5 c3 8a bd 11 86 5c bd
       0.095180616 -0.0017036459 -0.067756094 -0.053838793
000070 9c 4b 96 3d c9 ee 5d 3d 86 4c 17 bd ed b7 9f bc
       0.0733864 0.0541828 -0.036938213 -0.019496882
000080 8a 45 11 3d 04 99 c0 3d 50 e4 d0 bd 66 1f ed 3c
       0.03546671 0.094041854 -0.10199797 0.028945636
000090 af dc 94 3d a7 3d cc 3d 92 75 99 3d e0 6e 38 bd
       0.072686546 0.09972697 0.07493128 -0.045027614
0000a0 7d 7a 48 bc d5 1a 5c 3d 32 03 06 3d f4 54 92 bd
       -0.012236235 0.053736527 0.03271789 -0.0714511
0000b0 dd db 15 3d 48 a3 23 bc 5f 82 06 3d 2a f1 80 3d
       0.03658663 -0.00998766 0.032839175 0.062959984
0000c0 33 10 96 bd 53 01 c9 3d 30 80 9d bd fc 80 21 bd
       -0.073273085 0.09814706 -0.076904655 -0.03942965
0000d0 7f 17 69 bd c5 d3 b1 3d ce 32 75 bc d8 df 36 bd
       -0.056907173 0.0868297 -0.014965726 -0.044647068
0000e0 b7 cf fc 3c af 54 8a bd 4f 36 01 bd ad d2 8b bd
       0.030860765 -0.06754433 -0.031545933 -0.068272926
0000f0 6e e6 a0 bd 4b 98 9e 3d 23 71 b0 bd d6 47 21 bd
       -0.07856451 0.07743891 -0.08615329 -0.03937515
000100 35 09 5b bd b9 0d 5a bd 0f 5f 51 3d a7 2d 62 3d
       -0.053475577 -0.053235743 0.051116046 0.05521932
000110 6a 04 ca 3d 89 ad 46 3c a7 c3 c5 3c c5 9a 82 3d
       0.09864123 0.012126335 0.024141146 0.06377176
000120 65 76 ad 3d a9 b6 cd 3d 5b 29 c1 3d 10 c2 72 3d
       0.084698476 0.10044605 0.09431716 0.059267104
000130 ca 95 6c bc 72 92 7f bd 5c 67 91 bb 1c c8 0f 3d
       -0.014440009 -0.06239552 -0.00443737 0.03510295
000140 32 61 23 bd 75 a2 19 3d 25 f6 ca bd b5 b8 20 bd
       -0.039887615 0.037508447 -0.099102296 -0.03923865
000150 0a f8 43 bd 55 1e 36 bd 81 c8 7e bd 74 bb 01 bd
       -0.04784397 -0.04446252 -0.062202934 -0.03167291
000160 37 ad 0e bd 7b 36 8b 3d 09 6f 94 3d f9 14 38 bd
       -0.03483316 0.06797501 0.07247741 -0.044941876
000170 a7 35 69 bd aa af cb 3d c5 5e 28 bd a3 d3 b7 bd
       -0.056935932 0.09945615 -0.041106004 -0.089759134
000180 da 24 45 bd 78 fb 3d bd 6a 74 62 3d 93 a7 ce bd
       -0.048130848 -0.046382397 0.055286802 -0.10090556
000190 1e ef cc bd 8f 9f 84 3d a3 00 59 3b dc 5c 02 3d
       -0.100065455 0.06475746 0.0033111952 0.03182684
0001a0 92 6b 9b bd da 9b 09 3d cd 74 bd 3d f6 4a 3d b9
       -0.07588877 0.033595897 0.092507936 -0.0001805237
0001b0 7b b2 b9 3d d7 b8 bd bd 47 4d cb bb 6a 41 4d bd
       0.090672456 -0.09263771 -0.0062042805 -0.05011121
0001c0 fe 86 59 3d aa 8c 80 bd 04 60 63 3d 9f f6 bd 3a
       0.053107254 -0.062768295 0.05551149 0.0014493054
0001d0 e5 86 71 3d 82 1f a3 3d cd 53 b2 ba 5e 7c 54 3c
       0.058966536 0.07964994 -0.0013605297 0.012969105
0001e0 91 15 c5 3c 38 b7 06 3d d0 4a f8 3a b6 fd aa bc
       0.024058135 0.032889575 0.0018943194 -0.020872932
0001f0 cc c1 8a bd b2 db d3 bc 8b 34 93 3d 49 52 72 3d
       -0.06775245 -0.025861595 0.07187756 0.059160504
000200 84 a8 aa 3c 9b f3 a0 3d 40 e1 92 bc a0 fe a4 3d
       0.020832308 0.07858964 -0.017929673 0.08056378
000210 54 4c b5 3c 8b 35 8e bd d7 53 b6 bb c2 a4 65 bd
       0.022131123 -0.06943806 -0.0055641937 -0.05606533
000220 d6 79 b0 bd 75 35 38 3d d9 2d 90 3d b6 86 65 3d
       -0.08616988 0.044972856 0.07039995 0.056036673
000230 5e 8e 3e 3c 19 b8 aa bd c3 00 3a 3d a8 5d 16 bd
       0.011630623 -0.08335895 0.045410883 -0.03671041
000240 5a 37 af 3b 9e 9a a3 bc 89 31 c9 3d 31 da 67 bd
       0.0053471746 -0.019971188 0.09823901 -0.056604568
000250 a0 9c 23 bd 10 a7 b6 3d 09 99 41 3c 01 15 b3 bd
       -0.03994429 0.089185834 0.011816272 -0.087442406
000260 96 81 ec bc 42 cb 56 3d af 88 eb bc 8f 41 be 3d
       -0.028870385 0.052439936 -0.0287517 0.09289848
000270 60 78 02 3d 8f 0b a0 bd 5e 72 a0 bd c9 e1 2f 3d
       0.03185308 -0.078147046 -0.07834314 0.042939935
000280 59 e0 7b bd e3 e2 8c 3d 8f ca 90 bd 24 fc 15 3d
       -0.06149325 0.06879213 -0.07069885 0.036617413
000290 a5 2b c6 bd d6 9b a9 3d 42 53 dc 3c 9d 68 8a bd
       -0.09676293 0.082816765 0.02689517 -0.06758235
0002a0 87 35 bb bd 65 68 a3 3d 90 80 d8 39 e3 8e a8 bd
       -0.09141069 0.07978896 0.00041294517 -0.082303785
0002b0 e3 d7 93 3d 6b f0 2e bd c9 9f 05 3d 3c ac 8b bd
       0.072189115 -0.04270975 0.032623086 -0.068199605
0002c0 24 2b c8 bd 7a de d4 3d 82 71 fc bc 16 f0 a2 3d
       -0.097738534 0.103939965 -0.030815843 0.07955949
0002d0 dc 5e 96 3d 11 0b 25 3d cb 6d a0 bb a6 80 9a 3d
       0.07342312 0.040293757 -0.004895901 0.07544069
0002e0 2d 1a 4f bd d2 ad 84 3d a6 66 19 bd 64 91 71 bd
       -0.050562073 0.06478466 -0.03745141 -0.058976546
0002f0 3e 21 aa bc 4b 56 01 bd 77 63 49 3d 3d 43 8d bc
       -0.020767804 -0.031576436 0.049167123 -0.017243976
000300 6f 46 42 3d 26 f1 4f 3d 55 63 27 bd c9 b5 c7 bd
       0.047430452 0.050767086 -0.040866215 -0.0975147
000310 d8 2f 65 bd 63 a9 c4 3d 97 fc 92 bd ae 38 2f bb
       -0.05595383 0.096026205 -0.07177084 -0.0026736665
000320 9d 72 c8 3d 28 c4 c8 bd eb a3 89 39 21 d6 99 3d
       0.09787486 -0.09803039 0.00026252805 0.07511545
000330 94 8c 95 3d 5d a5 84 3d 53 2a 92 bd 80 5f 1a 3d
       0.07302204 0.06476853 -0.07136979 0.037688732
000340 a9 0a 6a bd 6c e8 b3 bd e4 58 14 bc 63 93 40 bd
       -0.057139073 -0.08784565 -0.009054396 -0.04701556
000350 17 88 f5 bc a4 ac e9 bb f0 de 87 3d d4 af 6a 3d
       -0.02997212 -0.007131176 0.06634319 0.05729659
000360 8e 66 86 3d b7 40 4e bd 00 bc 89 3d 18 71 58 bd
       0.065625295 -0.050354686 0.06725311 -0.05284223
000370 0d 73 98 3d 0d 7c c2 3d fa 03 83 3d 05 b3 1f 3d
       0.07443819 0.09496317 0.06397243 0.038989086
000380 fd 00 a8 3c 3e aa 82 bd 07 a4 11 bd 8e 27 a3 3b
       0.020508284 -0.06380127 -0.03555682 0.0049790805
000390 f4 55 df 39 bc 4a cb 3d 36 9c 73 3d 86 7c c6 bd
       0.00042597915 0.09926364 0.059475146 -0.0969172
0003a0 9d 19 14 3c fd 71 b6 3d 6a a5 17 bd 0d 54 b9 bc
       0.00903931 0.0890846 -0.037022986 -0.022623086
0003b0 db 16 37 3c 79 b9 ac bd d0 8e 17 bd 1a 5f c9 bd
       0.011174883 -0.084338136 -0.03700143 -0.09832592
0003c0 19 ba 3a bd e0 c7 c0 bd 75 fa 9d 3d d5 c9 63 bb
       -0.045587633 -0.09413123 0.077137865 -0.0034757752
0003d0 12 62 6a bd 88 ff 0b bd e5 fb 89 bd 02 5c 3b 3c
       -0.057222433 -0.03417924 -0.06737498 0.011435511
0003e0 0a f9 ad 3d b7 cd c6 bd 24 08 87 bd 42 54 e1 3c
       0.08494766 -0.09707206 -0.065933496 0.027505998
0003f0 db f9 53 bd 61 d5 25 3d 74 c5 8c 3d ac 6f ba bd
       -0.051751953 0.040486697 0.06873599 -0.09103331

enc_p.lstm.bias_ih_l0 f4 [384]
000000 23 4d e9 3c 79 ab 37 bd 48 8d ba 3c e7 cd b7 bd
       0.028479164 -0.044841263 0.022772446 -0.0897482
000010 9a 9f 20 3d 90 4b 81 3d 8b fc 96 bd 0c 4d eb bc
       0.039214708 0.063132405 -0.073723875 -0.028723262
000020 e5 b8 96 3c 45 2e c7 bd d1 2e 88 bd 4d 19 5b bd
       0.018398711 -0.09725622 -0.066495545 -0.053490926
000030 9a 25 b2 3d 6a ef b1 bd b3 9a 61 bd 3e 2c 8b 3d
       0.08698578 -0.08688243 -0.055079173 0.06795548
000040 02 ca 6b 3d ef e1 19 3d cf 5c 80 bd ad 63 71 bd
       0.057565697 0.037568983 -0.06267702 -0.05893295
000050 80 de d4 bd 85 9d 73 3d 9d e5 4c bd 9b 15 fc 3b
       -0.10394001 0.059476394 -0.050023664 0.0076930053
000060 84 3a a5 bd 0b 5b 17 bd 3b f0 89 3d 66 64 0f 3d
       -0.080678016 -0.03695206 0.067352735 0.035007857
000070 f7 88 3c 3d 26 e0 7c bd 2f 4d 09 3d 9e 92 6a 3c
       0.046029057 -0.061737202 0.033520874 0.014317183
000080 7f 2a 2e bd 48 04 0a bd a6 dc 64 bd bd 30 f3 3c
       -0.042520996 -0.03369549 -0.05587449 0.029686326
000090 44 b7 c8 3d e5 aa a2 bd 8c 03 a0 bc c0 fa a0 bd
       0.0980058 -0.07942752 -0.019532941 -0.07860327
0000a0 63 98 f4 3c ef 43 1b bc fa 14 9c 3d d8 f8 89 3d
       0.02985782 -0.009476646 0.076211885 0.06736916
0000b0 a2 42 33 bd 2f 3a 73 3d 1b 1d b3 3d e8 84 39 b9
       -0.043764718 0.05938166 0.08745786 -0.00017692486
0000c0 c7 a2 0b 3d 48 db 98 3d 39 fb 66 bc 2e 17 84 bd
       0.034090783 0.074636996 -0.014097982 -0.06449734
0000d0 e0 81 0f bd 5c 09 45 3c ea b9 0c 3d 7f 07 99 3c
       -0.035035968 0.012026157 0.03435699 0.018680332
0000e0 42 87 cf 3d 5e f8 a3 bd 25 50 74 3a a1 77 9c bd
       0.1013322 -0.08006357 0.0009319804 -0.07640005
0000f0 dc e3 21 3d 8d c2 58 bd 7e 94 8b bc 1d ba 7e bd
       0.039523944 -0.052919913 -0.01703858 -0.06218921
000100 7a a7 0b 3d 2d a6 eb bc 2e 65 1f bb 0d b2 63 bd
       0.034095265 -0.028765762 -0.0024321782 -0.055589724
000110 14 d6 99 3d 60 ae a6 bd fb 61 50 3d 56 06 3f 3d
       0.07511535 -0.08138728 0.05087469 0.0466369
000120 17 66 29 bd ea b3 b7 bd 9d b4 52 3d de 1c ac bd
       -0.041357126 -0.08969863 0.051441777 -0.084039435
000130 60 65 a5 bd 18 8e 82 bd 01 da 85 bd 36 a8 9e 3d
       -0.08075976 -0.063747585 -0.065357216 0.077469274
000140 75 96 ca 3d 06 27 50 3d 99 b3 c2 bd ad 7d bc bd
       0.09891979 0.050818466 -0.09506912 -0.09203658
000150 7f 23 cc 3d 70 df 4b bc 46 03 aa 3d 4d ec d0 3d
       0.09967708 -0.012443408 0.083014056 0.10201321
000160 07 04 90 3b 1f ab a0 3d fe e0 89 bd ef a9 34 bd
       0.0043950113 0.07845139 -0.06732367 -0.044107374
000170 d4 83 08 bd ca c4 8c bd 66 63 c6 bd b0 70 88 bd
       -0.033328846 -0.06873472 -0.096869275 -0.066621184
000180 c0 3c cd bd 3c 82 c3 3d 6f 6f 9f 3d 3e 1b cd 3d
       -0.10021353 0.095463246 0.07784926 0.10014962
000190 44 0c 79 bd c4 49 ba 3d 47 e5 01 3d dd b9 b6 3d
       -0.060802713 0.09096101 0.031712797 0.08922169
0001a0 be d2 73 bd 94 ac c9 bd fa 1f 31 bd 91 0f 74 3d
       -0.05952715 -0.0984737 -0.043243386 0.059585158
0001b0 cf c0 a9 3d 11 a5 b0 bd 08 79 bc 3c b2 70 59 bd
       0.082887284 -0.08625234 0.023006931 -0.05308599
0001c0 ec 58 63 bd f1 c0 dd bc c0 c2 57 bd 64 0d 96 bd
       -0.055504724 -0.02706954 -0.052675962 -0.07326773
0001d0 2e 59 8f 3d 44 8b 56 bd ce 32 91 3d e3 82 69 3c
       0.069994316 -0.052378908 0.07089768 0.014252397
0001e0 04 62 11 bd c1 79 58 3d 47 4a d3 bc 3f fb 23 bd
       -0.035493866 0.05285049 -0.025792254 -0.04003453
0001f0 af d9 dd 3c 5e 54 8a 3d 12 8e 82 bd 5a c6 ca 3d
       0.027081339 0.06754373 -0.06374754 0.09901114
000200 e8 43 99 bc 90 bf b3 3c 27 12 82 3c 32 8d 56 3d
       -0.018709138 0.02194193 0.015877796 0.052380748
000210 12 d5 52 3d 3f 30 ef bb 62 f8 31 3c a7 bd 8b bd
       0.05147273 -0.0072994526 0.010862442 -0.06823283
000220 b6 f4 7f 3d 34 07 34 bc 0a b7 13 bd f7 dd 02 3d
       0.062489234 -0.0109880455 -0.03606323 0.031949963
000230 83 51 ca 3d 8e f5 cb 3d 21 aa b8 bd 72 fc 82 bd
       0.098788284 0.09958945 -0.090168245 -0.06395806
000240 4b 99 a3 3c ea b3 b8 3c 59 f5 2a bd 89 6f e3 3c
       0.019970557 0.022546727 -0.041737888 0.027763145
000250 e9 4a 8f bd 30 c2 cb 3d e9 9b 40 bd a5 4c 4c bc
       -0.0699671 0.09949148 -0.047023688 -0.012469445
000260 5c 50 e6 3b d5 e7 1a bd ef 1c 5c bd 71 59 a4 3d
       0.0070286226 -0.03781875 -0.05373853 0.08024872
000270 1e 62 11 bd 8a f5 3c bd 62 ce f2 3b 01 c5 a9 3d
       -0.035493962 -0.0461326 0.0074098567 0.08289529
000280 94 d0 57 bb 6d c2 e3 3c e3 8c c6 bd 8c 28 aa bc
       -0.0032930719 0.02780267 -0.09694841 -0.020771287
000290 d1 3f 48 bd 51 84 a6 bd 59 4e 56 bc 39 1a 79 bd
       -0.048888985 -0.08130706 -0.013080203 -0.060816023
0002a0 3e 3d 85 bc 91 41 a4 bd fd f0 c0 3d 38 e1 80 bc
       -0.016264554 -0.08020318 0.09420965 -0.015732393
0002b0 f2 c1 a1 3d 24 e5 a7 bd 82 f1 52 3d c6 d5 b5 bd
       0.0789832 -0.08198002 0.05149985 -0.08878665
0002c0 1c d8 27 3d 01 b2 34 3c fb ed c4 bb 31 7f 0a 3d
       0.040977582 0.011028768 -0.006009815 0.033812705
0002d0 8d 95 da bc 14 87 9f bd 36 86 6b 3c 62 41 a8 3d
       -0.02668264 -0.07789436 0.01437526 0.08215596
0002e0 82 40 48 3c ca f2 15 3d 87 94 12 bb 9c f5 88 3c
       0.012222411 0.036608495 -0.0022366361 0.016718678
0002f0 5b f9 b4 3d 30 90 c7 bd c2 6b 8e bd 95 ba 80 3d
       0.08836623 -0.097442985 -0.06954147 0.06285588
000300 28 34 69 bc 62 45 01 bd 38 1e 05 bd 6e 1d 73 bd
       -0.014233626 -0.03156031 -0.032499522 -0.05935424
000310 3a ee bc bd 6c 34 90 3d 97 71 82 3b 21 bd 34 bc
       -0.092251256 0.07041249 0.003980826 -0.01103142
000320 76 8e f0 bc 6d 24 39 bc bf c5 84 3d e9 f4 aa 3c
       -0.029364806 -0.0113001885 0.064830296 0.020868735
000330 53 ee e7 3b 64 a7 ba 3d 6c 9e 9c bd 4f 5e 63 bd
       0.007077971 0.091139585 -0.07647404 -0.05550986
000340 9e 13 8a bd fd 45 f9 3c 69 be 89 3a 53 45 b5 bd
       -0.06742023 0.03042888 0.0010509017 -0.08851113
000350 e4 e2 ca bd 25 b7 cf bd 60 7b 21 bd 52 29 b1 bd
       -0.09906557 -0.10142354 -0.0394243 -0.08650459
000360 df 1e 96 bd 5c 4e 37 3b fa 63 b3 b9 ec 24 9e 3d
       -0.07330107 0.002797029 -0.0003421603 0.07721886
000370 bb f9 15 3c a6 1c 6d 3a e8 0a 94 bd 38 e5 5a bd
       0.009153779 0.00090451015 -0.07228643 -0.053441256
000380 6f ba aa 3d 1c 2b ef bc 52 cc c6 bd 42 9e 9d bd
       0.08336341 -0.02919536 -0.0970694 -0.07696201
000390 be ca 17 3c 30 f0 18 bc fb 19 be 3d 8c 05 b9 bd
       0.009264646 -0.009334609 0.09282299 -0.09034261
0003a0 a1 dc 82 bc f7 3d 94 bd 67 75 85 bd fc d1 88 bd
       -0.015974345 -0.07238381 -0.06516533 -0.06680676
0003b0 0e af 50 bb fe 15 50 bd 25 1e 81 3c 95 6f 01 3c
       -0.0031842622 -0.050802223 0.015761444 0.007900138
0003c0 40 de fd 3c 6c 0d ca 3a ca 33 84 bc 81 4d 70 bd
       0.030989766 0.0015415377 -0.016137976 -0.058667663
0003d0 d1 83 14 3d 53 a6 3b bd 72 15 ce 3b 8f e5 0c 3c
       0.036258522 -0.045812916 0.0062891776 0.008599653
0003e0 f6 e9 f3 3c be fb e4 3c 25 45 ce 3b c4 3f cb bd
       0.029774647 0.027952071 0.0062948638 -0.09924272
0003f0 43 38 22 bd b6 74 32 bd e9 26 03 bd 93 f5 10 bd
       -0.039604437 -0.043568335 -0.03201953 -0.035390448

enc_p.lstm.bias_hh_l0 f4 [384]
000000 15 cf 9c bc 3a e2 5c bd ac d0 8b bc 91 94 3d bc
       -0.019141713 -0.053926684 -0.017067276 -0.0115710655
000010 82 12 4a bd db 6e 1c bd b0 95 e0 bb 4d 3b 00 bd
       -0.049334057 -0.038191658 -0.0068537816 -0.031306554
000020 02 11 50 bd 7f 2c 82 3d aa c9 be 3d cd cd 20 3d
       -0.05079747 0.06356143 0.09315808 0.039258767
000030 6d 65 5e 3c ff e8 88 bd 76 24 3c bd 98 13 99 bc
       0.0135739865 -0.066850655 -0.04593321 -0.0186861
000040 31 18 77 bc c5 ff e5 bc 47 ae 6f 3d e6 ff 24 3d
       -0.015081451 -0.028076062 0.058515813 0.040283106
000050 a2 59 8b 3c 92 29 b0 3d 6a e7 9c bd 8c 1e 38 3c
       0.017010514 0.08601679 -0.07661326 0.011237752
000060 55 69 25 3d 2a 7a a0 bd 5d 09 a8 bd 18 d5 8c bd
       0.040383656 -0.07835801 -0.08204911 -0.06876582
000070 0f 6d 20 3d 75 e7 7d 3d 7b 5d 57 3c ec 36 81 bd
       0.039166506 0.061988313 0.013144846 -0.06309304
000080 ea 21 a8 3c 10 93 4c bd 12 52 f1 3a c9 a0 86 bd
       0.020523984 -0.049944937 0.00184113 -0.06573636
000090 4e 0a a6 3d 44 3c 36 3d 7c b0 99 3c 2c 2f b6 bd
       0.08107434 0.044491068 0.018760912 -0.08895716
0000a0 2b 81 92 3c 79 d3 0d 3c c1 63 7f 3d 60 86 a6 3b
       0.017883858 0.008656376 0.062350992 0.0050819367
0000b0 8b 8a c5 3d c7 90 ae 3d b3 1f b7 bd a8 05 d1 3b
       0.096455656 0.08523708 -0.08941593 0.006378848
0000c0 1d 94 4b bd 16 c7 a1 bc 3d dc 8a 3d d8 5c aa bb
       -0.0497018 -0.019748252 0.06780288 -0.005199056
0000d0 2a 48 73 3d 9e b0 6b bd 3e 06 5a bd 90 7c 8c 3b
       0.059394993 -0.057541482 -0.05322861 0.00428731
0000e0 4c c3 a1 3d 91 7c dd 3c ae 0b 29 bd 69 8a c7 3d
       0.07898578 0.027036937 -0.041270904 0.097431965
0000f0 83 c4 a9 bd eb ee 82 bd 72 90 f0 bc 4e 4d a2 3b
       -0.08289435 -0.06393226 -0.029365752 0.004953063
000100 5f 21 b9 bc 3d b7 15 bd 30 93 92 3d 3e 7b ba 3c
       -0.02259892 -0.036551703 0.0715698 0.022763845
000110 c6 a5 77 bd 87 83 ce bd f1 55 9a bd e8 0e 7d 3d
       -0.06046083 -0.100836806 -0.07535923 0.061781794
000120 13 6f 49 3c 1d 92 81 3d e7 cf 8f 3d e2 cd a5 3d
       0.012294549 0.06326697 0.07022076 0.0809591
000130 e7 51 a1 bc 51 e9 b1 bd 37 54 e5 3c 82 d7 6c 3d
       -0.019692374 -0.0868708 0.027994258 0.05782271
000140 0c d0 9e bd 25 b0 07 bd a2 d6 8f 3b d2 aa 97 bc
       -0.077545255 -0.03312697 0.0043896 -0.01851407
000150 5f 8b 94 3d a9 bf 90 3c 6d c2 d8 bc b8 6f ca bc
       0.072531454 0.017669516 -0.026459897 -0.024711475
000160 4d c6 47 bb 85 09 b7 3d 31 72 32 bd 29 e4 59 bd
       -0.0030483187 0.089373626 -0.043565933 -0.053196106
000170 b3 8e 47 bc c4 5a ac bd c8 6c a3 3d 22 0b bb bd
       -0.012180018 -0.0841575 0.07979733 -0.09132983
000180 ae 71 cc 3d d4 0b 8a bd a1 17 9a bd 60 89 90 bd
       0.0998262 -0.06740537 -0.07524038 -0.07057452
000190 1f 8f 99 3c de 4e a2 3d a3 e9 e7 3b a0 46 a5 3c
       0.018745003 0.07925199 0.007077412 0.020175278
0001a0 eb a1 ca bc 6e 69 cd 3d fa 80 c7 bd 05 f8 29 bc
       -0.024735412 0.10029875 -0.09741397 -0.010374074
0001b0 5b 8c 94 3d 60 55 a0 bc b3 74 0f bd d8 4d 89 3d
       0.07253333 -0.01957196 -0.035023402 0.06704301
0001c0 c7 56 ba bd 3b fd e0 3c ea 6c e9 3c d2 bb a7 3d
       -0.09098583 0.0274645 0.028494317 0.08190121
0001d0 bc c6 a7 3d 2b ab d2 3c 31 07 a5 bd 30 99 93 bd
       0.081922024 0.025716385 -0.08058012 -0.072069526
0001e0 46 de 44 3d 75 7a 87 3d 62 8f 81 bd 70 52 d6 3c
       0.04806354 0.06615154 -0.06326176 0.026162356
0001f0 e4 69 23 3d 3c 5f cf 3d 8a fd f6 bb 20 16 a0 3c
       0.039895907 0.101255864 -0.0075375484 0.0195418
000200 ce 5e 37 3c 5c a8 73 3c 01 6d d1 bd 34 8c 93 3c
       0.011192037 0.014871683 -0.10225869 0.01801119
000210 ea b4 58 3d 0e 16 35 bc d1 be d2 3d 59 24 bd bd
       0.052906908 -0.0110526215 0.102903016 -0.092354484
000220 6e b0 42 bd 21 67 ae bd e5 ae ca bc 7a 9c 3c bd
       -0.047531538 -0.08515764 -0.0247416 -0.046047665
000230 9a 27 fc bc ee a5 a4 3d a3 69 bc bd ad 99 1d bd
       -0.030780602 0.08039461 -0.09199836 -0.038476635
000240 63 e7 8f 3d 1d ba b8 bd 71 1d dc bb 53 f0 69 bd
       0.070265554 -0.09019873 -0.006717377 -0.057113957
000250 46 2f 21 bc 5c 05 c0 3d e6 52 a7 3c 9a 3a 84 3d
       -0.009837931 0.09376022 0.020425271 0.0645649
000260 d9 d0 f5 bc e3 0b 98 3c 35 f0 78 bb 33 eb c6 bc
       -0.030006813 0.018560356 -0.0037984971 -0.024282074
000270 30 83 ce bd 24 dc 01 3d 0e 9d 71 ba d9 55 24 39
       -0.10083616 0.031704083 -0.00092168234 0.0001567224
000280 cf fd e5 bc c5 32 a8 3c ee d4 db bc 54 b2 4e 3d
       -0.028075127 0.020532021 -0.026834931 0.050463036
000290 bd da 80 3d c7 62 56 3d a5 b4 05 bd c0 29 b8 bd
       0.06291721 0.052340295 -0.03264298 -0.08992338
0002a0 65 5d a6 bd ad 4c 94 bc a9 19 47 3d 7f 85 b4 3d
       -0.08123282 -0.018102968 0.048608456 0.08814525
0002b0 92 4c 78 bc eb 7f 77 3d 8e 4f ce 3c 6c 2b c9 3d
       -0.015154975 0.060424726 0.025184419 0.09822735
0002c0 7e 64 db 3c 17 e5 31 bb 26 89 b0 bd 11 97 52 3d
       0.026781317 -0.0027144605 -0.08619909 0.0514136
0002d0 28 12 5a 3d dc 9e 37 3d 3e 03 97 bd ef f7 09 bc
       0.05323997 0.044829234 -0.07373665 -0.008420928
0002e0 41 b6 2c bb c1 13 fe bc 28 fb 62 3d f2 9b 55 bd
       -0.002635375 -0.031015279 0.055415303 -0.052150674
0002f0 52 f5 17 3d c5 07 9d 3d 9f 75 2f bd 4d 0f 86 3d
       0.03709919 0.076674975 -0.04283678 0.06545887
000300 57 cc 81 3d ee 5a 83 bb dc 94 5b 3d 54 16 09 bd
       0.06337803 -0.0040086424 0.05360876 -0.03346856
000310 0a 33 50 bd 00 82 3b 3d 88 6f 91 bc e1 ee b6 bd
       -0.050829925 0.045778275 -0.017753378 -0.08932281
000320 a7 de 96 bd 8a 5c ac 3d 9b aa 91 3d fa 76 a1 bd
       -0.07366686 0.08416088 0.071126185 -0.07884021
000330 65 54 b8 3c 21 65 9b bd a8 81 4e bd ae 62 95 3d
       0.02250118 -0.07587648 -0.05041662 0.07294212
000340 fb 3c 39 bd ad b4 c1 bd 40 39 b8 bb 35 0e a1 3d
       -0.04522417 -0.09458289 -0.005622059 0.07864038
000350 13 c1 a6 3a 37 dd ba bd b6 d4 9e 3b 73 3e 99 bd
       0.0012722336 -0.09124225 0.0048471345 -0.07482614
000360 bf 43 8c bc 7d d4 6f 3b b6 45 1d 3d 2b 9c 07 3d
       -0.017122148 0.0036595159 0.03839656 0.033107918
000370 1e 6c ab bd c8 89 23 3d eb a4 01 bd a5 d3 8c 3d
       -0.08370231 0.03992632 -0.03165142 0.068763055
000380 60 09 87 bd de 7e 12 bd 86 48 df bb 9e e4 16 bd
       -0.06593585 -0.03576552 -0.0068140654 -0.03683912
000390 b3 78 a5 3d 96 f8 30 3c cb 2b 8f bd 2a 4e b4 3d
       0.08079662 0.010801455 -0.06990775 0.08803971
0003a0 cd 81 06 3d 89 3f c8 bd a9 77 9b bd f4 11 a2 3d
       0.03283863 -0.09777743 -0.07591183 0.079135805
0003b0 21 2a a8 3c 98 71 5d bd e5 37 e9 bc 65 4e c1 bd
       0.020527901 -0.05406341 -0.028469035 -0.09438781
0003c0 15 69 9f 3b 28 40 cb 3d 9c 4d 96 bd ed 8b d2 bb
       0.0048648217 0.09924346 -0.073390216 -0.006425372
0003d0 55 33 4c 3d 3e 29 66 bd 89 22 76 bd 3f 6b 35 bd
       0.04985364 -0.056191675 -0.06009153 -0.04429173
0003e0 77 6b 95 bd 3f 9f a9 bd 4d 22 a9 3d 77 81 38 3c
       -0.07295888 -0.08282327 0.082584955 0.011261336
0003f0 0d 63 c2 3d ac 73 8b 3d f0 95 1e 3c 7f 2a 33 3d
       0.09491549 0.06809172 0.009679303 0.0437417

enc_f.lstm.weight_ih_l0 f4 [384, 4]
000000 3d 0e ce bd 33 38 33 3d 14 73 90 bb b2 d4 ae bd
       -0.100613095 0.043754768 -0.0044082496 -0.08536662
000010 48 6d be bd 36 59 a0 3d 40 32 a0 bd 6f 57 c0 3d
       -0.092981875 0.07829516 -0.078220844 0.09391677
000020 2b 5d 2f 3d dc e8 99 3d ee f7 8f 3d d0 93 13 3d
       0.04281346 0.075151175 0.07029711 0.036029637
000030 8c 75 8e bd 2d 17 8d 3d bb e6 26 bd 7e ae 7e bd
       -0.06956014 0.06889186 -0.040747385 -0.062178127
000040 f0 29 62 bb 04 aa 3c bd 74 db aa 3d 64 d3 89 bd
       -0.003450986 -0.046060577 0.083426386 -0.06729773
000050 66 11 69 3d 00 e1 35 bd 7e b6 55 3d 64 2f 5f bc
       0.056901358 -0.04440403 0.05217599 -0.013622139
000060 02 bb 8e bd 18 4d bd 3d 92 49 35 bd 57 86 09 bc
       -0.06969263 0.0924322 -0.044259615 -0.0083938455
000070 ba ab 4e 3d 85 4c 7e bc 46 84 7e bc 56 67 89 bd
       0.05045674 -0.015521173 -0.015534466 -0.06709163
000080 75 4f dd bb 52 79 98 bd 7d b1 ad 3d 17 69 98 3d
       -0.006753857 -0.07445015 0.08481119 0.07441919
000090 e4 ec 9a bd 0c e6 c1 bc e8 58 a4 bd 17 30 1b bd
       -0.075647146 -0.023669265 -0.0802477 -0.03788766
0000a0 3f e5 7f bd 7b 21 52 bd 5b a0 87 bd 74 e2 63 bd
       -0.062474485 -0.05130146 -0.06622382 -0.055635884
0000b0 30 ce bd 3d 99 b1 c7 3b 58 80 b9 bd 96 24 a8 bd
       0.09267843 0.0060941693 -0.09057683 -0.08210103
0000c0 bb 44 4e bb bf 56 b3 3c 8b 01 2a 3d 60 43 f7 bc
       -0.0031474072 0.02189195 0.041505378 -0.030183494
0000d0 28 84 5d 3c 1e b8 83 3d 71 dc f3 3c ea e8 b5 3d
       0.013520278 0.06431602 0.0297682 0.088823155
0000e0 09 b3 a4 bd 39 03 f5 bc c1 bb 26 bd 22 a7 a7 3c
       -0.08041961 -0.029908763 -0.0407064 0.020465437
0000f0 83 45 a2 3d 92 c2 4b bd a9 c7 f6 3c 32 d7 aa 3d
       0.079234146 -0.049746104 0.030124502 0.083418265
000100 f1 2a c7 bd 1d 6c 52 bb e2 ee 40 bc f4 a6 2b 3c
       -0.09724987 -0.0032107898 -0.011775704 0.010476816
000110 d6 23 6d bd 3a 1e c4 bd 06 57 51 3d 3b 91 3d 3d
       -0.057895504 -0.09576078 0.051108383 0.04628108
000120 68 e4 b5 bc 97 6c a9 bd 42 f3 0c bd 04 ae 46 bd
       -0.02220364 -0.08272665 -0.034411676 -0.048505798
000130 81 01 56 3d b3 8f ea 3c 27 d0 aa 3c 90 ae aa 3d
       0.052247528 0.028632974 0.020851208 0.083340764
000140 4b 20 79 3d 6d a7 8b 3d cd de ba 3d 95 a6 91 3d
       0.060821813 0.06819043 0.09124527 0.07111851
000150 2a 88 b1 bd c2 f6 b4 bc 83 51 96 3d cb d0 23 bd
       -0.08668549 -0.02209032 0.07339766 -0.039994042
000160 6e 12 c7 bd f5 30 c0 3c 34 35 bd 3d af c0 ac bd
       -0.09720312 0.023460845 0.09238663 -0.08435189
000170 0b 92 8b 3c 64 5c 9f bc 5a 5f 58 bd b4 14 6d bd
       0.017037412 -0.019453235 -0.05282531 -0.057881072
000180 4b c0 54 bc ac 05 73 3d 02 be 43 bd 9c 88 5d bc
       -0.012985299 0.05933158 -0.047788627 -0.01352134
000190 9a 4e c2 3d 70 68 9e 3d a9 83 9b 3d ca 77 28 3a
       0.09487648 0.077347636 0.075934716 0.00064265414
0001a0 05 4c da 3c d6 5a bd 3d 6c c3 c2 3d d5 72 2e bd
       0.026647577 0.09245841 0.0950993 -0.04258998
0001b0 99 ee ce bd b5 94 fd 3c c9 5e d5 bb 20 83 d6 bc
       -0.10104103 0.030954698 -0.0065115434 -0.026185572
0001c0 81 f0 3a bb a9 1d b6 3d 16 59 93 bd 04 98 31 bd
       -0.00285247 0.08892376 -0.07194726 -0.043357864
0001d0 c9 58 07 bd eb 89 92 3c fd ac 84 3d d8 33 a7 bb
       -0.033043656 0.01788803 0.064783074 -0.005102616
0001e0 bd f8 96 3d 7f cb b5 3d 3e e8 c8 3c 94 c6 9e bb
       0.07371662 0.088767044 0.024524804 -0.0048454497
0001f0 34 37 bb bd d5 77 82 3d 03 eb f3 bb 4c 22 6c bd
       -0.091413885 0.063705124 -0.007443787 -0.057649896
000200 78 a3 02 3d 23 81 8c bd 5b 89 7c 3b aa a0 b5 bd
       0.031894177 -0.068605684 0.0038534019 -0.08868535
000210 f4 b4 3a 3d 44 4f c5 3d 96 b8 73 3d c5 b9 1a bd
       0.045582727 0.09634259 0.059502207 -0.03777482
000220 fc 6d f1 3c 88 1f 51 3d 4b 8c d9 bc c7 26 19 bc
       0.02947139 0.05105546 -0.026556155 -0.009347624
000230 8d 72 42 3d 6c 00 0e bb ef 1b af 3d da 95 d7 3b
       0.047472525 -0.0021667732 0.0855025 0.006579143
000240 54 a7 2e bd a2 07 87 3c 71 b5 23 3d 81 49 87 bd
       -0.042640045 0.016483132 0.039967958 -0.06605817
000250 22 9c 83 bd 70 42 f7 bc 3a 2c 79 bc 4d 09 83 3c
       -0.06426264 -0.030183047 -0.015208298 0.015995646
000260 ba dc b5 bd 0d 50 40 bd ca fd 9e 3d 2d b6 ba bd
       -0.08879991 -0.046951342 0.0776325 -0.091167785
000270 73 2a 18 3d 12 2f 26 bd 6a 53 9e bc 1f 39 8a bd
       0.037149858 -0.040572233 -0.019326884 -0.06749176
000280 30 14 d1 3d 2d af bd 3d 06 b0 c5 bd ea 5e 89 bd
       0.102089286 0.09261928 -0.096527144 -0.067075565
000290 8c 71 c0 bd 66 5e 94 bc 9e e5 38 bd 62 dc d1 3c
       -0.09396657 -0.018111419 -0.045140855 0.025617782
0002a0 4d 09 c0 3d 67 c4 99 3c b7 ff 36 bc d7 7b 09 bd
       0.09376774 0.01877041 -0.011169366 -0.03356537
0002b0 cf 2e aa bd 01 e4 be bd 61 b3 be bd 6a f8 1d 3d
       -0.08309709 -0.09320832 -0.093115576 0.038566984
0002c0 7d 99 47 3d f6 90 b1 3d 9b 8a 18 3d e4 15 f1 3c
       0.048730362 0.08670227 0.03724156 0.029429384
0002d0 07 89 b9 3d 0b 68 ed bc ce bb cc 3d 40 87 7d bd
       0.09059339 -0.028980276 0.099967584 -0.061896563
0002e0 b1 36 e7 b9 c5 c2 3e 3d c9 2f 40 bd 75 35 48 bd
       -0.00044100502 0.046572465 -0.04692057 -0.048879106
0002f0 56 c9 2c 3d df 7d dc 3c 80 5e c7 bd 67 17 c6 bd
       0.042184196 0.026915489 -0.09734821 -0.096724324
000300 00 df 23 3d f4 81 9e 3d cd 64 a2 3d 60 89 b3 3d
       0.04000759 0.0773963 0.079293825 0.087664366
000310 9c 88 25 3d bf 1c b8 3d a5 52 1f 3d 97 7b 34 3d
       0.040413484 0.08989858 0.038897175 0.044063177
000320 62 07 84 bc 79 15 d8 bc a5 9a 2c 3d a0 ac 2e 3d
       -0.016116802 -0.026377426 0.042139668 0.042645097
000330 38 9d b9 3d a8 ee 5d bb 8f 40 1c bd ea 63 27 bd
       0.0906319 -0.0033864174 -0.038147505 -0.04086677
000340 67 90 ca bd 06 af c8 bd 74 b0 35 bd 46 3a 9d bd
       -0.09890824 -0.09799008 -0.044357732 -0.076771304
000350 2a d1 19 bd 49 7a ed 3c 53 04 eb bb 60 c8 2a ba
       -0.03755299 0.028988974 -0.0071721463 -0.00065148436
000360 6b c5 a0 3d ae 76 90 3d 12 cf fe bb 08 46 f3 3b
       0.078501545 0.07053886 -0.0077761495 0.00742412
000370 44 47 96 bb 31 e7 8d 3d ed 2b b0 bd 18 d6 b6 bd
       -0.0045861322 0.06928862 -0.08602128 -0.08927554
000380 e4 70 a3 3d 0b a5 8d 3d 13 59 82 3d ab 35 88 bd
       0.079805166 0.06916245 0.06364646 -0.06650861
000390 e5 80 28 bd b8 f7 3c bd e6 b9 66 3c 45 2b c7 bd
       -0.04113855 -0.04613468 0.014082408 -0.0972505
0003a0 ec bc 9b bd 39 59 8d bd ab 26 3d 3d e0 81 61 3d
       -0.07604393 -0.069017835 0.046179455 0.0550555
0003b0 c1 a9 cc 3c 91 e4 53 bc 83 c6 03 3c f2 e0 dd bc
       0.024983289 -0.012932912 0.008042934 -0.027084801
0003c0 7c fb ae bd 2d d7 b3 bd 96 6e c7 bd ac 24 06 3d
       -0.085440606 -0.08781276 -0.097378895 0.032749817
0003d0 b7 c6 67 bc cc 64 9a 3c cf 4a ad bd 47 5a c6 bc
       -0.014146498 0.018846892 -0.08461534 -0.02421297
0003e0 d6 81 61 3d 39 39 a9 bd 58 c9 7d 3d cb 78 b3 3d
       0.05505546 -0.082628675 0.061959594 0.08763274
0003f0 5d 4a 11 bc 57 4d 20 bd db 69 c7 3d c0 11 1f bd
       -0.008867827 -0.039136257 0.09736987 -0.038835287

enc_f.lstm.weight_hh_l0 f4 [384, 96]
000000 7c a3 a3 bb df 3f b9 bc de 20 a9 3c 27 bf 7f 3d
       -0.004993854 -0.022613464 0.020645555 0.062438156
000010 5d c7 cb bd 17 c9 c4 3d 98 7e 46 3d 60 e5 57 bd
       -0.09950135 0.09608667 0.048460573 -0.052708983
000020 40 bf 1a 3d 2d 3b b2 bd c3 dc 7c 3d 34 f6 7e bd
       0.037780046 -0.08702693 0.061733972 -0.062246516
000030 24 94 7f bd 0f 9d 76 bd 5e 30 90 bc 7d 6b 64 bd
       -0.062397137 -0.060208376 -0.017601188 -0.05576657
000040 66 c8 41 bd 22 18 81 bd b1 f1 c3 bd 88 36 98 3d
       -0.047310255 -0.06303431 -0.09567583 0.07432276
000050 ef 32 cb 3a 9a 5a 43 bd 98 9c ae 3d 78 fc 5d bd
       0.001550285 -0.047693826 0.08525962 -0.05419585
000060 f9 43 2d bd 41 5b c0 bc 97 be 91 3d d8 c8 52 3d
       -0.042301152 -0.023481013 0.0711643 0.05146107
000070 a3 70 88 3c 99 db 7e 3d bc 64 4e 3d f3 16 9f 3d
       0.016655272 0.062221143 0.050389037 0.07768049
000080 04 e5 1d 3c 74 0d 91 bc 9f c7 f0 bc 82 6b 75 3c
       0.009637121 -0.01770661 -0.029392062 0.014979245
000090 f2 12 db bc 9d 95 cd 3c 35 17 29 bd 11 e0 03 bd
       -0.026742432 0.025095755 -0.041281898 -0.03219611
0000a0 84 bc 28 3a b4 71 ab bd b5 8c 44 bd 02 e9 6a 3d
       0.00064367824 -0.083712965 -0.04798575 0.05735112
0000b0 81 62 b6 3d fd b1 98 3d 4d 90 aa bd e4 e0 c9 bc
       0.08905507 0.074558236 -0.083283044 -0.024643369
0000c0 a1 a4 cf 3d 3f 72 8e 3c 30 cb 50 bd b4 0f a1 bd
       0.10138822 0.017388461 -0.050975025 -0.07864323
0000d0 2b 5e 90 bd 6c 72 65 3b c1 e8 3b bd 31 ec 24 3d
       -0.07049211 0.0035010828 -0.04587627 0.040264312
0000e0 27 51 83 bd be 77 c5 3d c5 b5 6d 3d e0 a1 29 3d
       -0.06411963 0.0964198 0.058034677 0.04141414
0000f0 9c 88 30 bc 43 d6 ca 3d ef e0 95 3d ea 06 8b 3b
       -0.010774758 0.099041484 0.07318293 0.0042427676
000100 79 ab bb 3d 10 bd 94 bd 8e 51 a0 bd cc 12 c0 3d
       0.09163565 -0.07262623 -0.07828055 0.09378585
000110 9e c2 9f bd c6 c2 db 3b 8d 4b 10 bd cc 8a 89 3d
       -0.07800792 0.0067065684 -0.0352283 0.067159265
000120 0f e1 4a bd 88 b1 a4 3c 6f c5 63 bd 27 72 d1 bb
       -0.04953104 0.020104185 -0.05560821 -0.006391782
000130 d1 90 a1 3d 27 cd aa 3d 26 5b cb 3d 4a eb 46 bd
       0.0788895 0.08339911 0.099294946 -0.048564233
000140 e4 45 94 bc 9a 58 68 3d 8c ea ad bd 58 84 a0 3d
       -0.018099733 0.056725122 -0.08492002 0.078377426
000150 b0 7d 7c 3d b9 5c c5 3d bb 02 fa bc e0 fa 39 3d
       0.061643302 0.09636826 -0.03051888 0.04540527
000160 a6 fe 07 3d 47 4a 8b 3d f6 77 30 bd 4a fb bc 3d
       0.033201836 0.06801277 -0.043083154 0.09227617
000170 77 33 72 bd 3f e1 a0 3d 17 fc 32 bd 2b 54 4f bd
       -0.059131112 0.07855462 -0.043697443 -0.05061738
000180 c6 b1 78 bc b5 8b d2 3d eb 7b 9a bc 93 03 19 bc
       -0.015179103 0.10280553 -0.018857917 -0.009339231
000190 89 78 86 3d bf d4 af 3c bf 2c a9 bc 3a 28 1d bd
       0.06565959 0.02146375 -0.02065122 -0.03836844
0001a0 69 5a 98 ba 9d be aa bc 5b 10 9f 3d f3 e1 9c 3d
       -0.0011623624 -0.020842845 0.077667914 0.07660284
0001b0 b6 87 65 3c 51 5a e3 bc e8 97 97 3d e7 ab b9 bd
       0.014009407 -0.027753027 0.07402021 -0.09065991
0001c0 ca e5 7e bd e7 a7 83 bd 20 4b 6c 3d c5 56 35 bd
       -0.062230863 -0.06428509 0.057688832 -0.044272203
0001d0 e0 08 09 bc 19 2e a3 3c 1f 93 4f 3d 6c 09 ae bd
       -0.008363932 0.019919442 0.050677415 -0.08497891
0001e0 86 10 cd bd 3f 84 27 bd 88 ef 7e 3d d5 a7 18 3d
       -0.10012917 -0.040897604 0.062240154 0.037269432
0001f0 e1 f4 c1 3d f7 50 b1 3d 67 c3 6c bd c1 8c ce bd
       0.09470535 0.08658021 -0.057803538 -0.100854404
000200 2c 98 ba bd e3 7f 77 3d d1 ec 67 3d 56 f7 86 bd
       -0.09111056 0.060424697 0.05662233 -0.06590144
000210 cc 9e b9 3d dd e7 1f bb 5c 5e 14 bc 92 05 5e bd
       0.09063491 -0.0024399676 -0.0090557 -0.05420453
000220 0c 80 80 bc 77 8e 3a bd 97 71 f6 3c c1 3e ce bd
       -0.015686058 -0.04554602 0.03008346 -0.10070563
000230 14 a0 b4 bc 5b 3d d0 bc f0 7a 9e 3d fd 6a a5 3d
       -0.022048987 -0.025419882 0.07738292 0.08077047
000240 ba c5 c5 3d 85 a1 b3 3c 61 52 1d 3c 78 5f 97 3b
       0.09656854 0.021927604 0.00960216 0.004619535
000250 19 c8 b1 3d ac b2 f7 3c b7 36 8a 3d 84 d3 56 3c
       0.08680744 0.030236565 0.06748717 0.013111953
000260 26 1f dd bc a5 2d c3 3d 16 77 40 3d 9e f2 ae 3d
       -0.026992392 0.095301904 0.04698857 0.08542369
000270 fb c4 9f bd 03 2b be 3d dc 86 7d bd 2c be 4c 3d
       -0.07801243 0.092855476 -0.06189619 0.04998605
000280 70 5a ca 3d ea 12 b8 bd 27 ca c2 3d a1 a9 ce 3d
       0.09880531 -0.089879826 0.09511214 0.10090948
000290 bb 4f 34 3d 74 b7 cc bd a8 75 a5 bd be 62 2c 3d
       0.04402135 -0.099959284 -0.08079082 0.042086355
0002a0 39 a3 a1 bd 2f 7d 1c bd 21 df 66 3d 51 3c 79 3d
       -0.078924604 -0.038205322 0.056365136 0.060848538
0002b0 82 f3 0c bd 4b 01 b9 3d 99 a7 b1 3d cd 0e fd bc
       -0.034411915 0.0903345 0.08674545 -0.030890847
0002c0 a4 0a 7d 3d a4 eb 17 bd fe f0 49 bd d0 cd bf bd
       0.061777726 -0.03708996 -0.049302094 -0.093654275
0002d0 05 da 57 bc de 24 00 bd 23 9b de 3c 35 e5 85 bd
       -0.0131745385 -0.03128516 0.027173584 -0.065378584
0002e0 40 30 c7 3d 7d aa 5b bd 7c c1 2a bc cf 29 26 3d
       0.09726 -0.053629387 -0.010422107 0.040567216
0002f0 37 7c 55 3d 51 42 8b 3d 2a 5c 07 bd f8 5c 36 3d
       0.052120414 0.06799758 -0.03304688 0.044522256
000300 d5 8c c0 3d 9f ee b4 3d 94 a8 b8 bd 85 7f 8b 3d
       0.094018616 0.08834576 -0.09016529 0.06811432
000310 a6 5c 28 bc 37 80 aa bd c5 d7 4e bc 47 6c 8f 3d
       -0.010275995 -0.08325236 -0.012624686 0.07003074
000320 15 58 ae 3d 2e c0 9e 3d 3f 82 a3 bd b1 a9 cb bd
       0.08512894 0.07751499 -0.07983827 -0.099444754
000330 bb 03 cf bd 2a 58 65 3c 98 a4 76 3d a3 fd c8 bd
       -0.101081334 0.013998071 0.060215563 -0.09814002
000340 55 6f f4 bc bf c3 9d bc eb 0d a7 3c fe 72 92 3d
       -0.029838243 -0.019258378 0.020392379 0.07150839
000350 e3 47 38 3d 92 67 d0 3d af 12 c0 bd 17 e5 c3 3d
       0.04499043 0.101760045 -0.093785636 0.0956518
000360 9c 81 45 3d 92 7d ce 3c 5f 0e 46 bd 9e a0 87 bd
       0.04821931 0.025206361 -0.04835355 -0.06622432
000370 5e 1c 4f 3d e4 fd 97 bd c4 8e 7a bb c9 b4 23 bd
       0.050564162 -0.07421473 -0.0038232068 -0.039967332
000380 b1 a7 1c 3d 85 56 95 3d e6 7e 83 bd b2 ed 83 3d
       0.03824586 0.07291893 -0.06420688 0.06441821
000390 3b 89 17 bd 88 4a 84 3b fc 09 9d 3d ef c8 54 bd
       -0.036996108 0.004037205 0.0766792 -0.051949438
0003a0 4c c3 ea bb e7 e1 67 bb e4 5a 44 3d d9 6f cc 3d
       -0.0071643945 -0.003538245 0.047938243 0.09982271
0003b0 35 a5 d2 bd 22 9b ac 3d 71 a4 15 bd 24 98 91 3d
       -0.10285417 0.08428027 -0.036533777 0.07109097
0003c0 cb 84 ab bb 93 bb c0 bd b0 2a 8f 3d 05 7d b5 3d
       -0.005234336 -0.09410777 0.06990564 0.08861736
0003d0 67 3c 3f bd d9 e0 c0 3c dc fd 8b bd 28 da c2 bc
       -0.046688464 0.023544716 -0.06835529 -0.023785666
0003e0 a8 e8 31 bc 5b 0b 01 bd 1b da 88 bd 44 59 c6 ba
       -0.010858692 -0.03150497 -0.06682225 -0.0015132804
0003f0 ab 36 b1 bd eb fd 67 39 a6 18 9e 3c a9 34 92 bd
       -0.08653005 0.00022124469 0.019298863 -0.071389504

enc_f.lstm.bias_ih_l0 f4 [384]
000000 66 21 ba 3c ed 8e 81 3c 6e 2b 4b bd 61 4f 9d 3d
       0.022721004 0.015815223 -0.049601965 0.07681156
000010 01 96 93 bc 0d 9e 9e 3d 17 f5 a8 3d e9 16 a1 3d
       -0.018015863 0.077449895 0.08249872 0.07865698
000020 2f 6c a6 3d f9 8b 81 3d 1e ff 9e 3d 91 d5 bf 3d
       0.08126103 0.06325526 0.077635035 0.093669064
000030 6c d6 c2 3d a8 33 84 3d 13 2a 55 3d 21 6e 13 3c
       0.09513554 0.06455165 0.05204208 0.008998425
000040 07 8a 7a 3d 5d 3f d1 bc a3 0c c4 3d df 29 33 3d
       0.06116679 -0.02554291 0.09572723 0.043741103
000050 69 cf 97 3c 21 d7 37 bb 83 dc 8e bc d1 d7 7e 3d
       0.018531518 -0.002805181 -0.017439133 0.062217537
000060 a7 c7 4a 3d 51 ae 24 3d ba c6 ed bc 5a e3 93 3d
       0.04950681 0.040205304 -0.029025424 0.07221098
000070 0d 3e 8f bd ed 49 e1 bc 27 c3 78 bd ef 1c fe 3b
       -0.06994257 -0.02750107 -0.060732987 0.007754914
000080 18 3e 83 bb 64 fa c7 3d 01 ff cf 3d 38 32 d5 bc
       -0.004005205 0.09764555 0.1015606 -0.026024923
000090 be df b3 bc ec 8d c2 bd 47 17 a6 bd 8a 56 90 3d
       -0.021957275 -0.09499726 -0.081099086 0.07047756
0000a0 fe 61 09 bd 1f e0 d1 3c d0 83 a7 bd 4f e5 88 3d
       -0.03354072 0.025619565 -0.08179438 0.06684362
0000b0 f4 11 44 3c 17 7f 02 bd 74 15 af 3c e9 ea aa bd
       0.011967171 -0.031859484 0.021372534 -0.08345587
0000c0 63 df 00 3c 91 b9 a2 3c b9 b1 46 3d 68 01 27 bd
       0.00786576 0.019863876 0.048509333 -0.040772825
0000d0 42 1f d3 bd 4f 25 d6 bc 60 91 a4 bd d4 b6 5e 3d
       -0.10308696 -0.026140837 -0.080355406 0.054373577
0000e0 0f f9 d2 3d 0c 46 15 3d d3 e4 30 3d d8 4f d8 bc
       0.103014104 0.036443755 0.043186974 -0.02640526
0000f0 11 65 52 3d 86 95 a7 3b 45 96 ad 3c 0c e1 68 bd
       0.051365916 0.00511426 0.021189818 -0.056855246
000100 26 22 ac bd fa e9 1f bd 42 b9 87 3d 6c 1b 9d bd
       -0.08404951 -0.039041497 0.06627132 -0.07671246
000110 c6 97 25 bc 17 32 c7 bd ad 09 96 bd 29 07 b7 3c
       -0.010106986 -0.09726351 -0.07326064 0.022342281
000120 29 81 c4 3c fe 0f 74 bd 23 59 b0 bc 45 bb 98 bd
       0.02398737 -0.059585564 -0.021526879 -0.07457594
000130 9e 94 40 bc db 86 3f ba 75 46 5f 3b 8d bb 3b 3d
       -0.011754183 -0.0007306167 0.0034069095 0.04583316
000140 85 af c9 bd 5d f6 2f 3b 32 5b 97 3d bc 37 98 3d
       -0.09847931 0.0026849725 0.07390441 0.074325055
000150 20 01 bc 3b 9c 53 93 bd 6e 32 7f bd 17 60 13 bd
       0.005737439 -0.071936816 -0.062303953 -0.03598031
000160 19 a9 f2 b9 e7 8c ac 3d bb 0f 1f bd e6 78 c9 3d
       -0.00046283824 0.084253125 -0.03883336 0.09837513
000170 3d bb 8b 3d e8 0a 9c bd bc ba 6d bd 82 a3 80 ba
       0.06822822 -0.07619268 -0.058039412 -0.0009814354
000180 0f e6 48 3d ad 89 5c 3c 30 08 fb bc 37 79 2c 3d
       0.049047526 0.013460559 -0.030643553 0.042107787
000190 42 47 2d bc 7e 1e b4 bd f0 5c c9 3d 7d 76 0f bc
       -0.010576071 -0.087948784 0.098321795 -0.008756277
0001a0 b4 a5 76 bd f1 e9 c3 bd 92 68 9a ba e9 44 69 3c
       -0.06021662 -0.09566105 -0.0011780432 0.014237621
0001b0 e5 aa 3e 3b d5 54 c8 3d 7a 9b 9b 3c bb 2d 5e 3d
       0.002909356 0.097818054 0.018995035 0.05424283
0001c0 5e a8 b7 bb d5 8f 12 3d 11 d4 aa 3d b5 c5 1d 3d
       -0.0056047877 0.0357817 0.0834123 0.038518626
0001d0 ce d8 85 3d 2b 75 90 3d 54 f4 ac bd 34 55 cb 3d
       0.06535493 0.07053598 -0.084450394 0.099283606
0001e0 d2 2a 6e bd a7 8c 63 bb f8 a2 9f bb cc 9b ac bd
       -0.058146305 -0.0034721287 -0.0048717223 -0.084281534
0001f0 65 91 c9 3d da c9 1d 3d 99 74 5e 3d 91 a3 8b 3d
       0.09842185 0.03852258 0.054310415 0.06818307
000200 47 6e f0 bc 21 0c 88 bd 88 4a 42 3c 9b 61 d3 bd
       -0.02934946 -0.066429384 0.01185859 -0.10321351
000210 48 0a 14 3d ce 84 ea 3c e0 9f c7 bd 5e 59 95 bc
       0.036142617 0.02862778 -0.097472906 -0.01823109
000220 66 d8 21 bc 64 40 6e bd 11 98 29 3d 2e 9a b2 bd
       -0.009878254 -0.058166876 0.041404787 -0.08720814
000230 2a 09 91 bd ca 21 68 bd d6 c1 bb 3d 37 07 b6 bd
       -0.07081826 -0.05667285 0.09167831 -0.08888095
000240 2f f8 97 bd 5f 08 97 bd b0 f3 23 bc 1b 45 92 3d
       -0.07420384 -0.073746435 -0.01000683 0.07142087
000250 b7 03 25 3d 22 b2 c6 bd 81 37 9b 3d 34 79 54 3d
       0.040286746 -0.09701945 0.07578946 0.0518734
000260 44 40 63 3d e0 71 bc bd 23 ed 07 bc 7e 7e 52 bd
       0.05548121 -0.092014074 -0.008296284 -0.051390164
000270 68 be 59 3d c0 67 21 3d 0c 9c e4 3c 63 fb fa bc
       0.0531601 0.039405584 0.02790644 -0.030637449
000280 48 90 30 3c e9 8c 03 bd c8 76 af 3d d3 2f c3 3d
       0.010776587 -0.032116804 0.085675776 0.09530606
000290 01 c8 18 bc 7d 51 b7 bb 73 21 95 bc 64 78 9a bd
       -0.009325028 -0.005594431 -0.018204426 -0.07542494
0002a0 89 92 9f 3c c5 23 aa 3d c8 03 99 bc 6a 5a 31 bd
       0.019479053 0.08307604 -0.01867856 -0.043299116
0002b0 55 ef cc bd 74 99 a1 3d 2d 38 c0 bd a2 8d 28 bd
       -0.100065865 0.07890597 -0.09385715 -0.041150697
0002c0 f7 cb c2 3c 37 02 30 3d 64 b1 aa bc 45 44 6e 3d
       0.023778899 0.042970862 -0.02083654 0.058170576
0002d0 0c 45 a5 3d 04 6d 8f 3d 0c 62 2c bc ea 05 a5 3d
       0.0806981 0.07003215 -0.010521423 0.08057769
0002e0 5f 00 b2 bd ec 48 3c 3d 98 70 fc 3c 50 12 18 bb
       -0.08691477 0.04596798 0.030815408 -0.0023204274
0002f0 fd ca 80 3d cb 79 55 bd aa 2d 87 3d d4 7c ad bd
       0.06288717 -0.052118104 0.066005066 -0.08471075
000300 c0 5f a6 bc 19 2f 84 bd 24 27 8e 38 6e e1 ab 3d
       -0.020309329 -0.06454296 6.778378e-05 0.08392607
000310 c4 9b 74 bb 99 59 51 3d 62 15 9b bd a4 0a ce 3d
       -0.003732429 0.051110838 -0.07572438 0.10060623
000320 aa b2 a1 3d c7 a3 7d bd 2b ff 7e bd fa 0e 65 3d
       0.078954056 -0.06192377 -0.062255066 0.055922486
000330 5e 6d 41 bd fd 55 e7 bc 21 83 c5 bd 33 a4 a2 bc
       -0.04722344 -0.028239245 -0.096441515 -0.019853687
000340 0d 86 23 bd ed 89 f6 3c d1 0d 0a bb e3 ef 51 bd
       -0.039922763 0.030095065 -0.0021065364 -0.051254164
000350 5b 9a b0 3d 8b 57 9c 3d 25 ef 11 bd 1f f1 07 3d
       0.08623191 0.07633885 -0.035628457 0.033188935
000360 ca 64 53 bd b6 38 65 bd 05 4d 35 bd 04 45 d4 3c
       -0.05160979 -0.055962287 -0.044262905 0.025911815
000370 b5 08 7b bc 26 d3 2b 3d dc a3 8b 3d c8 f6 5c 3d
       -0.0153219 0.041949414 0.06818363 0.053946286
000380 45 b8 f1 bc ea 33 67 bd 76 b8 8d bd 9c 6f 0c bd
       -0.029506812 -0.056445993 -0.06919949 -0.034286126
000390 61 9d 5e bc 3c 94 b6 3d 0a da 6d 3a 15 7c ae 3d
       -0.013587327 0.08914992 0.0009073323 0.085197605
0003a0 64 79 9f bb f8 d9 d2 3d e7 80 d1 3c 54 b3 c8 3d
       -0.004866766 0.102954805 0.02557416 0.09799829
0003b0 d9 48 a0 bd f3 cb 94 bd ec fc d4 bc 6d 0a 49 3d
       -0.078263946 -0.07265463 -0.025999509 0.04908221
0003c0 cd 91 c6 3c c9 dc 47 bd dd 45 b2 3d 3d 33 e1 3c
       0.024239445 -0.04879454 0.087047316 0.027490253
0003d0 a7 39 bd 3d b7 f7 80 3d 39 42 8b bd 26 ee 92 3d
       0.09239512 0.06297248 -0.0679974 0.071743295
0003e0 8f aa cb bc bd f8 1a bd 98 17 84 bb 1e af cb 3d
       -0.024861602 -0.03783487 -0.004031133 0.0994551
0003f0 68 1d ad bd ca 33 ba 3d 17 9a 99 3d 48 0d cb bd
       -0.084528744 0.09091909 0.075000934 -0.099146426
