_train/_models/20250919/신세계(004170)_20250919.pt (torch, 831847 bytes, 20 tensors)

enc_p.lstm.weight_ih_l0 f4 [384, 6]
-0.061129108 0.029776255 0.061385572 0.02569433 -0.031831905 -0.041925587 -0.0077569894 0.069892116
-0.012030943 -0.0041584633 0.059940107 -0.003916732 -0.027900882 -0.067773 0.08190221 0.07287461
-0.08232886 0.04112727 -0.09184773 0.05649227 -0.08585668 0.098358326 -0.020319352 -0.07180198
0.016830627 0.08201792 0.072742224 0.05369414 0.07430598 0.038606472 0.06249056 -0.0037539585
-0.06869216 -0.06239537 -0.0018584281 -0.051432736 0.100209475 0.058417313 0.054740738 0.010521136
0.06938484 -0.07647991 0.10340472 0.026841477 -0.07374368 0.004347458 -0.008252155 0.100897536
0.043992568 -0.0029371127 0.018837988 0.03692829 -0.0033469854 -0.07923644 -0.027001321 0.03723597
0.063766345 0.09479117 0.06338735 -0.016751453 0.035754226 -0.098270744 -0.08223328 0.042707607
0.0972224 0.046645314 -0.059156235 0.033247925 0.0913127 0.05965854 -0.09644598 -0.06593508
-0.099731684 0.020360386 0.05227392 -0.06370414 -0.048544265 -0.017286185 -0.046348747 0.06232549
0.027594907 0.007131935 -0.08843679 -0.0030301479 -0.02247762 0.051351584 -0.01695207 0.015023015
0.02345472 -0.015330107 -0.017559271 -0.011664917 -0.04010582 0.043281745 0.07971645 -0.10605738
-0.044089537 -0.040753063 0.10207916 0.006071829 0.07031376 0.06562877 0.038785655 -0.042408742
0.020112174 -0.09606557 -0.07888855 0.035174817 -0.03911332 -0.067616075 0.06375494 0.08108769
0.082371436 0.04681832 -0.050397817 -0.03318448 -0.08990439 0.0063538644 -0.058702722 0.042954456
-0.020924127 0.040726002 -0.09428664 -0.070893526 0.064774185 -0.008598815 -0.08091355 -0.0014207149
-0.09467556 0.07711701 0.08508158 -0.060437307 0.026251964 0.047707185 0.020136384 0.068489745
-0.07448512 -0.07247223 0.026272329 0.03060689 -0.016510557 -0.05522988 -0.02816421 0.07252364
-0.047061365 -0.08556396 0.050910424 0.10306701 -0.07534555 -0.039153624 0.033542026 0.07494328
0.04841652 -0.057353042 0.062629625 -0.05272832 -0.0035397788 -0.032583345 0.013935287 0.068527564
0.097960524 -0.06866848 -0.0919909 -0.05448883 0.017031929 0.01886826 -0.089890935 0.08581475
0.052632008 0.092797466 -0.00595334 -0.100841574 0.012262433 -0.08257102 -0.07517524 0.10061293
0.008347903 -0.0025229633 0.056654416 0.022750985 -0.041005418 -0.08538039 0.072276205 0.06567251
0.035284564 0.058854837 0.024787135 0.032138694 0.05599434 -0.01788156 -0.0068033068 0.08649437
0.020460995 -0.06658941 0.086520895 -0.082921155 -0.10020194 -0.100679 -0.05702158 0.08888042
0.019383002 -0.03686086 -0.089785464 0.046689767 0.054982055 -0.014562181 -0.032348115 0.098469295
-0.068551466 0.073238775 -0.06939116 0.07488199 -0.07380058 -0.070291065 -0.092740506 -0.07090476
-0.095262386 0.009991065 -0.0010316747 -0.04707768 0.039861295 -0.07248653 -0.06698879 0.067931674
0.056787945 -0.08695589 -0.07916893 -0.060040455 0.002710612 0.08417957 -0.049019948 0.0075723673
-0.019126207 -0.060930952 0.010008117 0.05910115 -0.062175676 0.04791598 0.09455478 -0.01802588
0.030971263 -0.09831346 0.09105147 0.09441105 0.08880831 -0.040432125 -0.09221171 0.10335306
-0.0722343 0.095468566 0.016629184 -0.03352147 0.06391581 -0.014237852 0.016866514 0.03448514
00000000: 8462 7abd 55ed f33c 706f 7b3d ea7c d23c
00000010: 2c62 02bd 2aba 2bbd 582e febb 9923 8f3d
00000020: 6f1d 45bc b843 88bb c283 753d ee57 80bb
00000030: 6490 e4bc 92cc 8abd 59bc a73d 493f 953d
00000040: 099c a8bd 1175 283d aa1a bcbd 7064 673d
00000050: a1d5 afbd 1770 c93d c574 a6bc eb0c 93bd
00000060: 62e0 893c 03f9 a73d e0f9 943d 63ee 5b3d
00000070: bc2d 983d d221 1e3d 1af6 7f3d f904 76bb
00000080: 7aae 8cbd 4a92 7fbd 8096 f3ba 22ab 52bd
00000090: a03a cd3d fe46 6f3d d337 603d d860 2c3c
000000a0: a419 8e3d 80a1 9cbd dbc5 d33d a8e2 db3c
000000b0: ed06 97bd 1f75 8e3b 0c34 07bc 5ea3 ce3d
000000c0: 8d31 343d 937c 40bb 2052 9a3c 1e42 173d
000000d0: 1959 5bbb b746 a2bd e031 ddbc bf84 183d
000000e0: ee97 823d df21 c23d 3ad1 813d 583a 89bc
000000f0: 0673 123d 2c42 c9bd ec69 a8bd 2cee 2e3d
00000100: 8a1c c73d 280f 3f3d cf4d 72bd fa2e 083d
00000110: 2702 bb3d 835c 743d 7885 c5bd f908 87bd
00000120: 2040 ccbd d3ca a63c 2e1d 563d 5177 82bd
00000130: 5ad6 46bd c29b 8dbc 2fd8 3dbd 0349 7f3d
00000140: b70e e23c 02b3 e93b 591e b5bd 7295 46bb
00000150: fc22 b8bc 0a56 523d 11df 8abc 1823 763c
00000160: 1d24 c03c 212b 7bbc 76d8 8fbc 351e 3fbc
00000170: 0046 24bd 3348 313d 6142 a33d 9d34 d9bd
00000180: 3b97 34bd afec 26bd e10e d13d 31f6 c63b
00000190: a900 903d 6068 863d b5dd 1e3d cab4 2dbd
000001a0: 49c2 a43c 07be c4bd 5290 a1bd 7813 103d
000001b0: 4a35 20bd 4c7a 8abd f391 823d 4e11 a63d
000001c0: 5bb2 a83d 91c4 3f3d f16d 4ebd 73ec 07bd
000001d0: cb1f b8bd 1434 d03b 4472 70bd 03f1 2f3d
000001e0: 1369 abbc 4fd0 263d 5b19 c1bd a030 91bd
000001f0: 54a8 843d 0be2 0cbc 01b6 a5bd 4837 baba
00000200: 43e5 c1bd 86ef 9d3d 403f ae3d 1c8d 77bd
00000210: 5c0e d73c 9c68 433d 0ff5 a43c 5a44 8c3d
00000220: a88b 98bd 526c 94bd 1139 d73c 4dbb fa3c
00000230: 2641 87bc ba38 62bd a1b8 e6bc 4687 943d
00000240: 6bc3 40bd 283c afbd 7387 503d cc14 d33d
00000250: c54e 9abd 8d5f 20bd 5d63 093d dd7b 993d
00000260: 6750 463d 06eb 6abd f643 803d a7f9 57bd
00000270: a2fb 67bb 1d76 05bd d450 643c 2e58 8c3d
00000280: 879f c83d 0fa2 8cbd ba65 bcbd ae2f 5fbd
00000290: 8b86 8b3c 9c91 9a3c bd18 b8bd a5bf af3d
000002a0: a994 573d 990c be3d 3c14 c3bb 0786 cebd
000002b0: 5fe8 483c ff1a a9bd 7af5 99bd 270e ce3d
000002c0: a5c5 083c 4d58 25bb 760e 683d 4660 ba3c
000002d0: 4cf5 27bd eadb aebd 8c05 943d 4f7f 863d
000002e0: 8c86 103d c511 713d 640e cb3c dda3 033d
000002f0: 525a 653d 597c 92bc 46ee debb f623 b13d
00000300: d19d a73c 0760 88bd de31 b13d 91d2 a9bd
00000310: ad36 cdbd cb30 cebd 768f 69bd f006 b63d
00000320: 1ac9 9e3c 6afb 16bd 71e1 b7bd c53d 3f3d
00000330: dd34 613d 3796 6ebc 757f 04bd 45aa c93d
00000340: b664 8cbd 36fe 953d f41c 8ebd bb5b 993d
00000350: c224 97bd c3f4 8fbd bcee bdbd 8436 91bd
00000360: ed18 c3bd 90b1 233c 4239 87ba 86d4 40bd
00000370: 9945 233d d173 94bd 6b31 89bd c31f 8b3d
00000380: 7a9a 683d ee15 b2bd 5223 a2bd fbec 75bd
00000390: 86a4 313b 5766 ac3d 24c9 48bd 9f21 f83b
000003a0: 90ae 9cbc bc92 79bd 16f9 233c 0c14 723d
000003b0: ecab 7ebd 8c43 443d f0a5 c13d 03ab 93bc
000003c0: 72b7 fd3c 9158 c9bd 3179 ba3d 955a c13d
000003d0: 22e1 b53d 289c 25bd 7ed9 bcbd c5aa d33d
000003e0: 94ef 93bd 0685 c33d ed39 883c cf4d 09bd
000003f0: 4be6 823d e145 69bc a52b 8a3c 4a40 0d3d

enc_p.lstm.weight_hh_l0 f4 [384, 96]
0.047295187 -0.08587895 0.08558536 -0.0987437 0.09277894 0.043724734 0.057508107 -0.0061746994
0.05683424 -0.0047555785 -0.07653644 0.016477473 0.04445641 -0.052971553 0.021393964 0.09162297
0.06288303 0.010279421 0.09363706 -0.005344463 0.047042914 0.024123363 -0.0006645434 0.008544839
-0.04993311 0.033225674 0.048281956 -0.07266173 -0.08428705 0.020723904 -0.0590992 -0.017634835
0.027168365 0.068355575 -0.040172175 0.10344005 -0.05247494 0.043689083 -0.076846994 -0.021783898
-0.07345269 -0.043121066 -0.09785181 0.016101973 -0.045104988 0.0013197812 0.091456085 0.032157395
-0.0024091697 0.022760445 0.011400139 0.004075144 0.034039922 -0.03640768 0.026413389 -0.050446823
-0.025344683 -0.09114427 -0.05953492 -0.061171155 0.062401555 -0.034283895 -0.098393045 0.037045404
0.034008287 -0.053177297 0.044595063 -0.0063883853 -0.04250546 0.058268473 0.008244569 -0.04294619
-0.012854211 -0.04881135 0.089812554 0.079683445 -0.04953453 0.012655328 0.08061555 0.023453025
-0.022366447 0.073153764 -0.034875188 -0.044020623 0.052721284 -0.0034746337 -0.038262803 0.05680011
0.05023311 0.08019061 0.083371796 -0.031860653 0.038185067 -0.048941545 -0.02951858 0.018748583
0.013343692 0.07672257 -0.01615005 0.017604666 0.08775048 -0.048802074 -0.016432274 -0.008606735
0.03851575 -0.09495576 0.045608494 0.0051907464 -0.056145933 0.034860145 -0.070278 -0.04199044
0.034268253 -0.02153028 0.07964156 0.048638877 -0.083821185 0.047594734 0.0025871587 0.007627317
0.04662287 0.09480013 -0.06359423 0.08169301 -0.07354776 0.050088026 0.02319108 0.037348192
0.0057995124 0.0861209 4.87219e-05 -0.065504014 -0.072876975 0.020675128 -0.06703135 -0.031237453
0.04896 -0.06788025 -0.02024795 0.05050325 -0.09978206 -0.09247714 -0.04388572 1.927358e-05
0.0199357 0.015309966 0.008903505 0.068702415 -0.058734834 -0.0052642436 0.01783712 -0.042762656
-0.08054998 0.07401093 -0.056149036 0.034954082 -0.046850033 -0.041661426 0.06030557 -0.069321215
-0.05582598 -0.00036100982 -0.03695154 -0.05737075 0.050212972 -0.09746596 0.036037005 -0.051820744
-0.039042596 -0.08699364 0.056763127 -0.08108277 0.06211579 -0.04003134 0.06599553 -0.061730307
0.08558076 0.08348529 0.08812812 -0.037433345 -0.024763381 0.07393347 -0.0012554738 -0.012913018
-0.057610296 0.09526302 -0.05889659 0.03634389 0.008625457 0.07512878 -0.077956416 -0.010435481
0.053409502 0.0043853284 -0.08575489 0.08921009 0.0142611945 -0.0313244 0.025668178 -0.09456723
-0.009092912 0.09801038 -0.052484643 -0.023582008 -0.085013516 0.019151064 -0.037194617 -0.094958074
0.094991066 -0.04381462 0.06316239 0.023795107 0.006928926 -0.055360146 0.014471629 0.100265265
0.009338223 -0.07774082 -0.006111337 -0.06241648 0.03728863 0.029176833 -0.08057708 0.002180376
0.019072117 0.07495818 -0.025080847 -0.09510882 0.03259002 0.019198751 0.09461215 0.07663138
-0.014939998 0.099713586 0.016494136 -0.078412145 -0.049419377 -0.061256874 -0.01761267 -0.0513739
-0.044541262 0.026881628 0.0038462058 0.0392841 0.0029107549 0.06250167 0.07229763 -0.017999796
0.023274483 -0.044761106 0.038338352 -0.020682698 0.0067545436 0.09824007 0.061044548 0.09038576
00000000: 99b8 413d 4ee1 afbd 6147 af3d 233a cabd
00000010: e302 be3d b518 333d 9f8d 6b3d 2255 cabb
00000020: 05cb 683d afd4 9bbb 23bf 9cbd c4fb 863c
00000030: ed17 363d b3f8 58bd 6542 af3c d3a4 bb3d
00000040: d1c8 803d 046b 283c c9c4 bf3d 9b20 afbb
00000050: 12b0 403d 5c9e c53c c134 2eba a7ff 0b3c
00000060: a986 4cbd a517 083d 4dc3 453d accf 94bd
00000070: b09e acbd 2dc5 a93c 0112 72bd ee76 90bc
00000080: 3190 de3c 02fe 8b3d 948b 24bd 60d8 d33d
00000090: f6ef 56bd 53f3 323d f561 9dbd 2574 b2bc
000000a0: 5d6e 96bd b79f 30bd 8866 c8bd 49e8 833c
000000b0: 02c0 38bd 82fc ac3a 544d bb3d 79b7 033d
000000c0: 29e3 1dbb 1d74 ba3c a6c7 3a3c c988 853b
000000d0: 726d 0b3d 3820 15bd e460 d83c 54a1 4ebd
000000e0: a79f cfbc d9a9 babd e3da 73bd 9b8e 7abd
000000f0: c698 7f3d 456d 0cbd 4b82 c9bd ecbc 173d
00000100: 464c 0b3d 70d0 59bd 50a9 363d a955 d1bb
00000110: 351a 2ebd ecaa 6e3d 3b14 073c 58e8 2fbd
00000120: 789a 52bc 69ee 47bd a5ef b73d 1331 a33d
00000130: b8e4 4abd 4b58 4f3c c419 a53d 8f20 c03c
00000140: d739 b7bc a4d1 953d 49d9 0ebd f84e 34bd
00000150: 46f2 573d aeb6 63bb 75b9 1cbd 3ba7 683d
00000160: 3cc1 4d3d f93a a43d d5be aa3d 5180 02bd
00000170: f267 1c3d ee76 48bd f3d0 f1bc a196 993c
00000180: 809f 5a3c b920 9d3d 1c4d 84bc a937 903c
00000190: 86b6 b33d afe4 47bd fa9c 86bc 4303 0dbc
000001a0: b1c2 1d3d 2a78 c2bd f9cf 3a3d 2317 aa3b
000001b0: 47f9 65bd 83c9 0e3d e9ed 8fbd 2bfe 2bbd
000001c0: de5c 0c3d 4560 b0bc 1d1b a33d 8f39 473d
000001d0: 71aa abbd b2f2 423d 528d 293b 93ee f93b
000001e0: 9ff7 3e3d 9226 c23d b13d 82bd aa4e a73d
000001f0: 35a0 96bd 1a29 4d3d 38fb bd3c 6bfa 183d
00000200: d609 be3b 2860 b03d be5a 4c38 f826 86bd
00000210: 8640 95bd e35e a93c bc47 89bd b0e5 ffbc
00000220: 488a 483d cd04 8bbd 07df a5bc 7fdc 4e3d
00000230: 895a ccbd a864 bdbd 83c1 33bd b3ad a137
00000240: 3150 a33c a7d6 7a3c 02e0 113c dab3 8c3d
00000250: f093 70bd ad7f acbb 271f 923c e527 2fbd
00000260: 63f7 a4bd 0b93 973d 88fc 65bd 032c 0f3d
00000270: d2e5 3fbd 2ca5 2abd f902 773d 48f8 8dbd
00000280: c8a9 64bd eb45 bdb9 7f5a 17bd 97fd 6abd
00000290: 1eac 4d3d 3c9c c7bd 8a9b 133d fd41 54bd
000002a0: 21eb 1fbd b929 b2bd 7480 683d b90e a6bd
000002b0: 206d 7e3d e7f7 23bd aa28 873d ebd8 7cbd
000002c0: f744 af3d 56fa aa3d 847c b43d b553 19bd
000002d0: 93dc cabc 6e6a 973d b68e a4ba 2091 53bc
000002e0: c6f8 6bbd 4219 c33d 8d3d 71bd 55dd 143d
000002f0: ca51 0d3c 1edd 993d 9da7 9fbd 94f9 2abc
00000300: ecc3 5a3d cdb2 8f3b 43a0 afbd c8b3 b63d
00000310: c9a7 693c 044e 00bd 1246 d23c 77ac c1bd
00000320: 70fa 14bc abb9 c83d 23fa 56bd 0e2f c1bc
00000330: 911b aebd b1e2 9c3c 6259 18bd 6179 c2bd
00000340: ad8a c23d f576 33bd 485b 813d f5ed c23c
00000350: 0b0c e33b 52c1 62bd 691a 6d3c e057 cd3d
00000360: 59ff 183c 9436 9fbd 9c41 c8bb 6ca8 7fbd
00000370: f6bb 183d 4104 ef3c 9905 a5bd a4e4 0e3b
00000380: 213d 9c3c ad83 993d 5976 cdbc 6ac8 c2bd
00000390: 1d7d 053d b346 9d3c 04c4 c13d eaf0 9c3d
000003a0: e5c6 74bc a336 cc3d b61e 873c 8c96 a0bd
000003b0: f96b 4abd 7de8 7abd 7248 90bc 706d 52bd
000003c0: e670 36bd dc36 dc3c a010 7c3b 5de8 203d
000003d0: 5dc2 3e3b e000 803d c810 943d 4f74 93bc
000003e0: 21aa be3c 6c57 37bd ad08 1d3d c36e a9bc
000003f0: 3855 dd3b 1732 c93d d909 7a3d 2b1c b93d

enc_p.lstm.bias_ih_l0 f4 [384]
0.09682298 0.058177087 -0.045014758 0.032909516 0.092652895 -0.02982945 -0.04115929 0.039105218
0.09568183 -0.06702425 -0.010773662 -0.0038033258 -0.052445874 -0.06118761 0.06273172 0.07759822
-0.09878353 -0.048441023 -0.0877167 0.053207777 -0.014719923 0.04507671 0.01572888 0.0067135985
-0.09681749 0.07850844 -0.07037245 0.017471196 -0.018429713 -0.04336802 -0.06450352 -0.07972537
0.00028641534 0.07795464 0.037327643 0.046628237 -0.06864511 -0.0316664 -0.0072859046 0.079024844
-0.0944121 0.044428933 -0.043126557 0.0347362 0.06152358 -0.030298559 0.046225544 0.045789514
-0.08691581 -0.016889615 0.07082833 0.044717014 0.047198404 -0.059801664 0.013985611 0.021971751
-0.008004066 -0.06673094 -0.053005256 -0.09326302 -0.022151213 0.09450993 0.06862225 0.033208966
0.026482921 -0.07904151 0.0962533 -0.035174467 0.0026296305 -0.03266443 -0.1011063 -0.053823996
-0.037171952 -0.008997963 -0.099182785 0.07531775 0.06822952 0.011737063 -0.08660503 0.059275124
0.040856667 0.0043553077 0.07158658 0.04464841 0.0604615 -0.09166515 -0.05796556 -0.017555479
-0.020636417 0.029204493 0.0006439244 -0.038258374 0.05156079 0.0075695063 -0.051757533 -0.05955507
-0.0022059989 -0.028851813 -0.036916327 -0.011957629 0.07199998 0.035431925 0.07517525 -0.07802616
-0.101955995 -0.053897604 0.006429898 0.10327038 0.012106806 0.02649561 0.047777355 -0.007854421
-0.0720295 0.09577055 0.10034687 -0.019989222 -0.0843474 0.03941474 0.09348041 -0.05478394
-0.034045108 -0.015307996 0.013175035 0.02236871 -0.012513074 0.07666581 0.09856796 -0.058515437
0.038500663 0.07413196 0.029853502 0.013179977 0.063824736 0.0724262 -0.09216337 -0.09552212
0.03838767 0.029953407 0.014692021 0.009432793 0.0528712 0.057637405 -0.08977012 -0.08323038
0.008301466 -0.08732008 0.10086225 -0.04931716 -0.0833631 -0.05749474 -0.00011068161 -0.09537248
-0.09960388 0.04225489 -0.01371601 0.0960797 -0.073690884 0.014574799 -0.057543833 0.06643159
0.031034244 -0.10193277 -0.016947014 0.060483083 -0.0050103185 -0.04021333 -0.0609536 0.00067641656
-0.071781725 -0.023932243 -0.07266116 0.010261273 0.01714797 0.0018871072 -0.046811264 0.038088918
0.07544793 -0.090017654 -0.04426377 0.046808645 -0.044133328 -0.08588798 -0.08348533 -0.039970383
0.032220982 0.07622961 0.059482172 0.0175702 0.067887 0.03331169 -0.035852075 -0.10290305
0.03326683 0.03381031 -0.030899515 -0.04940523 0.08501936 0.09444255 0.06120017 -0.0060598287
-0.041177783 -0.07166361 -0.10106461 -0.020629311 -0.010192482 -0.07580154 0.034585476 -0.077936426
-0.053592216 0.058042385 0.041453514 0.08130288 0.02218709 -0.0036494643 -0.051708106 -0.018789703
0.008943152 0.091296926 0.0624425 0.09732018 -0.091202915 -0.09588223 -0.06888804 -0.09490236
-0.007889671 0.00478186 0.08544187 -0.0077829026 0.069548175 -0.047629256 -0.05540299 -0.008988299
0.0670958 -0.10202307 0.033979677 -0.0034631775 0.09890461 0.011203472 -0.02241845 0.056934197
0.05107215 0.021006716 0.0846648 0.077739455 0.06545652 -0.059375748 0.016823938 0.03244413
-0.05273824 0.08885869 0.033241156 -0.009094381 -0.052265227 0.015698558 0.046043746 -0.07107316
00000000: 204b c63d 194b 6e3d 6561 38bd 21cc 063d
00000010: cdc0 bd3d e45c f4bc a596 28bd cb2c 203d
00000020: d6f4 c33d 0344 89bd 0384 30bc 3841 79bb
00000030: 7cd1 56bd dc9f 7abd 7d79 803d d1eb 9e3d
00000040: 054f cabd 186a 46bd d0a4 b3bd 66f0 593d
00000050: d52b 71bc 5ba2 383d dad9 803c bffd db3b
00000060: 4048 c6bd 08c9 a03d 6e1f 90bd c11f 8f3c
00000070: e9f9 96bc aaa2 31bd 6c1a 84bd 0e47 a3bd
00000080: 042a 9639 afa6 9f3d dfe4 183d 40fd 3e3d
00000090: cf95 8cbd a1b4 01bd 99be eebb c7d7 a13d
000000a0: 225b c1bd 1dfb 353d 79a5 30bd 8c47 0e3d
000000b0: 2600 7c3d af34 f8bc ff56 3d3d c98d 3b3d
000000c0: eb00 b2bd 175c 8abc 720e 913d 3029 373d
000000d0: 1d53 413d 97f2 74bd e723 653c 1afe b33c
000000e0: 7c23 03bc 3baa 88bd 0a1c 59bd af00 bfbd
000000f0: 7676 b5bc 6c8e c13d d289 8c3d 2006 083d
00000100: b6f2 d83c 84e0 a1bd 7320 c53d 1a13 10bd
00000110: e155 2c3b 23cb 05bd d210 cfbd 8d76 5cbd
00000120: 9e41 18bd 316c 13bc 5820 cbbd 3140 9a3d
00000130: ebbb 8b3d cf4c 403c fa5d b1bd 79ca 723d
00000140: 5259 273d f8b6 8e3b fc9b 923d 40e1 363d
00000150: 7aa6 773d f0ba bbbd 4c6d 6dbd 82d0 8fbc
00000160: b40d a9bc 433e ef3c 09cd 283a d0b4 1cbd
00000170: 6831 533d 9f09 f83b b5ff 53bd 04f0 73bd
00000180: 8592 10bb a35a ecbc 9335 17bd eee9 43bc
00000190: ba74 933d 1121 113d 7bf5 993d 2ecc 9fbd
000001a0: 4ece d0bd bcc3 5cbd e5b1 d23b 6c7f d33d
000001b0: a05b 463c 520d d93c 30b2 433d d4af 00bc
000001c0: 3484 93bd 5a23 c43d a982 cd3d 70c0 a3bc
000001d0: 54be acbd 5a71 213d a872 bf3d 2065 60bd
000001e0: e272 0bbd 64ce 7abc 1adc 573c 963e b73c
000001f0: a303 4dbc f702 9d3d 00de c93d e2ad 6fbd
00000200: dfb2 1d3d 7fd2 973d 558f f43c d5f0 573c
00000210: 8bb6 823d 3054 943d 26c0 bcbd 1aa1 c3bd
00000220: 643c 1d3d d960 f53c cdb6 703c 008c 1a3c
00000230: 798f 583d 3315 6c3d 66d9 b7bd b174 aabd
00000240: df02 083c dfd4 b2bd de90 ce3d ca00 4abd
00000250: 46ba aabd 9b7f 6bbd bd1d e8b8 a652 c3bd
00000260: 1efd cbbd 7713 2d3d 1eb9 60bc 6fc5 c43d
00000270: 3feb 96bd 23cb 6e3c 15b3 6bbd 490d 883d
00000280: 873b fe3c 21c2 d0bd 77d4 8abc 1cbd 773d
00000290: 992d a4bb bcb6 24bd 7baa 79bd 8c51 313a
000002a0: 4c02 93bd 8d0d c4bc 60cf 94bd e61e 283c
000002b0: e679 8c3c cf58 f73a 2bbd 3fbd 2003 1c3d
000002c0: 7284 9a3d 2d5b b8bd ed4d 35bd 6cba 3f3d
000002d0: 26c5 34bd 0ae6 afbd 5bfa aabd fcb7 23bd
000002e0: 26fa 033d 451e 9c3d 94a3 733d 61ef 8f3c
000002f0: 5708 8b3d d771 083d a0d9 12bd d6be d2bd
00000300: cd42 083d ae7c 0a3d fb20 fdbc 235d 4abd
00000310: a11e ae3d 186b c13d 08ad 7a3d 8791 c6bb
00000320: 09aa 28bd 5fc4 92bd f6fa cebd cdfe a8bc
00000330: 5efe 26bc d63d 9bbd 80a9 0d3d 229d 9fbd
00000340: 8383 5bbd dabd 6d3d 29cb 293d 2082 a63d
00000350: b3c1 b53c da2b 6fbb e1cb 53bd ddec 99bc
00000360: 4c86 123c e2f9 ba3d b5c3 7f3d cd4f c73d
00000370: 98c8 babd e75d c4bd 2c15 8dbd 2b5c c2bd
00000380: ae43 01bc 26b1 9c3b 26fc ae3d b807 ffbb
00000390: 466f 8e3d e516 43bd 3fee 62bd a943 13bc
000003a0: 8669 893d 79f1 d0bd 462e 0b3d 7af6 62bb
000003b0: 808e ca3d c48e 373c e6a6 b7bc d533 693d
000003c0: 0831 513d 4716 ac3c bd64 ad3d dd35 9f3d
000003d0: 110e 863d fc33 73bd 5bd2 893c 23e4 043d
000003e0: 0e04 58bd 8bfb b53d e127 083d 9900 15bc
000003f0: 1014 56bd 439a 803c 5e98 3c3d ce8e 91bd

enc_p.lstm.bias_hh_l0 f4 [384]
0.0648125 -0.004523092 0.086521335 0.091255 -0.02549841 -0.009171971 -0.0758218 -0.048677955
-0.06142984 -0.00011173351 0.065852985 0.07168939 0.0066836076 0.022721192 0.08204239 0.030308427
0.026921406 0.068534724 -0.035831306 -0.10218634 0.06452152 -0.047497865 0.009137107 0.043522615
0.07037577 -0.09050383 0.08019127 0.03911553 -0.09013219 -0.013094418 0.08635111 -0.014034869
0.09824259 -0.036592226 -0.01735953 -0.025073659 -0.054711793 0.0642391 0.04396837 0.08500878
-0.058479592 -0.09910832 -0.060524225 0.067365706 -0.014460311 -0.08873719 0.07795468 0.019370224
0.06617623 -0.013079441 -0.0052317963 -0.08059178 0.004280859 0.059787862 -0.027865995 -0.03969173
-0.07872181 0.033560075 0.04607033 -0.036742073 -0.0723071 0.080825925 -0.05080559 -0.09482763
0.07063598 -0.09635051 0.011897582 -0.013235559 0.04822771 -0.051602088 0.028257497 -0.025673887
0.09212934 -0.011021548 0.0053109988 0.097055964 -0.071433075 -0.07816424 0.059029944 0.09297658
-0.062526405 0.08230192 0.04792265 0.004242743 0.10233876 -0.0069584264 -0.076737724 0.003880492
-0.03374925 0.09852252 -0.0834685 0.07776264 -0.043515053 -0.029675549 0.05742197 -0.0060020518
0.031774994 -0.061141137 -0.09933237 -0.07772781 0.00054445287 -0.09526781 0.03659263 -0.0006076166
-0.073587544 -0.07721889 0.05118657 0.014358973 0.02622547 0.048751242 0.002958467 0.050317954
0.07086257 0.008286239 0.025877787 0.068246536 -0.06378594 -0.040678576 0.07951546 -0.011752434
-0.038141444 -0.09420032 0.03827744 -0.069895595 -0.035805345 -0.090344876 -0.057972718 -0.047688663
-0.04478525 -0.06308197 0.00139403 0.037866034 0.09707324 -0.0997113 0.009054204 0.09828921
0.093388274 -0.061027132 -0.056398716 -0.06951111 -0.025184182 0.05916884 0.08216523 0.09178092
-0.037931222 0.019509746 -0.015621945 0.03414872 -0.0096603185 0.06508187 -0.080384284 -0.046633713
-0.056717794 -0.07072191 -0.08658229 0.01714636 -0.08204117 -0.048793845 0.08311073 -0.05897066
0.06744587 -0.09426222 0.06870332 0.06274497 0.030340698 -0.059512917 0.040764328 0.054891557
0.04512433 -0.05503661 0.052398495 -0.098060444 -0.016208157 0.038514677 0.03583124 0.09546668
0.054768875 0.014567843 0.005599689 -0.09866135 0.028864814 0.09431265 0.036661692 -0.020630956
0.046280675 -0.042284 -0.056748435 0.017999852 -0.047860704 -0.031853464 0.06799984 -0.018476589
-0.018750798 0.09111621 0.085389696 0.08786557 0.042433895 0.041749675 -0.028964518 0.009236976
-0.07830236 -0.086904354 -0.08729476 0.075072825 0.0404485 0.076735154 -0.07348718 -0.04784476
-0.013319913 -0.00377454 -0.0011267028 0.021056391 -0.027714113 -0.07505148 0.08171753 -0.054432843
-0.05889955 0.04837665 0.0034680145 -0.060885943 -0.06469402 -0.020782685 -0.07627621 -0.06547141
0.01692166 0.0068383478 -0.08575208 -0.08958978 -0.047836673 0.031407986 -0.029287834 -0.010126568
-0.073310554 0.054665744 -0.08503219 0.0391836 0.07335861 0.015549701 -0.097389214 -0.09626751
0.067556724 -0.086881496 0.00022975211 0.05246769 -0.042622037 -0.058409087 0.044673238 0.028252747
0.096748754 -0.09966295 -0.09374084 -0.008083199 -0.07509686 -0.0459662 0.015546432 0.054419376
00000000: 6abc 843d 7236 94bb 1932 b13d e7e3 ba3d
00000010: 0be2 d0bc 0946 16bc 7648 9bbd 8962 47bd
00000020: db9d 7bbd 7952 eab8 eedd 863d e3d1 923d
00000030: 2a02 db3b cb21 ba3c d705 a83d 6149 f83c
00000040: 488a dc3c ef5b 8c3d d9c3 12bd 1247 d1bd
00000050: dc23 843d 1f8d 42bd ceb3 153c c544 323d
00000060: 2c21 903d 125a b9bd 523b a43d 9b37 203d
00000070: 3a97 b8bd f889 56bc dad8 b03d 82f2 65bc
00000080: 6933 c93d bbe1 15bd 9335 8ebc 4667 cdbc
00000090: 7919 60bd ca8f 833d 2d18 343d 1519 ae3d
000000a0: 4c88 6fbd 4ef9 cabd 40e8 77bd 08f7 893d
000000b0: f1ea 6cbc d8bb b5bd b4a6 9f3d 4eae 9e3c
000000c0: 6787 873d 274b 56bc 7d6f abbb 4e0d a5bd
000000d0: 7346 8c3b 1ee4 743d 3a47 e4bc cc93 22bd
000000e0: e638 a1bd 4a76 093d 3eb4 3c3d db7e 16bd
000000f0: bf15 94bd 1088 a53d 8619 50bd fd34 c2bd
00000100: 99a9 903d 6b53 c5bd 13ee 423c f5d9 58bc
00000110: 6b8a 453d b65c 53bd 447c e73c 0b52 d2bc
00000120: 4fae bc3d b993 34bc e307 ae3b 47c5 c63d
00000130: 814b 92bd 9314 a0bd 62c9 713d 816a be3d
00000140: d80d 80bd e98d a83d 8a4a 443d b506 8b3b
00000150: fc96 d13d 8303 e4bb ab28 9dbd da4f 7e3b
00000160: a73c 0abd 2dc6 c93d 88f1 aabd 0542 9f3d
00000170: d73c 32bd 231a f3bc 4d33 6b3d dcac c4bb
00000180: 7f26 023d 216f 7abd c56e cbbd c22f 9fbd
00000190: 9db9 0e3a c51b c3bd 27e2 153d 7648 1fba
000001a0: 11b5 96bd f024 9ebd 02a9 513d e641 6b3c
000001b0: ccd6 d63c 62af 473d d7e2 413b 331a 4e3d
000001c0: 6520 913d 01c3 073c a7fd d33c d7c4 8b3d
000001d0: 34a2 82bd 949e 26bd 00d9 a23d 488d 40bc
000001e0: 343a 1cbd 19ec c0bd cec8 1c3d 6c25 8fbd
000001f0: a0a8 12bd bc06 b9bd cd74 6dbd 3055 43bd
00000200: bd70 37bd 1f31 81bd e3b7 b63a 6a19 1b3d
00000210: 56ce c63d 7035 ccbd 1658 143c da4b c93d
00000220: 5a42 bf3d 96f7 79bd 5702 67bd d75b 8ebd
00000230: 0f4f cebc 075b 723d 3e46 a83d a3f7 bb3d
00000240: c55d 1bbd e7d2 9f3c 30f3 7fbc 87df 0b3d
00000250: 5046 1ebc a549 853d 84a0 a4bd fe02 3fbd
00000260: eb50 68bd a6d6 90bd 0e52 b1bd 8676 8c3c
00000270: 3305 a8bd 0edc 47bd f535 aa3d 388b 71bd
00000280: 0f21 8a3d 8d0c c1bd 54b4 8c3d 6f80 803d
00000290: 0e8d f83c d1c3 73bd 7ff8 263d f8d5 603d
000002a0: 4ad4 383d 126e 61bd ce9f 563d ead3 c8bd
000002b0: f8c6 84bc 91c1 1d3d c7c3 123d 0984 c33d
000002c0: 5455 603d f6ad 6e3c 997d b73b f60e cabd
000002d0: e775 ec3c fe26 c13d 922a 163d 4002 a9bc
000002e0: ce90 3d3d fd31 2dbd 0c71 68bd 6d74 933c
000002f0: 9609 44bd c778 02bd 8043 8b3d 375c 97bc
00000300: 469b 99bc 239b ba3d cbe0 ae3d ddf2 b33d
00000310: 2acf 2d3d b501 2b3d ff46 edbc af56 173c
00000320: fd5c a0bd e9fa b1bd 98c7 b2bd c8bf 993d
00000330: 54ad 253d 5227 9d3d 7280 96bd def8 43bd
00000340: c43b 5abc 465e 77bb dfad 93ba 747e ac3c
00000350: b508 e3bc 97b4 99bd 855b a73d f9f4 5ebd
00000360: a840 71bd 9826 463d a147 633b 8a63 79bd
00000370: 4c7e 84bd 7340 aabc b436 9cbd e015 86bd
00000380: 4b9f 8a3c 3814 e03b c99e afbd d97a b7bd
00000390: 63f0 43bd a9a5 003d 0aed efbc e8e9 25bc
000003a0: d823 96bd 30e9 5f3d 5b25 aebd fc7e 203d
000003b0: 0a3d 963d 2cc4 7e3c ff73 c7bd e627 c5bd
000003c0: 2e5b 8a3d edee b1bd 9de9 7039 5ce8 563d
000003d0: 7294 2ebd 5e3e 6fbd 49fb 363d 4e72 e73c
000003e0: 3624 c63d 171c ccbd 33fb bfbd 656f 04bc
000003f0: 62cc 99bd 0e47 3cbd 76b6 7e3c dae6 5e3d

enc_f.lstm.weight_ih_l0 f4 [384, 4]
-0.00061299466 -0.09910812 -0.10236435 0.07615544 0.06917701 0.017350478 -0.09241724 -0.100611016
0.031028438 -0.016683033 -0.007191113 0.00039455426 -0.05028834 0.035457578 -0.1010313 -0.05980107
0.064746514 -0.079817645 -0.009055201 -0.07752413 0.09431781 0.010912123 -0.0440623 -0.07518511
0.08489698 -0.08754098 0.09308409 0.04449083 0.06698696 -0.046625804 -0.018535282 -0.004481147
-0.06882123 -0.07980909 -0.08673978 -0.04861914 0.072861604 -0.05500007 -0.051684797 -0.044213414
0.06680072 -0.01250887 0.08870702 -0.0038329174 0.09378651 -0.07626999 -0.04123588 0.07882722
0.012731313 -0.047396664 0.00033610954 -0.015592912 0.028518843 -0.09021285 0.047390398 -0.06502049
0.06681997 0.07579918 0.08452213 -0.022344748 0.02180246 -0.0046173325 0.07029607 -0.05147222
-0.026705509 -0.08324345 0.0315869 0.09251886 -0.0831766 -0.07613187 0.064165644 0.0664776
0.09021466 -0.003571905 0.014344731 -0.013797681 0.04811082 -0.020105995 0.09520053 -0.05604544
0.061217688 0.031968318 -0.051814064 0.009433941 -0.05398409 -0.086011514 -0.097485475 0.039454002
-0.084670626 -0.08721116 0.029750304 0.01027845 -0.073769785 -0.014082788 0.09602402 -0.0044507477
-0.014392537 0.06466726 0.09945124 0.059697803 -0.06790331 -0.0007418977 -0.02203128 -0.032900743
0.042506423 0.05595345 -0.06187166 0.06320562 -0.097364895 -0.026085865 0.03596865 -0.085105345
-0.026049344 0.052560896 -0.065811194 -0.08356661 0.09803535 0.013029873 -0.076259665 -0.010902303
-0.023763688 0.013484928 0.03780961 0.077128604 0.05897233 -0.005203831 -0.06082047 -0.0421679
0.063982025 -0.09677346 -0.0017390541 -0.089668706 -0.08317154 0.03697147 0.07057448 -0.089066796
0.01810414 -0.052469127 -0.021808356 -0.08242663 0.07995457 0.00041455176 0.033004086 0.07695512
0.05106297 0.019670196 0.03980943 -0.03167537 -0.0331243 -0.053864073 -0.042647358 0.05950761
-0.021324284 -0.08773171 0.07722206 -0.00011973137 0.07734267 -0.090070054 0.026468989 -0.09743773
-0.019996325 0.09634152 -0.039490744 0.009363473 0.054186508 0.077470705 -0.08904035 0.05885955
-0.007262125 0.0898477 0.05249001 0.048030477 -0.10031179 0.06281502 0.038461413 -0.06291025
0.009245918 0.0061963154 -0.010606233 0.0874099 -0.09037656 0.049298372 -0.09511645 -0.02129635
-0.03213164 0.09889179 0.011445921 0.0077047893 -0.046818115 0.02597107 0.08883413 -0.04305314
0.09215204 -0.07100191 0.010338332 0.025260044 0.086749054 0.1009264 -0.090446286 -0.06875857
0.033002544 -0.0026925213 0.09728473 -0.013282329 -0.08664179 0.048168443 0.05468549 0.035712186
0.06629013 0.07366264 -0.09081389 -0.017210707 -0.001959877 0.007803503 0.009500596 0.048368562
-0.06465367 -0.01824737 -0.09907085 -0.08477764 -0.066816986 -0.07624507 0.014423464 -0.085620336
-0.08339463 -0.015828425 -0.024252547 0.07584136 0.0033301832 -0.0549937 -0.058241103 0.012612241
-0.028057251 -0.047714885 0.08118579 0.019833019 -0.060223833 0.0376475 0.05359944 0.06525581
0.103562005 0.02958073 0.02079686 -0.0647261 0.058475018 0.007471587 0.0851747 0.08191458
0.0828883 -0.09763884 -0.07173865 -0.012968354 -0.018181924 -0.055701405 0.024723876 0.039084356
00000000: 60b1 20ba 33f9 cabd 66a4 d1bd 62f7 9b3d
00000010: adac 8d3d 9722 8e3c 4045 bdbd 260d cebd
00000020: 5a2f fe3c dbaa 88bc 6ea3 ebbb 2ddc ce39
00000030: 25fb 4dbd f73b 113d 80e9 cebd f7f1 74bd
00000040: d299 843d 6f77 a3bd 445c 14bc f9c4 9ebd
00000050: b229 c13d c3c8 323c ac7a 34bd a7fa 99bd
00000060: 78de ad3d af48 b3bd dfa2 be3d 043c 363d
00000070: 7630 893d b3fa 3ebd 4ed7 97bc 96d6 92bb
00000080: 25f2 8cbd f372 a3bd a0a4 b1bd dd24 47bd
00000090: 7738 953d c147 61bd 70b3 53bd 2019 35bd
000000a0: d1ce 883d 01f2 4cbc 07ac b53d af31 7bbb
000000b0: 2413 c03d 7133 9cbd f4e6 28bd 2a70 a13d
000000c0: ff96 503c 0123 42bd dc37 b039 6a79 7fbc
000000d0: 59a0 e93c 84c1 b8bd 6f1c 423d 7629 85bd
000000e0: e9d8 883d 9a3c 9b3d f019 ad3d 550c b7bc
000000f0: 139b b23c fe4c 97bb 63f7 8f3d 89d4 52bd
00000100: 83c5 dabc 8b7b aabd 4461 013d 877a bd3d
00000110: 7e58 aabd 07eb 9bbd 4769 833d 6825 883d
00000120: 77c2 b83d 9f16 6abb 2a06 6b3c ab0f 62bc
00000130: da0f 453d 54b5 a4bc 7ff8 c23d e78f 65bd
00000140: 66bf 7a3d 36f1 023d fc3a 54bd d190 1a3c
00000150: 6c1e 5dbd ce26 b0bd 77a6 c7bd 859a 213d
00000160: cb67 adbd c49b b2bd e9b6 f33c f266 283c
00000170: 9d14 97bd 7ebb 66bc 3ea8 c43d 94d7 91bb
00000180: adce 6bbc 4570 843d 17ad cb3d af85 743d
00000190: e410 8bbd e97b 42ba f17a b4bc eec2 06bd
000001a0: 371b 2e3d 722f 653d 236d 7dbd f371 813d
000001b0: 3f67 c7bd 06b2 d5bc dd53 133d b64b aebd
000001c0: 6f65 d5bc 184a 573d 05c8 86bd f924 abbd
000001d0: c2c6 c83d 407b 553c 072e 9cbd 939f 32bc
000001e0: 11ac c2bc e3ef 5c3c 40de 1a3d 9af5 9d3d
000001f0: f88c 713d e684 aabb e31e 79bd 3fb8 2cbd
00000200: 0209 833d 2a31 c6bd f9f0 e3ba 3aa4 b7bd
00000210: d755 aabd 656f 173d 5a89 903d a768 b6bd
00000220: 224f 943c dee9 56bd 70a7 b2bc 4bcf a8bd
00000230: 39bf a33d 3258 d939 4b2f 073d a59a 9d3d
00000240: 6827 513d 6423 a13c 360f 233d 08be 01bd
00000250: 59ad 07bd 93a0 5cbd ffae 2ebd 40be 733d
00000260: 44b0 aebc afac b3bd 9926 9e3d 4a18 fbb8
00000270: d565 9e3d a676 b8bd 7ed5 d83c 6f8d c7bd
00000280: 55cf a3bc b44e c53d 0cc1 21bd 4169 193c
00000290: acf2 5d3d f6a8 9e3d c95a b6bd b616 713d
000002a0: 1ff7 edbb 1202 b83d c4ff 563d 9bbb 443d
000002b0: 4570 cdbd 29a5 803d b789 1d3d 17d7 80bd
000002c0: 317c 173c 760a cb3b c4c5 2dbc f603 b33d
000002d0: 5917 b9bd 17ed 493d 6acc c2bd af75 aebc
000002e0: 779c 03bd c787 ca3d ac87 3b3c 7578 fc3b
000002f0: 5ac4 3fbd 48c1 d43c abee b53d 7d58 30bd
00000300: 35ba bc3d 7369 91bd 1b62 293c 27ee ce3c
00000310: 7da9 b13d 80b2 ce3d e73b b9bd 4bd1 8cbd
00000320: ad2d 073d 0375 30bb 373d c73d 209e 59bc
00000330: 4071 b1bd 464c 453d e4fd 5f3d f146 123d
00000340: 1fc3 873d 70dc 963d a2fc b9bd 78fd 8cbc
00000350: 4871 00bb 87b4 ff3b 63a8 1b3c 1d1e 463d
00000360: 2569 84bd 827b 95bc a8e5 cabd e69f adbd
00000370: 58d7 88bd 6026 9cbd 6550 6c3c b759 afbd
00000380: ceca aabd 9daa 81bc 47ad c6bc b752 9b3d
00000390: 343f 5a3b 1341 61bd 398e 6ebd 93a3 4e3c
000003a0: 52d8 e5bc af70 43bd bc44 a63d db78 a23c
000003b0: 44ad 76bd 4434 1a3d 168b 5b3d d7a4 853d
000003c0: 5118 d43d 4953 f23c 2d5e aa3c 1e8f 84bd
000003d0: 8083 6f3d 37d4 f43b 1370 ae3d d5c2 a73d
000003e0: 57c1 a93d dff6 c7bd b7eb 92bd 3879 54bc
000003f0: 42f2 94bc 2827 64bd ba89 ca3c eb16 203d

enc_f.lstm.weight_hh_l0 f4 [384, 96]
-0.064143606 -0.064078145 -0.038545128 -0.0021614854 -0.047430795 -0.0519145 -0.051824592 0.07165951
-0.010753255 -0.03817993 0.10108806 -0.03938263 -0.046776276 0.06425522 0.0134280855 0.018468978
-0.0671315 -0.00060637 -0.062219743 0.024272136 -0.08220898 -0.06082725 0.021913182 0.06321696
0.09957365 0.05643242 0.07848843 0.04965184 0.014060787 -0.064214684 0.027213437 0.032734796
0.073152006 -0.08361618 -0.019324863 0.04987513 0.09136288 -0.096030384 -0.052543044 0.038978767
0.061709315 0.046584006 0.09728417 -0.032902353 -0.0014368992 -0.10205115 -0.05722305 0.06726185
0.036267716 0.0645051 -0.07332012 -0.043079276 -0.084800005 0.061402686 0.00442251 0.006829429
-0.010125783 -0.05957878 -0.09983975 0.04635042 -0.0073148934 0.10199771 -0.04049921 0.011920304
0.10117883 -0.0023141846 -0.050424054 -0.017970815 0.049875975 0.06373518 -0.0708471 0.028739013
-0.021429429 0.03883368 0.09159027 0.046666984 -0.010914049 -0.06910385 -0.08132246 0.08081611
0.0121646905 -0.05114242 0.061030906 -0.06506342 -0.090758674 0.06489184 -0.09075004 0.090641774
0.011397875 -0.03653608 -0.085899636 0.007103218 0.083963506 0.0024044658 -0.1015646 -0.09349144
0.022005925 0.10021003 0.037394382 -0.009350544 -0.055096503 0.08687227 0.09872178 -0.035923716
-0.09181169 0.053581566 0.049386453 0.017039465 -0.07436419 -0.021194717 0.034890905 -0.067958444
-0.070682004 -0.056657847 0.019172043 0.018439915 -0.047638312 0.060671806 -0.05745007 -0.017055094
0.033268433 -0.033291075 -0.008574361 0.069043055 -0.05119761 -0.074417606 0.082747295 -0.043875482
0.03906233 0.09779877 -0.06837858 0.05677865 -0.05045618 -0.0861036 0.067502156 -0.043944683
0.051920895 0.027569868 -0.082647994 0.019818828 -0.100494646 0.01312223 -0.04963712 0.050394114
-0.0894486 -0.016734798 -0.10153625 0.062381197 -0.0006400372 -0.09577357 -0.02615918 -0.059100717
0.0475701 0.1025299 0.07132471 -0.088015884 -0.047169913 -0.0239234 0.0069854874 -0.07128994
0.035741944 0.01488807 0.05397471 0.033545528 0.047622804 -0.030945381 -0.062074747 0.0697107
0.012199834 -0.06412653 0.05114935 0.07641695 -0.07917148 0.06332974 -0.030898325 0.08320867
0.008222369 0.08150163 -0.057383135 -0.05180141 0.024402203 -0.007064489 0.05553616 0.09021883
0.014727425 -0.04216651 -0.08378693 0.09992644 -0.014463599 -0.043723088 -0.026445784 -0.042418998
0.00080783915 0.08027231 0.02369573 -0.06795945 0.017010745 -0.006526276 0.07149048 0.065518804
-0.085418746 -0.061025254 -0.022050893 0.07852177 -0.038093526 -0.019012084 0.0059404634 0.013894488
0.058188215 -0.083763056 0.026632635 -0.0021862865 0.06482865 0.009370044 0.07804133 -0.01692576
-0.06457011 0.078481965 -0.025837308 -0.08760365 -0.0033144893 -0.029941631 0.093542665 0.058193583
-0.005659426 -0.062104482 0.025887279 -0.09975019 0.047020454 -0.09940207 0.029654713 0.056463912
0.014117606 0.051981416 0.08414747 0.06835976 -0.053244248 -0.060667682 -0.013703408 -0.06220095
0.033470076 -0.008870977 0.057937194 -0.07649837 -0.043590017 -0.09641212 0.004251322 -0.045513134
0.012201724 0.037760578 0.09507941 -0.015528001 -0.03159428 0.101219304 -0.07725757 0.074999444
00000000: b95d 83bd 673b 83bd 7fe1 1dbd b5a7 0dbb
00000010: cb46 42bd 4ca4 54bd 0646 54bd 39c2 923d
00000020: 6c2e 30bc 8f62 1cbd 4207 cf3d ae4f 21bd
00000030: 7b98 3fbd 3e98 833d 7901 5c3c 414c 973c
00000040: 3d7c 89bd cdf4 1eba 21da 7ebd 5cd6 c63c
00000050: 2f5d a8bd ff25 79bd 4683 b33c e577 813d
00000060: 45ed cb3d ae25 673d 8bbe a03d ba5f 4b3d
00000070: 375f 663c fd82 83bd b7ee de3c ec14 063d
00000080: b8d0 953d f63e abbd 2d4f 9ebc dd49 4c3d
00000090: 761c bb3d 94ab c4bd 6037 57bd 33a8 1f3d
000000a0: e8c2 7c3d dfce 3e3d ec3c c73d 9ec4 06bd
000000b0: 5656 bcba 3100 d1bd b862 6abd 95c0 893d
000000c0: 758d 143d 401b 843d dc28 96bd e573 30bd
000000d0: a0ab adbd 6281 7b3d b4ea 903b 67c9 df3b
000000e0: 9de6 25bc e108 74bd c878 ccbd f0d9 3d3d
000000f0: c6b1 efbb 2de4 d03d 80e2 25bd 614d 433c
00000100: d936 cf3d 93a9 17bb 7489 4ebd 8837 93bc
00000110: c04a 4c3d 9787 823d 4918 91bd 146e eb3c
00000120: c58c afbc 1110 1f3d ae93 bb3d e125 3f3d
00000130: d7d0 32bc 5286 8dbd 648c a6bd eb82 a53d
00000140: 694e 473c b77a 51bd 8bfb 793d f83f 85bd
00000150: afdf b9bd 03e6 843d 28db b9bd 65a2 b93d
00000160: 27be 3a3c dba6 15bd 26ec afbd 1dc2 e83b
00000170: 0ff5 ab3d 3e94 1d3b 1a01 d0bd 7178 bfbd
00000180: c545 b43c eb3a cd3d da2a 193d 0633 19bc
00000190: dfac 61bd 17ea b13d a52e ca3d bf24 13bd
000001a0: c407 bcbd 5878 5b3d 7349 4a3d 5996 8b3c
000001b0: 414c 98bd 8ba0 adbc c4e9 0e3d cc2d 8bbd
000001c0: bac1 90bd 0f12 68bd b00e 9d3c 4e0f 973c
000001d0: 6420 43bd 0083 783d c450 6bbd 20b7 8bbc
000001e0: 7b44 083d 395c 08bd 7a7b 0cbc 7266 8d3d
000001f0: 96b4 51bd 4268 98bd 6a77 a93d c7b6 33bd
00000200: d2ff 1f3d b94a c83d 120a 8cbd bb90 683d
00000210: 24ab 4ebd 1657 b0bd 923e 8a3d 57ff 33bd
00000220: 01ab 543d 34da e13c 5a43 a9bd 185b a23c
00000230: 23d0 cdbd 9ffe 563c 4b50 4bbd 0f6a 4e3d
00000240: d430 b7bd 6a17 89bc 3df2 cfbd 6d83 7f3d
00000250: 2bc8 27ba ef24 c4bd c74b d6bc 9813 72bd
00000260: ddd8 423d 32fb d13d b112 923d ac41 b4bd
00000270: 3d35 41bd 02fb c3bc 84e6 e43b 7600 92bd
00000280: 2566 123d 17ed 733c 9614 5d3d 0967 093d
00000290: 2110 433d 2b81 fdbc 1742 7ebd 7cc4 8e3d
000002a0: d0e1 473c c554 83bd fb81 513d 7d80 9c3d
000002b0: a824 a2bd 06b3 813d 7c1e fdbc 4f69 aa3d
000002c0: 1db7 063c 54ea a63d 940a 6bbd b72d 54bd
000002d0: 21e7 c73c 3b7d e7bb e279 633d a6c4 b83d
000002e0: 4c4b 713c cab6 2cbd 7b98 abbd 3ca6 cc3d
000002f0: bbf8 6cbc fb16 33bd d4a4 d8bc 8bbf 2dbd
00000300: 2bc5 533a cf65 a43d 8c1d c23c 532e 8bbd
00000310: 1e5a 8b3c 5fda d5bb 9a69 923d b92e 863d
00000320: 06f0 aebd 9ef5 79bd 13a4 b4bc 06d0 a03d
00000330: f507 1cbd 3bbf 9bbc 38a8 c23b b5a5 633c
00000340: c456 6e3d f78b abbd af2c da3c cd47 0fbb
00000350: e2c4 843d d084 193c 22d4 9f3d e4a7 8abc
00000360: 553d 84bd 27bb a03d c3a8 d3bc 8b69 b3bd
00000370: e737 59bb 2748 f5bc 4c93 bf3d 655c 6e3d
00000380: b572 b9bb 4561 7ebd 8f11 d43c d449 ccbd
00000390: 8598 403d 5093 cbbd 71ee f23c b446 673d
000003a0: 884d 673c 77ea 543d 8255 ac3d 3400 8c3d
000003b0: a416 5abd ad7e 78bd 4284 60bc 6cc6 7ebd
000003c0: eb17 093d 9357 11bc 8d4f 6d3d 2dab 9cbd
000003d0: 728b 32bd b873 c5bd ac4e 8b3b fb6b 3abd
000003e0: bde9 473c d6aa 1a3d feb8 c23d 2869 7ebc
000003f0: 0169 01bd 114c cf3d 3839 9ebd 4f99 993d

enc_f.lstm.bias_ih_l0 f4 [384]
-0.06770985 -0.032249376 -0.0035875794 0.02750104 0.10185088 -0.073714055 -0.05095174 0.0651379
-0.095583916 0.003820249 -0.07882478 -0.008468193 0.09678197 -0.0046352525 0.09518955 -0.08480566
-0.042010754 0.07994016 -0.09061503 -0.013915946 0.07462732 0.055739574 -0.0023590834 0.051632125
0.068114206 -0.05793207 -0.013872459 -0.051786702 0.01199063 0.0048200316 0.019442743 0.0470654
0.07918787 0.06258644 0.08858533 0.08010271 0.038076673 -0.019622836 -0.04844273 0.03311496
-0.023012072 0.0423342 0.08195834 -0.008724741 0.054845735 -0.07138089 0.06331983 -0.059500225
0.060715485 0.073994674 0.046686355 0.019533133 0.09999816 0.0964884 -0.07241909 -0.08945404
-0.001102446 0.04408768 -0.09517666 -0.077308856 0.07740105 0.020768248 0.006000559 0.082652055
-0.08003025 -0.016872602 -0.070217565 0.07588068 -0.010532198 -0.0007115609 -0.050405834 -0.03205217
0.058039416 0.015768807 -0.00025171853 0.043200653 -0.02617354 -0.057100628 -0.0010080861 0.017323874
0.01090651 -0.005047027 -0.015325921 0.059015326 0.07076569 0.06816586 0.026717257 0.06596577
0.08617281 -0.08514959 -0.015767839 0.034606583 0.0772716 -0.045335237 0.06146325 0.057526033
-0.020489037 -0.10222514 -0.082555674 0.059811957 0.04191874 0.08488509 -0.012463586 0.046067297
0.07161626 0.0963029 0.002839426 -0.070132256 0.0063364324 0.080882624 -0.028856445 -0.07795396
-0.05574146 0.09841133 0.030446094 -0.053521965 0.0122184055 0.030419417 0.05139643 0.016852556
0.05388974 -0.07136733 0.061652567 0.02220522 0.061422218 -0.0836307 -0.030585133 -0.09557881
-0.013776987 -0.00420725 0.0162227 -0.04226138 0.009064553 0.063005865 -0.0834368 -0.09787807
0.07744148 0.03443125 -0.05547529 0.08147614 -0.0630238 0.061785165 -0.015969029 0.035518125
-0.059348132 0.10167964 0.08978589 -0.06357891 0.051943425 -0.09091575 0.09972672 0.06646282
0.02226907 -0.05322888 -0.010693901 -0.016510038 0.074083716 0.09800175 0.030957077 -0.040692486
-0.03275994 -0.023486147 -0.039235923 -0.09165317 -0.028287305 0.035221577 -0.061891016 -0.0074477303
-0.06894311 0.049138498 0.0201331 0.057462756 -0.027891146 0.069968544 0.02264029 -0.06265695
0.03156282 -0.014949566 0.048863865 0.10020373 -0.08150808 -0.08867213 -0.09913504 -0.08001231
0.07872016 0.09469101 -0.07021856 -0.08539187 -0.011833302 -0.009621558 0.040086105 0.015852422
0.08082052 0.07495258 0.0106238155 0.0121014975 0.06408941 0.070018515 -0.027471952 0.083662584
0.014261181 -0.096955344 0.033515852 -0.077214755 -0.006207593 0.058248855 0.09531821 -0.06372831
-0.1018402 0.07887535 -0.01315304 0.034558117 0.09493866 -0.0075278906 0.001085572 0.015533407
-2.3969078e-05 -0.025868122 0.05483956 -0.01740137 -0.05413744 -0.025046991 -0.022698577 -0.09011432
-0.021538034 -0.050752837 -0.055135757 -0.047020346 -0.081391774 0.019370126 0.07430526 0.022946207
-0.028083347 -0.084293 0.035323333 -0.0168529 0.041233048 0.097412914 -0.041433897 0.04233782
0.09554155 0.068046086 -0.05747314 -0.09841127 -0.04572385 -0.10166883 -0.007524986 0.02047716
0.06439587 -0.025976054 -0.059446927 -0.01528946 -0.013710796 0.05191426 0.053186353 0.09320127
00000000: 76ab 8abd ec17 04bd 981d 6bbb dc49 e13c
00000010: 3297 d03d 65f7 96bd c6b2 50bd 0567 853d
00000020: 80c1 c3bd 255d 7a3b e36e a1bd 2dbe 0abc
00000030: a035 c63d 51e3 97bb bdf2 c23d 97ae adbd
00000040: 7813 2cbd abb7 a33d 5f94 b9bd b5ff 63bc
00000050: 35d6 983d 2e4f 643d da9a 1abb 357c 533d
00000060: 767f 8b3d 2e4a 6dbd 4f49 63bc 4b1e 54bd
00000070: 5974 443c 5bf1 9d3b 6346 9f3c a6c7 403d
00000080: 402d a23d 522d 803d 3a6c b53d e40c a43d
00000090: 49f6 1b3d 12c0 a0bc e26b 46bd 8da3 073d
000000a0: d083 bcbc a066 2d3d c6d9 a73d 37f2 0ebc
000000b0: eca5 603d 2530 92bd d4ad 813d 82b6 73bd
000000c0: cdb0 783d 858a 973d 313a 3f3d f303 a03c
000000d0: d6cb cc3d b69b c53d 7650 94bd ae33 b7bd
000000e0: f37f 90ba 4895 343d fbeb c2bd 1b54 9ebd
000000f0: 7184 9e3d 2c22 aa3c 56a0 c43b 7b45 a93d
00000100: e6e6 a3bd 6938 8abc 3ace 8fbd 5467 9b3d
00000110: 3d8f 2cbc 0b88 3aba 5976 4ebd 2349 03bd
00000120: bdba 6d3d 962d 813c 17f9 83b9 2bf3 303d
00000130: e469 d6bc 59e2 69bd c221 84ba ccea 8d3c
00000140: 38b1 323c 8861 a5bb 9219 7bbc 0eba 713d
00000150: 9aed 903d 8b9a 8b3d 26de da3c 1019 873d
00000160: 5f7b b03d e962 aebd 8e2b 81bc a2bf 0d3d
00000170: 9340 9e3d 71b1 39bd e4c0 7b3d 6ba0 6b3d
00000180: a0d8 a7bc 6a5b d1bd f312 a9bd 62fd 743d
00000190: fcb2 2b3d 3cd8 ad3d 1234 4cbc 10b1 3c3d
000001a0: 8cab 923d 743a c53d aa15 3a3b 80a1 8fbd
000001b0: d9a1 cf3b caa5 a53d 5a64 ecbc 53a6 9fbd
000001c0: 2851 64bd e18b c93d 166a f93c d939 5bbd
000001d0: b52f 483c 2432 f93c 1085 523d 5f0e 8a3c
000001e0: 7dbb 5c3d 0929 92bd 6787 7c3d b9e7 b53c
000001f0: dd95 7b3d 9346 abbd ac8d fabc d3be c3bd
00000200: dfb8 61bc f9dc 89bb 78e5 843c 451a 2dbd
00000210: 7e83 143c 3809 813d eae0 aabd 4c74 c8bd
00000220: a399 9e3d c807 0d3d 0f3a 63bd f6dc a63d
00000230: 9f12 81bd 7112 7d3d 7bd1 82bc 747b 113d
00000240: 0717 73bd 6a3d d03d aae1 b73d a935 82bd
00000250: a1c2 543d 0932 babd 863d cc3d a91d 883d
00000260: a06d b63c 8706 5abd 7935 2fbc 0f40 87bc
00000270: 34b9 973d 24b5 c83d b299 fd3c 2aad 26bd
00000280: 492f 06bd 0566 c0bc d9b5 20bd a8b4 bbbd
00000290: c7ba e7bc 8044 103d 6f81 7dbd 170c f4bb
000002a0: 0c32 8dbd 7345 493d 2cee a43c 115e 6b3d
000002b0: f97b e4bc ab4b 8f3d 2178 b93c 4952 80bd
000002c0: 0448 013d 06ef 74bc 7a25 483d 9d37 cd3d
000002d0: b5ed a6bd bc99 b5bd 5007 cbbd 7edd a3bd
000002e0: 0938 a13d 5ced c13d c0ce 8fbd efe1 aebd
000002f0: 77e0 41bc bda3 1dbc 5431 243d f0dc 813c
00000300: 3b85 a53d bd80 993d 830f 2e3c 5c45 463c
00000310: 4f41 833d de65 8f3d dc0c e1bc 4a57 ab3d
00000320: baa7 693c 8690 c6bd eb47 093d c522 9ebd
00000330: 1069 cbbb 5a96 6e3d 3236 c33d fd83 82bd
00000340: 9891 d0bd 6689 a13d d97f 57bc d08c 0d3d
00000350: 336f c23d 86ac f6bb c049 8e3a d57f 7e3c
00000360: 3411 c9b7 62e9 d3bc 729f 603d 518d 8ebc
00000370: 38bf 5dbd 592f cdbc 5ef2 b9bc db8d b8bd
00000380: 8870 b0bc 35e2 4fbd 08d6 61bd 6898 40bd
00000390: bbb0 a6bd 19ae 9e3c 5b2d 983d aff9 bb3c
000003a0: 0c0f e6bc cfa1 acbd 33af 103d 180f 8abc
000003b0: fce3 283d 6c80 c73d 97b6 29bd 6c6a 2d3d
000003c0: 4aab c33d bf5b 8b3d f568 6bbd d98b c9bd
000003d0: ef48 3bbd bf37 d0bd 2894 f6bb b8bf a73c
000003e0: fbe1 833d bccb d4bc 9f7e 73bd a580 7abc
000003f0: 3fa3 60bc 0ca4 543d efd9 593d 4fe0 be3d
