_train/_models/20250919/영원무역홀딩스(009970)_20250919.pt (torch, 831847 bytes, 20 tensors)

enc_p.lstm.weight_ih_l0 f4 [384, 6]
0	0x3dcf9f62	0.10137822
1	0xbc19b5ce	-0.0093817245
2	0xbd640640	-0.055670023
3	0xbd8138d2	-0.06309666
4	0x3d8421ce	0.0645176
5	0x3ce72062	0.028213684
6	0x3d8a1766	0.06742744
7	0xbc258483	-0.010102394
8	0xbdb512d6	-0.08841483
9	0x3ca87379	0.020562874
10	0x3dbc0ae4	0.09181765
11	0x3c925ce3	0.017866557
12	0xbcf5ac18	-0.029989287
13	0x3d71e051	0.059051815
14	0xbd731ae4	-0.059351817
15	0xbcb599e4	-0.022168107
16	0xbd91033c	-0.07080695
17	0xbd9a7e6d	-0.07543645
18	0x3ce38fe4	0.027778573
19	0xbc3dec72	-0.0115920175
20	0xbd23b143	-0.03996397
21	0xbd803d02	-0.06261636
22	0xbd0ca0b6	-0.034332953
23	0xbd8c6806	-0.068557784
24	0x3dab53e3	0.083656095
25	0xbda04acb	-0.078267656
26	0x3d8ae180	0.06781292
27	0xbdc3085b	-0.09523078
28	0xbd8762a1	-0.06610609
29	0x3dab06b2	0.083508864
30	0xbd9632e7	-0.073339276
31	0x3dcc1c37	0.09966319
32	0x3ce14bde	0.027501997
33	0xbcdc2a89	-0.026875751
34	0xbd815072	-0.06314172
35	0x3d12ef67	0.035872843
36	0xbd9fd06e	-0.07803427
37	0x3d5414a7	0.051777508
38	0xbcd97d12	-0.026548896
39	0x3da65bfb	0.08123013
40	0x3d5fabac	0.05460708
41	0x3d588ba3	0.052867543
42	0xbc45bf62	-0.012069555
43	0x3d8ee19d	0.06976626
44	0x3c0b77e2	0.008512469
45	0xb9bf094a	-0.0003643728
46	0x3d3c506a	0.045975126
47	0x3d4297f2	0.047508188
48	0x3cf5cc10	0.030004531
49	0x3d1922c5	0.037386674
50	0x3da70585	0.0815535
51	0xbce107b6	-0.027469497
52	0xbc3eb9b2	-0.011640953
53	0xbd276f0b	-0.040877383
54	0x3a7e2d8e	0.0009696119
55	0x3c458deb	0.012057762
56	0x3d416311	0.047213618
57	0xbc1a33c3	-0.009411755
58	0xbdbf0077	-0.093262605
59	0xbd95fe55	-0.073239006
60	0xbcd17860	-0.025570095
61	0x3d305d65	0.043057818
62	0xbd0756e4	-0.03304185
63	0xbd290478	-0.041264027
64	0xbdb8b070	-0.09018028
65	0x3d502ff5	0.050826985
66	0xbd3dd5cb	-0.046346467
67	0xbd71c7fc	-0.05902861
68	0xbda8cc08	-0.08242041
69	0x3c282ac4	0.010264102
70	0xbd63487a	-0.05548904
71	0xbd5cc5a8	-0.053899437
72	0x3c0ee276	0.008720985
73	0xbdc907cf	-0.098159425
74	0x3dd4d7f3	0.103927515
75	0xbdb0230f	-0.08600437
76	0xbcddd4fe	-0.027079102
77	0xbc0c8ae5	-0.008578037
78	0xbcaaf9eb	-0.020871123
79	0xbd71216c	-0.058869764
80	0x3c29c217	0.010361216
81	0x3bea7cd9	0.0071559963
82	0xbc12bfb4	-0.008956838
83	0x3d9ec6d0	0.07752764
84	0x3d78cc6d	0.06074183
85	0xbda28df1	-0.079372294
86	0x3d8e83c3	0.06958725
87	0x3d954c4b	0.07289942
88	0xbd5aaef5	-0.05338951
89	0xbd53ab50	-0.05167705
90	0xbc221349	-0.009892293
91	0x3bf39363	0.0074333414
92	0xbc9be071	-0.01902792
93	0xbce24720	-0.027621806
94	0x3d793979	0.060845826
95	0xbc83f281	-0.016106846
96	0x3bc206e7	0.005921233
97	0x3da5e926	0.0810111
98	0xbc4a2722	-0.012338432
99	0x3ccf5212	0.025307689
100	0xbd9299f9	-0.07158274
101	0x3c7cb5ef	0.015424236
102	0x3c92bc78	0.017912135
103	0xbd3ed4e1	-0.046589736
104	0x3cccc4d7	0.024996204
105	0xbd394814	-0.045234755
106	0xbd907ca4	-0.07055023
107	0xbda4576a	-0.080244854
108	0x3db40ac9	0.087911196
109	0x3d1ddbb2	0.038539596
110	0xbc694ddd	-0.014239755
111	0xbd1834cf	-0.037159737
112	0x3c169ef7	0.009193174
113	0xbd688734	-0.056769565
114	0x3bfc82b0	0.007706009
115	0x3d65c496	0.056095682
116	0xbd084d6f	-0.03327697
117	0xbdc311e6	-0.09524898
118	0xbc83bb75	-0.016080597
119	0x3dd2c26d	0.1029099
120	0xbd801fed	-0.06256089
121	0xbdb387b2	-0.08766116
122	0x3c7bceef	0.015369161
123	0xbcff6fe1	-0.031181278
124	0xbd01ac49	-0.031658445
125	0x3d7b6290	0.061373293
126	0x3d03f2fa	0.032214142
127	0xbda6d492	-0.08146013
128	0xbdabe65a	-0.083935454
129	0x3db173c2	0.08664657
130	0xbcf906fd	-0.03039884
131	0x3c8e5e62	0.01737899
132	0xbdc4fb72	-0.09618272
133	0x3c89e079	0.01683067
134	0x3dade0fa	0.084901765
135	0x3d3ecd06	0.046582244
136	0x3cafaf4b	0.02144589
137	0xbc5400f3	-0.012939679
138	0x3db685c8	0.089122355
139	0x3dc258c2	0.094895855
140	0x3d82c9d0	0.06386149
141	0xbd2224f3	-0.03958602
142	0x3c8451c0	0.016152263
143	0xbbf5796d	-0.0074912817
144	0xbcfbe5de	-0.030749258
145	0x3a0a5e51	0.00052783365
146	0xbd98ff0d	-0.07470522
147	0xbdab587e	-0.08366488
148	0xbcd7f1f0	-0.026360482
149	0xbd0699ac	-0.032861397
150	0xbd3d3ca9	-0.04620043
151	0x3d5f5414	0.054523543
152	0xbdb17c5f	-0.086663
153	0xbd74730a	-0.059680022
154	0xbd4cdc3a	-0.050014712
155	0xbc9f95fb	-0.019480696
156	0x3dca8d91	0.09890283
157	0xbc822a94	-0.015889443
158	0xbd197335	-0.037463386
159	0xbdd0fe47	-0.102047496
160	0x3dbec9f5	0.09315864
161	0xbd1c0b63	-0.038096797
162	0xbcda617c	-0.026657812
163	0xbd75e1bb	-0.060029726
164	0xbd5d0bd8	-0.053966373
165	0x3dc4016f	0.09570586
166	0xbd6e6f84	-0.05821182
167	0x3d99ab60	0.0750339
168	0x3da8f790	0.08250344
169	0x3d629e21	0.055326585
170	0xbba6ecf8	-0.005094167
171	0xbc3cb509	-0.0115177715
172	0xbc56e3f3	-0.013115871
173	0xbd98059a	-0.074229434
174	0x3cb3573d	0.021892184
175	0x3dae65f4	0.0851554
176	0x3db24d23	0.08706119
177	0xbd4adca6	-0.049526833
178	0xbc5dd1c8	-0.013538785
179	0xbdd4e889	-0.10395915
180	0x3d149fe9	0.036285315
181	0x3c414ea6	0.011798536
182	0x3d1d8435	0.03845616
183	0x3dbe4a6d	0.09291539
184	0xbd35e569	-0.044408236
185	0x3db43097	0.0879833
186	0x3d972293	0.073796414
187	0xbda22ef5	-0.079191126
188	0xbdc8e0e7	-0.09808522
189	0x3cc9e292	0.02464417
190	0x3dc5dda7	0.096614175
191	0x3d58343d	0.052784193
192	0xbd7e584f	-0.062095936
193	0xbdb64011	-0.088989384
194	0x3c855cb4	0.016279556
195	0x3dcf73a9	0.10129482
196	0xbd47dc79	-0.048794243
197	0x3d762c02	0.060100563
198	0x3cbca74b	0.02302899
199	0x3d3d10f9	0.046158765
200	0x3c98bea7	0.018645598
201	0xbc883625	-0.01662738
202	0x3dc39c8c	0.09551343
203	0xbd1d5cec	-0.038418695
204	0x3da7342e	0.08164249
205	0xbd95a878	-0.073075235
206	0xbc8b5e46	-0.017012727
207	0x3dba758e	0.09104453
208	0xba5c3e66	-0.0008401632
209	0xbd65e4ce	-0.05612641
210	0x3c1da6c7	0.009622282
211	0x3da676ed	0.08128152
212	0x3d63e5df	0.055639144
213	0xbc342599	-0.010995292
214	0x3d60ddb7	0.054898944
215	0x3d9605d2	0.07325329
216	0xbcd6fe6f	-0.02624437
217	0xbcf58321	-0.029969754
218	0xbdc2dfb6	-0.09515326
219	0xbcbddf46	-0.023177754
220	0xbd93e215	-0.07220856
221	0x3d9bfe66	0.07616882
222	0x3c506441	0.012719215
223	0x3d823b18	0.063589275
224	0x3d776d8f	0.060407218
225	0xbd54cf71	-0.051955644
226	0xbda1e1fb	-0.079044305
227	0x3d2bd899	0.04195461
228	0x3c8cedd9	0.017203258
229	0x3d427512	0.04747493
230	0x3c39915d	0.011326161
231	0xbd90a71f	-0.07063126
232	0x3d08314a	0.03325013
233	0x3d878e64	0.06618956
234	0xbd4ae27a	-0.04953239
235	0xbd0c92fc	-0.034319863
236	0x3d8a5410	0.06754315
237	0x3d308c8d	0.04310279
238	0x3d7aa3be	0.061191313
239	0x3dc18b40	0.09450388
240	0xbd810730	-0.06300199
241	0xbc7432b0	-0.014904663
242	0xbd8143ee	-0.06311785
243	0xbce6b202	-0.028161053
244	0x3d87082d	0.06593356
245	0x3da06aa3	0.07832839
246	0x3d76b43b	0.060230475
247	0xbd218b28	-0.03943935
248	0x3b6a8f81	0.0035791101
249	0xbdacd05b	-0.08438178
250	0xbda9c87e	-0.08290194
251	0x3d2c4352	0.04205639
252	0x3d25abc8	0.040447026
253	0xbd0b79da	-0.034051754
254	0x3daa7fd0	0.083251595
255	0xbda70f70	-0.08157241

enc_p.lstm.weight_hh_l0 f4 [384, 96]
0	0xbc5d6538	-0.013512902
1	0x3dc332ab	0.095311485
2	0x3c095f30	0.008384511
3	0x3db39d80	0.08770275
4	0xbdb87e40	-0.09008455
5	0xbd8fb494	-0.070168644
6	0xbda7e730	-0.081983924
7	0x3db732cb	0.08945235
8	0xbc9e07a7	-0.019290758
9	0x3d563fd4	0.052306965
10	0x3cabb354	0.020959534
11	0xbdb7884f	-0.08961546
12	0x3d2a6e5d	0.041609157
13	0x3b65f9b7	0.0035091469
14	0xbda0ec6b	-0.07857593
15	0x3dacde27	0.0844081
16	0xbd7a7279	-0.061144326
17	0x3bff3a48	0.00778893
18	0xbd1e245b	-0.03860889
19	0x3d42dd42	0.04757429
20	0x3d097937	0.033562865
21	0x3da81474	0.08207026
22	0xbd353d3a	-0.044247843
23	0x3a4a02d9	0.0007706113
24	0x3d70c4b2	0.058781333
25	0x3d550f45	0.052016515
26	0xbb8c30bc	-0.0042782705
27	0x3a313b5d	0.000676086
28	0xbbb1caa0	-0.005425766
29	0x3d9805b1	0.074229605
30	0xbdc7f589	-0.09763629
31	0x3d80ae5c	0.062832564
32	0xbdc3efdb	-0.09567233
33	0xbc6a31cc	-0.014294099
34	0x3dc0e251	0.094181664
35	0xbb85f8aa	-0.004088481
36	0xbcfe915a	-0.031075168
37	0x3d3f79dc	0.046747074
38	0xbc342d9c	-0.010997202
39	0xbc1255f9	-0.00893163
40	0x3d073dd1	0.033017937
41	0x3d1f73fd	0.038928974
42	0x3d3ad159	0.045609806
43	0x3d3bb8b7	0.045830455
44	0x3d22adc7	0.03971651
45	0x3d50fcc7	0.051022317
46	0xbd059a95	-0.032618124
47	0xbcd59058	-0.026069805
48	0xbdcc2139	-0.09967274
49	0x3da34d18	0.07973689
50	0x3d62687c	0.055275425
51	0xbd8eb1d9	-0.069675155
52	0x3dadb646	0.084820315
53	0x3d015a36	0.031580172
54	0xbda9dbd6	-0.082938835
55	0x3c6cd887	0.014455921
56	0xbd76bb22	-0.060237058
57	0x3d029f3c	0.03189014
58	0xbc2bb026	-0.010479009
59	0xbcdec6a9	-0.027194338
60	0x3d926aea	0.071492985
61	0xbd38b1f3	-0.04509158
62	0x3d815e1b	0.06316777
63	0xbca53c46	-0.020170342
64	0x3d6e7737	0.05821916
65	0xbd5c20c1	-0.053742174
66	0xbc503112	-0.012707012
67	0x3d3d64ee	0.046238832
68	0xba8d0c86	-0.0010761179
69	0xbcbf651f	-0.023363648
70	0x3da07687	0.07835107
71	0xbbcb0ec6	-0.0061968295
72	0xbd2093fa	-0.03920362
73	0xbc057aef	-0.008146985
74	0xbd0077fb	-0.031364422
75	0x3c10db34	0.008841325
76	0x3d44882b	0.047981422
77	0xbcf6d49b	-0.030130675
78	0xbd2f2a8a	-0.042765178
79	0x3d8148ba	0.063126996
80	0x3d11b86b	0.035576265
81	0x3b57fc8e	0.003295693
82	0xbd6ca8ec	-0.057778284
83	0x3dc5349b	0.09629174
84	0x3da84485	0.08216194
85	0x3c12a25a	0.00894984
86	0x3da6434a	0.08118303
87	0xbd5e20d9	-0.054230545
88	0xbd81fded	-0.063472606
89	0x3cc0523c	0.023476712
90	0x3d558570	0.05212921
91	0xbb7b89d1	-0.0038381706
92	0x3c3caea5	0.011516248
93	0xbd39b7a9	-0.045341168
94	0x3d9cae9e	0.07650493
95	0xbbbd60d1	-0.0057793637
96	0x3dc70326	0.097173974
97	0x3c63e9a2	0.013910683
98	0xba7dc564	-0.00096805976
99	0xbc93863f	-0.01800835
100	0xbc40d6da	-0.011769975
101	0xbdc82815	-0.0977327
102	0x3da6b0ed	0.08139215
103	0xbdc33d36	-0.095331594
104	0xbc269fb6	-0.010169914
105	0x3d79dccd	0.061001588
106	0x3db8f3ce	0.09030877
107	0x3d9fcc4a	0.07802637
108	0x3d3273b3	0.04356737
109	0xbcc7c441	-0.024385573
110	0xbd213023	-0.039352547
111	0xbdbdadcc	-0.09261665
112	0x3d666b99	0.056254957
113	0x3c9d9607	0.019236578
114	0xbdd250af	-0.102692954
115	0x3c80984c	0.01569762
116	0xbd85321b	-0.065036975
117	0xbd8dc63f	-0.06922578
118	0xbc9c28bc	-0.019062392
119	0x3d372837	0.044716086
120	0xbc6ecf07	-0.014575726
121	0x3ca4932b	0.020089706
122	0xbd61b62a	-0.055105366
123	0xbd29e846	-0.04148128
124	0xbd86f1ab	-0.06589063
125	0xbd24bea0	-0.040220857
126	0xbdae13a0	-0.08499837
127	0xbd8b45a4	-0.06800392
128	0x3dc98b1b	0.098409854
129	0x3d5f6a01	0.054544453
130	0x3d08d164	0.033402815
131	0xbd5a6fb2	-0.053329177
132	0x3d83e825	0.064407624
133	0x3c6af854	0.014341433
134	0x3db8b80f	0.090194814
135	0x3abb3228	0.0014281916
136	0xbd8798ec	-0.066209644
137	0x3ba723cd	0.0051007033
138	0x3d9f0a81	0.07765675
139	0x3d4eaa3c	0.050455317
140	0x3dcaf998	0.099108875
141	0xbdcfc362	-0.10144688
142	0xbd9aedab	-0.07564863
143	0xbdc22c49	-0.09481103
144	0x3cc69de7	0.024245216
145	0x3d3d5497	0.04622325
146	0x3c933aea	0.017972428
147	0x3ca0ba3a	0.01962005
148	0x3d112189	0.035432372
149	0xbd00ff36	-0.031493388
150	0xbcbc3d40	-0.022978425
151	0xbda02642	-0.07819797
152	0x3da22feb	0.07919296
153	0x3d497192	0.049180575
154	0x3d84a34a	0.064764574
155	0xbd1c7a10	-0.038202345
156	0xbc22e74d	-0.009942842
157	0x3d84e06b	0.06488117
158	0x3c91b328	0.017785624
159	0x3dc1b1b0	0.09457719
160	0x3d13e6a7	0.03610864
161	0xbd824316	-0.06360452
162	0xbd2f6d71	-0.04282898
163	0x3d92db26	0.071707055
164	0x3dbe9cce	0.09307252
165	0xbd83263e	-0.064037785
166	0x3b91bdfe	0.0044476977
167	0xbd347020	-0.044052243
168	0xbd89cfe8	-0.06729108
169	0xbd70d8b1	-0.058800403
170	0x3dce5775	0.10075275
171	0x3d5f7cd8	0.05456242
172	0x3db1f0f2	0.08688535
173	0x3d9d30f5	0.076753534
174	0xbdc0db95	-0.09416882
175	0xbbcbe234	-0.006222034
176	0xbd8d86be	-0.06910466
177	0x3db5f5bb	0.0888476
178	0xbbcbcf2e	-0.006219766
179	0x3d789311	0.06068713
180	0x3db2a5a9	0.087230034
181	0xbd1efd01	-0.038815502
182	0x3dcf4bac	0.10121855
183	0x3dcc5e9e	0.09978984
184	0x3c8e27d8	0.017352983
185	0x3d314be5	0.04328527
186	0xbbd457fc	-0.006480215
187	0xbd04391d	-0.03228103
188	0xbd21f9ce	-0.039544873
189	0x3d96aee2	0.07357575
190	0xbdce65f5	-0.100780405
191	0xbbba024f	-0.0056765447
192	0x3cb88709	0.022525327
193	0x3d9ecae1	0.0775354
194	0xbd878d0e	-0.06618701
195	0xbd8f4b54	-0.069967896
196	0x3dcb7e71	0.09936226
197	0x3c3d2f53	0.0115469275
198	0xbc9fe1ab	-0.019516787
199	0x3c6fa4d7	0.014626703
200	0x3db8f275	0.0903062
201	0x3d875ca6	0.06609468
202	0xbd1c1040	-0.038101435
203	0x3d9e3b14	0.07726112
204	0xbd4f4608	-0.050603896
205	0xbc3d65e9	-0.011559942
206	0x3d1f88a5	0.038948674
207	0x3da22ce1	0.07918716
208	0x3d11c27e	0.035585873
209	0x3d2a8df0	0.04163927
210	0xbd752512	-0.059849806
211	0xbacc5850	-0.0015590284
212	0x3d9d8498	0.07691306
213	0xbd77d3f2	-0.06050486
214	0xbd7285ee	-0.059209757
215	0xbd563df7	-0.052305188
216	0xbd9ea308	-0.077459395
217	0x3c49deab	0.012321155
218	0x3dc857eb	0.09782394
219	0xbd6e2902	-0.058144577
220	0x3ac5ad9a	0.0015081645
221	0x3b8e5345	0.0043434226
222	0xbd00df41	-0.03146291
223	0xbd8bc27a	-0.06824203
224	0xbd8fde19	-0.07024784
225	0xbdb5b5e8	-0.088725865
226	0x3dbd6f88	0.092497885
227	0x3d451842	0.048118837
228	0x3d022424	0.031772748
229	0xbd2d6b24	-0.042338505
230	0xbd497410	-0.04918295
231	0x3ce6231a	0.02809291
232	0xbd97ed11	-0.07418264
233	0x3dc6cac5	0.09706644
234	0xbd75b35e	-0.05998551
235	0x3d8355ae	0.064128265
236	0x3c03c223	0.008041891
237	0x3db0b7db	0.08628818
238	0x3dc7b32d	0.09750972
239	0xbc0c6302	-0.008568527
240	0xbdca990a	-0.09892471
241	0x3dd32816	0.1031038
242	0xbdced9ab	-0.101001106
243	0x3db8a2e2	0.090154424
244	0x3ce2b773	0.027675366
245	0x3d1f1fb4	0.038848594
246	0x3da8907b	0.082306825
247	0x3daf42a2	0.08557631
248	0xbd0cae5f	-0.03434598
249	0xbce8c1f2	-0.028412793
250	0x3d33e77d	0.043921936
251	0x3b8482d4	0.0040439162
252	0x3db0a069	0.08624346
253	0x3da56c80	0.08077335
254	0xbc8283dc	-0.015932016
255	0x3d80c929	0.06288368

enc_p.lstm.bias_ih_l0 f4 [384]
0	0xbbdcf6ff	-0.0067433114
1	0x3c2fdf46	0.010734385
2	0xbca3bced	-0.019987548
3	0xbce933f9	-0.028467165
4	0x3c94e691	0.018176349
5	0xbd3b983a	-0.04579947
6	0xbd918d2d	-0.07107005
7	0x3c851bf6	0.016248684
8	0x3c19f43d	0.00939661
9	0xbda234c3	-0.0792022
10	0xbdbfce8a	-0.09365566
11	0xbd842fe1	-0.06454445
12	0xbd7f8b40	-0.06238866
13	0xbd0dfce9	-0.034665022
14	0xbcb26aea	-0.021779496
15	0xbcf56e23	-0.029959744
16	0x3d8d43f7	0.06897729
17	0xbda0cae2	-0.07851197
18	0x3d8945e4	0.06702784
19	0xbd0d4da4	-0.034497872
20	0xbc5df535	-0.013547231
21	0x3d758bd0	0.05994779
22	0x3d7c0c57	0.061535206
23	0x3caa5c89	0.020796077
24	0x3d5f7113	0.054551195
25	0x3db7e1c0	0.08978605
26	0x3c040b7e	0.008059381
27	0xbd53228d	-0.051546622
28	0x3d0fecf3	0.03513808
29	0xbd3fd9f2	-0.04683871
30	0x3dbbb11c	0.0916464
31	0x3bf0dbde	0.007350429
32	0x3d8ac10f	0.06775104
33	0xbdcc3e8a	-0.09972866
34	0xbcf1b66d	-0.029505933
35	0x3cf41575	0.029795388
36	0x3db504ff	0.088388436
37	0xbd091cea	-0.03347484
38	0xbc9f2f5d	-0.019431764
39	0x3db82673	0.089917086
40	0x3d984e6f	0.07436835
41	0x3d133861	0.03594244
42	0x3dcd465c	0.100231856
43	0xbc9998c4	-0.018749602
44	0x3a9cd63e	0.0011965705
45	0x3c54800a	0.01296998
46	0xbd903691	-0.07041658
47	0x3db68bb7	0.08913367
48	0x3cea5434	0.028604604
49	0xbcf8147e	-0.030283209
50	0xbdab4be9	-0.08364088
51	0xbda07828	-0.07835418
52	0xbd583186	-0.052781604
53	0x3cc1e9d7	0.023671074
54	0x3cfd244c	0.030901097
55	0xbcd40ea8	-0.025885895
56	0xbd2a5182	-0.04158164
57	0xbc3ba747	-0.011453456
58	0x3db84c8e	0.08998977
59	0x3cd3945e	0.025827583
60	0x3c97e6bc	0.01854264
61	0x3d6eee50	0.05833274
62	0x3dd2c653	0.102917336
63	0xbdb7800d	-0.089599706
64	0xbd1efb40	-0.03881383
65	0xbdc7cacc	-0.09755477
66	0x3d7e7076	0.06211897
67	0xbcb6d40e	-0.022317912
68	0xbc24e672	-0.010064708
69	0xbbe2203a	-0.0069008144
70	0xbda732f3	-0.08164015
71	0xbd006c2b	-0.031353157
72	0x3d9f1df7	0.07769387
73	0x3ce2d76b	0.02769061
74	0x3d6598fa	0.056054093
75	0xbd0a06ae	-0.033697776
76	0xbc6ab65d	-0.014325705
77	0xbc92ebf5	-0.017934779
78	0xbd6f9084	-0.05848743
79	0xbd742b57	-0.059611645
80	0x3daa0a29	0.08302719
81	0x3d7058e5	0.058678526
82	0x3c9f9ab8	0.019482955
83	0xbc87ab85	-0.01656128
84	0x3c9a4766	0.018832874
85	0x3dc75b47	0.09734207
86	0xbdae59cc	-0.08513221
87	0x3c04f340	0.008114636
88	0x3d996397	0.074896984
89	0x3bccfa87	0.006255451
90	0x3d01e5a5	0.031713147
91	0xbdad6b77	-0.08467763
92	0x3c904853	0.017612612
93	0xbda160c5	-0.078797854
94	0xbc9492ab	-0.018136343
95	0x3dc5c019	0.0965578
96	0x3bc0bba6	0.0058817444
97	0x3d926b8c	0.07149419
98	0x3d418266	0.0472435
99	0xbbef0cea	-0.0072952406
100	0xbcaaa100	-0.020828724
101	0x3db9064c	0.09034404
102	0x3d62ccd8	0.055371135
103	0x3cb957f5	0.022624949
104	0xbc945e90	-0.018111497
105	0x3c39674c	0.011316132
106	0xbc785b10	-0.01515843
107	0xbcdce02a	-0.026962359
108	0x3d144e96	0.036207758
109	0xbca44e19	-0.020056771
110	0x3c94834a	0.01812901
111	0xbd559590	-0.052144587
112	0x3d5cfc9c	0.053951845
113	0x3d82da66	0.063893124
114	0xbc6885d2	-0.0141920615
115	0x3c9a8545	0.018862376
116	0x3d9552fb	0.07291218
117	0x3d23e135	0.040009696
118	0x3cc21751	0.023692759
119	0xbd81545b	-0.06314918
120	0xbdc03dd9	-0.093867965
121	0x3c94e9ff	0.018177984
122	0x3d1b27a8	0.037879616
123	0x3d4d961f	0.050191995
124	0x3da091de	0.07840322
125	0xbd916f41	-0.07101298
126	0x3d952e34	0.07284203
127	0x3dbe7610	0.092998624
128	0x3db1d789	0.08683688
129	0xbd88fed3	-0.06689229
130	0xbd5d9929	-0.054101143
131	0x3d1efd0f	0.038815554
132	0x3d4a0db7	0.049329486
133	0xbcd35b94	-0.025800504
134	0x3c5b1a63	0.01337299
135	0x3d865c8a	0.06560619
136	0x3da87c53	0.08226838
137	0x3c3b18e0	0.011419505
138	0xbc31125b	-0.010807599
139	0xbca30216	-0.019898456
140	0x3da180ff	0.07885932
141	0xbd473c73	-0.048641633
142	0x3d7a0699	0.06104145
143	0x3dce2a10	0.100666165
144	0xbdb020bb	-0.08599993
145	0x3dc7a1bf	0.097476475
146	0xbd332ff2	-0.043746896
147	0x3dc2e2ec	0.09515938
148	0x3cde6a2b	0.027150234
149	0xbc443140	-0.011974633
150	0xbd48db3c	-0.049037203
151	0x3dc46e1f	0.095913164
152	0x3d35cec7	0.04438665
153	0x3d9a706f	0.07540976
154	0x3d1272d2	0.035754032
155	0x3dbbd4af	0.091714256
156	0x3cad827f	0.02118039
157	0xbd293635	-0.04131146
158	0xbd57f21c	-0.052721128
159	0x3d9022da	0.070378974
160	0x3d87dcf7	0.066339426
161	0xbdc5ccdf	-0.09658217
162	0xbd2806b3	-0.041022014
163	0xbda596a6	-0.080853745
164	0x3da079fc	0.07835767
165	0xbd8a460a	-0.0675164
166	0xbd3f2a61	-0.046671275
167	0x3d291c41	0.04128671
168	0x3d40a28d	0.04703002
169	0xbdc55d2a	-0.0963691
170	0xbdcb129f	-0.09915661
171	0x3c00cbe3	0.00786111
172	0x3ad08548	0.0015908862
173	0xbd5b82e9	-0.053591643
174	0xbd0a4fda	-0.03376756
175	0x3d5719de	0.052514903
176	0x3d1e1e5c	0.03860317
177	0xbc8bf4a3	-0.017084425
178	0x3d8c078f	0.06837379
179	0xbdab54bf	-0.083657734
180	0xbd6ecffd	-0.05830382
181	0xbd1e61ba	-0.038667418
182	0x3db91298	0.090367496
183	0xbc7d4852	-0.015459137
184	0x3c80d493	0.015726363
185	0xbda25c30	-0.079277396
186	0xbbf04cd6	-0.0073333783
187	0xbd9e7c3c	-0.077385396
188	0x3da310de	0.079622015
189	0xbcbc44ad	-0.022981966
190	0x3d61bc10	0.05511099
191	0xbd1911c9	-0.037370477
192	0xbdd0201f	-0.101623766
193	0x3cdba8c1	0.026813867
194	0xbd53200c	-0.051544234
195	0xbda47f56	-0.080321
196	0xbcf01e03	-0.029311186
197	0xbd870d40	-0.06594324
198	0x3db7531f	0.08951401
199	0x3d5bae98	0.053633302
200	0xbcf47302	-0.029839996
201	0x3da9f5ee	0.082988605
202	0xbd5196aa	-0.051169075
203	0x3d7ca83f	0.06168389
204	0xbaa50d49	-0.001259246
205	0x3d0fb678	0.035086125
206	0x3d779669	0.060446177
207	0xbda43771	-0.08018387
208	0x3db3896a	0.08766444
209	0x3d072673	0.032995652
210	0xbcb48295	-0.022034923
211	0xbc87eab1	-0.016591402
212	0x3c88943f	0.016672252
213	0x3d03399a	0.032037355
214	0x3db2030b	0.08691987
215	0x3d4d4489	0.05011419
216	0x3d3e063e	0.04639267
217	0xbd9d83dd	-0.076911665
218	0x3d53d9a8	0.051721245
219	0xbb90a46a	-0.004414131
220	0x3db5d43a	0.0887837
221	0x3da35de8	0.079768956
222	0x3d5381b4	0.051637366
223	0x3c0c0c71	0.008547888
224	0x3d252c21	0.040325288
225	0xbc7d66c0	-0.015466392
226	0xbd1f0023	-0.03881849
227	0x3d01a392	0.031650133
228	0xbd99c521	-0.075083025
229	0xbd97ebb5	-0.074180044
230	0x3d993312	0.07480444
231	0xbc8e4976	-0.017369013
232	0x3c9628f8	0.018330082
233	0x3dbe98c0	0.093064785
234	0x3d0a15ec	0.033712313
235	0x3dbb9e3d	0.09161041
236	0x3dae2f8b	0.08505162
237	0x3d8cca64	0.068745404
238	0x3c8bc4a9	0.017061548
239	0x3cc6da15	0.024273911
240	0xbce8a3fe	-0.02839851
241	0xbd136cc9	-0.035992417
242	0x3d8a948b	0.067666136
243	0xbc3dee49	-0.011592456
244	0x3cf1a60e	0.029498126
245	0x3d96c65f	0.07362055
246	0xbd009e28	-0.03140083
247	0xbdb436f6	-0.087995455
248	0xbdaef285	-0.08542351
249	0x3d9d5b6c	0.07683453
250	0x3d866d64	0.06563833
251	0xbd80c352	-0.062872544
252	0xbdc1874d	-0.09449635
253	0xbc751510	-0.014958635
254	0x3d90e501	0.07074929
255	0x3ba0ef01	0.004911304

enc_p.lstm.bias_hh_l0 f4 [384]
0	0xbd822495	-0.06354634
1	0x3d885640	0.06657076
2	0xbd1dd8a1	-0.03853667
3	0xbd5f0269	-0.054445658
4	0xbd52fcb1	-0.051510517
5	0x3d7b0f66	0.061293982
6	0xbdcb9a66	-0.099415585
7	0x3bdb1c94	0.0066867564
8	0x3d573ec6	0.0525501
9	0xbda3f2a9	-0.08005268
10	0x3d7ba325	0.061434884
11	0x3bdbe23a	0.006710318
12	0x3d6236c6	0.055228017
13	0x3c89ab77	0.016805394
14	0xbd824490	-0.063607335
15	0x3c915945	0.017742762
16	0xbd7d9b5a	-0.061915733
17	0x3d247046	0.040146135
18	0x3d3f2ef4	0.046675637
19	0x3c3760c1	0.0111925015
20	0x3d72f2b1	0.05931348
21	0xbdbfaa90	-0.09358704
22	0x3d42ef23	0.04759134
23	0x3cc9fe95	0.024657527
24	0xbcb56d53	-0.022146856
25	0x3d4fc874	0.050728276
26	0x3d7d84c0	0.06189418
27	0xbd81e11e	-0.06341766
28	0x3d7551a3	0.059892308
29	0xbd0988a0	-0.03357756
30	0xbdb1b62d	-0.086773254
31	0xbcd225f4	-0.025652863
32	0x3d0b989c	0.034081087
33	0x3d0f559f	0.034993764
34	0x3d78163f	0.06056809
35	0xbd34eb82	-0.04416991
36	0xbd941ae3	-0.07231691
37	0xbd58f2d4	-0.052965954
38	0x3cfe3417	0.031030698
39	0x3dbc7c09	0.09203345
40	0xbd68645b	-0.05673633
41	0x3d033bb5	0.032039363
42	0x3d7e1777	0.062034097
43	0xbdb98088	-0.090577185
44	0xbd7e4b0d	-0.062083293
45	0x3dab8626	0.08375196
46	0xbdc36a74	-0.09541789
47	0xbd2064b7	-0.03915855
48	0xbc775165	-0.01509509
49	0xbd7fe859	-0.062477443
50	0x3d5860c9	0.052826677
51	0xbcc39119	-0.023872899
52	0x3d794edb	0.060866218
53	0xbd547c33	-0.051876258
54	0xbda32819	-0.079666324
55	0x3d3be1ec	0.045869753
56	0x3b9b1382	0.00473255
57	0xbcd47c33	-0.025938129
58	0x3da4d80e	0.08049022
59	0xbdc78dac	-0.09743819
60	0x3d4f485e	0.050606124
61	0xbd10f3da	-0.035388805
62	0xbd35cb0a	-0.044383086
63	0xbdac7d90	-0.08422387
64	0x3d8f7464	0.070046216
65	0xbd66dfa5	-0.056365628
66	0xbdcb5ed6	-0.09930198
67	0x3d6c3942	0.057671793
68	0xbc8d1f37	-0.017226798
69	0x3d013abf	0.031550165
70	0xbd50c210	-0.050966322
71	0xbd81e9d9	-0.06343431
72	0xbd340b95	-0.043956358
73	0xbc3a92a1	-0.011387498
74	0x3db88217	0.09009188
75	0x3dc95b02	0.098318115
76	0xbc1a437d	-0.0094155045
77	0x3d550b25	0.05201258
78	0xbd459e01	-0.048246387
79	0x3db8d89c	0.0902569
80	0x3c5b3b73	0.013380873
81	0x3dae6e19	0.08517093
82	0xbdb7338b	-0.08945378
83	0xbd08d0ed	-0.033402372
84	0xbc7f7690	-0.015592232
85	0x3daef18b	0.085421644
86	0x3d974d24	0.0738776
87	0xbdcad82d	-0.099045135
88	0xbd30bde4	-0.043149844
89	0xbd47b06f	-0.048752245
90	0xbd587d1c	-0.05285369
91	0x3dab8a2a	0.08375962
92	0xbd6456c3	-0.055746805
93	0x3d9d4943	0.07679989
94	0xbdade61d	-0.08491156
95	0x3bcef37e	0.0063156476
96	0xbdae700d	-0.08517466
97	0xbd2606c3	-0.040533792
98	0x3daeb8b0	0.0853132
99	0x3d83ca07	0.06435018
100	0xbd4c48c1	-0.04987407
101	0x3c431637	0.011907152
102	0xbdc4d113	-0.0961019
103	0xbd07e1b4	-0.03317423
104	0x3c04b689	0.00810016
105	0x3d9a3d65	0.07531241
106	0xbdb442c5	-0.08801798
107	0xbcfdec88	-0.030996576
108	0x3d931889	0.07182414
109	0x3d2e2b69	0.042521868
110	0x3c836f4b	0.01604428
111	0x3bc2ec66	0.005948591
112	0xbdc4ced0	-0.09609759
113	0xbd5f65e2	-0.054540522
114	0xbcc61734	-0.024180986
115	0x3c4ff4f6	0.012692681
116	0xbdc94c3c	-0.09828994
117	0x3d6075b5	0.054799754
118	0x3d9b2881	0.07576085
119	0x3c9eae9d	0.019370371
120	0xbd476ba9	-0.048686657
121	0xbd81eb21	-0.063436754
122	0xbd0260e9	-0.031830702
123	0x3da7d2bf	0.081944935
124	0xbd84af67	-0.06478768
125	0x3c20b7c1	0.009809435
126	0x3cf0e2d8	0.029405043
127	0x3d8a1564	0.06742361
128	0xbd74b2d9	-0.059740875
129	0xbda11f96	-0.07867353
130	0xb9bcb8ab	-0.00035995743
131	0x3daa4a05	0.08314899
132	0x3c3a823b	0.011383588
133	0x3d5449c9	0.05182818
134	0xbd67a850	-0.056557
135	0xbda0789c	-0.078355044
136	0x3cd9bc86	0.026579153
137	0x3da7f200	0.08200455
138	0x3d5d9023	0.054092538
139	0xbdc29ac1	-0.09502173
140	0x3b7beca6	0.0038440614
141	0xbd3384d8	-0.04382786
142	0x3d4db3d9	0.050220344
143	0x3dc59af4	0.096486956
144	0x3d8afb83	0.06786253
145	0xbc74b815	-0.014936467
146	0xbc7ca495	-0.015420099
147	0xbcaa0e0b	-0.02075865
148	0xbc026a61	-0.007959933
149	0x3d5e7916	0.054314695
150	0x3d81bf6b	0.06335338
151	0xbc01aa90	-0.0079142
152	0x3d2b9faf	0.041900333
153	0x3d888397	0.06665724
154	0x3d37befe	0.04485988
155	0x3dd3b4c1	0.103372104
156	0xbd440a16	-0.04786118
157	0x3da4ee38	0.08053249
158	0xbda0609d	-0.078309275
159	0xbca41678	-0.020030245
160	0xbdbbfee8	-0.09179479
161	0xbdd2cc27	-0.10292845
162	0x3c8e3910	0.017361194
163	0xbd58816f	-0.052857812
164	0xbca443a4	-0.020051785
165	0xbd13c040	-0.036072016
166	0xbb299a79	-0.0025879426
167	0xbc32b418	-0.0109071955
168	0xbdbf6018	-0.093445
169	0xbca85216	-0.020546954
170	0x3dc2bdfe	0.095088944
171	0x3d2070a9	0.03916994
172	0xbdc29dd8	-0.095027626
173	0x3b644402	0.0034830575
174	0x3c3a8d4b	0.011386226
175	0xbd9f08a0	-0.07765317
176	0x3d924f5b	0.07144042
177	0x3d2b0011	0.04174811
178	0xbdc63de9	-0.09679777
179	0x3d1b7df7	0.037961926
180	0x3dae8fff	0.08523559
181	0x3dd3ea67	0.10347443
182	0xbda57542	-0.08079006
183	0x3cf21cab	0.029554686
184	0x3d866108	0.06561476
185	0xbd141208	-0.03615001
186	0xbdc182a6	-0.09448747
187	0x3cc253d1	0.023721607
188	0x3d8c3bf8	0.06847376
189	0x3cdc233f	0.026872275
190	0xbdd0083e	-0.10157822
191	0x3d83b7f3	0.0643157
192	0x3a181b0d	0.0005802371
193	0x3d5f6bf9	0.05454633
194	0x3b9a1b0d	0.0047029317
195	0xb97dce56	-0.00024204826
196	0xbc87862e	-0.016543474
197	0x3cce3e28	0.025176123
198	0xbccbdc33	-0.024885273
199	0xbcb74c44	-0.022375233
200	0x3d7a7174	0.061143354
201	0xbdc2d093	-0.095124386
202	0xbbaba63a	-0.0052383216
203	0x3d0563e8	0.03256598
204	0xbdcfd4db	-0.10148021
205	0x3d18505c	0.03718601
206	0x3db10c87	0.086449675
207	0x3cf302d7	0.02966444
208	0xbdd10675	-0.1020631
209	0xbcf63fdd	-0.03005975
210	0x3dcc76b0	0.09983575
211	0xbd902324	-0.070379525
212	0x3be772f9	0.0070632664
213	0xbdb7b2b6	-0.08969633
214	0x3da769d1	0.0817448
215	0x3ca2f0cb	0.01989021
216	0xbc1a00c6	-0.009399598
217	0xbd83d472	-0.06437005
218	0xbd0be23c	-0.0341513
219	0xbd72b77f	-0.059257027
220	0xbdbe790e	-0.09300433
221	0xbdc7cbb1	-0.09755648
222	0xbd2342ac	-0.039858505
223	0xbba31ea3	-0.0049780174
224	0xbc94cda0	-0.018164456
225	0xbdad4dad	-0.08462081
226	0x3d0593e9	0.03261176
227	0xbd3ccc4b	-0.046093266
228	0x3d021666	0.031759642
229	0x3d97e1d5	0.07416121
230	0xbd63564f	-0.055502232
231	0xbcc8831f	-0.024476586
232	0xbd0bea6e	-0.034159116
233	0xbafad0cd	-0.0019135714
234	0xbdc3ba63	-0.09557035
235	0x3d2c0935	0.042000968
236	0x3d58dfac	0.052947685
237	0xbceb82a1	-0.028748812
238	0x3dae8aad	0.08522544
239	0xbce725b3	-0.028216219
240	0x3d6f4392	0.05841405
241	0xbd6f7b43	-0.05846716
242	0x3c95268d	0.018206859
243	0xbd85c0b2	-0.06530894
244	0x3c4c273d	0.012460527
245	0xbd966f58	-0.07345456
246	0xbc07e5f3	-0.00829457
247	0xba87810a	-0.0010338139
248	0xbccacbc0	-0.024755359
249	0xbd4eb03d	-0.050461043
250	0xbc59f27b	-0.013302441
251	0x3d037e0e	0.032102637
252	0x3dbd7618	0.0925104
253	0xbdd24f58	-0.1026904
254	0xbd024d69	-0.031812105
255	0xbd82b1d8	-0.06381577

enc_f.lstm.weight_ih_l0 f4 [384, 4]
0	0xbb89e4af	-0.0042081694
1	0xbd143322	-0.036181577
2	0xbd30df7a	-0.043181874
3	0xbc47f826	-0.012205159
4	0xbcc2345f	-0.023706613
5	0x3d8cf931	0.06883467
6	0x3d902d9d	0.0703995
7	0xbcffc1c9	-0.031220334
8	0xbdc76052	-0.097351685
9	0x3d54fc77	0.05199858
10	0x3cbb8453	0.022890246
11	0x3d74c370	0.059756696
12	0x3d01e16b	0.031709116
13	0xbdaca4f0	-0.08429897
14	0x3dbd40d0	0.09240878
15	0xbc85cb2e	-0.016332235
16	0x3d0c5ec6	0.03427007
17	0x3c9cd9cd	0.019146824
18	0xbd50d5b9	-0.05098507
19	0xbdb20d20	-0.0869391
20	0x3dba2c77	0.09090512
21	0xbd7860ba	-0.06063912
22	0x3cc2a62f	0.023760883
23	0x3d30cbc8	0.04316309
24	0x3dc11e57	0.09429615
25	0x3cd86a5a	0.0264179
26	0xbd40775d	-0.046988834
27	0x3d5826af	0.052771267
28	0xbabe75c3	-0.0014530945
29	0xbd469ef0	-0.04849142
30	0x3d5cb553	0.05388386
31	0x3cd21dc0	0.025648952
32	0x3d235baa	0.03988234
33	0xbc48eab4	-0.012262989
34	0xbd7b5dbe	-0.061368696
35	0xbd486094	-0.04892023
36	0x3c6b145b	0.014348115
37	0x3bbb159d	0.0057093636
38	0xbd4d0ecd	-0.050062943
39	0xbdc76fd0	-0.097381234
40	0x3d95d040	0.07315111
41	0x3d952374	0.07282153
42	0xbd795d8d	-0.060880233
43	0x3cbeb3b3	0.023279047
44	0x3dc07880	0.093979836
45	0xbd87e105	-0.06634716
46	0xbdc0e85b	-0.09419318
47	0xbc6c0e0b	-0.014407645
48	0x3d1e9e6e	0.03872531
49	0x3d6f7c04	0.05846788
50	0xbdc09965	-0.09404258
51	0x3cbcbc1e	0.02303892
52	0x3dac5f58	0.08416623
53	0x3d73f145	0.059556264
54	0x3da5afd0	0.08090174
55	0xbc793b30	-0.015211865
56	0x3d2bf6a3	0.041983258
57	0x3cfd41ba	0.03091513
58	0x3dc7cf29	0.097563095
59	0xbd0c3513	-0.034230303
60	0x3b430a5e	0.0029760818
61	0xbd36c1bf	-0.044618364
62	0xbd2be0e4	-0.04196252
63	0xbd407161	-0.046983127
64	0xbd3058e9	-0.04305354
65	0xbd9c3e2d	-0.076290466
66	0xbd4452c1	-0.047930483
67	0xbcabf9dc	-0.020993166
68	0x3db9e57f	0.09076976
69	0x3daa7290	0.08322632
70	0x3d97569f	0.073895685
71	0x3d2aa198	0.041658014
72	0xbcc343a9	-0.023835974
73	0x3d92a351	0.071600564
74	0xbda6d560	-0.08146167
75	0x3d3be6a4	0.045874253
76	0x3c2cc145	0.010544126
77	0xbd880610	-0.06641781
78	0x3d4c0465	0.04980888
79	0x3dc1f825	0.09471158
80	0x3d562bc6	0.05228784
81	0xbc98e4ef	-0.018663852
82	0xbd49307d	-0.049118508
83	0x3d76d284	0.060259357
84	0x3d72937a	0.059222676
85	0xbdce9692	-0.10087313
86	0x3d1b48db	0.037911277
87	0xbbfa831e	-0.007645025
88	0x3d0533f1	0.03252024
89	0xbda9c98d	-0.08290396
90	0x3c38ff31	0.011291311
91	0x3dc0b53b	0.09409567
92	0x3d9cc76e	0.07655226
93	0xbc40cffa	-0.0117683355
94	0xbd77bc14	-0.0604821
95	0xbb3190ed	-0.002709444
96	0xbdbe7696	-0.09299962
97	0x3da9b0bf	0.08285665
98	0x3dc06566	0.0939434
99	0x3d18fca7	0.037350323
100	0xbdae8d86	-0.08523087
101	0x3cdfe21e	0.0273295
102	0xbdce0b32	-0.10060729
103	0xba07d83c	-0.0005182063
104	0x3db7aea0	0.08968854
105	0xbce34220	-0.027741492
106	0x3dcfb02e	0.101410255
107	0x3dc6bb26	0.097036645
108	0xbda4f7fe	-0.08055113
109	0x3d624428	0.05524078
110	0x3d0b9cf0	0.034085214
111	0xbbb63dbf	-0.00556156
112	0x3d336669	0.043798838
113	0xbd7739ee	-0.06035798
114	0xbcacc10b	-0.021088144
115	0x3da0055d	0.07813523
116	0x3d562bf3	0.052288007
117	0x3baecb88	0.0053343214
118	0x3cb98ed6	0.022651117
119	0x3db83396	0.08994214
120	0xbdae9fc3	-0.08526566
121	0xbd08e3c8	-0.033420354
122	0xbd9e2d81	-0.07723523
123	0x3d4c7d19	0.04992399
124	0x3d942079	0.07232756
125	0xbd52f2fd	-0.051501263
126	0x3cc3482b	0.023838123
127	0xbdd8848f	-0.105721585
128	0xbd7b9f1c	-0.061431035
129	0x3d19d540	0.037556887
130	0xbca70edf	-0.020392833
131	0xbb065275	-0.0020495926
132	0x3dd0b4c2	0.10190727
133	0x3db85df2	0.09002294
134	0xbd6206fb	-0.05518244
135	0xbd85ae59	-0.06527395
136	0xbcb1d16f	-0.021706311
137	0x3d64e42d	0.055881668
138	0x3d0e04cb	0.03467254
139	0xbd75c318	-0.06000051
140	0x3db39233	0.0876812
141	0x3d05f4d3	0.032704186
142	0x3c3f556f	0.011678084
143	0xbd818e1e	-0.06325935
144	0x3dc7aea3	0.09750106
145	0xbd99fe14	-0.07519165
146	0xbc9a2a00	-0.018818855
147	0x3dbdec27	0.09273558
148	0xbdc3e5c9	-0.095653124
149	0xbd087a52	-0.03331978
150	0x3abf1e4b	0.0014581172
151	0x3d718ef5	0.058974225
152	0xbbe72a82	-0.007054628
153	0x3c909759	0.017650293
154	0xbc8f5ce1	-0.017500343
155	0x3c292d41	0.010325731
156	0x3d170470	0.036869466
157	0x3c075a9f	0.008261352
158	0x3d8c7571	0.06858338
159	0xbd33a667	-0.043859866
160	0xbda833eb	-0.082130276
161	0x3c2ecbc8	0.010668702
162	0x3ca03738	0.01955758
163	0x3c849db1	0.016188474
164	0xbd8f1ec5	-0.06988291
165	0x3cf05b11	0.029340299
166	0x3d80f6e2	0.06297089
167	0x3d8c9fa9	0.0686639
168	0xbc90a4c0	-0.017656684
169	0xbd942e94	-0.072354466
170	0xbd1c375a	-0.038138725
171	0x3d9cdf4b	0.07659777
172	0x3d6b6ad0	0.05747491
173	0xbcd5f39a	-0.026117135
174	0xbbe93ff1	-0.007118218
175	0xbd909cba	-0.07061143
176	0x3c1a0345	0.009400194
177	0x3bc5d990	0.0060378984
178	0x3d80db47	0.06291824
179	0x3dafe40e	0.0858842
180	0x3da6e008	0.08148199
181	0xbd9f3c02	-0.077751175
182	0x3da9038a	0.08252628
183	0xbd63c45f	-0.055607196
184	0xbda303d3	-0.07959714
185	0xbdca6919	-0.09883327
186	0x3d6aabd4	0.057292774
187	0xbcf749ee	-0.03018662
188	0x3d1bd8a3	0.038048398
189	0xbc0985a7	-0.008393682
190	0xbc9e76ca	-0.019343752
191	0xbd35396a	-0.044244207
192	0xbc4db95d	-0.012556401
193	0xbd57a67c	-0.052649006
194	0xbd72c0b7	-0.05926582
195	0x3d28fe1f	0.041257974
196	0x3dc06329	0.09393913
197	0x3d8aa962	0.067705885
198	0x3dac65ce	0.08417855
199	0xbda4d271	-0.08047951
200	0xbd8b22e6	-0.06793766
201	0xbdba417e	-0.09094523
202	0xbc970cb7	-0.01843868
203	0x3d9cdeda	0.07659693
204	0xbdb46868	-0.088089764
205	0xbd3f38b0	-0.04668492
206	0xbb90286b	-0.0043993494
207	0x3d53bf01	0.051695827
208	0xbb699f50	-0.0035647936
209	0x3c823a6f	0.015897004
210	0xbd40d66c	-0.04707949
211	0x3cf0b32f	0.029382316
212	0xbd90c3fe	-0.070686325
213	0xbd162865	-0.036659617
214	0x3cd15317	0.025552316
215	0x3d2e56e8	0.04256335
216	0x3b2925bc	0.0025809845
217	0x3c345903	0.01100755
218	0x3da857fd	0.082199074
219	0xbdb4f9dc	-0.088367194
220	0xbd1672e6	-0.03673067
221	0xbdca138a	-0.09867008
222	0x3d9463f4	0.07245627
223	0x3b023fe4	0.0019874508
224	0x3dbe1088	0.09280497
225	0x3dafa257	0.08575886
226	0xbd3877f2	-0.045036264
227	0x3c7bd276	0.015370002
228	0x3da438f8	0.080186784
229	0x3c89cc32	0.016821
230	0x3d381797	0.044944372
231	0xbd3c0d04	-0.04591085
232	0x3d2b20cb	0.04177932
233	0xbdd256ee	-0.10270487
234	0x3d9bd775	0.076094545
235	0x3c8881ad	0.016663397
236	0xbda98a0f	-0.08278286
237	0xbd871c20	-0.06597161
238	0x3cddf846	0.027095925
239	0x3c25f39d	0.010128883
240	0xbd1ac767	-0.03778782
241	0xbd3f279c	-0.046668634
242	0xbcb9b0ad	-0.022667253
243	0xbd42b348	-0.047534257
244	0x3c490869	0.012270072
245	0xbd7200cb	-0.059082787
246	0x3db705a0	0.0893662
247	0xbd39e348	-0.045382768
248	0xbd952359	-0.07282133
249	0x3d9cef30	0.07662809
250	0x3d5baba4	0.053630486
251	0x3d83c5ed	0.06434236
252	0xbd80da0b	-0.062915884
253	0xbc841712	-0.016124282
254	0xbbd58e54	-0.006517211
255	0x3d755788	0.05989793

enc_f.lstm.weight_hh_l0 f4 [384, 96]
0	0xbc1c6e5c	-0.009547796
1	0x3d83477b	0.06410118
2	0xbd62f083	-0.05540515
3	0x3d1cdbcd	0.038295556
4	0xbd974196	-0.073855564
5	0x3c5269fb	0.0128426505
6	0x3d37eb8c	0.04490237
7	0x3d84d44c	0.06485805
8	0xbc0ccb0f	-0.008593335
9	0xbd903be7	-0.070426755
10	0x3c4d3ba9	0.012526431
11	0x3d20c975	0.039254624
12	0x3db87072	0.09005822
13	0xbdb960e6	-0.09051685
14	0x3bd439b9	0.0064766076
15	0x3cf8b7bd	0.03036105
16	0xbcec9873	-0.028881287
17	0xbd1b2a26	-0.037881993
18	0x3d44d4b4	0.048054412
19	0x3db50762	0.08839299
20	0x3d728b59	0.059214924
21	0xba82cd2c	-0.0009979359
22	0x3d1908e6	0.037362
23	0xbd1f3f47	-0.038878705
24	0x3d656f0d	0.05601411
25	0xbc87811d	-0.016541058
26	0x3b8c3762	0.004279063
27	0xbc9b2593	-0.018938815
28	0x3db1c72e	0.08680569
29	0xbd18ff1d	-0.03735267
30	0x3d8ab130	0.06772077
31	0x3d83cb1b	0.06435224
32	0x3d79b33f	0.060961958
33	0x3d8d3eb8	0.06896728
34	0xbda5bc6a	-0.08092578
35	0xbdaa96d7	-0.08329552
36	0xbdaf0322	-0.085455194
37	0x3d6aad17	0.057293978
38	0x3b8866eb	0.0041626594
39	0xbd0c7d8c	-0.03429942
40	0x3d4c6ac4	0.049906507
41	0x3c9b5ad0	0.018964201
42	0x3da3c5ed	0.07996736
43	0x3d97d05b	0.074127875
44	0xbcad31b3	-0.021141862
45	0x3bd61a36	0.0065338863
46	0xbdb3d061	-0.087799795
47	0x3dc419fc	0.095752686
48	0x3d871d49	0.065973826
49	0xbd7bc0c4	-0.061463133
50	0x3d331e0d	0.04372983
51	0x3d8ffd9e	0.070307955
52	0xbd6e33ea	-0.058154978
53	0x3d1e6f35	0.038680274
54	0x3c90e5c8	0.017687693
55	0x3c4426cc	0.0119721405
56	0xbdb64a41	-0.089008816
57	0x3d1de9b8	0.03855297
58	0xbda11e28	-0.0786708
59	0xbc3f83d9	-0.01168915
60	0xbd49448e	-0.049137644
61	0xbd8075b2	-0.062724486
62	0x3d9f22e3	0.07770326
63	0xbdc02939	-0.093828626
64	0x3db5e08b	0.08880719
65	0xbb8559c5	-0.0040695393
66	0x3d2552f2	0.040362306
67	0x3c737fa7	0.014861978
68	0xbcedf3cc	-0.029046915
69	0xbc328e7b	-0.010898228
70	0xbbec470f	-0.0072106193
71	0x3dcccc61	0.0999992
72	0x3d9dac05	0.07698826
73	0xbdc00817	-0.09376543
74	0x3d61885d	0.055061687
75	0xbc419112	-0.011814373
76	0xbc257ebe	-0.0101010185
77	0xbd445051	-0.04792816
78	0xbd3b73f4	-0.04576488
79	0xbd931f8c	-0.071837515
80	0xbc29d39a	-0.010365391
81	0x3a9f8c95	0.0012172634
82	0x3dc90288	0.09814936
83	0xbd8ef8fe	-0.06981085
84	0x3d80c7b6	0.06288092
85	0x3d78cdc8	0.060743123
86	0x3d8cf2ab	0.06882223
87	0xbcdb4900	-0.026768208
88	0xbd3afba9	-0.045650158
89	0xbd44e607	-0.048070934
90	0xbd2aeb48	-0.041728288
91	0x3c8678a0	0.01641494
92	0x3dcc5cd1	0.09978641
93	0x3dbf0cac	0.09328589
94	0xbd1aaabe	-0.03776049
95	0x3d79ef45	0.0610192
96	0x3d9ec048	0.077515185
97	0x3d9f8c0c	0.07790384
98	0xbd40cab3	-0.04706831
99	0xbd54fc02	-0.051998146
100	0xbd86397e	-0.065539345
101	0x3ce14313	0.027497804
102	0x3bb24da0	0.0054413825
103	0xbd6ce39b	-0.05783425
104	0xbac28c22	-0.0014842788
105	0xbd1642a2	-0.03668464
106	0x3d35a418	0.044345945
107	0xbd43322d	-0.047655273
108	0x3bdaf986	0.0066825775
109	0x3da8135b	0.08206817
110	0x3d90928f	0.07059204
111	0xbd34b174	-0.044114545
112	0xbabf6eac	-0.0014605126
113	0xbdbf1239	-0.093296476
114	0x3d9942aa	0.07483418
115	0x3c13c572	0.009019243
116	0xba2f285a	-0.0006681733
117	0x3da635da	0.0811574
118	0xbd1f923f	-0.03895783
119	0x3d438896	0.04773768
120	0x3d05ce58	0.032667488
121	0xbceef584	-0.029169805
122	0xbd41abba	-0.04728291
123	0xbd90ccd4	-0.07070318
124	0x3d61f8f9	0.05516908
125	0x3d82e5cb	0.06391486
126	0xbc5150f4	-0.012775648
127	0x3db452f5	0.08804885
128	0xbdc4e103	-0.0961323
129	0xba3d7334	-0.00072269444
130	0x3d1c12c2	0.038103826
131	0xbda9290b	-0.082597815
132	0x39957bbe	0.0002851169
133	0xbc968ac7	-0.018376721
134	0x3cb2abc6	0.021810424
135	0xbcd58a05	-0.02606679
136	0x3aef23c1	0.0018244908
137	0xbd21c0e7	-0.039490607
138	0xbc1714a4	-0.00922123
139	0x3cfa8405	0.03058053
140	0xbc38019f	-0.011230855
141	0xbd8cc8ce	-0.06874238
142	0x3d2a3f82	0.041564472
143	0xbdb6b7ce	-0.08921777
144	0x3d7b915a	0.061417915
145	0xbd83784e	-0.06419431
146	0xbc8aeadc	-0.016957693
147	0xbd9fb07b	-0.07797333
148	0x3d9d4407	0.07678991
149	0xbd30b87c	-0.043144688
150	0xbccfd181	-0.025368454
151	0x3d9817ab	0.07426389
152	0xbc0e863c	-0.008698996
153	0xbd43b12f	-0.047776397
154	0x3d8cb90a	0.06871231
155	0xbce1d10c	-0.027565502
156	0x3c6e5129	0.014545717
157	0x3d77d6ce	0.060507588
158	0xbd93b4af	-0.07212197
159	0xbc2d4d8f	-0.010577573
160	0xbd92b7fd	-0.07163999
161	0x3dc08a73	0.09401407
162	0x3db0f484	0.08640388
163	0xbdc08acc	-0.094014734
164	0xbc81307d	-0.015770191
165	0x3cae6c3e	0.021291848
166	0xbcd3900c	-0.025825523
167	0x3d958ce2	0.07302262
168	0x3d83fd7a	0.06444831
169	0xbc9c1ff6	-0.019058209
170	0x3c9fd752	0.019511852
171	0x3d4930e7	0.049118903
172	0xbcd5fb69	-0.026120858
173	0x3ca68e01	0.020331385
174	0xbd3ec9e0	-0.04657924
175	0x3d6bad93	0.05753858
176	0xbd995dcc	-0.074885935
177	0x3b5df9d4	0.0033870833
178	0x3d5fd140	0.054642916
179	0xba76d78f	-0.0009416276
180	0x3dc6a8d1	0.09700168
181	0x3d6ec13f	0.058289763
182	0x3db0fa33	0.08641472
183	0x3dbebf3a	0.09313817
184	0xbdb83ba3	-0.0899575
185	0x3dbfb3c4	0.093604594
186	0xbd24d9b8	-0.040246695
187	0xbd6b78eb	-0.057488363
188	0x3d2dc031	0.042419616
189	0x3da9dc95	0.08294026
190	0x3d096705	0.033545513
191	0x3b897090	0.0041943267
192	0xbd82b517	-0.063821964
193	0x3da3a2f5	0.07990066
194	0xbd13d148	-0.036088258
195	0x3d4741a4	0.048646584
196	0xbdc0a416	-0.09406297
197	0x3dc8dd79	0.098078676
198	0xbd2c7dbb	-0.042112093
199	0xbc88a6cf	-0.016681103
200	0x3dc6cbe2	0.09706856
201	0xbdb0aa3c	-0.0862622
202	0xbd16853a	-0.03674815
203	0x3da6f9c0	0.08153105
204	0x3d95b89b	0.07310601
205	0x3d2a2929	0.04154316
206	0xbd8590b7	-0.06521743
207	0xbdc298f2	-0.09501828
208	0xbcd89ba8	-0.02644141
209	0x3d980b27	0.07424002
210	0x3ce1efc1	0.027580144
211	0xbd295f53	-0.041350674
212	0x3bbfd115	0.005853782
213	0xbc12c01c	-0.008956935
214	0x3bc45cf2	0.0059925253
215	0x3d8421f2	0.06451787
216	0xbda4002e	-0.08007847
217	0xbd8379b0	-0.064196944
218	0xbcfbefe4	-0.030754037
219	0x3d31a631	0.043371383
220	0x3db8cbc6	0.09023242
221	0x3dcbef81	0.09957791
222	0x3d920e60	0.07131648
223	0x3cd203a8	0.025636509
224	0x3c515cf9	0.012778514
225	0x3d08ed00	0.033429146
226	0xbccb713e	-0.024834272
227	0x3c88bcbb	0.016691556
228	0xbda2c3f1	-0.07947529
229	0x3d8d76ee	0.0690745
230	0x3d813380	0.06308651
231	0xbbb166e3	-0.0054138764
232	0xbd3a8e4f	-0.045545872
233	0x3d8a9830	0.06767309
234	0x3cbf8ac3	0.023381596
235	0xbd52ed8f	-0.051496085
236	0x3dbfa019	0.09356708
237	0xbd633f39	-0.055480216
238	0x3d02a4bb	0.03189538
239	0x3d8f3e96	0.06994359
240	0x3c7d5978	0.015463226
241	0x3bbb4733	0.0057152747
242	0x3dc2bb1d	0.09508345
243	0x3d1cc987	0.03827813
244	0xbb923abc	-0.004462568
245	0x3cc09a3e	0.023511048
246	0x3b982a91	0.004643746
247	0x3d8caece	0.06869279
248	0xbdb1c31f	-0.086797945
249	0xbdaee7cd	-0.08540306
250	0x3d995411	0.074867375
251	0xbdc3cdae	-0.09560715
252	0xbd766ffa	-0.060165383
253	0xbdada5d2	-0.08478893
254	0x3daf845f	0.0857017
255	0x3d634240	0.055483103

enc_f.lstm.bias_ih_l0 f4 [384]
0	0xbd2d706d	-0.042343546
1	0xbdbeef0f	-0.093229406
2	0xbc833255	-0.016015211
3	0xbdb8d471	-0.09024895
4	0x3caacfe9	0.020851092
5	0x3d8e468b	0.06947049
6	0xbaa55c49	-0.0012616004
7	0x3c21023b	0.009827192
8	0x3d646f41	0.055770162
9	0xbc62a6ed	-0.0138337435
10	0xbd832e98	-0.064053714
11	0xbdb32179	-0.08746619
12	0x3d983015	0.07431046
13	0x3d91b868	0.07115251
14	0xbb87b4e7	-0.0041414383
15	0xbc7d5b68	-0.0154636875
16	0xbced7710	-0.028987437
17	0x3d67a729	0.0565559
18	0xbd9a2cc3	-0.07528069
19	0x3d8f31dc	0.06991932
20	0x3cbee63c	0.023303144
21	0xbdb9b22c	-0.09067187
22	0x3d929494	0.07157245
23	0xbce8b981	-0.028408768
24	0xbd6e363a	-0.058157183
25	0xbc89fcf2	-0.016844247
26	0x3dc68a4f	0.09694349
27	0x3c93844c	0.01800742
28	0x3da8573f	0.08219766
29	0xbbd132b2	-0.006384217
30	0xbda5681f	-0.080765
31	0xbd019b13	-0.03164203
32	0xbd68035d	-0.056643832
33	0x3dc1ca8a	0.094624594
34	0x3c314916	0.010820648
35	0x3d7de4be	0.061985724
36	0x3d292752	0.041297264
37	0xbc2b0937	-0.010439209
38	0xbbb82ad5	-0.0056203404
39	0xbdaf0809	-0.085464545
40	0x3d10b06f	0.03532451
41	0x3d681f3d	0.056670416
42	0xbc8f708e	-0.017509725
43	0x3ce5c095	0.028045932
44	0xbd41948c	-0.047260806
45	0x3da6282b	0.0811313
46	0xbdb27842	-0.087143436
47	0x3c2b663c	0.010461386
48	0xbda5bad5	-0.08092276
49	0xbdc057ff	-0.09391784
50	0xbc4ae677	-0.012384049
51	0xbcd58cb0	-0.026068062
52	0xbcec2482	-0.028826002
53	0xbd10a9f7	-0.03531834
54	0xbdaf6e8b	-0.08566006
55	0xbcf3d454	-0.029764332
56	0x3dbdcba8	0.0926736
57	0xbc5dfb3a	-0.013548667
58	0xbafbb474	-0.001920356
59	0x3bf39a55	0.0074341693
60	0x3d597e59	0.05309901
61	0xbdbc9f65	-0.092100896
62	0x3da52561	0.0806377
63	0xbd555819	-0.05208597
64	0x3d29baaa	0.041437782
65	0x3d8eedb5	0.06978933
66	0x3db994db	0.09061595
67	0x3dcc93cd	0.09989128
68	0x3ba65b80	0.0050768256
69	0xbd444bbe	-0.047923796
70	0xbd8bc027	-0.068237595
71	0xbc965c98	-0.018354699
72	0xbd19ad8b	-0.03751902
73	0x3ce44abe	0.027867671
74	0xbc87ddb1	-0.016585203
75	0x3c888e9e	0.016669568
76	0x3d9d40f9	0.07678408
77	0xbd134901	-0.035958294
78	0xbc6204d2	-0.013795095
79	0x3daab761	0.08335758
80	0xbd1e16b6	-0.038595878
81	0xbdb10b7a	-0.08644767
82	0xbc33e539	-0.010979944
83	0x39c01279	0.00036634857
84	0x3d4a81eb	0.049440306
85	0x3ce3c70e	0.027804878
86	0x3d79d413	0.060993265
87	0x3d9a28e4	0.075273305
88	0xbd4e2d0e	-0.050335936
89	0xbcafd552	-0.021464024
90	0x3d296701	0.041357998
91	0xbdc1f85d	-0.094712
92	0xbdcc39a6	-0.09971933
93	0x3dc4caeb	0.09609016
94	0xbd095f96	-0.033538423
95	0xbd696f35	-0.05699082
96	0xbd7bdcb8	-0.06148979
97	0x3d965b47	0.073416285
98	0x3d313358	0.043261856
99	0xbdc49144	-0.0959802
100	0x3b0ac7f6	0.0021176315
101	0x3ce22561	0.027605714
102	0x3d1b09a1	0.03785098
103	0xbd8758d4	-0.066087395
104	0xbdcee618	-0.10102481
105	0x3b062f49	0.0020474961
106	0xbdcd09ea	-0.100116566
107	0x3d11e065	0.03561439
108	0x3d66324b	0.056200307
109	0xbdb6b328	-0.0892089
110	0xbd6522d3	-0.055941414
111	0x3d900a7b	0.07033249
112	0x3c6326a0	0.013864189
113	0x3d8059d7	0.062671356
114	0xbc685bb5	-0.014182021
115	0xbda40dc4	-0.08010438
116	0x3d92ced4	0.071683556
117	0x3da6855f	0.08130907
118	0xbcd2094c	-0.025639199
119	0x3c27f554	0.010251362
120	0xbb6cc15b	-0.003612599
121	0xbd576bd4	-0.052593067
122	0x3db0fb9b	0.0864174
123	0x3d212313	0.03934009
124	0xbd664672	-0.056219526
125	0xbd189836	-0.037254535
126	0xbd56d114	-0.052445486
127	0x3d05e674	0.03269048
128	0xbdd4cac6	-0.103902385
129	0x3db622e4	0.088933736
130	0xbd994dee	-0.07485567
131	0x3b398275	0.0028306518
132	0xbd0ae687	-0.033911254
133	0xbdbe71b9	-0.092990346
134	0xbd8dff45	-0.069334544
135	0xbcedee31	-0.029044243
136	0xbdb6d1ca	-0.08926733
137	0x3d717643	0.058950674
138	0xbd7c8b15	-0.061656076
139	0x3dad3874	0.08458033
140	0x3d3e13d3	0.046405625
141	0x3dc149dd	0.094379164
142	0xbd1a5785	-0.03768112
143	0xbd923071	-0.07138146
144	0xbbcd5cdd	-0.0062671737
145	0x3dd2121d	0.10257361
146	0x3d9aa209	0.07550437
147	0x3d9bb055	0.07601992
148	0x3d3817a6	0.044944428
149	0xbd3d68de	-0.046242587
150	0xbd13ac85	-0.0360532
151	0x3dab11cd	0.083530046
152	0xbda73eb1	-0.08166254
153	0x3d46e96d	0.048562456
154	0xbd81828f	-0.0632373
155	0xbd263a8f	-0.04058319
156	0xbd52b620	-0.05144322
157	0x3d468c38	0.048473567
158	0x3dcab109	0.09897048
159	0xbdc66781	-0.096877106
160	0xbc2d5a03	-0.0105805425
161	0x3ca505f8	0.020144448
162	0x3d849b19	0.06474895
163	0x3dcd1ab7	0.10014861
164	0xbd75c99f	-0.060006734
165	0xbcb83b3a	-0.022489179
166	0x3da28040	0.07934618
167	0x3d4c827e	0.049929135
168	0xbdb4763a	-0.088116124
169	0x3ceaa2cb	0.028642079
170	0xbc80af71	-0.015708657
171	0x3cc432c6	0.023949992
172	0xbd57e42f	-0.052707847
173	0xbcc79e1d	-0.024367386
174	0x3d8f2c64	0.06990889
175	0x3dc21456	0.09476535
176	0x3cdeb23e	0.027184602
177	0xbdac97ee	-0.08427416
178	0xbd360bcc	-0.044444844
179	0xbcf0daed	-0.029401267
180	0x3d624f47	0.055251386
181	0x3c36f964	0.011167858
182	0x3dc5c16d	0.09656034
183	0xbd05b0ac	-0.03263919
184	0x3dd20b9f	0.10256123
185	0x3d98172b	0.07426294
186	0x3d37bb6a	0.044856466
187	0xbd923dc2	-0.071406856
188	0xbd6f12a6	-0.058367394
189	0xbdbb9d7b	-0.091608964
190	0xbd9600a0	-0.07324338
191	0x3d5eb20e	0.054369025
192	0xbc08be79	-0.0083461935
193	0xbdb150ff	-0.08658027
194	0x3dabc744	0.08387616
195	0x3dd81732	0.10551299
196	0x3c304d84	0.010760669
197	0x3d8af08f	0.06784164
198	0xbd342652	-0.043981858
199	0xbd570935	-0.052499015
200	0xbd9e2489	-0.07721812
201	0x3d9a3ad3	0.07530751
202	0x3d86f03a	0.06588788
203	0x3bfdcf2e	0.007745645
204	0x3db910dd	0.090364195
205	0xbdb48052	-0.08813538
206	0xbd8ff50e	-0.07029162
207	0x3da0b8b3	0.078477286
208	0xbd369c2e	-0.04458254
209	0xbdb21052	-0.08694519
210	0xbdbc9413	-0.092079304
211	0xbd1e80e4	-0.03869714
212	0x3d1c39c3	0.038141023
213	0xbd14a42a	-0.03628937
214	0x3c2125e4	0.009835694
215	0xbd9945a0	-0.07483983
216	0x3dd28928	0.10280067
217	0xbd2aca90	-0.041697085
218	0x3d90bdc2	0.070674434
219	0x3c469ec1	0.012122811
220	0x3dba2f12	0.09091009
221	0xbdcf4da4	-0.10122231
222	0xbbc8e5ae	-0.0061308956
223	0xbc935f60	-0.017989814
224	0xbd396712	-0.04526431
225	0x3cf3b304	0.029748447
226	0x3d95490d	0.07289324
227	0x3d7b9150	0.061417878
228	0x3d00b061	0.031418208
229	0x3d00c609	0.03143886
230	0xbd882fb1	-0.066497214
231	0x3d954819	0.07289142
232	0x3da193a9	0.07889492
233	0x3dbae7e7	0.09126263
234	0x3dafb58e	0.08579551
235	0xbdbb1e73	-0.09136667
236	0xbd418b69	-0.047252093
237	0x3d41472a	0.047187008
238	0xbc33ccc9	-0.010974118
239	0xbd23333a	-0.039843775
240	0x3d9a490d	0.075334646
241	0x3db87b71	0.090079196
242	0x3db6802f	0.08911168
243	0xbdac398c	-0.08409414
244	0xbd6258d5	-0.055260498
245	0x3c623a64	0.013807867
246	0xbcbf03c7	-0.02331723
247	0x3d54040a	0.051761664
248	0x3d3ea1ae	0.04654091
249	0xbd5fcd4d	-0.05463915
250	0xbd68607a	-0.056732632
251	0x3d640cad	0.05567615
252	0x3db7bc62	0.08971478
253	0xbcb1b89d	-0.021694476
254	0xbdb4cea1	-0.08828474
255	0xbce15c69	-0.027509885
