_train/_models/20250919/풍산(103140)_20250919.pt (torch, 831847 bytes, 20 tensors)

enc_p.lstm.weight_ih_l0 f4 [384, 6]
00000000: 6104 d33d cb96 e33a 60f1 803c 11aa 473d
00000010: 95f0 963d bd26 43bc f461 bcbd e20f bf3d
00000020: ade6 573d b06d bcbd 2e9f 92bd 667d 283d
00000030: cee3 93bd a6ba fdbc 872c 823c 6970 a4bd
00000040: b5be 72bd 6707 19bd 0ffc 993c 1ad2 08bd
00000050: 4ba0 c2bc 38f2 b4bd 777e 8ebd b306 90bc
00000060: acb8 da3c 3b41 2b3d 7f3e 4fbc 3d0a b9bd
00000070: 87aa 40bd 3172 99bd eb65 843d 7e85 5cba
00000080: 4e0d eabb 3eb6 a23d cdd6 73bd 76b8 243d
00000090: 5929 63bc c31b a5bd 24b2 d0bc e34f 883c
000000a0: dbd6 9ebd a8a9 b7bd 4ea4 9cbc 59d1 74bd
000000b0: ae35 4bbd e8be 39bd 9b9c 3abd 0752 9e3d
000000c0: f37b a93d 9ec7 22bd 49e7 c0bd d195 c23d
000000d0: b8d0 c03d 933e 293d ffe6 e33c 88f8 323d
000000e0: f294 e13c 6b76 07bd b8fb 103d 5908 213d
000000f0: b684 f4bb 6104 423d ce63 5f3d 7d02 1d3d
00000100: 1b8f b8bd 2e99 3dbd 160b 943c 76e1 8d3d
00000110: 149c ac3d a789 edbc 850f 7f3d 7032 003d
00000120: 4999 7fbd 4d03 693d 83c3 273d f445 843d
00000130: 5bd4 63bd 050e 8a3d 1ae1 153d 6d3a a8bd
00000140: 772b 103d 47e3 d13b c3a9 043d 9e68 a73b
00000150: 078c 913d 39f9 c23c 27e1 003c 8d93 6b3d
00000160: f0fc b3bd 10dd 673d 93be 94bc 3041 afbd
00000170: 3a28 813d 2989 54bd ca0f b43c 2566 ccbc
00000180: c139 9dbc 85ca a53d e907 93bd 8e33 b6bd
00000190: 48d2 17bd 424e 88bd 9394 99bd 2da8 a3bd
000001a0: 063c 1c3d bfbe 0dba 8e87 ae3d c102 b5bd
000001b0: 7e18 c8bc cc91 b23c 6a12 6c3c 539c adbd
000001c0: 8abf 8b3b 7b17 cabd 72a2 98bd 2834 83bd
000001d0: 7c21 a33d b3f1 b5bd c66c 75bd d660 c7bd
000001e0: f619 62bd b62e 3e3c 7948 8abd e571 c3bd
000001f0: aac0 cfbc 399a db3d b472 99bd a0ee 17bc
00000200: 8287 08bc 1527 333c 78e2 623d 41f7 6f3d
00000210: 72b4 11bd 6e59 05bd ab65 9b3d 9d3c 1c3d
00000220: 1f26 b33d 6c8b bd3d bfe2 c2bd f113 e43c
00000230: f8cc b63b cebe ffbc 3c8e 4ebd 513e 4abd
00000240: 652a 18bd 3959 ab3d ee37 01bd 0577 37bd
00000250: b227 e6bc 75a2 06bd 6c3a 1f3d e69b 38bd
00000260: 8f6f cebd 6732 b2bd 4b55 f83b fb14 ce3d
00000270: 49a0 70bc 4e99 e3bb 28fe 373d a3d3 e93b
00000280: e11c a8bb 3623 0d3d 8d3c 003c d108 8ebd
00000290: 5f63 8ebd b7da f4bc b7b2 1b3d 948b d93c
000002a0: 1637 92bd 8b2d 1dbd 772a 53bc 0cb4 bc3d
000002b0: 7bdb 36bd 29eb bc3c b93d 0cbc 45d6 7e3c
000002c0: faa9 94bd cda4 b4bc 450c 0bbb 4361 edba
000002d0: f4e8 c33d 2e19 bdbd 7dd4 c03d 7ab1 1abd
000002e0: c312 9c3d 5ba3 e03c c028 6ebd d434 4d3d
000002f0: 937c 3bbd a216 b1bb a94a 1fbd 8042 8dbd
00000300: faaf adbc b178 1dbc 47d5 0bbb 5206 f53c
00000310: d62d af3d bfb1 a2bd 8822 2a3d 9a8a 083d
00000320: a26f 07bd bd7c 813d 2aaa 103d 7485 cc3c
00000330: 48bb b8bc 77ff a6bd 6e58 943d fb13 9b3d
00000340: ab72 94bd a54c 8ebd d98c ff3b b15b 9d3c
00000350: 8e26 70bc 6c68 85bd 00d5 36bd 801d 0f3d
00000360: 2008 d2bd f824 a3bd 618c cabd fad6 acbd
00000370: 8347 c53d 95fd 533d a692 3fbd 8d4a 3bbd
00000380: 48b0 183d 51e5 a83d 2dde 473d e307 7d3d
00000390: 8dcb 20bc 9406 ab3d 4dbc 03bd 97cd ccbd
000003a0: ad38 a7bd 9982 80bd 6699 cdbd 5932 2dbb
000003b0: 9bae a3bd 2c39 aa3d 2957 193d 083e bb3d
000003c0: 371d b43d 4a34 c1bd 0a9c 0a3d 89b4 803c
000003d0: 0624 27bd b987 4dbb 5f58 a5bd e42d cabd
000003e0: 2bcd e7bc fcaf 543d 4f66 1f3d 1f1e 6cbd
000003f0: a07c 33bd 8cbf b23c d193 423c 98d2 f6bc
0.103035696 0.0017363665 0.015740097 0.048746172 0.07370106 -0.011911091 -0.091983706 0.09329201
0.052710224 -0.09200609 -0.07159267 0.041135214 -0.07221185 -0.03097279 0.015890373 -0.08029253
-0.059263904 -0.037360575 0.018796949 -0.033403493 -0.023758074 -0.08835262 -0.06957715 -0.01758132
0.026699387 0.041810255 -0.012649178 -0.09035156 -0.047037628 -0.074924834 0.06464752 -0.0008412226
-0.0071426993 0.07944916 -0.059531022 0.04021498 -0.0138648385 -0.08061936 -0.02547557 0.016639655
-0.07755824 -0.08967906 -0.019121315 -0.059769962 -0.04961174 -0.045348078 -0.045559507 0.07730489
0.082755946 -0.03974115 -0.09419114 0.095012315 0.0941481 0.04131944 0.027820108 0.04369405
0.027536843 -0.033071917 0.035396308 0.0393146 -0.0074621094 0.047367457 0.05453854 0.03833245
-0.0901167 -0.04628866 0.018071692 0.06927769 0.08428207 -0.028996302 0.06227066 0.0312981
-0.062402043 0.056887913 0.04095794 0.06458655 -0.05562244 0.06740955 0.036591627 -0.08214269
0.0351977 0.0064052674 0.03238846 0.005108907 0.07106786 0.02380048 0.0078661805 0.057513762
-0.087884784 0.056607306 -0.01815728 -0.085573554 0.06306501 -0.05188862 0.021980185 -0.02495105
-0.019192578 0.08095268 -0.07179243 -0.08896552 -0.037065774 -0.066555515 -0.074990414 -0.07991061
0.03814318 -0.00054071465 0.08521949 -0.08838416 -0.024425741 0.021798037 0.014408687 -0.08477082
0.0042647766 -0.0986776 -0.07452859 -0.064064324 0.07965371 -0.08883991 -0.059918188 -0.09735267
-0.05520054 0.011607816 -0.06752104 -0.09543208 -0.025360424 0.10722775 -0.07492581 -0.009273201
-0.008333089 0.010934611 0.05539176 0.05858541 -0.035572477 -0.03255599 0.07587751 0.038143743
0.087475054 0.09255108 -0.09515905 0.02784154 0.0055786334 -0.031218912 -0.050428614 -0.049375836
-0.037149806 0.08366627 -0.03154748 -0.04479124 -0.0280951 -0.032869775 0.038874075 -0.04507055
-0.10079872 -0.0870102 0.007578527 0.100625955 -0.014686652 -0.0069457656 0.044920117 0.0071358248
-0.0051303958 0.034457408 0.007826936 -0.06935275 -0.06952547 -0.029889448 0.038012233 0.026555814
-0.07139413 -0.03837351 -0.012888542 0.09214029 -0.044642907 0.023061352 -0.008559638 0.0155540155
-0.07258983 -0.02205124 -0.002121703 -0.0018110651 0.09565917 -0.09233318 0.09415529 -0.03776691
0.07620766 0.027421644 -0.05814433 0.05009921 -0.0457731 -0.0054043094 -0.03888956 -0.068974495
-0.021202076 -0.009611295 -0.002133684 0.02991024 0.085536644 -0.079440586 0.041536838 0.033335306
-0.033065446 0.0632262 0.03531853 0.02496598 -0.02255024 -0.08154195 0.07243429 0.0757217
-0.07248434 -0.069482125 0.007798773 0.019208761 -0.01465763 -0.065140575 -0.044636726 0.034940243
-0.10255456 -0.079660356 -0.098900564 -0.08439441 0.096327804 0.051755507 -0.046770714 -0.045725394
0.03727749 0.08246864 0.048795868 0.0617751 -0.009814155 0.08350864 -0.032162 -0.10000151
-0.08165107 -0.062749095 -0.10039024 -0.0026427715 -0.07992288 0.08311686 0.037436638 0.09142691
0.08794635 -0.094338015 0.033840217 0.015711086 -0.04080584 -0.0031361415 -0.08073496 -0.09872034
-0.028296074 0.051925644 0.03891593 -0.057645913 -0.043820024 0.021819852 0.0118760625 -0.030129716

enc_p.lstm.weight_hh_l0 f4 [384, 96]
00000000: 5f03 373d 0add b9bd 9c1b a3bd 6064 bcbd
00000010: 9e43 273d 61c3 363d a59f 80bd 55b3 a8bd
00000020: 24ca 8fbd a553 34bc 96ed c63d ace1 573d
00000030: 00c4 363c 6131 a13c c439 9d39 566f c63d
00000040: 3460 593d 27a8 133d afa6 b33d f631 88bc
00000050: c7bb 9e3c 2498 0bbd 5dd9 d4bd 49f6 b5bd
00000060: fd58 87bd 7953 acbd ab61 be3d 31f5 64bd
00000070: b277 6dbd cb31 ab3d ff6d 9bbd 23a4 c63d
00000080: b909 813d a553 713b c7cf c53d 6bab 2e3c
00000090: 9819 92bd 6f7c d5ba 63e6 31bd edf4 9fbd
000000a0: 73e5 d4bd 23cf 913d 10ab 76bd b146 553d
000000b0: deac a63d 039b b83d b052 a4ba d547 47bd
000000c0: 9785 153d 82e8 983d 9e65 4a3d 5f2e ac3d
000000d0: 7e33 a43d 85b8 57bd 1410 54bc bb0f 133d
000000e0: 24e4 d7bd f71c a03d 4cb5 bfbd 7cb1 ac3d
000000f0: 1de5 8ebd 91e3 ab3b acb7 a9bd 8ec6 c33d
00000100: 3bd9 a9bc 66db 9abd 9fe2 c03a c5a7 ad3d
00000110: f640 3f3d 4844 0d3c 5b2f 18bd f475 7abc
00000120: cfd1 c13d a3f7 10bd d728 1a3d bc54 a23b
00000130: 3b76 b2bd 5b42 33bd 6dba d83d f1a0 ecbc
00000140: f1fe acbd efde 813d 2b38 1d3c 3d85 5b3d
00000150: ca2d bdbd 26fa 0b3d f246 86bd 17f2 193d
00000160: aafe 473d b54d 8bbd fe01 143d 911b b63d
00000170: 0ce7 c5bc b376 2e3d ef76 c5bd 3a5c 5abb
00000180: d529 533c 339d 373d a80b e2bc 436c 66bd
00000190: 29f4 bbbd a6dc 203d 184b 9e3d 14ab fcbc
000001a0: 084f b63c f7c0 8dba a121 853d 1695 173d
000001b0: 40d4 8c3d c883 a6bd 1f35 62bc f44a cbbc
000001c0: 04ac 92bd 6679 b9bd c194 27bd b951 2b3d
000001d0: 4ad0 e6bc eef0 02bd 215d 94bd 6e03 5abc
000001e0: c26d bfbc bf1b c63d f32a 4f3d dfb9 5b3d
000001f0: 67c5 9abd 993d 1bbd a8fe 813d 1d63 f63c
00000200: e205 1fbc 8aee 19bc 9676 85bc 6b0f 8dbd
00000210: 709f afbd 7da7 70bd 0eca 8f3d dfaf 8bbd
00000220: b30c 89bd 21bf 1a3d 1f4d 62bd 586b 4fbc
00000230: 8a04 9b3d 638d 91bd 2418 c0bd fd2d 7bbd
00000240: 6354 7bbc 7d1a 8fbd 3640 94bd 0734 96bd
00000250: 86b9 1abd f782 643d b252 6c3c 4fe4 833d
00000260: 65a3 97bd 8a12 b7bc a81e b5bd 77b3 33bd
00000270: 8788 e13c da54 503d fb0c ebb9 edcd 9abd
00000280: 6ec5 5bbd a432 1abc 341c bfbd ce8a b9bc
00000290: 2ecc 27bd bf83 dc3c b9c5 34bd 149c 76bd
000002a0: 6592 7f3d 355f acbd 77ee 8e3d db8c b43c
000002b0: 8318 2c3d 1d1f c53d 8e0c 20bd 78bd cbbd
000002c0: af69 d0bd 9e72 2f3b 7e22 61bb 68bc d23c
000002d0: 1a36 0c3d 9384 4abd 1631 58bd 63db 953d
000002e0: a829 acbc 3e6e 76bd 9c56 973b ae90 833c
000002f0: 507e 073d 4cc6 1c3b f7c1 ad3d 169c bd3d
00000300: 7fa3 d0bc 1200 c0bc c4f2 31b9 3ace dd3c
00000310: 5c36 18bd 8bba 52bc 6f63 d53c d91b a6bc
00000320: 3068 823d 528c 6bbc 95dd 383d 6153 a73d
00000330: 9f09 f8bc 030c 203c 3a31 6abd 32c2 42bc
00000340: bfdb 4ebd c1ad 4d3d 8875 aa3d ad09 933d
00000350: 3b99 113d bf1e 5f3d f866 9bbc 7489 e83c
00000360: 3aeb 43bd 0758 98bd 3535 85bd 3b58 20bd
00000370: 22bb 8fbd 97b4 d6bd d8d6 87bc 5f6a 8bbd
00000380: 864d c13d bbc1 d3bd 0349 adbc 1f3a 423a
00000390: 9832 7c3d d7aa 2f3d 0c74 013c 7897 113d
000003a0: 86c1 75b8 f644 8abd 24bd ae3d dd35 003d
000003b0: 1b45 973d f4c5 35bd e60a 06bd f212 6e3d
000003c0: 3395 b93d 773a a43d a921 e3bc 4906 56bd
000003d0: 4ecc 3dbd ce62 1ebd 3667 18bd 8cb3 64bd
000003e0: 39a7 76bc e752 c23d 3fc8 7b3c 2cea c2bd
000003f0: ff6e b0bd f863 733d 69eb b83d 4f55 d73d
0.04468095 -0.09075363 -0.079642504 -0.091988325 0.04083597 0.04461992 -0.0628045 -0.0823733
-0.07020977 -0.011006271 0.09713285 0.05270545 0.0111551285 0.019676866 0.00029988412 0.096892044
0.053070262 0.036049034 0.08772027 -0.016625386 0.019376649 -0.03408064 -0.10393021 -0.08884866
-0.0660877 -0.08414359 0.092959724 -0.055897895 -0.05797548 0.08359107 -0.075893395 0.09699275
0.063006826 0.0036823538 0.09658771 0.010660986 -0.07133788 -0.0016287694 -0.043432605 -0.07810388
-0.103953265 0.07119586 -0.06022173 0.05206937 0.081384405 0.09013941 -0.001253685 -0.04865249
0.036504354 0.07466222 0.049413316 0.08407282 0.08017634 -0.052666206 -0.012943286 0.035903674
-0.10541561 0.078180246 -0.093607515 0.0843229 -0.06977294 0.005245634 -0.08286986 0.09559356
-0.020733466 -0.07561378 0.0014715976 0.08479265 0.04669281 0.008622237 -0.037154537 -0.015286911
0.09463846 -0.035392415 0.037636604 0.004953949 -0.08713957 -0.043764453 0.10582433 -0.028885337
-0.08447064 0.06341349 0.009595911 0.053593863 -0.09237249 0.034174107 -0.065565005 0.03758439
0.04882685 -0.06801931 0.036134712 0.088919766 -0.024158023 0.04259367 -0.096418254 -0.0033319131
0.0128883915 0.04482765 -0.027593449 -0.05625559 -0.09177429 0.039272927 0.07729167 -0.030843295
0.022254482 -0.0010814954 0.06500555 0.037007414 0.06876421 -0.08130604 -0.01380661 -0.024816014
-0.071617156 -0.09056358 -0.040913347 0.041825984 -0.028175492 -0.03196805 -0.072443254 -0.013306482
-0.023367766 0.09673261 0.05057807 0.053644057 -0.07557183 -0.03790054 0.063474 0.030076558
-0.009705992 -0.009395251 -0.016291898 -0.06887706 -0.08575332 -0.05875348 0.07020961 -0.06820654
-0.06691875 0.03777993 -0.05524933 -0.01265987 0.07569225 -0.071070455 -0.093796045 -0.061323155
-0.015339944 -0.06987474 -0.0723881 -0.07334142 -0.037774585 0.05578896 0.014424013 0.06440031
-0.07404212 -0.022347707 -0.08843738 -0.043872323 0.027530922 0.05086217 -0.00044832364 -0.075588085
-0.05365508 -0.009411488 -0.09331551 -0.022649195 -0.040966205 0.02691829 -0.044133876 -0.06020744
0.062395472 -0.08416597 0.06979077 0.022039821 0.042015564 0.09625075 -0.039074473 -0.09948248
-0.101764075 0.0026771198 -0.0034352834 0.025724605 0.034231283 -0.04944284 -0.052781187 0.07317235
-0.021015957 -0.06016373 0.004618479 0.0160602 0.033079445 0.0023921905 0.084842615 0.09258287
-0.025468586 -0.023437534 -0.00016970473 0.027075876 -0.037161216 -0.012861858 0.02604839 -0.02027695
0.063675284 -0.014376717 0.045133192 0.081702 -0.030278025 0.009768489 -0.057175852 -0.01188712
-0.050502535 0.050214533 0.083231986 0.0717958 0.035546523 0.05447268 -0.018969998 0.028385855
-0.04783175 -0.07438665 -0.06504289 -0.039146643 -0.070181146 -0.104836635 -0.016581938 -0.06807398
0.094386145 -0.103396855 -0.021152979 0.00074091734 0.061571687 0.042887535 0.007901203 0.035544842
-5.8592785e-05 -0.067514345 0.085321695 0.031301368 0.07386228 -0.044378236 -0.032725237 0.058123536
0.090616606 0.08018964 -0.027726011 -0.052252088 -0.04633742 -0.038668446 -0.037207805 -0.05583529
-0.015054517 0.094884686 0.015367567 -0.09517321 -0.08614921 0.05942151 0.09029276 0.10514318

enc_p.lstm.bias_ih_l0 f4 [384]
00000000: 73ab 983d 2b7b 473c 551f b53d 66b7 093d
00000010: a9f9 a63a 3b69 5fbd 19cd 9dbd c560 a23d
00000020: 0aca 153d ede7 7fbc 7583 1fbd 0c3f a13c
00000030: cf27 65bd 4df3 923d ff56 8fbd 4378 3dbd
00000040: 8ae0 79bd 3ce1 ab3c ce7d a53c d790 72bd
00000050: 914b 8e3d 52d1 b83d d5bc a6bd 6269 9b3d
00000060: 89c6 c73d 1233 8dbc 9c7e dfbc c0ee dc3c
00000070: 1aa6 3c3d 52df 113d 251e 123d db9f 213d
00000080: 6cf4 5c3d dbc1 27bc d145 003c c2f0 a2bd
00000090: b9e7 07bd fe03 bfbd 2c5c 1e3d dc7d 90bc
000000a0: 293a 433d 9266 29bd 4f10 a83b bc47 ba3d
000000b0: e12d 2bbc 27cf 003d bdb3 05bd dfdf 803d
000000c0: cf3f 103d 03cd a03d 502d b93d 9449 49bd
000000d0: e7a1 1c3c 44cb 08bd 4c25 8abc 61bc 813d
000000e0: d2f7 be3d ffd4 85bc 80bd 84bd 457d eabc
000000f0: 385e aebc 8776 bd3d 8207 c0bc 9944 08bd
00000100: 6cfb b9bd 9e15 8a3d 0d9f 63bd e4ce c8bd
00000110: 5b27 9f3c 6049 1b3c ef82 8bbd 5f99 153d
00000120: 7b0d 2cbd 5c0f 8d3c 44a9 8eba 6062 9fbd
00000130: 9283 8c3c 13b5 483b c051 d63d 871f 89bd
00000140: d391 0c3d 8f93 85bc fc25 c0bc 9030 b9bd
00000150: 4b2e 8bbb d779 eb3c e1d1 68bb 098e 6c3d
00000160: 5127 96bd 66ff cebd 7fe2 44bb 5236 77bd
00000170: 031c 2cbd a0f4 b8bc 5e27 7dbd 8820 853c
00000180: 86db bcbd 4399 f1bc 7235 37bd 444f 8e3c
00000190: 5d91 a93d 5946 73bd 0583 7dbd 755e 5a3d
000001a0: c559 ddbd ee99 043d 66cf 5dbb acdc c13d
000001b0: 2e29 bfbc 5e7b adbd b71f 93bd d38d 9dbd
000001c0: a9e8 abbd 94ad abbd 61b5 bd3c 2ab7 4e3c
000001d0: 567d be3d 927b ffbc 11ec 583c 55ad 31bb
000001e0: 3e78 c73d cfe2 9ebd 4739 503d 7642 c43d
000001f0: 48b0 0f3d c134 04bc 855c 3fbd 4019 733c
00000200: 218a 163d 6e94 e73c 3b29 bbbd 2a68 833d
00000210: dfd2 a2bd c772 c93d e523 4fbd 962b 083b
00000220: da04 53bd 92c0 73bc 121c 89bc f09a 773c
00000230: 3f91 93bb 7570 953b c31e 923d c98e a23c
00000240: 8ab2 823d 19c5 9cbc 0f05 d33b 8351 97bd
00000250: 4675 213d 0d19 5b3c d183 55bd 67df 853b
00000260: 0dc1 9abd ce1c d93b 92fc 6dbd bd0a ac3d
00000270: 838b 98bc 08bb 91bc 2d15 b8bc ee1f 883c
00000280: 3bf3 f5bb 619c cebd 6482 773c ae40 61bd
00000290: 7c88 623d 4278 02bc 27a1 303d 23e0 263d
000002a0: 5192 ccbd 600b 9bbd be7e 173c 249a 0c3d
000002b0: f3fa b03d 3fd6 ba3d db83 903c 6689 903d
000002c0: d244 473d 6a89 ccbd 9448 2db9 b7a4 a23c
000002d0: f9ca d93c 88d0 2a3b 09ab b13d 0dd5 b5bc
000002e0: 749b 57bd a264 9f3d 5a67 c0bd d4b6 863a
000002f0: bf42 c7bd 541e a73c 7f29 3bbd 7708 8c3d
00000300: 7da7 be3d 345d 9fba 89c6 863c 5194 b0bd
00000310: 89dd 71bc a84d 27bd ecc6 0fbc b767 b83b
00000320: bd25 a63d cbdd 1ebd a44b 2c3d 0c43 403d
00000330: d9da 10bd 52a5 8bbd ffc7 913c add6 813d
00000340: 2996 35bd f4af c7bd 08d7 4bbd 83c4 213d
00000350: d0b0 10bd a913 c5bd cdaa a2bd 05b8 7dbd
00000360: cf1c 423d c097 6dbd ddff cfbd 0721 a6bd
00000370: 22e5 a1bd 613e 35bd b20c 81bc f777 5abb
00000380: 08c6 473d 4b24 72bd e6a2 cf3b 0b7f 903d
00000390: 1dab 0dbd 849d 37bc 8333 cfbd 3f08 533d
000003a0: b5dd 2dbd 442a 0cbd f4c9 82bc 0f54 57bd
000003b0: 187d a3bd 61fa 0a3c c8f0 a83d adde 463d
000003c0: 54b3 37bd f248 2e3d 1779 663d 6e3c 523c
000003d0: 8598 c33d c540 3d3d 2eee 5fbd 2553 f4bc
000003e0: 3e24 bcbd 8219 03bd 2853 c93c 7e84 80bc
000003f0: 2ac7 78bc 4982 c5bc b950 c33c 99a7 a63d
0.07454576 0.012175362 0.08843867 0.033622168 0.00127392 -0.054543715 -0.07705135 0.079286136
0.036569633 -0.01561926 -0.038943727 0.019683383 -0.055946168 0.07175312 -0.06999015 -0.04625727
-0.061005153 0.020981424 0.02020159 -0.05922016 0.06948007 0.090243 -0.081414856 0.075884596
0.097546645 -0.017236266 -0.027282052 0.026969314 0.046056844 0.035613365 0.03567328 0.03945909
0.053944036 -0.01023909 0.0078291455 -0.07956077 -0.033179972 -0.09326933 0.03866212 -0.01763814
0.047662888 -0.041357584 0.0051288973 0.090957135 -0.01044795 0.031447556 -0.032642115 0.062927
0.035217103 0.07851603 0.09041846 -0.049142435 0.009560085 -0.033396974 -0.016863488 0.063347585
0.09324612 -0.016336916 -0.06481457 -0.028624186 -0.021285161 0.09251123 -0.02344108 -0.033268545
-0.09081158 0.067424044 -0.055571605 -0.09805086 0.019427946 0.009477943 -0.06812083 0.03652322
-0.042005043 0.017219238 -0.0010884185 -0.077824354 0.017152581 0.0030625507 0.10464811 -0.066954665
0.034318756 -0.016305713 -0.023455612 -0.09042466 -0.004247462 0.028744621 -0.0035525488 0.057752643
-0.07331718 -0.10107307 -0.0030042229 -0.06035454 -0.0420189 -0.022577584 -0.06180512 0.016250864
-0.09221558 -0.029492026 -0.044728704 0.017371781 0.08279679 -0.05939326 -0.061892528 0.053312737
-0.10808138 0.03237336 -0.0033845543 0.09465918 -0.023335066 -0.08470796 -0.071837835 -0.076930664
-0.08393986 -0.08382717 0.023157777 0.012616912 0.0930125 -0.031186853 0.013239876 -0.002711137
0.09739731 -0.07758104 0.050835874 0.09582989 0.035080224 -0.008069218 -0.046719093 0.014837563
0.036752824 0.028269019 -0.091387235 0.06416352 -0.07950377 0.09836345 -0.05057134 0.0020777932
-0.0515183 -0.014877455 -0.016737018 0.015112624 -0.0045033987 0.004560525 0.071347736 0.019843476
0.0638171 -0.019136952 0.006439812 -0.07388594 0.03941848 0.013372672 -0.052127663 0.0040854695
-0.07556353 0.0066257482 -0.058102198 0.08400486 -0.018621212 -0.017789379 -0.022471035 0.016616788
-0.007505802 -0.10088421 0.015106771 -0.054993324 0.055305943 -0.007963242 0.043122437 0.040741097
-0.09988845 -0.07570529 0.009246526 0.034326687 0.08641615 0.091228954 0.017640999 0.07057457
0.048649617 -0.09987147 -0.00016525603 0.019853933 0.026586043 0.0026064236 0.086752005 -0.022196317
-0.052638486 0.07782866 -0.09394713 0.0010277876 -0.09729528 0.020400204 -0.04569387 0.06837552
0.093092896 -0.0012158514 0.01645209 -0.08622039 -0.014762291 -0.040845543 -0.008775454 0.005627598
0.08112667 -0.038785737 0.042064324 0.04693894 -0.03536496 -0.06818642 0.01779556 0.06339774
-0.044332657 -0.09750357 -0.049765617 0.03949405 -0.03532487 -0.096228905 -0.07942734 -0.061943073
0.047390755 -0.05800605 -0.10156224 -0.08111768 -0.07905032 -0.044248942 -0.015753124 -0.0033335665
0.04877284 -0.059116643 0.0063365577 0.070554815 -0.034587014 -0.011206988 -0.10117247 0.051521536
-0.042447764 -0.034219995 -0.01596544 -0.0525704 -0.07982844 0.008482547 0.082490504 0.048552204
-0.044848755 0.042550035 0.056267824 0.01283179 0.09550575 0.046204347 -0.054670505 -0.029824803
-0.091866 -0.032006748 0.024575785 -0.015688177 -0.015184203 -0.024109976 0.023842202 0.081374355

enc_p.lstm.bias_hh_l0 f4 [384]
00000000: 355b 953d d92c babc c060 4abd aeb7 793c
00000010: 7209 3cbd 0adf 9b3d 93bd 673d 1954 803d
00000020: 7d3e 253c d81c 913d de7f 2dbd 413a 89bb
00000030: c6da c93c df2f 8ebd 0886 283d 1686 ac3d
00000040: 62ea 44bd 30e7 9d3c 9649 cbbc 37ee b43d
00000050: 8128 c1bd 7e44 9b3c a0e4 7abd 4fc4 71bd
00000060: 9703 95bd 355e 3a3d db83 ce3d 4834 bcbc
00000070: 0507 6cbd 0f86 b23d e0e0 82bd 2ccf 093c
00000080: 6ebc 5fbd b2e6 9d3d bfe6 1e3d b0a5 413c
00000090: e27e cbbd 1b72 7e3d 818d ad3d 0fd2 b33d
000000a0: a90a 91bc 78f6 a83d fdaf 83ba b127 503c
000000b0: 4f07 163d 3447 9cbd 7656 c5bd aed2 113d
000000c0: 0ffd 95bc 9215 3cbd 87f0 6ebd 32b4 33bd
000000d0: b4f7 8d3d e269 76bd ea67 8f3b ae60 053d
000000e0: 74e9 883d ab86 673c b27e b9bd 030c f13c
000000f0: ed37 00bc d91d cb3d b2ed b0bd af56 023d
00000100: 0574 453c 5440 84bd e1fc 303d a6fd cfbd
00000110: 5708 f93c 0034 5ebd cc78 a83d a79e b9bd
00000120: 6a55 88bd e892 b7bd ecf2 4dbd 4f24 b5bd
00000130: cd2e 8cbd 1c6c 9e3c e521 8dbc 0d3d ab3d
00000140: b0a5 a7bd a3a6 c13d 52d5 a83d 1945 603c
00000150: 97ee 2cbd da7f 6bba 47c1 f8bc ff41 5abd
00000160: 9782 f3bc 8a3d 153d b863 973d e016 9b3d
00000170: 7cd5 50bd b8c3 8a3d eb71 8b3d 8b29 b2bd
00000180: 0868 e03b b385 9bbc 5259 aebd 58e4 c3bc
00000190: 4143 9d3b cbca 4cbd 829d c83d 955a c4bd
000001a0: 04b4 193c 9eed d73c ad31 d3bc 33a6 cdbd
000001b0: 9962 283d ddd2 1d3c 2b79 dd3c d46b 9dbd
000001c0: 7f28 20bd 0aa9 05bd 439a 753c 0675 b8bd
000001d0: 6987 153d 4254 4c3d 87db 4cbc 4b24 b13d
000001e0: 00d9 e6bc 89c6 813d d639 f83c 795b f5bb
000001f0: f89e 623d 9525 783d d1c7 5bbd 9b9c 913d
00000200: 15d1 153d 0e3a a2bc b40e 883d e827 bfbd
00000210: aec6 aa3c fad2 92bc 7f65 b93d ab44 65bd
00000220: 2ed0 ae3c f396 a1bd f536 083d 6252 263d
00000230: ef07 1dbd f802 a5bd 234d 793d ea0b a73d
00000240: b110 c63c afc6 403c 5487 78bd b250 8abd
00000250: 5499 33bc 09c2 82bd abd8 733d 9b9b 75bc
00000260: 7684 01bd aa6c b73d 69b1 c2bd 077e 9b3d
00000270: 8d79 cb3d 4b1f 0bbc db0a 813d 32c4 69bd
00000280: 6dda 64bb 91a5 0dbc 9480 313d 8e2a 023b
00000290: b318 6f3b a503 c3bd 45c2 a03d 5408 2ebc
000002a0: 8cf8 2cbd 594d bc3d 9d74 d53c 622b 863d
000002b0: 62a6 33bd 06fe 66bd 3c33 c13b bdc9 fc3c
000002c0: 7722 bc3d 76f4 3cbd ce16 8bbc 5e9b bc3d
000002d0: ad4a cfbd 04d5 abbd b750 b83d 8a7a 8f3c
000002e0: 0ee1 91bd 8b55 c8ba 8f71 99bd e5f2 60bc
000002f0: f9eb bd3d ec65 963b ba7d 823c 32af 45bc
00000300: 6765 09bd 69cb c83d dac4 833d d734 fcbc
00000310: a5f2 c6bd 352f 98bc 356a 91bd 0ca6 823d
00000320: 60d5 803c d8d4 fabc 9860 613d d780 613b
00000330: 7b97 2a3d a65c 423c 5705 14bd f75f c13d
00000340: 80b8 7b3d 0f14 2c3c c46d f83c efb6 c73d
00000350: 8840 6bbd 4aae 113c 6a0f 5c3d 5c66 0abd
00000360: 07d9 9bbd 0030 a5bd dad6 0fbc 31fa f5bb
00000370: 5d20 9bbd f309 38bd bd80 e1bc d10d 8ebc
00000380: 1e51 00bd 70d0 923d 6983 813d e572 a83d
00000390: b683 ccbd 638b 93bd 11db 19bc 83ff 503d
000003a0: 92c7 5bbd cbda 44bd daa7 683d b3da 183d
000003b0: 1186 a9bd 6e91 8a3d 6d7a c8bd 0660 89bd
000003c0: b22a 423d 1997 853d 2287 a4ba ec73 c9bd
000003d0: a9e3 2fbc b100 543d 7d20 9a3d 2ef0 9e3d
000003e0: 4ae2 353c d134 7fbd 8de1 07bd f71a cabd
000003f0: 9a2c 42bd b90d f6bc e53a b33d 7ae4 02bc
0.07292787 -0.022726463 -0.049408674 0.015241547 -0.045907445 0.07610901 0.056577276 0.0626604
0.010085699 0.0708558 -0.04235827 -0.0041878526 0.024640452 -0.069427244 0.041143447 0.08424012
-0.048075087 0.019275278 -0.024815362 0.088344984 -0.09431554 0.018953558 -0.06125319 -0.059025105
-0.07276075 0.0455 0.10083743 -0.022974148 -0.05762388 0.08716976 -0.06390548 0.00841121
-0.05462306 0.07710017 0.038794275 0.011819288 -0.0993631 0.06212054 0.08474255 0.087803
-0.017705278 0.08250135 -0.0010046955 0.012704776 0.036628064 -0.076307684 -0.09635632 0.03560131
-0.018309144 -0.04591901 -0.058334854 -0.04387302 0.06932011 -0.06015957 0.004376401 0.032562904
0.06685153 0.014131228 -0.09057368 0.029424673 -0.007825834 0.09917802 -0.08639087 0.03182095
0.012051587 -0.06457582 0.043209914 -0.101558015 0.030399485 -0.05424881 0.08226165 -0.09063464
-0.066569164 -0.08963567 -0.050280496 -0.08844816 -0.06844864 0.01933866 -0.017228076 0.08361254
-0.08185899 0.094556116 0.082438126 0.013688349 -0.042219725 -0.000898359 -0.0303656 -0.053285595
-0.029725356 0.03643564 0.07392067 0.075727224 -0.050984845 0.06775612 0.068088375 -0.0869933
0.006848339 -0.018984651 -0.0851313 -0.023912594 0.004799277 -0.049998086 0.09795667 -0.0958759
0.009381298 0.026358422 -0.025780523 -0.100414656 0.041109655 0.009632793 0.027035316 -0.07686582
-0.03910112 -0.03263191 0.014990392 -0.090066954 0.03650609 0.049885042 -0.012503511 0.086495005
-0.028179646 0.06336696 0.030301016 -0.007487711 0.055327386 0.060582716 -0.053657357 0.07109948
0.03657635 -0.019803073 0.066434294 -0.093337834 0.020846691 -0.017922867 0.09052562 -0.05597369
0.021339502 -0.078901194 0.033255536 0.04060591 -0.038337644 -0.08057207 0.06086458 0.08156569
0.024177881 0.01176612 -0.060675934 -0.06753673 -0.010961849 -0.063846655 0.059532803 -0.0149907125
-0.031620465 0.08956273 -0.095064946 0.07592397 0.09935293 -0.008491348 0.06300899 -0.057071872
-0.003492023 -0.008645431 0.043335512 0.001986179 0.0036483228 -0.095221795 0.07849554 -0.010622103
-0.04222922 0.091944404 0.026056582 0.06551243 -0.043859847 -0.0563946 0.005896 0.030857915
0.09186261 -0.046131574 -0.016978648 0.092093214 -0.10121665 -0.08390239 0.0899977 0.017514486
-0.07123004 -0.0015284283 -0.07492363 -0.013729786 0.09273524 0.0045897868 0.015929092 -0.012065696
-0.03354397 0.098044224 0.06434031 -0.030786915 -0.097142495 -0.018577198 -0.071003355 0.06379327
0.015726745 -0.03061907 0.05502376 0.003440907 0.04164837 0.011862909 -0.036137905 0.09442132
0.06145525 0.010502829 0.030325778 0.09751689 -0.05743459 0.008891651 0.053725637 -0.033789024
-0.07609754 -0.08065796 -0.008779252 -0.007506632 -0.07574532 -0.044931363 -0.027527208 -0.017340573
-0.03132736 0.071686625 0.063238926 0.082250394 -0.09986059 -0.0720432 -0.009390608 0.051024925
-0.053657122 -0.04806022 0.0568007 0.037317943 -0.08277524 0.0676602 -0.09788976 -0.06707768
0.047404 0.0652296 -0.001255248 -0.098365635 -0.010735431 0.051758472 0.07525728 0.077606544
0.011101315 -0.06230623 -0.033174086 -0.098684244 -0.047405817 -0.03003584 0.087514676 -0.007989043

enc_f.lstm.weight_ih_l0 f4 [384, 4]
00000000: 6cfd 293d 78b9 53bd fea6 f5bb 7a22 81bd
00000010: 3f73 8dbd 1a56 233d caac a0bc ba20 0ebc
00000020: b8ec b7bd 7011 203c e2ba 8f3d 4dd6 f33c
00000030: 32b8 56bd 46d0 3e3d 9204 cb3d d198 623d
00000040: b10a 6d3d e041 a63d 1552 0dbb 0c69 12bb
00000050: a66f 613d b5f2 463d 244b b6bd b17d 2b3d
00000060: 04f4 94ba 6a6d 9fbd 84fa 90bd 192f a53d
00000070: 10f6 b1bd f1c2 bc3d ac20 bebd 8781 21bd
00000080: e5f5 783c cacc a2bd 2ab5 9c3b 1d79 58bd
00000090: d9b7 dabb 0e86 943d 8a8d c33c d5a3 11bd
000000a0: 1b54 64bd be78 90bc e3b3 143d 77ab ca3d
000000b0: 274b 803d f935 a63d 36ca f33c 4673 863d
000000c0: 1dd7 83bd f90e bd3c e5bc cd3d 851d 003d
000000d0: 1072 b4bd a448 90bd 9626 4e3d d3f5 813b
000000e0: 6242 983d 29f9 59bc ef72 11bd 45f4 d2bd
000000f0: a6fa 243d 09d1 83bd 1418 9b3c c411 cb3d
00000100: 4468 7d3d 98c0 b63d 3202 86bd baea 073d
00000110: e213 15bd 9c03 84bd cda6 953c 30d3 503d
00000120: 4d52 18bb e18d 463d 5c60 4abd d01e a3bd
00000130: 4a67 b8bd ed63 733d dc0b 8f3d 026e bfbb
00000140: aad5 dc3a 9e1f 9e3c c398 80bd a00a 133d
00000150: e0cb 71bd c900 013d 96f8 643b e88e 39bc
00000160: eaa7 fb3b 7204 0fbd d407 f6bc cf14 943d
00000170: eea3 9abd ab9d 7c3d 623a d3bd d2ec 0dbd
00000180: ce74 55bd bfe8 6c3d d483 c03d b5a9 c03d
00000190: 145a c83d 7a32 a8bd 9e33 4a3d bd1a 93bd
000001a0: aef1 f7bc 129d 743d d607 be3d 75ea c83c
000001b0: 0802 553d 5160 393d df02 4dbd 5192 1cbd
000001c0: 4587 3fbd 0a20 babd e157 953d 2dea 9bbd
000001d0: 6ea7 5b3b 878e 9c3d 1f50 373d fe92 e83c
000001e0: a81b 3e3d 59ec e2bc e9e8 98bd 5888 c2bd
000001f0: 2883 49bb 26eb b23d ee26 9bbd 82e7 623d
00000200: 2339 98bc f930 8d3d 4dfe 07bc 935e 5bbd
00000210: b6fa 893d 5977 dfbc 507f aa3c 2b56 c3bd
00000220: f0fc 2dbd 6f59 b33d 8e97 8c3c 0322 2d3d
00000230: 9ad8 ee3c fc24 c63d 78ba bd3d 485d 8c3d
00000240: 015e 543d 1a6c 103d 34bc b13b 206a b83d
00000250: 1f38 74bd 8e12 f73c 42a6 b7bc 7eac cf3d
00000260: ef12 c6bd 05be 5f3d 6c1b 1f3d c68c 6abd
00000270: 7487 513d 922d bc3d 04f0 abbd 2e4f 71bd
00000280: 2b96 4dbd e3d3 5dbd d2d5 9a3d 5bd9 02bd
00000290: 9bd1 87bd 3b16 aebd 117f 5b3d 4ef6 bdbd
000002a0: 661a 473c 338a 8fbd 6831 bfbd 6153 00bd
000002b0: b8dc 08bc a6f5 1ebd 5f20 7dbd 5b67 923d
000002c0: 8f8d 913d 4e25 32bd 990b 1abd 932e 42b9
000002d0: 5c2f c7bd 0a80 44bc de90 673c 3d8e b83d
000002e0: e6e7 b0bd 260c 77bc a73d b3bd cf0e c8bd
000002f0: a5d5 c83c 98f1 65bd cd8d 6a3d fde6 c8bc
00000300: f8ba 933d ad81 f63b b24e 96bd d9ea 9c3c
00000310: 9225 963c dc8c 3bbd 9047 8ebc 2ffd 043d
00000320: 0473 e83c 6231 473c 9478 a63d d31a 3e3d
00000330: d39e 2f3d 1ba6 83bd 705b a3bd 8a78 5c3c
00000340: ee8e 80bd dbc4 fb3c ff87 5dbc 3520 29bd
00000350: 9ec2 2c3d f718 71bd d85a b9bb 0951 fd3a
00000360: eb4b c4bc 5951 9f3d c783 1b3d 2f0f 6c3d
00000370: 0895 853d ad55 943d d04e 41bd 3ccc bbbd
00000380: 33cd 303d 9492 4fbd 2cab ef3c 22d8 c63d
00000390: e4a1 b9bd f0a1 963d c60a 5d3d 9792 95bd
000003a0: a6f1 bebd 9ae0 be3d 1a65 c53d 65af be3d
000003b0: 6712 98bd 735a 4ebd 36e6 033c 7d64 70bd
000003c0: d6aa 15bd 4bbe c7bd 8037 78bd b411 fc3c
000003d0: cc54 cabd 3902 4e3d 511a 7e3c 5264 993d
000003e0: 9bd4 16bd 270a 38bd 2662 eebc cf75 82bd
000003f0: a5d2 4a3a 7426 a8bd 5105 cc3d 42f6 e83c
0.041501448 -0.05169055 -0.0074967137 -0.06305404 -0.06906747 0.039877035 -0.019613642 -0.008674795
-0.089806974 0.009769782 0.07018067 0.029765273 -0.052421756 0.046585344 0.09912981 0.05532152
0.057871524 0.081180334 -0.0021563817 -0.0022340445 0.055038117 0.048571307 -0.08901051 0.041867916
-0.0011364226 -0.07784541 -0.07079032 0.08065624 -0.08689511 0.092168696 -0.092835754 -0.039430168
0.015195345 -0.07949217 0.0047823386 -0.052849878 -0.0066747484 0.072521314 0.023871202 -0.035556633
-0.05574427 -0.0176357 0.036304366 0.098959856 0.06264334 0.08115763 0.029759508 0.065649554
-0.06437514 0.023078429 0.100457944 0.031278152 -0.08810818 -0.07045105 0.050329767 0.003966072
0.074345365 -0.013304033 -0.03551 -0.10300497 0.0402781 -0.06436355 0.01893238 0.09915498
0.061867014 0.08923453 -0.065433875 0.033182837 -0.036395915 -0.06446001 0.018268013 0.050982654
-0.0023242414 0.04847515 -0.0494083 -0.079648614 -0.09004076 0.05942147 0.06984684 -0.0058419714
0.0016848345 0.019302186 -0.06279137 0.035898805 -0.05903232 0.03149489 0.0034938208 -0.011325575
0.007679929 -0.03491635 -0.03003303 0.072305314 -0.07550798 0.0616738 -0.1031387 -0.034649678
-0.052113347 0.05783915 0.09400144 0.09407369 0.09782806 -0.08212753 0.049365632 -0.07182834
-0.030266609 0.059720106 0.09278838 0.02452586 0.05200389 0.04525787 -0.050051566 -0.038225476
-0.046759862 -0.09088142 0.07292152 -0.07613025 0.0033516544 0.076443724 0.044754144 0.028390404
0.046413094 -0.02770059 -0.07466299 -0.09498662 -0.0030748341 0.08736257 -0.075757846 0.055396564
-0.018581932 0.068941064 -0.008300376 -0.05355699 0.067372724 -0.02727859 0.02081266 -0.095379196
-0.042477548 0.087572925 0.01716211 0.042268764 0.029156018 0.09675023 0.09264082 0.068537295
0.05184746 0.035259344 0.005424047 0.09004617 -0.059623834 0.030160215 -0.022418145 0.10140322
-0.0967158 0.054624576 0.03884451 -0.05726316 0.05115457 0.09188379 -0.08395389 -0.058913402
-0.05019204 -0.05415715 0.07560314 -0.031945568 -0.06631776 -0.08500334 0.053587977 -0.092754945
0.01215229 -0.07008781 -0.09335595 -0.031329516 -0.008353405 -0.038808487 -0.06179845 0.0714862
0.07107078 -0.043492608 -0.037608717 -0.00018518632 -0.0972583 -0.0119934175 0.01413366 0.09011505
-0.08637981 -0.01507858 -0.087519936 -0.097684495 0.024515936 -0.056138605 0.057264138 -0.024524206
0.07213396 0.007522783 -0.07339229 0.019154953 0.018328462 -0.04578863 -0.017368108 0.032468017
0.028375156 0.01215777 0.08128467 0.0464123 0.042876076 -0.064281665 -0.07976425 0.013456473
-0.06277262 0.030733516 -0.0135211935 -0.04129048 0.04217779 -0.0588617 -0.0056565814 0.0019326519
-0.023961982 0.07779188 0.03796747 0.057631668 0.06522566 0.07242904 -0.047194302 -0.09169814
0.043164443 -0.050676897 0.029256426 0.09709193 -0.09064081 0.07355106 0.053965352 -0.073033504
-0.093234345 0.09320183 0.09638424 0.093107976 -0.07425385 -0.050379228 0.008050492 -0.058689583
-0.036539875 -0.097530924 -0.060599804 0.03077016 -0.09879455 0.05029509 0.015509204 0.07489838
-0.03682385 -0.044931557 -0.029099535 -0.063701265 0.0007737077 -0.08210459 0.099619515 0.028437737

enc_f.lstm.weight_hh_l0 f4 [384, 96]
00000000: 699f 1dbd e1fe 76bb 1e38 a43d 5e2f 3cbc
00000010: 4da2 54bd 3af3 723d 8309 773d 7473 86bc
00000020: d151 193c d5d9 44bd 99b1 043d 87e8 603d
00000030: 1ddb 863c bae6 673d 4e24 02bc 3ffd 2f3c
00000040: f359 cabd 2fda 4bbc e501 82bd 375c 763d
00000050: cc3d c23d 89d4 44bd 15b1 d03d 4db0 5ebd
00000060: bf45 bebd 19f6 9a3c 6950 c73d 444b 083d
00000070: d520 6dbd 8462 c1bd 1fa3 8f3d e8a8 77bd
00000080: a346 843d 61a6 4fbd 4741 303d 328a 9a3d
00000090: a15e c53d fa5d 34bd 5618 d53d a646 82bd
000000a0: 102c f4bc 58ba 8ebd 0769 34bd e4a8 08bc
000000b0: cd81 ae3d 6e7d c3bd 910e 90bd 4976 08bc
000000c0: baf6 acbd 12a7 b7bd 78a4 c6bd 7661 6a3d
000000d0: b61e 813b 6028 a53d 4234 9bbd db5c 9a3d
000000e0: 4757 9abd 2fa5 b63b 23b8 b8bb 00d4 d73c
000000f0: ffba 4f3d 83fa d2bd bae7 62bd 8494 b9bd
00000100: 1f05 4dbb aafe a33d bf69 be3d 7218 a03d
00000110: dfd7 6bbd b11d ccbd d421 4e3d a731 15bc
00000120: c464 7e3d 2833 1dbc 4a53 cbbd 57da 90bb
00000130: 9ff0 a03d 26c1 903d bed6 54bd d643 44bd
00000140: 95ed a6bd 739a b7bd dcdf dbbb c29d 643d
00000150: ac09 8abd 4f7f 90bd 0efb c8bd ea2f 9abd
00000160: 3044 c73c 7710 b43d 8508 aabd 9a19 8cbd
00000170: babd 40bd 7ba2 7a3d 5350 c33d 14fa 2bbd
00000180: 41ad cfbb 0dc4 6dbc b17a d3bd c6a2 a9bc
00000190: 8f68 2ebc 438d 3abd ec32 c7b9 ed1a 6b3c
000001a0: 8cf0 843d 00bc 2cbd 53af a63d 88d2 a2bd
000001b0: c49a 99bd 2518 a03c 05cb 353d 8c43 e33c
000001c0: c983 6e3d 62ac 73bb 6c9e 55bd f036 aabc
000001d0: 1e90 9c3c 5d4e c03d 88bb 453d e474 a2bd
000001e0: 14b3 c23d 3062 a93c 66cc e4bc dd60 babd
000001f0: 608e ddbc ba17 57bc 65e0 f0bc 1730 95bd
00000200: f9f2 dbbb 92ff 44bd f6f2 10bd 626f 6bbd
00000210: 0c9b 6f3c 4e5f e23b c864 8bbd d0b9 d8bc
00000220: 2aac 933d 75d4 833c 8628 1a3d 9710 25bd
00000230: 8cb7 5f3c da3c 8cbb e6bf 883c a3b0 813d
00000240: 9995 0ebc b159 cabd c864 eb3c b63c bbbd
00000250: 848c f1bc 20d1 7abd 5de5 0bbd a183 943d
00000260: 3aff b4bd a137 7fbd d70f 9abd 856b 91bd
00000270: 7b88 d5bc 7836 a63d daf2 0bbd 04e8 423d
00000280: 11d8 cdbd 7021 55bd 3be8 98bd b9d4 3cbd
00000290: b845 b7bc 4556 58bd eb1f 373d 726f ce3d
000002a0: 3948 f1b8 e6c8 813d 10eb c0bd ab2e f73a
000002b0: f1b5 c53d 5eb2 8fbc 74d7 053d a7ef 40bb
000002c0: 8704 84bd 903e c73d 830e 89bd e0dc 693d
000002d0: c6bc 40bd 9d80 b8bc a5e5 c33b cad6 64bb
000002e0: c78c 81bd 3fc5 163d a932 4a3d f787 1d3d
000002f0: abbf d8bb f7f7 263d 01b0 443d d091 583d
00000300: 9f6b e13c a324 84bd 8900 973b 1b44 6abd
00000310: c9d3 a83d 27c3 13ba a162 b93d cfca 773d
00000320: 1318 a03d 8495 41bd 97db 623d 8db1 9a3d
00000330: d90d 3d3d c366 91bd 5e1c 0f3d 0263 9fbc
00000340: a36d d33b 756e b73c 9310 c6bc a01b 36bc
00000350: b894 e5bc 1b60 68bd fc67 0abd d7dd a93b
00000360: 5a2a 4b3b 107a 88bd 7303 b0bd e90c 9abd
00000370: ed55 7a3d 5a6a 3abd 45fd fcbc 1d7f a73d
00000380: 1f27 4a3d 7056 973c 9c12 dabc f865 803d
00000390: 691f a63d dd23 cebd da60 a0bd 7ca2 5d3d
000003a0: ff00 c9bd 977c 7fbd edbc c5bd c5e4 54bc
000003b0: fafb b4bd ec50 463d 4c0e 703d 3072 8d3d
000003c0: 6ab4 aabd 0064 0bbc c66b aabd fc8f 9a3c
000003d0: 4e4a d13c 6779 5bbd 0941 4c3d d41f 3cbd
000003e0: d70c 20bd 93b8 363d a26a f23c 9729 bd3d
000003f0: 83c7 173d bf16 053d d73b 5ebd 0ac9 bcbd
-0.038482103 -0.003768854 0.08018516 -0.011485903 -0.051912595 0.05931399 0.060311805 -0.016412474
0.009357885 -0.048059303 0.032395933 0.054909255 0.016461903 0.056616522 -0.007943226 0.010741531
-0.09880438 -0.012442156 -0.063480176 0.060146537 0.09484443 -0.04805425 0.10190026 -0.054367352
-0.09290647 0.018916177 0.09732134 0.033274904 -0.05789264 -0.094426185 0.07013535 -0.060463816
0.064587854 -0.05069578 0.043031003 0.0754589 0.0963719 -0.044034936 0.10405032 -0.06361131
-0.029806167 -0.06969136 -0.044045474 -0.008341048 0.08520851 -0.09545408 -0.07034028 -0.008328983
-0.08445497 -0.08967413 -0.09699339 0.057221852 0.0039404286 0.080643415 -0.07578327 0.07537242
-0.07536178 0.0055738906 -0.005637185 0.026346207 0.050715443 -0.103016876 -0.055396773 -0.0906153
-0.003128357 0.08007558 0.09297513 0.078171626 -0.057578918 -0.09966601 0.05032523 -0.009106076
0.062107816 -0.009594716 -0.099279955 -0.0044205594 0.07858395 0.0706809 -0.051962607 -0.047916256
-0.08150784 -0.08965006 -0.0067100357 0.055814512 -0.06740126 -0.07055532 -0.0981351 -0.0752867
0.024324507 0.08792203 -0.08302406 -0.068408206 -0.047055937 0.06119011 0.09536805 -0.04198654
-0.006337792 -0.014512074 -0.10326136 -0.0207075 -0.010645046 -0.045544874 -0.00037994178 0.014349681
0.06491193 -0.04217148 0.08138909 -0.07950312 -0.07500222 0.019542763 0.044383068 0.02774217
0.05823115 -0.0037181606 -0.052153036 -0.02077815 0.01911169 0.093899466 0.048274547 -0.07932451
0.09506813 0.020676702 -0.027929496 -0.091005065 -0.027045429 -0.013128215 -0.029403875 -0.07284563
-0.006712314 -0.048095293 -0.035387956 -0.05747927 0.014624368 0.006908334 -0.06806332 -0.02645579
0.07210572 0.016092518 0.037636302 -0.040299024 0.013654601 -0.004279715 0.016693067 0.06332519
-0.008702659 -0.098803885 0.02873458 -0.09142439 -0.029485948 -0.061234593 -0.034154285 0.07251669
-0.08837743 -0.06230891 -0.075225525 -0.07100586 -0.026066056 0.08115858 -0.03416715 0.04758455
-0.10050977 -0.05203384 -0.074661694 -0.046101306 -0.022372112 -0.052816648 0.044708174 0.1007985
-0.00011505228 0.063371465 -0.094198346 0.0018858513 0.09653843 -0.017541107 0.032676175 -0.002943972
-0.06446176 0.0972873 -0.06692221 0.05709541 -0.04705503 -0.022522265 0.0059783035 -0.0034918063
-0.06325679 0.036809202 0.04936472 0.038459744 -0.0066146455 0.04076382 0.048019413 0.052873433
0.027517138 -0.064523004 0.004608218 -0.057193857 0.0824352 -0.0005636685 0.09052015 0.060496148
0.07817092 -0.04726173 0.0553852 0.075533964 0.046155784 -0.07099678 0.034939162 -0.01945639
0.0064522787 0.022391537 -0.024177825 -0.011114985 -0.028025016 -0.05673228 -0.033790573 0.005183916
0.0031000585 -0.066639066 -0.08594408 -0.07521994 0.0611171 -0.04551158 -0.030882487 0.08178542
0.049353715 0.018473834 -0.026620202 0.06269449 0.0811146 -0.10065434 -0.07830973 0.054110035
-0.09814643 -0.062374678 -0.09655175 -0.012993996 -0.08837123 0.048417017 0.058607385 0.06906545
-0.083351925 -0.008507729 -0.083213374 0.018867485 0.025548127 -0.053582575 0.04986671 -0.04592879
-0.039074745 0.044609617 0.029591862 0.09236448 0.037055504 0.032492395 -0.054256286 -0.09218033

enc_f.lstm.bias_ih_l0 f4 [384]
00000000: d3b4 b63d fa2f 6e3d be7f 9b3c 8971 733d
00000010: f3a8 56bd 3ad7 bc3c 318e f93c 8d14 b0bd
00000020: 6b82 7639 07a4 40bd 7dcd 40bc 5cbf c6bb
00000030: 15b7 e73c a406 543c 0f7e c0bd 8f6b 9cbc
00000040: 1a13 3dbc cd06 95bc 53cc 9d3d 5e74 b63d
00000050: dbca 963d f2f2 61bd 0a28 14bd a611 b9bc
00000060: 4094 cabd a5a4 923d 4baa bc3d 4443 943a
00000070: a612 6f3d a27a ddbc 1dfc 9e3d 8b14 693d
00000080: a740 433d facb d83c b0b3 0d3d 15f5 1abd
00000090: e053 a03c e685 8ebd 278f 6abd 7b10 8abd
000000a0: 2360 ce3d acd6 5ebd 5789 aebd 7da2 2abb
000000b0: 382c cfbd eca2 c9bd c01b 4fbd 8348 b9bc
000000c0: 2f1e e9bc c699 773d 8201 93bd 35cc 0a3d
000000d0: f354 1c3d d6d0 5f3d 37a7 bc3d 996e d03d
000000e0: 0715 1fbb 622e c73d 0118 8fbd 0c93 3b3d
000000f0: 7337 6abd 7741 dd3a 943e a23d 9948 c03d
00000100: 88e0 3c3c 746c 1abd 3b18 2cbd 8910 26bc
00000110: d2c8 5e3c 05d2 0dbd 012f b6bd a6b8 9cbd
00000120: 0f5d abbd 1d28 83bd a7ad bb3d a67e 09bd
00000130: 69fb 443d 4c1d 8cbb 9907 c5bc e021 c43d
00000140: 7695 efbc a604 053d 6e1e c5bd 7bf5 15bd
00000150: fdad b53c 2a29 5d3c 2fe9 bf3d 6afc 37ba
00000160: 7d2a 60ba 9af3 903d c960 a4bb a28a a43d
00000170: c8be c9bd c007 81bd 1e93 bbbc fc36 a63d
00000180: e943 2d3d 5795 c03d 80e6 793d 8e93 4d3c
00000190: 9cc6 39bd 3b0d be3b 62b8 82bd 71ea 50bd
000001a0: e4d5 843d a541 abbd eb07 b8bd 0837 3a3d
000001b0: c8b9 44bb 9a75 85bd b98d 35bc e213 713d
000001c0: 14be 07bc 2c8d a93c 3876 22bd ebfc 93bd
000001d0: 3ceb 093d f42f 8bbd 63c2 963d 25cd 5d3d
000001e0: c5cd 12bd bc0a 0a3c 3d3f b4bc 3afc a53d
000001f0: 9804 1dbc 8537 ac3d beef a7bd f9bc 843d
00000200: 3c3f 153d a32e 923d 6751 923d 8bdf a0bd
00000210: b717 ca3c 1ec6 5fbd 56f2 8a3c aec3 8f3d
00000220: ed94 70bd 5f27 54bd 7f12 91bc f3f6 17bd
00000230: 08c3 2bbd bc3b 42bd d485 193d 0079 853d
00000240: 261a 8cbd ea18 90bc fd8f bb3d 43e0 49bc
00000250: 5c97 39bd 36ca b7bc 2cc3 b5bb 4bac c7bb
00000260: fd6f bebd 5d29 543d d48b 04bd 3ae7 b7bd
00000270: c66e 683a 6e30 c3bb dc5a 363c 6dd9 343d
00000280: 251a cbbd e596 68bd 12d4 bebd 3912 a13d
00000290: fa64 39bd fffd b93c 6262 ca3d d81c 2fbd
000002a0: 67e4 b0bd 745e 9bbd 92f9 a9bd fe57 9b3d
000002b0: 6ca5 ecbb 1901 813d 8dab 75bd 6c5a 79bd
000002c0: c57f bdbb 3e2b 92bb 0ce6 9abc ff04 453d
000002d0: f404 a23d b816 a2bd 7684 a7bc 99e5 8c3d
000002e0: 0daa 6d3d 987f 313d fddf 78bd 3005 92bd
000002f0: 5dd6 c5bc 016d d4ba 053d 9a3d 3f31 39bd
00000300: a98d c3bd ee50 883d 396e c13c f5cb 95bd
00000310: b942 2cbc 9c30 4abd 1999 c2bb 3f77 c3bd
00000320: 3e86 8bbd 03e0 c7bc a77e d43d c6c6 bbbd
00000330: 634c 313d d75a d1ba a6df cfbd 9058 e23c
00000340: 3987 6cbd e865 a53d 37c0 a4bd 2f6a d1bd
00000350: 3c7f 7f3d caa7 373d fa47 bb3d f761 c43d
00000360: ae5a 89bd 5774 71bd 31cb aa3d 410d 173c
00000370: 8d21 9bbd 9964 b9bd 2b8f 01bd 01cf 753d
00000380: a578 00bd 97bc 693d 010b cf3c a049 573d
00000390: 51c0 0a3c 558c 4bbd 975f c7bd 1139 59bd
000003a0: 757c 2d3d 3b7b 43bd 2ce7 903d 4ad3 85bc
000003b0: a162 b1bd 5db5 163d fc6e 613d 2f55 783d
000003c0: 7b3f 85bd 61ad 25bd 0ee2 90bd 5984 aebd
000003d0: 21fd 963d 2e7f 1abd 85f8 5a3d 0645 b4bd
000003e0: 677a 80bc 2a73 a73c 380d 17bd d9e2 abbd
000003f0: e9fb 9bbd 8484 353d fb1e d2bd b79c 0a3c
0.08921208 0.058151223 0.01898181 0.059434447 -0.052407216 0.023051847 0.03046331 -0.0859767
0.00023508973 -0.04703143 -0.011767742 -0.0060652923 0.028285543 0.012941036 -0.09399044 -0.019094257
-0.011540199 -0.01819172 0.077049874 0.08908914 0.0736291 -0.05516333 -0.036170997 -0.022591423
-0.09891558 0.0716031 0.09212168 0.0011311551 0.058367394 -0.027036015 0.077629305 0.056904357
0.04766908 0.026464451 0.03459519 -0.037831385 0.019571245 -0.06959133 -0.057265427 -0.06741425
0.100769304 -0.054403946 -0.08522289 -0.0026036792 -0.10115856 -0.09845528 -0.050563574 -0.022617584
-0.028456775 0.060449384 -0.07178022 0.033886153 0.03816695 0.05464252 0.09211581 0.10177345
-0.0024274008 0.09725644 -0.06987 0.04579453 -0.057181787 0.0016880472 0.07922092 0.09388847
0.011528142 -0.037701085 -0.042015295 -0.010135778 0.013597684 -0.03462412 -0.08895684 -0.076524064
-0.08367359 -0.064041354 0.09163981 -0.033568047 0.048091326 -0.0042759534 -0.024051474 0.09576774
-0.029246073 0.032475136 -0.096249446 -0.03661106 0.02217769 0.013498584 0.09370648 -0.00070185086
-0.0008551253 0.07077713 -0.0050164205 0.080342546 -0.09850842 -0.06300306 -0.0228973 0.08115956
0.042301092 0.09403484 0.061010838 0.012547387 -0.045355424 0.005799917 -0.063828245 -0.05100483
0.06486109 -0.0836213 -0.08985885 0.04546264 -0.003001796 -0.06516571 -0.011081153 0.058856852
-0.008285064 0.020697199 -0.039663523 -0.07225975 0.033671603 -0.06796256 0.07361295 0.05415072
-0.03584077 0.008425411 -0.02200281 0.08104749 -0.009583615 0.08409027 -0.08200024 0.06481356
0.036437258 0.071378015 0.071444325 -0.078551374 0.024669511 -0.0546323 0.016961258 0.07019745
-0.058735777 -0.05179536 -0.017709015 -0.037100744 -0.041934043 -0.04742025 0.037481144 0.065172195
-0.06840925 -0.017590005 0.09158323 -0.012321535 -0.045310363 -0.022435289 -0.005546948 -0.006093537
-0.09298704 0.05179726 -0.032359913 -0.0897965 0.0008866604 -0.005956701 0.011130061 0.044152666
-0.09917096 -0.05678453 -0.09317793 0.07864804 -0.045262314 0.022704123 0.09882046 -0.042752117
-0.08637314 -0.07586375 -0.08299555 0.075851426 -0.0072218683 0.062990375 -0.059978057 -0.06087725
-0.0057830536 -0.0044607213 -0.018908523 0.048100468 0.07911101 -0.079144895 -0.020448904 0.0687973
0.0580235 0.043334574 -0.060760487 -0.07129896 -0.024150068 -0.0016206802 0.0753117 -0.04521298
-0.09548504 0.06656061 0.023612129 -0.07314292 -0.010513955 -0.049362764 -0.005938661 -0.09544229
-0.06812714 -0.02439881 0.103757195 -0.091687724 0.04328574 -0.0015972507 -0.101500794 0.02763012
-0.057746146 0.08076078 -0.080444746 -0.10225331 0.0623772 0.04483775 0.09144588 0.09588998
-0.06706749 -0.05894884 0.08339537 0.009219469 -0.07574759 -0.090523906 -0.031630676 0.060011867
-0.031365056 0.05706462 0.025273802 0.05256045 0.008468703 -0.049694378 -0.09735029 -0.05303294
0.04235502 -0.047724944 0.070753425 -0.016336102 -0.0866139 0.036794055 0.055037484 0.060628112
-0.065062486 -0.04044855 -0.070743665 -0.08521337 0.07372499 -0.037718944 0.053459663 -0.08802228
-0.015683366 0.020440657 -0.03687784 -0.08392877 -0.076164074 0.04431583 -0.10259815 0.008460215
