_train/_models/20250919/한솔케미칼(014680)_20250919.pt (torch, 831847 bytes, 20 tensors)

enc_p.lstm.weight_ih_l0 f4 [384, 6]
0	0x3dc00eb6	0.09377806
1	0x3d919f04	0.07110408
2	0x3d9a99ce	0.07548867
3	0xbd4fb147	-0.050706174
4	0x3d72a8ce	0.059243016
5	0x3cc5e57d	0.02415728
6	0xbdc4ec29	-0.096153565
7	0xbd7267bf	-0.05918097
8	0xbc92bd66	-0.017912578
9	0x3d144686	0.03620007
10	0x3dc356ab	0.09538015
11	0xbdb8f6c8	-0.09031445
12	0x3d81a398	0.06330031
13	0xbdb02cec	-0.08602318
14	0x3d723cd0	0.059140027
15	0xbd32dfc4	-0.04367043
16	0xbd8cf84a	-0.06883295
17	0xbc3001f0	-0.010742649
18	0xbdc2e9cf	-0.09517252
19	0xbda72a9f	-0.08162426
20	0xbd590ee7	-0.052992728
21	0xbd909d6f	-0.07061278
22	0xbd5b09c8	-0.053476125
23	0x3be8a1cb	0.0070993653
24	0x3d86ed00	0.06588173
25	0xbd7a3b80	-0.0610919
26	0x3da7f3b8	0.082007825
27	0xbdba1ca4	-0.09087494
28	0xbd0ba154	-0.0340894
29	0x3c4d3c71	0.012526617
30	0x3da4d669	0.08048708
31	0x3d7b219c	0.06131135
32	0x3c133407	0.008984572
33	0x3d1d3eee	0.038390093
34	0xbbb3969d	-0.005480601
35	0xbdc66b8d	-0.096884824
36	0xbce158c6	-0.02750815
37	0xbc6ebb12	-0.014570968
38	0xbd7fd6a6	-0.062460564
39	0xbd10c159	-0.03534064
40	0x3da01326	0.07816152
41	0xbdb20537	-0.08692401
42	0x3d4f756d	0.050649095
43	0xbd870015	-0.065918125
44	0x3d566e9d	0.052351583
45	0x3d86a003	0.065734886
46	0xbdbfa334	-0.093573004
47	0x3d9b2acc	0.07576522
48	0x3dbb41a1	0.09143377
49	0x3d2302ff	0.03979778
50	0x3a9fe705	0.0012199586
51	0x3cc6fde5	0.024290988
52	0x3c7bcf6b	0.0153692765
53	0x3af1b24e	0.001843998
54	0x3c9cf9d1	0.01916209
55	0xbd24465b	-0.04010616
56	0x3dce1718	0.100629985
57	0x3d49b644	0.049246088
58	0xbd59de86	-0.05319073
59	0x3c94f2f7	0.01818226
60	0xbd916486	-0.070992514
61	0xbc735f28	-0.01485423
62	0x3c4aff60	0.012389988
63	0x3c9edbf3	0.01939199
64	0x3d270429	0.04077545
65	0x3dd3049b	0.10303613
66	0xbd5b665f	-0.053564426
67	0x3dcc6eeb	0.099820934
68	0xbd710bf4	-0.05884929
69	0xbcd33598	-0.025782391
70	0x3da81717	0.08207529
71	0xbca85b95	-0.020551482
72	0xbd26ceea	-0.040724672
73	0x3c3deb62	0.011591764
74	0xbdbc27a3	-0.091872476
75	0x3dc17996	0.09447019
76	0x3d09bcf3	0.03362746
77	0x3bb2a8a3	0.005452232
78	0xbd8d0f0e	-0.06887637
79	0x3d2116a9	0.03932825
80	0x3d4cc26c	0.049990103
81	0x3d8c12da	0.06839533
82	0x3cad6606	0.021166813
83	0x3db4cb69	0.0882786
84	0xbcd27e03	-0.025694853
85	0xbcd01999	-0.02540283
86	0x3cdbad8e	0.026816156
87	0xbb87b9a5	-0.0041420036
88	0x3d174296	0.036928736
89	0xbcb79fc4	-0.02241505
90	0x3c8c274b	0.01710858
91	0xbd893aea	-0.0670069
92	0xbd926833	-0.07148781
93	0xbcb04a2c	-0.021519743
94	0xbcc0c6a8	-0.023532227
95	0x3d89d015	0.067291416
96	0x3d2b12c5	0.041765947
97	0x3dcc2d94	0.09969631
98	0xbd2d1eb1	-0.042265598
99	0x3daf2d2c	0.08553538
100	0x3dc2505d	0.09487984
101	0x3d667508	0.056263953
102	0x3db7dd4b	0.08977755
103	0x3c5fe958	0.013666473
104	0x3d8613e6	0.06546764
105	0x3d166cd2	0.036724873
106	0x3dc70dde	0.09719442
107	0xbdccc160	-0.09997821
108	0x3d8dc90e	0.06923114
109	0x3dadbb0d	0.08482943
110	0xbd9d1a02	-0.07670976
111	0xbc0952f8	-0.008381598
112	0xbdcc5b8f	-0.09978401
113	0x3d2c5acc	0.04207878
114	0xbd07d175	-0.03315874
115	0x3d1e21f1	0.038606588
116	0xbbf52c2e	-0.0074820733
117	0x3dc42893	0.095780514
118	0xbcca9beb	-0.02473255
119	0x3d9cdb27	0.076589875
120	0x3d0f8b1c	0.035044774
121	0x3ce33485	0.027735004
122	0x3db61e5a	0.08892508
123	0xbd197936	-0.03746911
124	0xbd8ebdc8	-0.06969792
125	0x3d6bc307	0.05755904
126	0xbd9a6513	-0.075388096
127	0xbd91ffc0	-0.071288586
128	0x3dd16e61	0.10226131
129	0xbcedb6e8	-0.02901788
130	0xbd766f4d	-0.06016474
131	0xbda47176	-0.080294535
132	0xbd1088f2	-0.03528685
133	0xbdbbddec	-0.091731876
134	0x3d200d28	0.039075047
135	0xbd16a0c7	-0.036774423
136	0x3d4e9852	0.050438233
137	0xbc96bfc1	-0.018401982
138	0x3b157965	0.0022807952
139	0x3d908960	0.07057452
140	0x3b98cf0f	0.004663355
141	0xbcb88307	-0.022523416
142	0x3dc12dcf	0.094325654
143	0xbd4725da	-0.048620082
144	0xbda9713b	-0.0827355
145	0x3c8c1f56	0.017104786
146	0x3b67bcf0	0.0035360418
147	0xbd4022d1	-0.046908204
148	0xbdb9807f	-0.09057712
149	0x3dc6ce6e	0.09707342
150	0x3cc83c6d	0.024442876
151	0xbd70ca76	-0.05878683
152	0xba513789	-0.00079809927
153	0x3910bc1d	0.00013802988
154	0x3d9c22ac	0.07623801
155	0xbd956693	-0.07294955
156	0x3d0f6259	0.0350059
157	0xbc62f3bb	-0.013852055
158	0x3d131414	0.03590782
159	0xbcb44a95	-0.02200822
160	0x3d20f6f2	0.039298005
161	0xbce2bb89	-0.027677314
162	0x3da06570	0.07831848
163	0x3daada0e	0.08342372
164	0x3d900258	0.07031697
165	0x3d9e0330	0.07715452
166	0xbdbdafec	-0.0926207
167	0xbcdf5c50	-0.027265698
168	0xbd83a516	-0.06427972
169	0xbdc16286	-0.0944262
170	0xbc74a785	-0.014932518
171	0x3dcb6c9c	0.09932825
172	0xbda55b9a	-0.08074112
173	0x3c4496b9	0.011998826
174	0xbd044d88	-0.032300502
175	0x3d7b976d	0.061423708
176	0x3d05664a	0.032568254
177	0x3cd4a3a4	0.025956936
178	0xbc126f54	-0.0089376755
179	0xbd5f7632	-0.05455608
180	0xbda168e0	-0.078813314
181	0x3d28c46c	0.041202947
182	0x3c7c5f23	0.015403542
183	0xbd8fa30b	-0.0701352
184	0xbdbd0500	-0.09229469
185	0x3c9572fb	0.018243304
186	0x3dab7761	0.08372379
187	0xbd942c3f	-0.07235002
188	0x3d9784cc	0.07398376
189	0x3c611fe3	0.013740513
190	0xbc544cd0	-0.012957767
191	0xbd1881be	-0.037233107
192	0xbda02609	-0.07819755
193	0xbcad7ffa	-0.021179188
194	0x3cbcbcff	0.02303934
195	0xbce5282e	-0.02797326
196	0x3db5f5c9	0.088847704
197	0xbdcbe930	-0.09956586
198	0xbcb96d7a	-0.02263521
199	0xbd214172	-0.039369054
200	0xbd5039ff	-0.05083656
201	0x3d3685f4	0.04456134
202	0x3bfeb547	0.007773075
203	0x3b37c357	0.0028040016
204	0x3da39268	0.07986909
205	0x3c56e736	0.013116648
206	0xbd85b70f	-0.06529056
207	0x3dc313bf	0.09525251
208	0x3d35d920	0.04439652
209	0x3d9246ef	0.07142436
210	0xbcc5c93a	-0.024143804
211	0xbda5a525	-0.080881394
212	0xbdaf5121	-0.08560396
213	0x3d709198	0.0587326
214	0x3a069d17	0.00051351025
215	0x3c174298	0.009232186
216	0x3cc198a2	0.023632351
217	0xbd41a402	-0.04727555
218	0xbcbafc98	-0.022825524
219	0x3c4c35f7	0.012464038
220	0x3c471b1d	0.01215246
221	0x3d9775dd	0.073955275
222	0xbd6af48e	-0.05736213
223	0x3d8cea3a	0.06880613
224	0x3cb34129	0.021881657
225	0x3c9d4fea	0.019203145
226	0x3caf7288	0.021416917
227	0xbdc6c644	-0.09705785
228	0x3d3d0a40	0.046152353
229	0xbd49d7a2	-0.04927791
230	0xbda803c9	-0.08203847
231	0x3d2b3416	0.04179772
232	0x3d7022a2	0.05862678
233	0x3d010bed	0.031505514
234	0xbc37b563	-0.01121268
235	0xbccd8f89	-0.025092857
236	0x3dbcb981	0.092150696
237	0x3d941b20	0.07231736
238	0xbd185d29	-0.03719822
239	0xbc108b80	-0.008822322
240	0x3cf6cc08	0.030126587
241	0x3cbec3fa	0.023286808
242	0x3d89227f	0.06696033
243	0x3cb6fdf0	0.022337884
244	0xbda22acd	-0.0791832
245	0xbd3eb527	-0.04655948
246	0xbdc2e585	-0.095164336
247	0x3ce3b84a	0.027797837
248	0xbcbeb9c7	-0.023281945
249	0xbcad303f	-0.02114117
250	0x3d884020	0.06652856
251	0xbca10b92	-0.019658837
252	0xbcc6f6ac	-0.024287544
253	0xbd55e7e3	-0.052223098
254	0x3d8ad7d9	0.06779451
255	0x3da88dad	0.082301475

enc_p.lstm.weight_hh_l0 f4 [384, 96]
0	0xbdd0f901	-0.10203744
1	0xbd8a84ea	-0.067636326
2	0x3d46e3a9	0.048556957
3	0x3b5c5a56	0.003362318
4	0x3dab8834	0.08375588
5	0xbc950eb9	-0.018195497
6	0xbd4fb81c	-0.05071269
7	0x3ad28a24	0.0016062898
8	0xbd95bb57	-0.07311123
9	0xbd528cfb	-0.05140398
10	0xbd54a634	-0.051916316
11	0x3d349223	0.04408468
12	0xbd4e5ddf	-0.05038249
13	0x3ce97ed8	0.028502867
14	0x3da64333	0.08118286
15	0x3dba1e39	0.09087796
16	0x3d8bed60	0.06832385
17	0x3d221110	0.039567053
18	0xbc260113	-0.010132092
19	0xbd38627c	-0.045015797
20	0xbaa22530	-0.0012370702
21	0xbc9802cd	-0.018556023
22	0x3d4e9aa7	0.050440457
23	0x3da8b02a	0.08236726
24	0xbb4ca050	-0.0031223483
25	0xbd034360	-0.032046676
26	0xbd6baeaa	-0.05753962
27	0xbd95a2b5	-0.073064245
28	0xbd9ace96	-0.075589344
29	0x3b4db26c	0.0031386865
30	0x3b2889e1	0.0025716948
31	0xbd45940f	-0.048236903
32	0x3d763411	0.06010825
33	0x3d7db727	0.061942246
34	0x3c81951e	0.015818175
35	0x3dbf5a0c	0.09343347
36	0xbd501c72	-0.050808378
37	0x3dc2fa8c	0.09520444
38	0x3d788a05	0.0606785
39	0x3cae9f5d	0.021316225
40	0xbcfdfa03	-0.031003004
41	0xbd395ac5	-0.04525258
42	0xb9ff7756	-0.00048726302
43	0xbcb18525	-0.021669934
44	0x3d97f3cf	0.0741955
45	0x3cb032e3	0.02150864
46	0xbd2669c0	-0.040628195
47	0xbdcdeee0	-0.100553274
48	0x3dbe06e0	0.09278655
49	0xbdccd748	-0.10001999
50	0x3d4a612a	0.04940907
51	0x3dbe9107	0.093050055
52	0x3cab6fbe	0.020927306
53	0xbd6c0064	-0.05761756
54	0xbc6b25b7	-0.014352254
55	0x3c885a32	0.016644571
56	0x3d624618	0.055242628
57	0x3cdd5734	0.02701912
58	0xbcb40919	-0.021976994
59	0xbd610180	-0.05493307
60	0xbdae13e9	-0.08499891
61	0xbd22c643	-0.03973986
62	0xbd2e2ae2	-0.042521365
63	0x3da79c11	0.08184064
64	0x3d7007dc	0.058601245
65	0x3c67304c	0.014110636
66	0x3d8e6371	0.06952561
67	0x3d871029	0.06594879
68	0x3d521616	0.051290594
69	0xbc205e23	-0.009788069
70	0x3d7f5b74	0.062343076
71	0x3c17e943	0.0092719225
72	0x3dcf7198	0.10129088
73	0xbd8daeda	-0.06918116
74	0x3bcaf538	0.006193783
75	0xbda06f43	-0.078337215
76	0x3da92dc6	0.08260684
77	0xbd52056a	-0.051274695
78	0xbc129c0a	-0.008948335
79	0xbc152e42	-0.009105267
80	0x3c1b6072	0.009483444
81	0xbda08cda	-0.07839365
82	0xbd8142f5	-0.06311599
83	0xbdbfcc76	-0.0936517
84	0x3cc2c4f1	0.02377555
85	0x3c03c1aa	0.008041779
86	0x3c824a0a	0.015904445
87	0x3d248ae7	0.04017153
88	0x3db2b9a0	0.087268114
89	0x3b899246	0.0041983454
90	0xbdcd0ad0	-0.10011828
91	0x3dc968cf	0.09834444
92	0x3b833eef	0.004005305
93	0x3ca9e9ba	0.020741332
94	0xbcc0f16b	-0.023552617
95	0xbd8f423c	-0.06995055
96	0x3b2dfacb	0.002654719
97	0x3d0cf2a5	0.03441109
98	0xbda71655	-0.08158556
99	0xbd8071a1	-0.06271673
100	0xbd9784ef	-0.07398402
101	0x3db93bfa	0.09044643
102	0x3ce0ed65	0.027456949
103	0x3d83a52c	0.064279884
104	0xbcde38d8	-0.027126715
105	0x3d84caa5	0.06483964
106	0xbdb08b62	-0.08620335
107	0xbdc3fe3d	-0.095699765
108	0xbb5d332d	-0.0033752427
109	0xbd0ecbfc	-0.034862503
110	0xbb846fdd	-0.0040416555
111	0x3d90613a	0.070497945
112	0xbc9edf76	-0.019393664
113	0xbdc19bc1	-0.09453536
114	0xbc1cd636	-0.009572556
115	0x3dccd675	0.10001842
116	0xbc836196	-0.016037744
117	0x3d80473d	0.062635876
118	0x3d59939c	0.053119287
119	0x3db9b626	0.09067945
120	0x3d0d7290	0.034533083
121	0xbc999b3b	-0.018750777
122	0xbdcc2c32	-0.09969367
123	0x3da0398f	0.078234784
124	0x3d9df58f	0.07712852
125	0xbdb7c9cf	-0.08974039
126	0xbb6b80c6	-0.003593491
127	0xbc52cf8e	-0.012866868
128	0x3d8428ff	0.06453132
129	0xbda812a0	-0.082066774
130	0xbd180f4b	-0.03712396
131	0xbdc84f61	-0.09780765
132	0x3db2c19c	0.08728334
133	0xbdb44e9e	-0.088040575
134	0x3dc7bfd0	0.09753382
135	0xbdbba0dd	-0.091615416
136	0x3dc3e00e	0.095642194
137	0x3d077846	0.033073686
138	0xbda263ee	-0.07929216
139	0x3d92e939	0.0717339
140	0x3d1f59c1	0.038903955
141	0x3db0e1bc	0.086368054
142	0xbbdab06f	-0.0066738646
143	0x3dc09c5b	0.094048224
144	0x3dc02c1d	0.09383414
145	0xbc4f7357	-0.0126617765
146	0x3dae0068	0.08496171
147	0x3da4401f	0.08020043
148	0x3d8aabec	0.06771073
149	0x3dbcedf5	0.09225074
150	0xb89c4fb9	-7.453509e-05
151	0x3d4e9ad9	0.050440643
152	0x3c864d00	0.016394138
153	0xbb10f00a	-0.002211573
154	0x3b765358	0.0037586298
155	0xbd6542de	-0.055971973
156	0xbd2c0a23	-0.042001855
157	0xbdae56af	-0.08512627
158	0x3d7e0779	0.062018845
159	0xbdcd4016	-0.10021989
160	0xbba72f00	-0.0051020384
161	0xbdba3b29	-0.09093315
162	0x3da855ae	0.08219467
163	0xbda71572	-0.08158387
164	0xbc2d9059	-0.010593497
165	0xbbd53398	-0.0065063946
166	0xbc8aaa2f	-0.016926853
167	0xbd5b986b	-0.053612154
168	0x3d936b8c	0.07198247
169	0xbd812cea	-0.06307395
170	0x3dc2b0da	0.09506388
171	0x3daa02e3	0.08301332
172	0x3d11fd69	0.03564206
173	0x3cd7892d	0.026310528
174	0x3cb8de39	0.022566902
175	0xbb90e704	-0.0044220705
176	0x3d3fb8c3	0.046807062
177	0xbbadf954	-0.0053092632
178	0x3d655c31	0.055996124
179	0xbd3edbf7	-0.046596494
180	0xbd6238d6	-0.055229984
181	0xbd58f288	-0.05296567
182	0xbd259f63	-0.040435206
183	0x3db21d30	0.08696973
184	0x3ca96b86	0.020681154
185	0xbcc2d6a4	-0.02378399
186	0xbcb88668	-0.022525027
187	0x3d761d92	0.060086794
188	0x3c9fcfbc	0.019508235
189	0xbd055cc4	-0.03255917
190	0x3dba50d9	0.09097452
191	0x3cd69529	0.026194172
192	0x3d635846	0.055504106
193	0x3c7909c3	0.015200081
194	0xbd7973ff	-0.060901638
195	0x3dc5ad3f	0.09652185
196	0xbdbb211b	-0.09137174
197	0xbb9b9edb	-0.0047491617
198	0x3cc5dea6	0.024154019
199	0x3d56c3ff	0.05243301
200	0x3ce5a263	0.028031534
201	0x3d392c07	0.045208003
202	0xbdd03947	-0.10167175
203	0x3d9e22ae	0.077214584
204	0xbd42ff34	-0.047606662
205	0x3db74d10	0.089502454
206	0xbd1155b3	-0.03548212
207	0x3d40fce1	0.047116164
208	0x3d0d87cc	0.034553334
209	0x3d103e84	0.03521587
210	0x3b74dc1b	0.0037362638
211	0x385e28b3	5.296683e-05
212	0xbd9ff148	-0.078096926
213	0xbcebe93f	-0.028797744
214	0xbd5fee9f	-0.054670926
215	0xbc902b54	-0.017598785
216	0xbcffaa6f	-0.031209199
217	0x3d0709e7	0.032968428
218	0x3dbda757	0.09260433
219	0xbc724849	-0.014787742
220	0x3d3b12d8	0.045672268
221	0xbd585c28	-0.052822262
222	0xbdcf7a9a	-0.10130806
223	0x3c34d096	0.011036059
224	0xbd99dbde	-0.075126395
225	0x3c589fcd	0.013221693
226	0x3d1b94c8	0.037983686
227	0x3d9fcf0b	0.07803162
228	0x3d411082	0.047134884
229	0x3cd78a75	0.026311139
230	0x3dc020d5	0.09381262
231	0x3d868a57	0.06569355
232	0x3bb38cec	0.0054794457
233	0x3bc814e5	0.0061060064
234	0x3b69b42e	0.0035660374
235	0xbc791845	-0.01520354
236	0x3dc46f17	0.09591501
237	0xbd91e40b	-0.07123574
238	0xbda10c93	-0.078637265
239	0x3d2f1d89	0.042752776
240	0x3d8329b3	0.06404438
241	0x3c7b9954	0.0153563805
242	0xbd3f57cd	-0.046714593
243	0x3d0661b4	0.03280802
244	0xbd1929a0	-0.037393212
245	0x3d6a58fe	0.057213776
246	0x3c0f8f84	0.008762244
247	0xbcd0ceba	-0.0254892
248	0x3d848c3d	0.06472061
249	0x3a51e6cb	0.0008007108
250	0x3d59e46c	0.053196356
251	0xbd8fdaf9	-0.070241876
252	0xbdbf4d5b	-0.09340926
253	0xbd64f327	-0.05589595
254	0x3d6acfee	0.057327203
255	0x3c3cfac0	0.011534393

enc_p.lstm.bias_ih_l0 f4 [384]
0	0x3b1f7f18	0.0024337228
1	0x3c98cfd0	0.01865378
2	0xbd2afe11	-0.041746203
3	0xbda481a2	-0.08032538
4	0xbd3aa4c2	-0.04556728
5	0xbdb952f8	-0.09049028
6	0xbdb7492b	-0.089495026
7	0x3dab34b5	0.083596624
8	0xbb1da764	-0.0024056071
9	0x3d5acd12	0.053418227
10	0xbc74fec9	-0.014953324
11	0xbc678368	-0.014130451
12	0xbd8aa554	-0.06769815
13	0xbbc73fb6	-0.006080593
14	0x3d731b53	0.05935223
15	0x3dcad205	0.09903339
16	0xbd65ad87	-0.05607369
17	0xbd3158f5	-0.043297727
18	0x3cfee2e5	0.031114051
19	0xbd2ddef2	-0.042448945
20	0x3dbfd0a5	0.09365968
21	0xbc841421	-0.01612288
22	0x3da2c503	0.07947733
23	0xbd86e8ca	-0.0658737
24	0xbd1c9fb1	-0.03823823
25	0xbd2db879	-0.042412255
26	0x3d3a6c7d	0.04551362
27	0xbac11db0	-0.0014733579
28	0xbdc50065	-0.09619216
29	0xbda28b2d	-0.07936702
30	0x3d337dbe	0.04382109
31	0x3d5da2c7	0.054110315
32	0x3d8ea1d1	0.06964458
33	0xba220d76	-0.00061818154
34	0xbdaa95d6	-0.0832936
35	0x3dc0e881	0.094193466
36	0xbcdbda76	-0.026837569
37	0xbbb20de3	-0.0054337843
38	0xbd8e298f	-0.069415204
39	0x3d2a1ceb	0.041531485
40	0x3c9f0b35	0.019414524
41	0xbd9b293a	-0.07576223
42	0xbd8cb522	-0.06870486
43	0xbc8403fc	-0.016115181
44	0xbd485b56	-0.04891523
45	0x3d07563f	0.033041235
46	0x3d4f9c8e	0.05068641
47	0x3c70a734	0.014688302
48	0xbd1d7954	-0.038445786
49	0x3d9768d8	0.07393044
50	0xbda8bdb9	-0.08239312
51	0x3dc0681f	0.093948595
52	0xbd99ee1a	-0.075161174
53	0x3c4cef12	0.012508171
54	0x3d76918b	0.060197394
55	0xbdb1472b	-0.08656152
56	0x3db4ca14	0.08827606
57	0x3c69a7cf	0.0142612
58	0x3dc84746	0.09779219
59	0x3d4ae20b	0.049531978
60	0xbd795766	-0.060874365
61	0x3d889727	0.06669455
62	0x3d7d527e	0.06184625
63	0xbcdac8bf	-0.026707051
64	0xbd865576	-0.06559269
65	0xbd922ea5	-0.07137803
66	0xbd48d1ee	-0.04902833
67	0x3da42efd	0.08016775
68	0xba56a6c7	-0.0008188304
69	0xbda5b3b6	-0.08090918
70	0xbd9e4528	-0.07728034
71	0xbd83c14b	-0.06433352
72	0x3cd5d026	0.02610023
73	0xbc946cf4	-0.01811836
74	0x3bb2bfc4	0.005454989
75	0x3d8b7c5c	0.06810829
76	0x3d872914	0.06599632
77	0x3ab41648	0.001373955
78	0x3d2b614b	0.041840833
79	0x3dc628f4	0.0967578
80	0x3da59283	0.080845855
81	0x3d8d63d0	0.06903803
82	0xbc54a0c2	-0.012977781
83	0x3b56da67	0.0032783987
84	0x3b9baa41	0.0047505205
85	0xbd0fde88	-0.03512433
86	0x3da5463e	0.08070038
87	0xbdae45da	-0.08509417
88	0xbcf2adba	-0.029623855
89	0x3ce834a1	0.028345408
90	0xbda19604	-0.07889941
91	0x3cc9e573	0.024645543
92	0x3d9a0af6	0.07521622
93	0xbda4f586	-0.080546424
94	0xbd81d1e0	-0.063388586
95	0x3d17acc3	0.037029993
96	0xbdbd792d	-0.09251628
97	0x3b4c8efd	0.0031213157
98	0xbd9918c6	-0.07475428
99	0xbdc3aa5f	-0.0955398
100	0xbd0bcacc	-0.03412895
101	0xbd805cc6	-0.06267695
102	0x3cf31ca8	0.02967675
103	0x3dce4a3d	0.100727536
104	0x3da3019f	0.079592936
105	0x3d1365d0	0.035985768
106	0xbd976097	-0.0739147
107	0xbd534845	-0.051582593
108	0xbdc978c3	-0.098374866
109	0xbdc7059e	-0.09717868
110	0x3db840ba	0.089967206
111	0xbc2d8df9	-0.010592931
112	0x3dbe668e	0.092969045
113	0xbdaa7d22	-0.083246484
114	0xbdb0331f	-0.086035006
115	0x3c58ac55	0.013224681
116	0xbdb0260c	-0.08601007
117	0x3d49b118	0.049241155
118	0x3da7d46a	0.08194812
119	0x3c808711	0.015689405
120	0x3c10a047	0.008827276
121	0xbd2cecd4	-0.042218044
122	0x3bbb7786	0.0057210354
123	0xbc742754	-0.014901955
124	0x3ce391f8	0.027779564
125	0x3d9f2aad	0.07771812
126	0xbd8214d3	-0.06351628
127	0xbb9b69e4	-0.0047428478
128	0x3bcb1bca	0.006198381
129	0x3d23bf12	0.03997714
130	0xbd8e1031	-0.06936682
131	0x3cfaee0b	0.030631086
132	0x3d9af245	0.075657405
133	0x3ab6e332	0.0013953208
134	0x3d2827cc	0.04105358
135	0x3d90fef7	0.07079881
136	0xbc8dc939	-0.017307865
137	0x3da7046f	0.081551425
138	0xbdb46fa2	-0.08810355
139	0xbcbb0055	-0.022827307
140	0xbbf21aef	-0.0073884646
141	0x3d8f4271	0.069950946
142	0xbd651e56	-0.055937134
143	0xbdc0b257	-0.094090156
144	0x3da70f90	0.08157265
145	0xbd8afad8	-0.06786126
146	0xbdca9252	-0.0989119
147	0xbafc2c5f	-0.0019239298
148	0x3d94e5a2	0.072703615
149	0xbd0987c0	-0.033576727
150	0xbd1b63aa	-0.037936844
151	0xbdc74490	-0.09729874
152	0xbd7ab206	-0.061204933
153	0xbdc469c1	-0.095904835
154	0x3d9c6bb3	0.076377295
155	0x3d6298b5	0.055321414
156	0xbd29fc53	-0.0415004
157	0x3d2d5806	0.042320274
158	0x3dacf559	0.08445234
159	0x3b8d000c	0.004302984
160	0x3c6a5159	0.014301621
161	0x3dcb4b0f	0.09926426
162	0xbc858cab	-0.016302427
163	0xbc634d67	-0.013873435
164	0xbdac97eb	-0.084274136
165	0xbd9dabc1	-0.07698775
166	0x3da4f2af	0.08054101
167	0xbdba9dd9	-0.09112138
168	0xbd9db08e	-0.07699691
169	0x3d708679	0.058721993
170	0xbd867645	-0.06565527
171	0x3db9d6e3	0.090741895
172	0xbcd0c9e2	-0.02548689
173	0x3c90e143	0.017685538
174	0xbbeddb64	-0.0072588194
175	0x3d35aa53	0.044351887
176	0x3da9a7e6	0.08283977
177	0x3d340b1d	0.04395591
178	0x3d9d334e	0.07675801
179	0xbcaedaf5	-0.021344641
180	0x3ca9b1be	0.020714637
181	0x3da9a6b4	0.08283749
182	0x3d5d5889	0.05403951
183	0xbaae5e97	-0.0013303336
184	0xbd865ffd	-0.06561277
185	0x3d16d438	0.03682348
186	0xbcaba538	-0.020952806
187	0xbd3f39e4	-0.04668607
188	0x3c887cb5	0.016661027
189	0x3c7e82bd	0.0155341
190	0xbd41d738	-0.04732439
191	0xbd37c6c8	-0.044867307
192	0xbdccde4c	-0.10003337
193	0x3d22a5be	0.039708845
194	0x3d0fc83f	0.03510308
195	0xbd57dce6	-0.0527009
196	0xbd7254bc	-0.05916284
197	0xbcbe1c42	-0.023206834
198	0xbcf4e9ea	-0.029896695
199	0x3db6a58a	0.08918293
200	0xbdaa2746	-0.08308272
201	0xbd8cbfac	-0.06872496
202	0x3d049344	0.032367006
203	0xbd62d462	-0.055378325
204	0x3db54adf	0.08852171
205	0x3d7824dd	0.06058203
206	0xbda20067	-0.07910233
207	0x3d9a14ad	0.07523475
208	0xbc1e8b19	-0.009676718
209	0xbb0f6274	-0.002187875
210	0x3bea624c	0.007152831
211	0xbdaf2329	-0.08551628
212	0x3d83e7c2	0.06440689
213	0x3d817221	0.063205965
214	0x3d8c3823	0.06846645
215	0xbd5fb513	-0.054616045
216	0xbac979cc	-0.0015371381
217	0x3db53728	0.08848411
218	0xbbd59a67	-0.0065186503
219	0xbdb59850	-0.08866942
220	0xbdc9cff7	-0.09854119
221	0xbc0bce92	-0.008533137
222	0x3db0fdf7	0.0864219
223	0xbd53d5e8	-0.05171767
224	0x3b891959	0.00418393
225	0xbc99b03f	-0.018760798
226	0xbca24c93	-0.019811904
227	0x3d8f0603	0.069835685
228	0xbda2f83b	-0.079575025
229	0xb8a70cd9	-7.9655736e-05
230	0xbdcab870	-0.0989846
231	0xbdbca1ef	-0.09210574
232	0xbbfc5fac	-0.0077018347
233	0xbc27eb23	-0.010248932
234	0x3cd872be	0.0264219
235	0xbd43e9af	-0.04783028
236	0xbcd3efa1	-0.0258711
237	0xbd8303ab	-0.06397184
238	0x3d188636	0.03723737
239	0x3b088146	0.0020829006
240	0x3d96d06e	0.073639736
241	0x3cb31c63	0.021864122
242	0xbcad036e	-0.0211198
243	0x3cad861a	0.021182109
244	0xbd473842	-0.048637636
245	0xbd9046fe	-0.07044791
246	0x3d278e04	0.04090692
247	0x3d76892f	0.060189422
248	0xba62b5fe	-0.0008648335
249	0x3d2c5e32	0.04208202
250	0x3dbfc406	0.093635604
251	0xbd374e9f	-0.044752713
252	0xbd0662ab	-0.03280894
253	0xbd46bd90	-0.048520625
254	0x3da77ca4	0.0817807
255	0x3cfe7ad5	0.03106443

enc_p.lstm.bias_hh_l0 f4 [384]
0	0x3d91a2d4	0.07111135
1	0xbd073595	-0.033010084
2	0xbd1e9e6b	-0.038725298
3	0x3dbfe7fa	0.09370418
4	0xbd0a318a	-0.03373865
5	0xbdbb81f3	-0.09155645
6	0x3d923b6d	0.07140241
7	0xbd97518d	-0.073886015
8	0x3d85c286	0.06531243
9	0xbd02c623	-0.03192724
10	0x3d4af00f	0.049545344
11	0x3d76ab45	0.06022193
12	0xbc1e0204	-0.009644035
13	0xbdbfa569	-0.09357721
14	0xbd8071a1	-0.06271673
15	0x3d2a8546	0.041631006
16	0x3dcca712	0.09992804
17	0x3d9ec254	0.07751909
18	0x3ca53517	0.020166917
19	0x3d8b2590	0.06794274
20	0xbd5295e9	-0.051412497
21	0x3dcd8725	0.100355424
22	0xbce15e86	-0.027510893
23	0x3da51ec2	0.08062507
24	0xbd43696d	-0.047707964
25	0xbd1cecd0	-0.03831178
26	0xbbbcaa0f	-0.0057575773
27	0xbd4e4bc0	-0.05036521
28	0xbd5738e0	-0.052544475
29	0x3d991617	0.074749164
30	0xbdaa1d78	-0.08306402
31	0xbdb2e2f4	-0.08734694
32	0x3d8afcd5	0.06786505
33	0xbdcaa830	-0.098953605
34	0xbd55788a	-0.052116908
35	0xbc9ef589	-0.01940419
36	0x3ca4405a	0.020050216
37	0x3ca68158	0.020325348
38	0xbd1c628c	-0.03817992
39	0xbdaec767	-0.08534127
40	0x3bdba19d	0.0067026154
41	0x3d9a5434	0.07535592
42	0x3ba9db52	0.0051836157
43	0xbdb666c6	-0.08906321
44	0xbdbbae04	-0.0916405
45	0xbdb2ef0a	-0.08736999
46	0x3dca3cee	0.09874903
47	0x3ced96f7	0.02900265
48	0xbd9b4b37	-0.075827055
49	0x3d27aed0	0.0409382
50	0xbc853325	-0.01625974
51	0xbd602e8c	-0.05473189
52	0x3d6b4a9c	0.0574442
53	0x3c604582	0.013688447
54	0x3d79190b	0.0608149
55	0xbdc5efd2	-0.09664883
56	0x3c07594b	0.008261035
57	0x3da7045d	0.08155129
58	0xbcfcf56f	-0.03087875
59	0x3d5e9adf	0.054346915
60	0x3c2e9281	0.010655046
61	0x3ca3be47	0.019988192
62	0x3d528e75	0.05140539
63	0xbdcc1c9d	-0.09966395
64	0xbdae33ce	-0.08505975
65	0x3d58d8dd	0.052941192
66	0x3d1a50fc	0.03767489
67	0x3d298fc9	0.04139689
68	0x3cf946a0	0.030429184
69	0xbd8010db	-0.06253215
70	0x3c1477e5	0.009061788
71	0xbd89e047	-0.06732231
72	0x3dcdcf78	0.10049337
73	0xbd973ea0	-0.07384992
74	0x3d65c79e	0.056098573
75	0xbd5a4e3f	-0.053297278
76	0xbdc12d19	-0.0943243
77	0x3b638741	0.0034718069
78	0x3d828803	0.063735984
79	0xbda0f292	-0.078587666
80	0x3daa35f3	0.08311071
81	0xbd35af77	-0.04435679
82	0xbd961882	-0.07328893
83	0xbdb9345b	-0.09043189
84	0xbd836744	-0.06416181
85	0x3d93ba3b	0.07213255
86	0x3d82d1f3	0.06387701
87	0x3c3d906e	0.011570079
88	0x3d309014	0.043106154
89	0xbbc2ce7a	-0.005945024
90	0x3cbf0805	0.023319254
91	0xbdc4a706	-0.0960217
92	0xbdc26552	-0.094919816
93	0xbcee01e4	-0.029053636
94	0x3d9bee14	0.07613769
95	0x3bcc3206	0.006231549
96	0x3d2528af	0.040322002
97	0x3d5d26da	0.05399213
98	0x3dcb7a6c	0.099354595
99	0xbdb28f39	-0.08718724
100	0xbd937698	-0.07200354
101	0xbdc19cfe	-0.09453772
102	0xbd90afaf	-0.07064759
103	0xbdc2c42a	-0.095100716
104	0x3bc3fd42	0.0059811184
105	0xbd913700	-0.070905685
106	0x3d5fed33	0.05466957
107	0xbd7f5376	-0.062335454
108	0xbc6fed9a	-0.014644051
109	0xbda0e07f	-0.07855319
110	0xbdb683ff	-0.08911895
111	0x3d319fcf	0.043365296
112	0xbd97a8c7	-0.074052386
113	0x3d014509	0.031559978
114	0xbdb4fd1c	-0.08837339
115	0x3db64c66	0.089012906
116	0xbda543de	-0.08069585
117	0xbd2334f8	-0.039845437
118	0xbca5e35a	-0.020250011
119	0x3d910364	0.07080725
120	0xbdc9d2da	-0.0985467
121	0x3c34071a	0.010988021
122	0xbd262a06	-0.04056742
123	0xbd7424ed	-0.059605528
124	0x3dba03d0	0.090827584
125	0x3d891563	0.06693532
126	0x3d5ad04a	0.053421296
127	0x3d707ba1	0.05871165
128	0x3da04455	0.07825533
129	0xbc788258	-0.015167795
130	0x3c01862b	0.007905523
131	0x3bb54c57	0.005532782
132	0x3d8158f8	0.063157976
133	0xbc99c35c	-0.018769912
134	0x3cfc74a5	0.03081734
135	0xbd5dae42	-0.054121263
136	0xbc7390f3	-0.014866102
137	0x3cf88dd1	0.03034106
138	0xbc617653	-0.013761121
139	0x3cdf03f3	0.027223563
140	0x3d071fdb	0.032989364
141	0xbdcd0d99	-0.10012359
142	0x3d57faec	0.052729532
143	0xbd9c201d	-0.076233126
144	0xbd928827	-0.07154875
145	0x3dcc2342	0.099676624
146	0xbca10f21	-0.019660534
147	0x3da48f42	0.08035137
148	0x3d1b5b73	0.03792901
149	0x3dbc32ce	0.09189378
150	0x3d62b3d6	0.055347286
151	0x3db7a78a	0.089675024
152	0x3d8f451f	0.06995606
153	0xbb6419a5	-0.0034805324
154	0xbd4aaa1c	-0.049478635
155	0xbc8910a6	-0.016731571
156	0xbdd1d3eb	-0.10245498
157	0xbc4d1ed6	-0.012519559
158	0xbd1b41ba	-0.03790448
159	0xbd09b128	-0.033616215
160	0x3d0b2509	0.033970866
161	0x3dcd69e1	0.100299604
162	0xbcc0c87f	-0.023533104
163	0xba4dd37b	-0.00078516424
164	0xbd2e9194	-0.042619303
165	0x3d81a533	0.063303374
166	0xbc8f0ed0	-0.017463118
167	0xbd74c4a3	-0.05975784
168	0x3cfae123	0.030624932
169	0x3d908205	0.07056049
170	0x3d8e00c2	0.06933738
171	0xbd023086	-0.031784557
172	0x3d679cac	0.0565459
173	0x3dcc878b	0.0998679
174	0xbd51066d	-0.05103152
175	0xbd961754	-0.07328668
176	0xbcbcf34c	-0.023065232
177	0x3d08d49d	0.03340589
178	0xbda4a116	-0.08038537
179	0xbc649e08	-0.013953693
180	0x3d8b973f	0.06815957
181	0x3d812d25	0.06307439
182	0x3d3245b9	0.043523524
183	0x3dd1f7ae	0.10252319
184	0x3d12f535	0.03587838
185	0x3ce47d63	0.02789182
186	0x3c6119ef	0.013739093
187	0xbdc9eb8c	-0.0985938
188	0xbda22e4a	-0.07918985
189	0x3a69604f	0.0008902596
190	0x3cd103cd	0.025514508
191	0x3c661e28	0.014045276
192	0x3dc51807	0.096237235
193	0x3d411232	0.047136493
194	0xbc6275ec	-0.01382206
195	0x3d9f57e7	0.07780438
196	0x3a9878be	0.0011632664
197	0xbd848443	-0.064705394
198	0xbd344368	-0.044009596
199	0x3d9b31a4	0.075778276
200	0xbd3542c2	-0.04425312
201	0x3ca58f3e	0.020209905
202	0x3c0f2332	0.008736419
203	0x3d828d9d	0.06374667
204	0xbdb85a33	-0.09001579
205	0xbd82a129	-0.06378395
206	0xbc57ab5d	-0.013163415
207	0x3c9c47e6	0.019077253
208	0xbd560b08	-0.052256614
209	0xbd8914d9	-0.066934295
210	0x3cfc1d79	0.030775772
211	0xbd7a0f1b	-0.061049562
212	0xbd99a100	-0.075014114
213	0xbd7d7c85	-0.06188633
214	0x3d5ad54b	0.05342607
215	0xbdb8d51a	-0.09025021
216	0x3d3b9675	0.045797784
217	0x3daaa650	0.08332503
218	0xbd6faa77	-0.058512177
219	0xbce2ec53	-0.027700579
220	0xbd609513	-0.05482967
221	0xbb614b0c	-0.0034377007
222	0xbd7d78f1	-0.061882917
223	0xbd7245dc	-0.059148654
224	0x3d028bf8	0.031871766
225	0xbd9229f1	-0.07136906
226	0x3d9bac04	0.07601169
227	0x3c154553	0.009110766
228	0xbcc414c5	-0.023935685
229	0xbdc6e355	-0.09711329
230	0x3ba58004	0.005050661
231	0x3db44b43	0.088034175
232	0xbc029b17	-0.007971547
233	0x3cdf3ffb	0.027252188
234	0xbd559249	-0.05214146
235	0xbdbdbc49	-0.09264428
236	0x3cbfa15b	0.02339237
237	0x3da51e60	0.08062434
238	0xbd5f6c10	-0.054546416
239	0xbd74b927	-0.059746888
240	0x3b07e371	0.002073493
241	0x3da5b336	0.080908224
242	0x3dc6ade9	0.097011395
243	0xbd80ddcc	-0.062923044
244	0xbcc67afa	-0.024228562
245	0xbdaba170	-0.08380401
246	0x3d94b32c	0.07260737
247	0xbdbe392a	-0.09288247
248	0xbc9abf10	-0.018889934
249	0x3dbe57f8	0.092941225
250	0x3da57876	0.08079617
251	0xbd31cf6d	-0.043410707
252	0x3dc48fcd	0.0959774
253	0x3ce2bc51	0.027677687
254	0xbdbb882e	-0.091568336
255	0xbb4b6bf6	-0.0031039692

enc_f.lstm.weight_ih_l0 f4 [384, 4]
0	0x3db75a69	0.08952791
1	0x3c3056c2	0.010762872
2	0xbd6d9a81	-0.058008675
3	0x3cbae874	0.02281592
4	0xbc43ee64	-0.011958692
5	0xbd1e4932	-0.038644023
6	0xbdb12f53	-0.086516045
7	0x3dbd93c3	0.09256699
8	0xbcea403a	-0.028595079
9	0x3d32d602	0.043661125
10	0x3d90bc45	0.070671596
11	0x3cada6e8	0.021197751
12	0xbd972570	-0.073801875
13	0x3cbab01e	0.022789057
14	0xbccdf607	-0.025141729
15	0xbd0ca9c0	-0.034341574
16	0x3d9a1ae3	0.075246595
17	0xbd79120d	-0.06080823
18	0xbdc1f76a	-0.094710186
19	0x3d97e930	0.07417524
20	0x3d4fb462	0.050709136
21	0x3cc80e6e	0.024420943
22	0xbc980916	-0.01855902
23	0xbc90c171	-0.017670365
24	0xbdc0d106	-0.09414868
25	0x3d1fe76d	0.039039064
26	0xbce4ec78	-0.027944788
27	0x3cc1a03e	0.02363598
28	0x3d200524	0.039067402
29	0x3db617d2	0.08891262
30	0x3d399bcf	0.045314606
31	0x3cd2e4f6	0.025743943
32	0x3bb54407	0.005531791
33	0x3da5bb7e	0.08092402
34	0xbd463d01	-0.04839802
35	0x3d91dbc1	0.07121993
36	0xbd67fa9f	-0.056635495
37	0xbd48a8d0	-0.048989117
38	0xbd879fea	-0.06622298
39	0xbd4a0d7c	-0.049329266
40	0x3da0730a	0.07834442
41	0x3d8fdb32	0.0702423
42	0xbd8f0530	-0.06983411
43	0xbdc5666d	-0.09638677
44	0x3d982efa	0.07430835
45	0x3dbf33b4	0.093360335
46	0xbccc654c	-0.024950646
47	0xbdd563ed	-0.1041945
48	0xbd843ebe	-0.064572796
49	0x3cd137bc	0.025539272
50	0x3dbd284c	0.09236202
51	0xbdaa74f6	-0.0832309
52	0x3cfdb232	0.03096876
53	0x3d37260a	0.04471401
54	0x3d810672	0.063000575
55	0xbcbc4c2a	-0.022985537
56	0xbcf3c3a6	-0.029756378
57	0x3d34a961	0.044106845
58	0x3d862954	0.065508515
59	0x3d807d1d	0.062738635
60	0xbda08142	-0.07837154
61	0xbd8dd65d	-0.06925652
62	0x3d601ef1	0.054717008
63	0x3dc97732	0.09837188
64	0x3b9a3fd4	0.004707316
65	0xbc8d7600	-0.01726818
66	0xbc5c1736	-0.013433268
67	0xbd8bf201	-0.06833268
68	0xbd9cb96e	-0.076525554
69	0xbca41f34	-0.02003441
70	0xbd564e4d	-0.052320767
71	0x3d08eb8e	0.033427767
72	0x3d0b44c8	0.03400114
73	0xbb3079c4	-0.0026928047
74	0x3bbed57f	0.0058237906
75	0xbd91735e	-0.07102083
76	0xbcd9db22	-0.026593748
77	0xbc706ef5	-0.014674892
78	0xbd8ed428	-0.06974059
79	0xbdb48b2b	-0.08815607
80	0xbdb7c811	-0.089737065
81	0xbcec75d8	-0.028864786
82	0xbd063c02	-0.03277207
83	0xbceed3d1	-0.029153736
84	0xbdc8b12e	-0.09799419
85	0x3d8c6ac6	0.06856303
86	0x3d8c034a	0.06836565
87	0xbb2194a2	-0.0024655242
88	0xbdaada0d	-0.08342371
89	0xbb539e26	-0.0032290309
90	0xbdb7f704	-0.08982661
91	0xbdcd4c1a	-0.10024281
92	0xbd219192	-0.039445467
93	0xbacf44b3	-0.0015813321
94	0x3d70f225	0.058824677
95	0xbd871563	-0.06595876
96	0xbd98983d	-0.07450912
97	0x3d73a7c1	0.059486154
98	0x3d5550e4	0.052079096
99	0x3bb54a97	0.0055325734
100	0xbdcf83ca	-0.10132559
101	0x3d87629e	0.066106066
102	0x3cf392b6	0.029733043
103	0x3dc06f0a	0.09396179
104	0x3d8bb204	0.06821063
105	0x3d8cf6fa	0.068830445
106	0x3dc9f61f	0.09861397
107	0xbc99371b	-0.018703034
108	0xbd02cec5	-0.031935472
109	0x3da57937	0.080797605
110	0x3c1cccb4	0.009570289
111	0xbd771f72	-0.060332723
112	0xbd5b7c78	-0.0535855
113	0x3d49e081	0.04928637
114	0x38ba7229	8.890435e-05
115	0x3d5134a8	0.051075608
116	0x3d291db0	0.041288078
117	0x3c6bd8f2	0.0143949855
118	0x3d58fc92	0.052975245
119	0x3d92292d	0.0713676
120	0x3db7c933	0.089739226
121	0xbd42caf9	-0.04755685
122	0x3d942a96	0.07234685
123	0xbd8b7002	-0.06808473
124	0xbcb9c664	-0.022677608
125	0x3b780274	0.003784326
126	0x3dcf0c02	0.10109712
127	0xbdc188cf	-0.09449922
128	0xbb8ed688	-0.00435907
129	0xbb2b832b	-0.0026170711
130	0xbd99b695	-0.07505528
131	0x3dc55c71	0.096367724
132	0xbdaac7bb	-0.08338877
133	0xbd26cabe	-0.040720694
134	0xbd249102	-0.040177353
135	0x3c12ea3b	0.008966978
136	0x3d50290e	0.050820403
137	0x3d9fe014	0.078064114
138	0xbcda8f1c	-0.026679568
139	0x3ca50d63	0.020147985
140	0xbd8cf79d	-0.06883166
141	0xbd9ad3af	-0.07559907
142	0xbcb77b52	-0.02239767
143	0xbd4f00f8	-0.050538033
144	0x3dd262d8	0.10272759
145	0x3a0c36fa	0.00053487683
146	0xbc6dabd4	-0.014506299
147	0xbda363ed	-0.07978044
148	0x3d4f5711	0.050620142
149	0x3d3928ee	0.04520505
150	0xbd22f4c6	-0.039784215
151	0xbdae14d5	-0.08500067
152	0x3cc9bf13	0.024627244
153	0x3dbd4b3d	0.09242866
154	0x3c380506	0.011231666
155	0xbd945652	-0.07243027
156	0xbd878344	-0.06616834
157	0x3d0317a6	0.032004975
158	0x3a39d60d	0.0007089086
159	0xbd75f1cf	-0.06004506
160	0xbcf59e61	-0.029982748
161	0x3d4e342e	0.05034273
162	0xbd1cb8d2	-0.038262196
163	0x3d2911a6	0.041276596
164	0x3cf389af	0.029728739
165	0xbdc55ed7	-0.0963723
166	0xbd845304	-0.064611465
167	0xbdbcfa97	-0.09227484
168	0xbcf8d1ed	-0.030373538
169	0xba258d45	-0.0006315301
170	0x3d813a30	0.063099265
171	0xbda84794	-0.082167774
172	0x3d3402fd	0.043948162
173	0xbd991dc8	-0.074763834
174	0x3d7be6ab	0.06149928
175	0xbcee03af	-0.02905449
176	0xbd716e51	-0.058943097
177	0x3c8f4380	0.017488241
178	0xbc2d268b	-0.010568271
179	0xbd07b4ba	-0.03313134
180	0x3dc16559	0.09443159
181	0x3af9c3b4	0.0019055516
182	0x3d67ab84	0.056560054
183	0x3b2d7e00	0.0026472807
184	0x3cc68f05	0.024238119
185	0xbd7051f2	-0.0586719
186	0x3d60ada3	0.054853093
187	0xbd867004	-0.06564334
188	0xbb8290c0	-0.0039845407
189	0xbd7b2229	-0.061311875
190	0x3d9bb0b3	0.07602062
191	0x3d9cb07e	0.07650851
192	0xbd98595b	-0.07438918
193	0x3ca34e41	0.019934775
194	0xbd54381d	-0.051811326
195	0xbda2c735	-0.07948152
196	0xbd875688	-0.066083014
197	0xbc096125	-0.0083849775
198	0x3dcef963	0.101061605
199	0xbd9954b9	-0.07486863
200	0x3dae4735	0.085096754
201	0xbd94abbe	-0.0725932
202	0xbd70fe85	-0.05883648
203	0x3d092402	0.033481605
204	0x3da0aa8b	0.078450285
205	0x3da5daf6	0.08098404
206	0xbb39f295	-0.002837335
207	0xbd6870d5	-0.05674823
208	0xbbe51a57	-0.0069916653
209	0xbd9a9a3f	-0.07548951
210	0x3cd615dd	0.026133472
211	0xbda2cd08	-0.07949263
212	0xbd6d7f74	-0.057982877
213	0xbd9875f6	-0.07444374
214	0xbda3fccb	-0.08007201
215	0x3db8c5a1	0.0902207
216	0x3c8aaf82	0.016929392
217	0x3cc4dab3	0.024030065
218	0x3db79e91	0.08965791
219	0xbd0edc3b	-0.034877997
220	0xbc0d340d	-0.008618367
221	0x3cd0f3fd	0.025506968
222	0xbdc44b33	-0.095846556
223	0xbd923a8c	-0.07140073
224	0xbcf705d1	-0.03015414
225	0x3d2f4017	0.04278573
226	0x3cbb1d84	0.022841223
227	0x3c9bca0c	0.019017242
228	0xbd112c55	-0.03544267
229	0x3d83bba7	0.06432276
230	0x3d9a278a	0.07527073
231	0xbc630dd9	-0.013858282
232	0x3d0f266e	0.03494876
233	0xbcc35579	-0.023844467
234	0x3cd9e78a	0.026599664
235	0x3da4c868	0.08046037
236	0x3d8ad4b5	0.06778852
237	0xbd0f54e0	-0.034993052
238	0xbd44a56a	-0.048009314
239	0x3ca5dba1	0.020246329
240	0x3d2e4f49	0.04255608
241	0xbd09738d	-0.033557463
242	0xbdca13b3	-0.098670386
243	0xbccaf319	-0.024774121
244	0xbc45fcc5	-0.012084191
245	0x3c1466d6	0.009057721
246	0x3d651029	0.055923615
247	0x3dc20b9f	0.09474873
248	0xbdcca5ef	-0.09992587
249	0xbd8ccf9d	-0.068755366
250	0x3db04f5f	0.08608889
251	0xbdc0512d	-0.09390483
252	0xbd31a917	-0.043374147
253	0xbb73b10d	-0.0037184388
254	0x3dbae086	0.09124856
255	0x3d1f4a32	0.038889118

enc_f.lstm.weight_hh_l0 f4 [384, 96]
0	0xbcc69de2	-0.024245206
1	0xbd259264	-0.040422812
2	0xbd8f13c0	-0.06986189
3	0xbda608dc	-0.081071585
4	0xbda73cd5	-0.081659
5	0xbd9d249c	-0.07672998
6	0x3d840afb	0.06447407
7	0x3bc0657f	0.0058714743
8	0xbda55a5f	-0.080738775
9	0xbcbbe54f	-0.022936491
10	0xbd106a75	-0.035257775
11	0x3d345cef	0.04403394
12	0x3d762f5d	0.060103763
13	0xbdade84d	-0.084915735
14	0x3dcb936a	0.099402264
15	0xbd166cf2	-0.036724992
16	0x3d983e49	0.07433755
17	0x3d864f82	0.06558134
18	0x3d641d5c	0.05569206
19	0x3da9ba5d	0.08287499
20	0xbd87caf8	-0.0663051
21	0xbd4254ce	-0.047444157
22	0xbcf6f356	-0.030145328
23	0x3cf6db51	0.030133875
24	0x3b6e6de2	0.0036381413
25	0x3da140c5	0.07873682
26	0xbd29e8bf	-0.04148173
27	0x3cf34ec1	0.029700639
28	0x3ccb81c0	0.024842143
29	0xbd8d90f2	-0.06912412
30	0x3d9fd661	0.078045614
31	0x3dca130f	0.098669164
32	0x3cc5cbdd	0.024145061
33	0x3db3d33f	0.08780526
34	0x3db1c755	0.08680598
35	0xbd47f53f	-0.04881787
36	0xbd1d8e6f	-0.038465913
37	0xbd95f1b8	-0.07321495
38	0xbc9da292	-0.019242559
39	0x3d594531	0.0530445
40	0xbd0f687d	-0.035011757
41	0x3d81adc1	0.06331969
42	0xbb3e4e36	-0.0029038317
43	0xbd62a151	-0.055329625
44	0x3cc4b49e	0.024011906
45	0xbd8ac5df	-0.06776022
46	0x3d8db01e	0.06918357
47	0x3d93f3ee	0.0722426
48	0xbd48991c	-0.04897414
49	0x3d4701d5	0.04858573
50	0xbd8c35eb	-0.068462215
51	0x3ce6a036	0.028152566
52	0xbd9a206f	-0.075257175
53	0xbdafc213	-0.085819386
54	0xbbbeeb58	-0.005826395
55	0x3d6ee5b1	0.05832452
56	0xbb968963	-0.0045940145
57	0x3d064cd0	0.032788098
58	0xbccb209d	-0.024795825
59	0x3dc84f5f	0.09780764
60	0x3d9118cc	0.07084808
61	0xbd821733	-0.06352081
62	0xbc7e84b9	-0.015534573
63	0x3db510ee	0.0884112
64	0xbd85db32	-0.06535949
65	0x3d598620	0.053106427
66	0x3cb809e5	0.022465656
67	0xbd4e17f8	-0.050315827
68	0x3d1c726f	0.03819507
69	0xbd5d08ab	-0.053963345
70	0xbd9049a5	-0.070452966
71	0xbcbd6402	-0.023118977
72	0xbd5e2151	-0.05423099
73	0x3d4f46f0	0.05060476
74	0xbd406925	-0.046975274
75	0x3cbc6b67	0.023000432
76	0x3da1a934	0.07893601
77	0x3da934b1	0.08262003
78	0x3d90333d	0.07041023
79	0xbdcafc17	-0.099113636
80	0x3dbc1057	0.09182804
81	0xbdd04f88	-0.101714194
82	0xbd26840f	-0.040653285
83	0x3d1bf4e5	0.038075346
84	0xbd1a1fec	-0.0376281
85	0xbd848ed2	-0.06472553
86	0x3dc88e08	0.09792715
87	0x3dcdec5d	0.10054848
88	0xbd4ca1cd	-0.049958993
89	0x3da3b804	0.079940826
90	0xbd835ef7	-0.064145975
91	0xbd2fcecd	-0.04292183
92	0xbd8a4a86	-0.067524955
93	0xbd8e5005	-0.06948856
94	0xbc882054	-0.016616978
95	0xbdab1592	-0.083537236
96	0x3c32fbbf	0.010924279
97	0x3c19f0be	0.009395776
98	0xbdbf65a4	-0.09345558
99	0x3db4ae06	0.08822255
100	0x3da50feb	0.08059677
101	0xbd9b7c01	-0.07592011
102	0xbd79d97b	-0.06099842
103	0x3c1cd848	0.00957305
104	0x3cc5910a	0.024117012
105	0xbdc6498f	-0.09681999
106	0xbd452c30	-0.048137844
107	0xbd8e470e	-0.06947146
108	0xbb033038	-0.0020017754
109	0x3ceb7c5b	0.02874582
110	0xbd657802	-0.05602265
111	0x3d4f8613	0.050664973
112	0xbd8ff832	-0.070297614
113	0x3dba133d	0.09085701
114	0xbccb41ad	-0.02481159
115	0xbd858c53	-0.06520905
116	0x3bcf0159	0.0063172993
117	0x3c53b1c4	0.012920801
118	0x3c71e101	0.014763118
119	0x3dc52613	0.09626403
120	0xbdbadc7d	-0.09124086
121	0x3d28c890	0.041206896
122	0xbd2cc9c6	-0.042184614
123	0x3cb5808a	0.022156019
124	0x3d753bf2	0.05987162
125	0x3ca820c4	0.020523436
126	0xbc05bba6	-0.008162415
127	0x3cda99af	0.02668461
128	0x3c9c70d1	0.019096764
129	0xbd9dd69f	-0.07706951
130	0xbd88541d	-0.06656668
131	0xbcdd14de	-0.02698749
132	0xbd64f579	-0.055898163
133	0xbb29a136	-0.0025883443
134	0xbdb8cabe	-0.09023045
135	0x3bd30a70	0.006440453
136	0xbda22d06	-0.07918744
137	0xbd26f81f	-0.04076397
138	0x3d5dd913	0.054162096
139	0xbd918d07	-0.07106977
140	0xbd9e9453	-0.07743134
141	0xbc6d6894	-0.014490265
142	0xbd11087a	-0.035408475
143	0x3d9a0a7f	0.07521533
144	0x3d8194a5	0.0632718
145	0x3da42934	0.08015671
146	0x3dc97b47	0.098379664
147	0x3c7aa8c3	0.015299025
148	0xbdb8819c	-0.09009096
149	0xbccdfcac	-0.025144897
150	0xbd92fad5	-0.07176749
151	0xbbbbaa86	-0.005727115
152	0xbd632818	-0.05545816
153	0xbd92dc6c	-0.071709484
154	0x3d0067a1	0.03134883
155	0x3db7b19e	0.08969425
156	0xbdb7828d	-0.089604475
157	0xbd826f79	-0.06368918
158	0xbd91c384	-0.0711737
159	0xbd16e120	-0.03683579
160	0x3d5cfe0f	0.053953227
161	0xbdb0cb73	-0.08632555
162	0xbd3d9015	-0.046279985
163	0x3b56b8c8	0.0032763947
164	0x3d2a184f	0.04152709
165	0x3d72d748	0.05928734
166	0x3db1283d	0.08650253
167	0x3d8e364c	0.0694395
168	0x3c17bca4	0.009261284
169	0xbc8879ff	-0.016659735
170	0xbce357bb	-0.027751794
171	0xbdabfd2f	-0.083979
172	0xbd1c913b	-0.03822444
173	0x3d5f762d	0.05455606
174	0x3d9cdbb6	0.07659094
175	0xbb2ae230	-0.002607476
176	0xbd87ac9b	-0.06624719
177	0xbdb79efa	-0.08965869
178	0xbdadfb17	-0.08495157
179	0xbcbf3efe	-0.023345467
180	0x3d9e6516	0.07734124
181	0xbd71825a	-0.058962204
182	0xbda91f19	-0.082578845
183	0x3d30b60f	0.043142375
184	0xbd6783b7	-0.056522097
185	0x3cc7dbff	0.024396894
186	0xbdb1c600	-0.08680344
187	0xbd78d584	-0.0607505
188	0x3c8e1a51	0.017346533
189	0x3dd23ef8	0.102659166
190	0x3d8d5468	0.06900865
191	0xbb0c79e9	-0.0021434969
192	0xbd0c8608	-0.03430751
193	0x3d6c80a4	0.05773987
194	0xbd9b73f6	-0.07590477
195	0x3d3a9ee7	0.045561697
196	0x3dbefb99	0.09325332
197	0x3bb77a18	0.0055992715
198	0x3c387594	0.011258502
199	0x3d6e1951	0.058129612
200	0xbd199247	-0.037493017
201	0xbd4e7f72	-0.05041451
202	0x3db26d76	0.08712284
203	0x3db18e44	0.08669713
204	0x3cac1479	0.021005856
205	0x3c686e08	0.01418639
206	0xbd6b5dbb	-0.057462435
207	0xbd6c53ad	-0.057696987
208	0xbdc108cb	-0.09425505
209	0x3d55046e	0.052006178
210	0xbd890350	-0.06690085
211	0x3dc29f70	0.095030665
212	0xbb4eb66c	-0.0031541837
213	0x3d811221	0.06302286
214	0xbb80a6e4	-0.003926145
215	0x3d8b6cb4	0.06807843
216	0x3d726434	0.059177592
217	0x3d90459d	0.07044528
218	0x3d8ec8c3	0.06971886
219	0x3d93ef11	0.07223333
220	0x3dc73e24	0.09728649
221	0x3dae9a86	0.08525567
222	0x3baed1cf	0.0053350697
223	0x3cebd04c	0.028785847
224	0xbd8595f3	-0.06522741
225	0xbb6cc8af	-0.003613036
226	0x3ca5f38f	0.02025774
227	0x3cece50a	0.028917808
228	0xbda694a4	-0.0813382
229	0xbd4441cd	-0.047914315
230	0xbd8c72d3	-0.068578385
231	0xbda47556	-0.080301926
232	0x3d0ad201	0.03389168
233	0x3db4ea43	0.088337444
234	0x3d4fea11	0.050760332
235	0x3d41d4b2	0.047321983
236	0xbd8297c2	-0.06376602
237	0x3da78bcf	0.08180963
238	0x3cde7b77	0.027158482
239	0xbd7976d5	-0.060904343
240	0x3d5cab13	0.053874087
241	0x3d8e36e2	0.06944062
242	0xbc6432ee	-0.013928158
243	0x3dbed9b5	0.09318868
244	0x3daede17	0.08538454
245	0x3c7bed8a	0.015376458
246	0x3d50a5ba	0.0509393
247	0xbdd35779	-0.103194185
248	0xbb4da4f1	-0.003137883
249	0xbd0cfe5b	-0.03442226
250	0x3dbf88ab	0.09352239
251	0xbdb994c0	-0.09061575
252	0x3bc840c9	0.0061112386
253	0x3d8348a4	0.064103395
254	0xbd360524	-0.044438496
255	0x3da033ba	0.07822366

enc_f.lstm.bias_ih_l0 f4 [384]
0	0x3da22ab1	0.07918299
1	0x3dc67973	0.09691133
2	0x3d8bb10a	0.06820877
3	0x3d0e69f1	0.034769002
4	0xbd090ba7	-0.03345838
5	0x3b699947	0.003564434
6	0x3d35bec4	0.04437138
7	0xbc93f8a5	-0.018062899
8	0x3db6887d	0.08912752
9	0xbc56497d	-0.013079044
10	0x3d39cd3e	0.04536175
11	0xbda9f89e	-0.08299373
12	0x3c88ff90	0.016723424
13	0x3d8e6219	0.069523044
14	0xbd26f773	-0.04076333
15	0xbcdba55d	-0.02681225
16	0xbdbb98da	-0.091600135
17	0xbd748129	-0.05969349
18	0x3b0ecb64	0.002178871
19	0xbd4b4193	-0.049623083
20	0xbd3f029a	-0.04663334
21	0x3c4d7ea1	0.012542398
22	0x3d366ccc	0.04453735
23	0xbdc1907a	-0.09451385
24	0x3d80cbc4	0.06288865
25	0x3c3b062e	0.011415048
26	0xbd14573f	-0.036216017
27	0x3c7760c7	0.015098757
28	0xbdc167b0	-0.09443605
29	0xbd00b2a0	-0.03142035
30	0xbd42dae7	-0.047572043
31	0xbd97b232	-0.07407035
32	0xbd09aea4	-0.033613816
33	0xbd38d34f	-0.045123395
34	0xbdaf1532	-0.085489646
35	0xbd7bd53a	-0.061482646
36	0x3c3173e2	0.010830851
37	0x3dba4235	0.09094659
38	0xbd56312d	-0.05229299
39	0xbd078abd	-0.033091296
40	0x3cf8cf7d	0.030372376
41	0x3cee4a17	0.029088063
42	0xbd6d80c6	-0.057984136
43	0x3d34acaa	0.044109978
44	0xbdca43e1	-0.09876228
45	0xbd4a8694	-0.04944475
46	0xbdb9b205	-0.09067158
47	0xbc95f051	-0.018303068
48	0x3da05c1a	0.07830067
49	0x3d47bd83	0.048764717
50	0x3d828a24	0.063740045
51	0xbd98aa91	-0.07454408
52	0x3ce4fe68	0.027953342
53	0xbd12540c	-0.035724685
54	0xbc2d42a2	-0.0105749685
55	0x3da306eb	0.07960304
56	0xbd4260f4	-0.047455743
57	0x3c85a229	0.016312676
58	0xbd832c52	-0.06404938
59	0xbd68bf31	-0.05682296
60	0x3db1be50	0.08678877
61	0xbcac9ab8	-0.02106987
62	0xbdbea736	-0.09309237
63	0x3b6c5157	0.0036059225
64	0xbda9f61e	-0.08298896
65	0x3c93cbb6	0.018041473
66	0xbdab82a3	-0.08374526
67	0x3dc7d781	0.09757901
68	0x3db89d4d	0.09014378
69	0xbdab1686	-0.083539054
70	0x3d2f50f2	0.042801805
71	0xbb8259c0	-0.003977984
72	0x3dc73718	0.09727305
73	0xbc87d50e	-0.016581085
74	0x3d191f53	0.03738339
75	0xbdd2aa1b	-0.10286351
76	0x3ce1e72c	0.027576052
77	0xbd70ef87	-0.05882218
78	0x3cf69ed5	0.030105034
79	0x3d975337	0.07388919
80	0x3cf1cede	0.029517587
81	0xbd77c25e	-0.060488097
82	0xba30f05b	-0.0006749683
83	0xbd09cb19	-0.033640955
84	0xbdb628df	-0.08894514
85	0xbdb6c0ad	-0.08923469
86	0xbc893bbf	-0.016752122
87	0x3d5f35c0	0.05449462
88	0x3d5b689a	0.053566553
89	0xbda0ec49	-0.07857568
90	0xbd1107cf	-0.035407837
91	0x3db9de51	0.090756066
92	0xbd114d40	-0.035474062
93	0xbc8d5116	-0.017250579
94	0x3dcff2b7	0.10153716
95	0xbda9d1ef	-0.08291995
96	0x3d8c2e00	0.06844711
97	0xbdc0915a	-0.094027236
98	0xbd17452b	-0.036931198
99	0x3da6a913	0.08137717
100	0x3d6b7843	0.057487737
101	0x3dcb9cfb	0.09942051
102	0xbd3c4d64	-0.045972243
103	0xbdc71d63	-0.09722402
104	0x3d2da864	0.042396918
105	0xbdd36a5c	-0.10323021
106	0x3d223318	0.039599508
107	0xbd58cac4	-0.052927747
108	0xbd472688	-0.04862073
109	0x3d937d98	0.072016895
110	0x3cfeb7c2	0.031093482
111	0xbdb3652e	-0.08759533
112	0x3d9b2fa2	0.075774446
113	0xbd9abc87	-0.0755549
114	0xbd90776b	-0.07054027
115	0xbcf30e2d	-0.029669845
116	0xbd0ea820	-0.034828305
117	0xbd8f6e46	-0.07003455
118	0xbd546a65	-0.05185928
119	0x3d036ac4	0.03208424
120	0x3b3c8dc7	0.002877103
121	0xbd7bff34	-0.061522678
122	0xbd2e6456	-0.042576157
123	0x3b21cec3	0.002468989
124	0x3d8c8c0c	0.06862649
125	0x3c8a3bc0	0.016874194
126	0x3d9260f2	0.07147397
127	0x3d9f412a	0.07776101
128	0xbabc28fa	-0.0014355474
129	0x3c96170b	0.018321535
130	0xbd752dc6	-0.059858106
131	0xbcb79531	-0.022410007
132	0xbd96100d	-0.0732728
133	0x3d5e37b3	0.054252338
134	0xbd94ec13	-0.0727159
135	0xbce984b2	-0.028505657
136	0xbd93dee9	-0.07220251
137	0x3dbf20a1	0.09332395
138	0xbd161b37	-0.036647048
139	0x3bba512f	0.0056859474
140	0x39594502	0.0002072044
141	0x3d56d383	0.052447807
142	0x3dab70e0	0.083711386
143	0xbd979ef1	-0.074033625
144	0x3d5a2179	0.05325458
145	0x3ca6864a	0.020327706
146	0x3c45aa2b	0.012064497
147	0xbda64980	-0.08119488
148	0x3d4231e8	0.047410876
149	0xbcdf951a	-0.027292777
150	0xbc88e447	-0.016710414
151	0xbdab597e	-0.08366679
152	0x3da4f988	0.08055407
153	0x3c436bd2	0.011927562
154	0xbd3acab0	-0.045603454
155	0xbdb0fec0	-0.0864234
156	0xbcd812f7	-0.02637623
157	0xbd8449dd	-0.06459401
158	0xbcf7e9a5	-0.030262778
159	0xbd52d493	-0.051472258
160	0xbd9ff340	-0.07810068
161	0x3d43997e	0.047753803
162	0x3daea1ee	0.085269794
163	0x3d8433fa	0.06455226
164	0xbc81fb2c	-0.015866838
165	0xbce5f92c	-0.028072916
166	0xbca70a1b	-0.02039056
167	0xbdb9e6b6	-0.09077208
168	0x3d1f9ba1	0.03896678
169	0xbd82a1ae	-0.06378494
170	0xbdb42d6b	-0.08797725
171	0xbc8c0663	-0.01709289
172	0x3cff5fc3	0.031173592
173	0xbdbc95c1	-0.09208251
174	0x3dc5d83f	0.09660386
175	0x3d8494e1	0.06473709
176	0xbd40942b	-0.047016304
177	0x3dbb252a	0.09137948
178	0x3d631326	0.055438183
179	0xbc039621	-0.008031399
180	0xbc2c68c9	-0.01052303
181	0xbdaf172f	-0.08549344
182	0x3dbd9956	0.09257762
183	0xbd8647cd	-0.06556664
184	0xbdb370af	-0.08761727
185	0x3d70aa0e	0.058755927
186	0x3dcdca93	0.100484036
187	0x3cfb1334	0.030648805
188	0x3b77cf04	0.00378126
189	0xbc2f919c	-0.010715868
190	0x3d5a4415	0.053287584
191	0x3d1016c2	0.035177954
192	0xbda4519d	-0.08023379
193	0x3d900ece	0.07034074
194	0xbd538449	-0.05163983
195	0xbd06525f	-0.0327934
196	0xbd66ab92	-0.056315966
197	0xbd86a3a7	-0.06574183
198	0x3d5c58f9	0.05379579
199	0xbd9594b7	-0.07303756
200	0xbd66ebbe	-0.056377165
201	0xbd1dde1b	-0.038541894
202	0xbda68367	-0.08130532
203	0xbdc17aa2	-0.094472185
204	0x3c5abb0c	0.0133502595
205	0x3cd62f1d	0.026145512
206	0xbdcbbb60	-0.09947848
207	0xbd75b67d	-0.059988488
208	0xbc02a2d7	-0.007973394
209	0x3cef9ea3	0.029250449
210	0xbd00c19d	-0.031434644
211	0x3da9c89a	0.08290215
212	0x3d810f99	0.06301803
213	0xbdaf9ed4	-0.08575216
214	0xbd19ad9b	-0.03751908
215	0xbd5b3dfa	-0.053525902
216	0x3c41113a	0.011783892
217	0x3c892fa0	0.016746342
218	0xbd1c27fb	-0.038124066
219	0x3db17523	0.0866492
220	0x3da2aabc	0.07942721
221	0x3b5507cd	0.003250587
222	0x3ccc5732	0.024943922
223	0x3b75608c	0.003744158
224	0x3c1c6fdd	0.009548155
225	0x3d93a497	0.072091274
226	0x3d8991ce	0.06717263
227	0x3d3b89ce	0.045785718
228	0xbdcba609	-0.09943778
229	0x39e3d9f2	0.00043459196
230	0xbdc6202f	-0.09674107
231	0x3d11c3ca	0.03558711
232	0x3dbe1753	0.092817925
233	0xbd1a6a68	-0.037699133
234	0xbd74cd0a	-0.059765853
235	0x3d67b09c	0.056564912
236	0x3d6f915f	0.058488246
237	0x3daa908d	0.08328352
238	0x3dbd657e	0.09247874
239	0x3dc9d18d	0.09854422
240	0xbdb34acf	-0.08754503
241	0x3ced036f	0.028932301
242	0x3d889d5b	0.06670638
243	0xbd883c93	-0.066521786
244	0xbd43bca0	-0.04778731
245	0x3dabd7fb	0.083908044
246	0x3cac8439	0.021059142
247	0xbd5fa459	-0.054600094
248	0xbd87a935	-0.066240706
249	0x3ce6bb54	0.028165497
250	0xbdb8391b	-0.08995267
251	0xbda93dbf	-0.0826373
252	0xbdac4ddf	-0.0841329
253	0xbd5a01f3	-0.053224515
254	0xbc3675eb	-0.011136512
255	0x3da28e28	0.079372704
