_train/_models/20250919/현대백화점(069960)_20250919.pt (torch, 831847 bytes, 20 tensors)

enc_p.lstm.weight_ih_l0 f4 [384, 6]
00000000: a280 ad3d 6a51 043d 2201 02bd f3be cd3d
00000010: 85f9 553c 9d46 bc3c d34c 8cbd f0d1 9ebd
00000020: 98fb 023d 0f57 a5bd 38f2 7d3d 023a 91bd
00000030: 0cb3 bdbd 3812 a53c 624f 0abb de9a fc3c
00000040: 8bbb b53d 0f60 21bc 7e24 f13b 962e c3bd
00000050: 40e1 9dbd bd55 1dbd 352c bb3d 3d45 a43d
00000060: 1c7e b7bd bdcf a8bb 4dd7 ca3d c24a cbbd
00000070: 0f81 acbd 003c 28bd c7d4 84ba 2e0e 6e3b
00000080: af67 d6bc 9a81 613d 3817 3bbd beb1 563d
00000090: 8823 29bd 3d24 40bc 94ee be3d cb22 8cbd
000000a0: fc3d 263d a928 a8bd 8c56 a0bd 966f 58bd
000000b0: 4833 65bd 5412 233d 089a b8bd 44ab 6abd
000000c0: 2b67 373c 2d5c 74bc 32e2 8dbd 384c acbd
000000d0: 759b bebd 995d 9a3d fb9f 903d 3440 6d3d
000000e0: 5802 ab3d d1e1 52bd 77d4 883d 9137 b83d
000000f0: f321 c83d f6e4 92bd 1da1 b53d 5b63 043d
00000100: 90f1 ac3d 82d2 78bd 8651 80bc efc8 ac3d
00000110: 274a 2e3a 922f 993c 3a0e 2a3d d700 cc3d
00000120: 121a 973d 1257 f53b 5466 963c 874a 62bd
00000130: 4eb4 c43c eae2 86bd cec3 af3d 74c5 28bb
00000140: ed2c 043d 23c1 bb3c df81 2fbd ed3c c63c
00000150: 9af7 9dbd df20 cabc b91f bb3c 1330 24bd
00000160: be5d 353d 4ab7 b73d b55c bb3d 9147 133d
00000170: 5ac8 06bc 1260 ae38 9673 7ebd 2019 643d
00000180: cae2 8bbd 2a23 5dbd 79d5 32bd 9884 3f3c
00000190: 52eb 833d c0a2 883d 8c18 1dbc 79d9 383d
000001a0: 8d76 06bc ee9f 153d d71c bfbc 15d4 0e3d
000001b0: e873 f6bc 2273 9b3d 9468 cb3d 19e5 23bd
000001c0: 8547 123c 933d 113c b0bb e3ba 4c5d d73c
000001d0: 75ec 2abd 495c 84bd b612 85bd 8615 82bd
000001e0: 564c a53d dfbc b63d e377 cbbd ba18 dd3c
000001f0: 4b62 85bc db6a 83bd 093a be3d be20 bc3b
00000200: 2848 113d 6404 91bd 4a59 ac3d ed3a 7b3d
00000210: b5e4 3d3d 5863 cebc b736 09bc 8a96 50bd
00000220: 71f7 81bc da74 9dbd 779f 06bd 859c 27bd
00000230: 7f21 983d 971f 69bc ac85 f63c 99b2 c33d
00000240: 2e91 cc3d 5ce5 aa3d c067 70bc da36 553d
00000250: 8915 5fbd 0d02 02bd 7413 cc3c 64fa 823d
00000260: d2a5 0c3c 929a 2cbd 8ca5 babd 1e6f a63c
00000270: 38cf a13d f30f 06bd c1d4 bf3c 41ea b23d
00000280: 5e88 763d 26d7 bb3d 2352 10bc 840d cbbd
00000290: 2906 5abc 96f0 0d3c 64b4 3c3a 9da8 bc3d
000002a0: b84b 3dbc 62b3 b53d daff 49bd c85a c3bd
000002b0: 7ec5 b3bd aab3 d1bc 6de6 3b3d fca2 ce3c
000002c0: 97da 823c cc84 58bd 7de4 30bc 8851 463d
000002d0: 9f46 55bd 4216 ae3d 2f96 ba3c 29a1 41bd
000002e0: 6af2 9dbd ee52 bebc 556b 34bd ef37 883d
000002f0: aac9 613c f117 26bc 73ca 9bbd f5e8 ab3d
00000300: 76d6 63bd c12a 4b3d b3d9 bc3d 50fd 69bc
00000310: 05c5 b6bd 5a2c ca3d c5dc 96bd 0257 a7bd
00000320: 6f72 80bc d015 9b3d 115a c1bd 6e39 b03d
00000330: b84c 8d3d c1e9 3a3d ab0e 053d eaff 693c
00000340: 7810 23bd b4f1 a93d 90c4 82bd 2ac7 783c
00000350: 7e19 a43c 0c50 943d 7b8a 863d 9323 0fbd
00000360: 9651 96bd 6eeb 1c3d 0b40 a1bd 2aa1 753c
00000370: c58f 453d 1cc2 8bbd 1d1a c4bd d9fc 593d
00000380: 428f 89bd a7c8 b3bc 7ebb 8c3d d261 ca3d
00000390: 6d8f a3bd 5bb2 94bd 082c aabc 471b 9cbb
000003a0: 0134 2e3d 4f01 04bc 15b9 0abd 739d 3a3c
000003b0: 62cb 913d 2292 84bd abdd bdbd 3ce2 f73c
000003c0: 9509 f9bc a23a c5bd 93a4 9e3d 12a9 aa3d
000003d0: 7991 88bd e167 7ebc d485 cb3c 9a80 d2bd
000003e0: 8d8d af3d 9aae b1ba 9959 c3bd 0763 153d
000003f0: 322f bd3c 0d10 4a3d 6fad 5e3d c9a3 2c3d
0.084718004 0.032304205 -0.03173936 0.10046186 0.013059978 0.02298289 -0.068505906 -0.07754886
0.03197822 -0.08073246 0.061998576 -0.07091142 -0.09262666 0.020150289 -0.0021104445 0.030835565
0.088736616 -0.009849562 0.0073590865 -0.0953037 -0.07708979 -0.038411845 0.09139291 0.08021019
-0.089596 -0.0051517175 0.099043466 -0.09926368 -0.084230535 -0.041072845 -0.0010134213 0.003632437
-0.026172487 0.05505524 -0.04567644 0.052415602 -0.04129365 -0.01172739 0.09322849 -0.06842574
0.040586457 -0.0821088 -0.078290075 -0.05284079 -0.05595711 0.0398124 -0.09013754 -0.057292238
0.011194031 -0.014914555 -0.06927909 -0.08412975 -0.09306995 0.075373836 0.07061764 0.057922557
0.083500564 -0.051484887 0.066811495 0.089949735 0.097721 -0.07172577 0.088686205 0.032321315
0.08444512 -0.06074763 -0.015663873 0.084367625 0.0006648623 0.018699441 0.041517474 0.09961098
0.073780194 0.007487186 0.01835934 -0.055246856 0.024011757 -0.06586249 0.08582269 -0.0025752457
0.032269407 0.022919243 -0.042848464 0.024198974 -0.07713242 -0.024673877 0.022842275 -0.04008491
0.044278853 0.089705065 0.09148542 0.035956923 -0.0082264785 8.314861e-05 -0.06212195 0.055688024
-0.06830366 -0.053988613 -0.043660615 0.011689328 0.06441368 0.06671667 -0.009588372 0.045129273
-0.008206976 0.036529474 -0.023329182 0.034870226 -0.030084565 0.07590319 0.09932056 -0.040013406
0.008928184 0.008864778 -0.0017374661 0.026289605 -0.04172941 -0.064629145 -0.064977095 -0.063517615
0.080712005 0.08922743 -0.09934976 0.02698933 -0.016282221 -0.064168654 0.09288413 0.005741208
0.035469204 -0.070809156 0.08415468 0.061335493 0.04636069 -0.025193855 -0.008374861 -0.050924815
-0.01586506 -0.07688303 -0.03286692 -0.040920753 0.07428264 -0.014228723 0.030093037 0.09555549
0.09988628 0.08344528 -0.014673173 0.052054264 -0.054463897 -0.031740237 0.02491162 0.063954145
0.0085844565 -0.042139597 -0.09113607 0.020316657 0.07900852 -0.032730054 0.023416879 0.08736087
0.060188644 0.09171896 -0.008808645 -0.09914687 -0.013307133 0.008663317 0.0007198511 0.09211848
-0.011553697 0.08872105 -0.049316265 -0.095387995 -0.08777903 -0.025598366 0.045874048 0.025224201
0.015973372 -0.05286102 -0.010796663 0.048417598 -0.052069303 0.08500339 0.022776691 -0.047272835
-0.077122524 -0.023232903 -0.044047672 0.066512935 0.013780991 -0.010137544 -0.076069735 0.083940424
-0.055624448 0.04960132 0.0922121 -0.014281586 -0.08924297 0.09871741 -0.07366327 -0.08170892
-0.015679566 0.0757252 -0.09441007 0.08604704 0.068993986 0.04563308 0.03248469 0.014282206
-0.039810628 0.08298054 -0.063851476 0.015184203 0.020031687 0.0724183 0.06569382 -0.034946036
-0.0733978 0.03831046 -0.07873543 0.014992038 0.048232812 -0.06824133 -0.09575293 0.05321965
-0.067167774 -0.021946264 0.06871699 0.09881939 -0.07986341 -0.07260581 -0.020772949 -0.004763994
0.042530064 -0.008056953 -0.033867914 0.011390078 0.0711887 -0.06473185 -0.092707954 0.030259244
-0.030400077 -0.09630324 0.07746234 0.08333029 -0.06668372 -0.015527696 0.024844088 -0.10278435
0.085719205 -0.0013556064 -0.09538574 0.036471393 0.023093794 0.049331713 0.054364618 0.042148385

enc_p.lstm.weight_hh_l0 f4 [384, 96]
00000000: 6299 98bc 06a6 b0bd 0124 92bc 5d7b cb3d
00000010: 4a81 42bd b90e 90bc 4e23 a0bd 595c 8d3d
00000020: a1e4 bcbd b4d4 b03d 3e7c cb3d 7d74 0d3d
00000030: c4b0 803d 1f3b cdbb a2e0 2bbc 43be b9bd
00000040: 94ad 3dbd a91d 98bd f4dd 7ebc 1311 1cbc
00000050: 7c70 113d 5200 01bd fcfb a1bd 3221 a13d
00000060: 8077 b33d 97fb 4bbd 4b47 443d 3e11 c1bc
00000070: c1dc fcbc af0f f83c cad5 413d b5a0 4c3d
00000080: bfff 20bc f097 353d df8c 873d e0e9 73bd
00000090: 97fe 813c d148 d5bc 7f51 b2bd 01a0 49bd
000000a0: 5539 27bd c481 a0bd 5c45 36bd 3522 94bd
000000b0: ef95 c53d ef95 89bd f4bc c2bb d6ca eebc
000000c0: de9a 57bc e042 a3bc 7982 9f3d b9fc 043d
000000d0: f2e4 9c3d 0ae5 c6bd cb96 32bc f320 23bc
000000e0: 3cd4 7abd db75 2f3d 1f3f cb3d 8c99 c1bd
000000f0: 78e8 4bbd 9d00 953d 2f18 19bd 05f4 74bd
00000100: 539d eb3c ba64 2cbd 902f 7ebc 2c3a 603d
00000110: 6cf9 60bd d984 4dbd c742 babd 974d 373d
00000120: 5331 1bbb f362 b03d 00b3 b0bd 75a1 b73d
00000130: 2b52 aa3d 0801 b43d 6439 b43d 4d0f ac3c
00000140: 41bc 383d dbf1 493d 22ae 823c 36a4 bbbd
00000150: 7cca 82bb a934 b2bd 3ef5 423d e54a 24bd
00000160: 22ba cf3c de6b a1bc 06eb cabd ed76 a0bd
00000170: 660e e83c 8b5e eb3c b7f9 5739 5617 c7bd
00000180: 21e3 aa3d d711 c93b f03c 4c3c 3916 8bbd
00000190: 722d 373c 4720 c13d 50b9 15bd fe31 11bd
000001a0: 24be c5bc 3f87 d83c 952b 3cbd ade0 86bc
000001b0: 7db1 a53c afd8 75bc 7cee 2bbd 991b 7b3c
000001c0: 42d8 b73d 40b7 55bd 6059 1c3d aa61 7c3d
000001d0: f80f 873d 3179 cd3d 806a 29bd 8c36 393c
000001e0: f8ae 983d 022c 68bd ef87 c4bd 8c73 7e3c
000001f0: 54e4 ad3c 9d74 f6bc cd3c debc 14ac b43d
00000200: 7082 d13d 819a d03b ba7c 573b ab00 903d
00000210: 148b bf3d 8eb3 21bb 3d81 6abd 786d 6f3d
00000220: a5eb a8bd 43f0 62bd d4e9 69bb b785 2e3b
00000230: ac23 0fbd 2d5b e2bc d5d6 a3bc 368c d8bc
00000240: ade7 f4bc de60 cabd 6a5e 25bd 07f1 2f3d
00000250: a995 0a3a 5cba b5bc de9a 8ebd 4cee ae3d
00000260: 91d4 adbd efff cebd c275 263c eb1a 66ba
00000270: c438 60bd 839e c63d 78ae cc3d 89b8 973d
00000280: fdb8 aa3d f0f1 97bb d914 9cbc 5a17 84bd
00000290: 20fc 503d a56c a2bd 7c63 963d 9e84 4c3d
000002a0: f346 a3bc 863b a7bc 9393 c43d 1780 b13d
000002b0: e41c 4fbb feb9 68bd 3620 833d fd79 ab3c
000002c0: 8649 98bd 29ae c13b 8161 963d 8182 5dbd
000002d0: 9a7f 64bd dd40 ad3d 4c54 733c 19a9 41bd
000002e0: 04fe 673d ea52 6f3d ce57 76bc 6b74 413c
000002f0: d1e7 83bd 8829 183d 370c a53d 98bf d33d
00000300: 3992 a1bd 0bac d03c 5095 b73a 8c0a 413d
00000310: f4ea 983a 0975 95bd a6ec aa3d 7ffc 9c3a
00000320: ad20 c5bb 16f0 a5bc 40c9 06bd 313e 2bbd
00000330: d905 943d e9a1 bcbc d0de 99bd a261 8e3b
00000340: 58b1 ab3c c5f5 603c cc35 8cbd 3b01 10bd
00000350: 51e4 da3c 82d2 e2bc 1423 393d e644 57bc
00000360: 83d6 b43d 5373 b1ba d9dd d3bc 0177 09bd
00000370: 113a 5f3d e252 88bc dd48 8ebc d1d3 b6bd
00000380: cdd4 7ebc 4033 1bbd d25a eb3c d7a8 fa3c
00000390: 9306 39bb 6f32 cbbc 40e4 b23d bc6c 1fbd
000003a0: 51fc b0bd 2555 ca3d 4b71 873d 8e35 aebb
000003b0: 9113 c0bd a82d 943d 099e c43d 796a 11bd
000003c0: a9cd abbd 467d e43c 3250 c43d 33c4 73bd
000003d0: 1f65 46bc bcc9 623c 6c2a 0d3d 6b76 53bd
000003e0: 54ca 88bd 9621 b9bd 8c77 b83c 79dc c4bd
000003f0: 23e1 983c 2d45 aabc 079b b8bd fe7f a3bc
-0.018627826 -0.086254165 -0.017839434 0.09935639 -0.04748658 -0.017585145 -0.07819234 0.069023795
-0.09223295 0.0863432 0.09935807 0.03453492 0.06283715 -0.0062631513 -0.010490568 -0.09069493
-0.046308115 -0.07427532 -0.015555847 -0.009525555 0.035507664 -0.031494446 -0.0790939 0.0786766
0.08763027 -0.04980048 0.047919553 -0.023567792 -0.030866982 0.030280916 0.047323026 0.04995795
-0.0098266 0.044334352 0.06618666 -0.059549212 0.015868468 -0.026035698 -0.087069504 -0.049224857
-0.04082616 -0.07837251 -0.04449974 -0.07233087 0.09647738 -0.06718051 -0.005942935 -0.029149454
-0.013159482 -0.01992935 0.077885576 0.032467578 0.07660855 -0.097116545 -0.01090021 -0.009956586
-0.06123756 0.042837005 0.09924149 -0.09453115 -0.049782246 0.072755076 -0.03737658 -0.059803028
0.028761541 -0.042088248 -0.0155142695 0.054742977 -0.054925367 -0.05017552 -0.09094768 0.04475173
-0.0023680523 0.08612623 -0.086278915 0.08966342 0.083164535 0.08789259 0.08800009 0.02100339
0.045101408 0.049302917 0.015952174 -0.0916218 -0.003991423 -0.087014504 0.047597162 -0.040110487
0.02535731 -0.019704755 -0.099081084 -0.07835183 0.028327178 0.028731605 0.00020597024 -0.09721248
0.08344103 0.00613616 0.0124657005 -0.06791348 0.011180269 0.094299845 -0.03655368 -0.035448067
-0.024138518 0.026431678 -0.04594 -0.016464556 0.020226235 -0.015005275 -0.041975483 0.015326404
0.08976795 -0.052176714 0.038171172 0.061616577 0.06594843 0.10032881 -0.041361332 0.011304509
0.07455248 -0.056682594 -0.0959624 0.015530478 0.02122704 -0.030084902 -0.027128601 0.08821884
0.10229957 0.0063660746 0.003288074 0.070313774 0.09352699 -0.0024673673 -0.057252157 0.058454007
-0.082480706 -0.055404913 -0.003569235 0.0026629993 -0.03494613 -0.027631367 -0.0199999 -0.026434045
-0.029895628 -0.09881757 -0.040373243 0.04295447 0.00052865833 -0.02218359 -0.06963132 0.08541545
-0.084878094 -0.10107409 0.010159912 -0.0008777815 -0.054741636 0.096982025 0.09994215 0.07408244
0.08336065 -0.0046369955 -0.01905291 -0.064497665 0.051021695 -0.079308785 0.07343194 0.04993116
-0.019931292 -0.020414125 0.0959846 0.08667009 -0.0031602914 -0.056818 0.06402628 0.020932192
-0.074358985 0.005910654 0.07342816 -0.054079536 -0.055785753 0.08459637 0.014851641 -0.047280405
0.056638733 0.058428682 -0.015035583 0.011807541 -0.064407 0.037148982 0.080589704 0.10339278
-0.07889218 0.025472661 0.0014006291 0.0471292 0.0011666701 -0.07297713 0.08345918 0.0011977105
-0.006015858 -0.020256083 -0.03290677 -0.041807357 0.07227678 -0.023026424 -0.07513201 0.004345135
0.020958588 0.013730471 -0.068461984 -0.035157423 0.026720198 -0.027688269 0.04519947 -0.013138985
0.08829977 -0.0013538398 -0.025862621 -0.033560757 0.054498736 -0.016641084 -0.017368728 -0.089271195
-0.015553665 -0.037890673 0.02872983 0.030598087 -0.0028232678 -0.024804322 0.087349415 -0.038922057
-0.086418755 0.09879521 0.06613406 -0.005316443 -0.09378732 0.07235271 0.09600455 -0.03550193
-0.08388836 0.027891766 0.095856085 -0.059513282 -0.01210907 0.013842043 0.034464285 -0.051626604
-0.06679216 -0.09039609 0.022517942 -0.09612364 0.018662041 -0.020784939 -0.09013944 -0.019958492

enc_p.lstm.bias_ih_l0 f4 [384]
00000000: 5b77 cdbd 7128 aebd 2572 3cbd 0098 d1bc
00000010: f01a 0bbd 7d38 98bd 4de4 25bc 671c d43c
00000020: 69b3 bebd a711 d33c 5eda 853c 91a4 35bc
00000030: 908e babd ad93 c73d 185e 8bbd e294 67bd
00000040: 3055 613d 987c 2fbd 5a1c a83c f774 93bd
00000050: b633 703c 6724 83bd 383c c8bd 9496 c03d
00000060: 6c20 e53b f14c 22bd 6668 6fbd 7e7d 88bd
00000070: 5bd2 6a3b bf54 643c b40f 39bd 481f 503d
00000080: d82b 6fbd 36e1 093d b263 7cbd a007 87bd
00000090: 7a68 a5bd 48e9 a9bd 1741 b73d ca56 4bbd
000000a0: 0819 b03d c34a c3bd accd 4abb 9e1f 9bbd
000000b0: 846e 593d 6679 493d 9212 283d 82e7 c13d
000000c0: 2b94 2c3c e6ec 963d 11eb 973d 1ee7 c6bc
000000d0: 7890 a03b 7ee6 f13c 5414 a9bd 2152 9f3d
000000e0: a868 71bd e621 083d c7f7 f83c 72c6 853d
000000f0: 4bc4 01bd 5d1b e7bb 527a 903d 051c 82bd
00000100: 0e2b 8c3d e715 a13c 53df 6cbd d775 50bc
00000110: 96fc 02bd baf3 613d a8e3 883d 1e02 563d
00000120: 9ad0 20bd d327 a2bd b545 e63c 27ad f13c
00000130: 1530 a4bd c973 c93d 056b c0bd 3abb 9a3d
00000140: c930 24bd f02c f83b 4eab c43d c43f 6abd
00000150: aed4 9dbc 98e6 783c d7d5 433d f4b9 67bd
00000160: a1a0 223c a16a 863d 7978 663d 4150 dfbc
00000170: 5870 33bd 08ad ff3b f2ee 57bd 5e7d 84bd
00000180: 03c6 a4bd 131b 223d 48b5 193d ec43 9cbc
00000190: f8b8 763d 83a4 95bc b114 823d 1e04 e83c
000001a0: beec b23d ce3c 383d 7cd5 7bbd 2327 923c
000001b0: f29e 063c e7ea adbd 30c9 00bd 5d38 5abd
000001c0: 1309 4cbd ec05 41bd 9bc9 e0bb e8c6 0abd
000001d0: cfef 093c 2f7c afbd 8358 b93d c5da bf3d
000001e0: f614 b53c 01c7 8ebd 02c1 be3d b219 6fbc
000001f0: d088 a53d ca39 f83b ec7f e23c 1636 253d
00000200: c441 2bbd 9121 b7bd a420 f13c fd7d 5e3c
00000210: 5906 67bd d685 873d b55c 1dbd 5374 9f3c
00000220: a7ea a8bd 2faa 8fbc b1c6 3f3d 0bac 05bd
00000230: f1e3 b7bd 61a2 acbd 35f4 89bd 881c 92bd
00000240: d229 81bd fc10 90bd e049 823d f4ad bb3d
00000250: 37ce aa3d 8fd9 ad3a d064 b53d 91b7 8cbb
00000260: ce4a c6bd 1e74 adbc 3f1e a53d 21e1 bfbd
00000270: 9759 0c3d ce76 21bb ffb5 043d 577d 193d
00000280: 73bb 763d a63c 3fbd 9371 a83d 70b6 3ebd
00000290: 9ce7 79bc 88e6 ebbc 31bc a8bd 4ee0 c4bd
000002a0: e212 68bc ffe7 bf3d baba 273d b2ff b63d
000002b0: 52d2 403d 5f2f 963c 6e5d 80bd 734c 58bd
000002c0: f287 e03c d4cd d3bd dff1 35bb adb2 233d
000002d0: f94a 7bbd 4964 40bd 020d c13d 9b37 9d3d
000002e0: 3530 063d 449b 94bd 982f c8bc 90bd d43d
000002f0: ee5c 473b 5404 adbd 8786 693d c01a 9abd
00000300: f67e a73d 27f1 3a3c 4619 babd 50c9 8fbd
00000310: fe42 cc3c e248 8bbc 178c 13bb 7224 b33c
00000320: 4977 a63d 07c4 56bd 1606 963c 72e8 713d
00000330: c580 03bd fd4d 793c cbce 2abd e2a4 19bd
00000340: 2c2d 423d 7ec7 78bc c806 aabc 95b0 b83d
00000350: 84eb ce3d 7a33 7b3d 2654 f43c 13de 5cbd
00000360: 9894 b43c 462e 76bd 27c0 04bc e828 a3bd
00000370: 8325 bb3d 5dbd 3abd 65d1 7c3d e95b 4abc
00000380: b9a1 3ebd 34a7 5e3d 92ce 16bd 075a c4bd
00000390: 1dd5 5b3d 8408 e63c abac 9a3d bacb 5bbd
000003a0: 4a74 8eb9 6209 7fbb 366f 56bd 9b68 a7bc
000003b0: dac1 e1bc a229 813d 806a b83d 3868 b5bd
000003c0: 50fa 193d 7a46 c13d f797 013c f3cd 90bc
000003d0: 13f3 9cbd e3b6 acbd c792 b7bc ddbd 0e3d
000003e0: c432 3c3d 5b73 6abd c936 adbd eb56 cdbc
000003f0: dfe7 cd3d c829 c13d 865e 60bd bce4 d23c
-0.10032531 -0.08503807 -0.046007294 -0.025585175 -0.033961236 -0.07432649 -0.010125232 0.02589245
-0.093115635 0.025765253 0.016339477 -0.011086599 -0.09109223 0.09744964 -0.06805056 -0.05653847
0.05501288 -0.04284343 0.020521332 -0.07200044 0.014660766 -0.064034276 -0.09777111 0.094037205
0.0069923904 -0.03962416 -0.05844917 -0.06664561 0.0035830948 0.013936221 -0.04518099 0.050811082
-0.058391422 0.033662044 -0.061618514 -0.06593251 -0.08076568 -0.08296448 0.08947962 -0.049643315
0.08598524 -0.09535744 -0.0030945344 -0.0757439 0.05308391 0.04918804 0.041033335 0.09467985
0.010533373 0.073694035 0.07417882 -0.024280127 0.0049000345 0.029528853 -0.082558304 0.07779337
-0.0589377 0.033235453 0.030391587 0.06531991 -0.03168134 -0.0070528225 0.07054581 -0.063530006
0.068441495 0.019663764 -0.057830166 -0.012723408 -0.031979166 0.055164076 0.06684047 0.052248113
-0.039261438 -0.07917752 0.02810941 0.02950151 -0.080169834 0.098365374 -0.09395412 0.07555242
-0.040085588 0.0075737163 0.09602986 -0.057189718 -0.019266453 0.015191697 0.047811355 -0.056573823
0.009925992 0.065633066 0.056267235 -0.027259948 -0.04380831 0.0078026094 -0.05271811 -0.064692244
-0.0804558 0.0395766 0.0375264 -0.019075356 0.060234994 -0.018266922 0.06351603 0.028322276
0.08736561 0.044979863 -0.06148289 0.017840927 0.008216606 -0.0849207 -0.031441867 -0.05327641
-0.04981334 -0.04712479 -0.0068599707 -0.033881098 0.008418991 -0.08568608 0.090500854 0.09367899
0.022104722 -0.06971551 0.09314157 -0.014593529 0.080827355 0.0075752484 0.027648889 0.040334783
-0.041810766 -0.08941949 0.02943451 0.013579843 -0.056402538 0.06617324 -0.03841849 0.019464647
-0.082478814 -0.017537205 0.046820346 -0.032634776 -0.08979023 -0.08429409 -0.06736032 -0.07134348
-0.06306805 -0.070344895 0.06361747 0.09164038 0.083401136 0.001326369 0.08857119 -0.0042943438
-0.096822366 -0.021173533 0.080624096 -0.09369112 0.034265127 -0.0024637464 0.032400128 0.03747305
0.06023736 -0.0466887 0.082247876 -0.046560705 -0.015252974 -0.02879645 -0.0823902 -0.09613095
-0.014164658 0.093704216 0.04094956 0.08935489 0.047075577 0.018333135 -0.0626782 -0.052807283
0.027408574 -0.10341993 -0.0027762575 0.03996532 -0.061350796 -0.04697064 0.09426309 0.076766215
0.032760818 -0.07256177 -0.024436757 0.10387719 0.003042038 -0.08448091 0.05701306 -0.075246334
0.08178513 0.011410034 -0.09086852 -0.07020819 0.024934288 -0.017002527 -0.002251392 0.021867964
0.081282206 -0.05243304 0.018313449 0.059059568 -0.032105226 0.015216348 -0.04170112 -0.03751076
0.04740636 -0.015184281 -0.020755187 0.09018055 0.10103515 0.06132839 0.029825281 -0.053922724
0.022043511 -0.060102724 -0.008102453 -0.079667866 0.09138014 -0.045590747 0.06172313 -0.012351015
-0.04654095 0.054358676 -0.036818095 -0.09587484 0.053670038 0.028080232 0.07552465 -0.053661086
-0.00027170993 -0.0038915505 -0.052352153 -0.020435622 -0.027558256 0.06306769 0.09004688 -0.08857769
0.037592232 0.094372705 0.007909766 -0.01767633 -0.0766355 -0.084333204 -0.022408856 0.034849036
0.04594685 -0.057238918 -0.08457715 -0.02506586 0.100539915 0.09431797 -0.054777645 0.025743835

enc_p.lstm.bias_hh_l0 f4 [384]
00000000: 5c19 a23d b152 d73c 8d55 8fbd 9156 ae3d
00000010: 396b 843d 8dbb cebd ad64 4bbc 7edc 773d
00000020: b9bc 923d 7f59 95bd c911 c53d b3a0 aebd
00000030: 1211 babb 8ee3 e9bc f8bb b9bb 1a54 063d
00000040: 1611 cebd 2ed7 2f3d 8a27 a0bc 7a89 2c3d
00000050: a97c 363d 2dc2 693d 90d1 96bd 073a 7abd
00000060: 06f2 26bd b88b 98bc e43b a8bd 45c4 963c
00000070: 9aa3 aebd d2e1 05bd e64d 23bd 3523 ad3d
00000080: bb76 28bc 0d7d 60bb cf5e b6bd e1ac 09bd
00000090: bd64 c83b 609f 71bc 09f3 8dbd a7a0 36bd
000000a0: c553 8c3c a1db 373d 556d a73d ed98 3c3b
000000b0: 561e 9e3c f3c8 6fbd ef47 a63c 6c5b 9b3d
000000c0: 7a69 dfbc 78ea f8bb e3ff 9c3c b100 38bd
000000d0: 91b3 243d 2716 683d 320c 53bc f9e9 ce3d
000000e0: e4de 8f3d 0643 dbbc b681 c83d 5225 bbbd
000000f0: 6ef9 ccbc 84a3 a13d f961 c6bd 3280 a4bb
00000100: 62c8 d6bc 835e 35bd 4c28 23bd ad9f a4bd
00000110: 3dbf 203d 380d 9cbd 3aac b7bc db68 b3bc
00000120: 37ca 9bbd 9924 663d 6fb6 35bd a919 3dbd
00000130: f971 803d ffba 1abb 425a 843d 4520 abbd
00000140: 1b4f 5ebd 15e1 a13a db01 963c a759 efbb
00000150: fcba 293b 7107 ad3c df47 313d c55a c4bd
00000160: 5d1a a8bd c525 863c d106 1a3d ab07 cd3d
00000170: 7773 8a3c 3f71 92b9 874d 51bd f027 923d
00000180: 3d93 0c3d 9e74 56bd 768f c9bd 9c52 e43c
00000190: 665d 53bd a0bb be3d 5595 29bd 5cbe 6e3d
000001a0: 60a7 b73d 7ae1 adbc 6653 83bd 4700 1a3d
000001b0: aa13 473d e5ef c1bd 750c c73d 1ee7 b0bd
000001c0: 574e 8dbd b042 bd3d 757c 08bd 2d16 abbd
000001d0: c155 6c3d 04cf 7ebd 913e 37bd 181a 173d
000001e0: 3ec1 2a3b 9f01 3ebd ba0e c43d 4298 28bd
000001f0: b9b6 6a3d f58f 75bc 8f08 31bd b83e af3d
00000200: 5a15 bdbd cfdd d13d f121 80bd b839 613d
00000210: 092a 18bd c615 a7bd ed18 d53d 1fd1 463d
00000220: e95d 353d 5b5a d439 f3f7 663b 2006 873d
00000230: 0757 8cbd c2b9 97bc 3d0c 2ebd 99f7 733d
00000240: 2d1c aabd 8696 993d 900f 853d 452c 0d3d
00000250: ad8d aa3d 40aa c53d eecf bebd 7032 a03d
00000260: cc3b 913d 78db 07bd c45f 143d bf3e 54bd
00000270: c77c eebc 170a 693d bd70 2cbd 6b86 043d
00000280: b527 d0bd f998 bfbd 2329 8dbd 1aba cdbd
00000290: c566 84bc fe4c ac3b 9088 c7bd a150 60bc
000002a0: 9ed3 c6bd e8e3 413d 9606 553d 1fc3 93bd
000002b0: 72bd c13d 6182 b23d 1fd4 ce3c af19 0a3d
000002c0: 1b87 d2b9 3523 47ba 2f58 b73d 5bf9 f7bc
000002d0: d970 6bbd 41cc ce3c 2bd7 5cbd 1d10 993d
000002e0: 2fa1 933d 3299 9bbd 40e6 e4bc e843 56bd
000002f0: fe13 a6bd 5f24 a0bd 9a44 a8bd e477 cbbd
00000300: f99d aebd fc11 b6bc 680f a9bd 0fe8 93bd
00000310: 1aa0 63bd ead9 a13c cd1f 223d 849b 8b3d
00000320: 2b7c 05bd 8401 133c d6c1 c4bd 60cd d2bc
00000330: 9a9d 70bd 08bf 8fbd 6f26 d3bd d5cc 8abd
00000340: 30f7 7b3d 8bbd 913d 0fd0 fb3a 8bcd a13d
00000350: 3a0f 9e3d f9b5 c33d 1f8f 7b3d a58b 183d
00000360: 732e 873d 7b21 82bd 9af7 c3bd 0060 79bd
00000370: a590 e6bc 204d af3d 408d b4bd 1a89 dd3c
00000380: 45d0 c6bd 00a8 0a3d 5458 be3d be50 9d3d
00000390: 0988 b0bd 7509 21bd 24ca bbbd 6cb8 d33d
000003a0: c956 803d 4aad 003d ff7a d73c a9e0 b6bd
000003b0: 6bbc d13d 76bd c93d 58fd 8f3d 577c ad3d
000003c0: 5295 16bd 3c14 74bd f554 b7bd f315 5d3d
000003d0: f5bf 9ebd fc95 383d 0b15 a5bd 0a21 45bd
000003e0: e018 2abd 0354 263d 7e07 793d 961e 9a3d
000003f0: a042 95ba 9d51 76bd aa26 a03d bad7 3d3c
0.07914993 0.026284548 -0.069987394 0.08512605 0.064657636 -0.10094366 -0.01241414 0.060513012
0.07164902 -0.07292461 0.09622533 -0.08526745 -0.0056783045 -0.02855089 -0.0056681596 0.03279505
-0.10061853 0.04292982 -0.019550104 0.042123295 0.04455248 0.057069946 -0.073641896 -0.061090495
-0.040758155 -0.01862131 -0.08214548 0.018404135 -0.08527298 -0.032686062 -0.03986921 0.08453981
-0.010282214 -0.0034254224 -0.08904802 -0.033612136 0.0061155246 -0.014747471 -0.06931121 -0.044586804
0.017129788 0.04488719 0.0817515 0.0028777674 0.019301575 -0.05854125 0.020297972 0.07585797
-0.027271975 -0.00759631 0.019164985 -0.044922534 0.04021031 0.05666175 -0.012881326 0.101032205
0.07024935 -0.026765358 0.097903654 -0.09137978 -0.025021281 0.07892516 -0.096866556 -0.005020165
-0.026218597 -0.044279587 -0.039833352 -0.08038268 0.03924488 -0.07619709 -0.022420991 -0.021900585
-0.07606929 0.056187246 -0.044363435 -0.04616705 0.062717386 -0.0023609994 0.06462528 -0.08355764
-0.05427466 0.0012350405 0.018311432 -0.0073043886 0.0025898805 0.021121712 0.043281432 -0.095876254
-0.082081534 0.016375432 0.037604157 0.10011228 0.016900761 -0.00027931665 -0.051099326 0.07136524
0.034320105 -0.05235731 -0.09841816 0.027871422 -0.051602744 0.093131304 -0.04140218 0.05828701
0.08967471 -0.02122568 -0.06412391 0.03759792 0.048602737 -0.094695844 0.09719173 -0.08637832
-0.06899708 0.09241235 -0.033321816 -0.08353839 0.05769897 -0.062209144 -0.044737402 0.03689012
0.0026055123 -0.046388265 0.09573121 -0.04116083 0.057303164 -0.014987935 -0.043221053 0.085568845
-0.09232588 0.10247385 -0.06256474 0.054986686 -0.037149463 -0.0815845 0.10405145 0.048539277
0.044279013 0.0004050311 0.0035243004 0.06592965 -0.06852537 -0.018521193 -0.04249214 0.0595623
-0.08306155 0.07499413 0.06497109 0.034466047 0.08327804 0.09651613 -0.09317003 0.0782212
0.070914835 -0.033168286 0.03622414 -0.05181765 -0.029112233 0.056894388 -0.042099703 0.032354753
-0.101638235 -0.09355349 -0.06892612 -0.10045262 -0.016162286 0.0052582016 -0.09742844 -0.013691098
-0.097083315 0.04733649 0.052008234 -0.07214951 0.09459962 0.08716274 0.025247632 0.0337159
-0.00040154983 -0.0007596494 0.089523666 -0.03027027 -0.057480667 0.02524388 -0.053916138 0.074737765
0.07208478 -0.07597579 -0.027941823 -0.052310854 -0.08109282 -0.07819437 -0.0821621 -0.09934977
-0.08526225 -0.022225372 -0.08254892 -0.07221996 -0.055572607 0.01975723 0.03958111 0.068167716
-0.03258912 0.008972529 -0.09607284 -0.025732696 -0.05874405 -0.07018858 -0.10310065 -0.0677735
0.061515033 0.071162306 0.0019211787 0.07900532 0.07717748 0.09556193 0.061415788 0.03724255
0.06600656 -0.06354042 -0.095687106 -0.06088257 -0.028145144 0.08559632 -0.08816004 0.027042914
-0.09707693 0.033851624 0.09294191 0.07681416 -0.08619697 -0.03931566 -0.09169415 0.1033791
0.06266553 0.03141526 0.026303766 -0.08929569 0.10241016 0.0985059 0.07030743 0.084709816
-0.036763497 -0.05958961 -0.08951751 0.05397601 -0.07751457 0.04506491 -0.08060654 -0.04812721
-0.04152763 0.040607464 0.06079816 0.07525365 -0.0011387654 -0.060136426 0.078198746 0.011587078

enc_f.lstm.weight_ih_l0 f4 [384, 4]
00000000: d5e6 d0bc 378b 69bb 770b 953d 7c4e 2ebd
00000010: 04e1 5abd 42cf f13c 90fb b4bd 573c 6bbc
00000020: 4e96 4d3d d522 5b3d 73f6 32b9 d35e dd3c
00000030: 0fa6 003d 8c34 8a3c d1be 37ba 6c8a ab3d
00000040: bf6a 763d 4ed7 30bd eb11 b3bd 17fd 2abd
00000050: bd21 05bd 4a9f 80bd c405 a7bd 3749 6d3d
00000060: e96c 7f3d 53b9 b83d 7343 c7bd 2a09 d3bd
00000070: 7b43 d0bc c83d 843d 0858 633d a023 22bd
00000080: 76cc 943d f2ca bb3d f808 6e3d 28d6 413c
00000090: 67b5 54bd dd4b 86bb d4a0 d3bc e309 34bd
000000a0: 2e81 253c bf58 11bd f6b7 983d eb52 63bd
000000b0: 1ff2 5c3d 29d5 613d 52d3 44bd 4942 153b
000000c0: 9fd6 ce3d 74d5 f83c a510 a5bd 80c7 0abc
000000d0: 4f47 d93c c056 85bd 1cbb 8dbd cc30 c63d
000000e0: ffe7 a7bd 84a9 3d3d 618d 2ebd 023c 0b3d
000000f0: 1fde a13d 3714 79bd f21f 523d 63d4 ac3d
00000100: 2f7d c8bd 9aff bf3c 55d9 d1bc 9909 0d3d
00000110: 685f 923d d67e 16bd f919 9abd 0b36 3cbd
00000120: a310 1c3d 8cf3 a93d 1a10 a23c 4429 5fbc
00000130: 4a28 723a 2bfe b83d cb67 59bd c88c a9bc
00000140: 3073 99bd 0bbc e0bc d85e 743d 20a2 a43d
00000150: ddbb c5bc 94f8 a03b 2c28 a7bc 433d acbd
00000160: 681b 113d bdd1 be3d ebb4 473d f6f0 13bd
00000170: ae25 b83b 6771 febc b731 7a3d 8201 67bd
00000180: df9b 8a3d 8318 ab3c 8f4e 9fbc 0a14 bdbd
00000190: 64f6 623d 280e cf3d db9f 97bb 7710 aabd
000001a0: 1219 0ebd 624f 783c e345 91bc aad0 54bc
000001b0: b39a bcbd fa4a 6b3d cbb1 be3d b55a b83c
000001c0: ba29 583a d4b9 07bd d4c6 64bd 1807 e3bb
000001d0: a74e cd3d 21b0 ae3d 8d1d a8bd 6c62 8bbd
000001e0: 64e1 233d a9bd 093d 863f 05bd d8cc 9d3d
000001f0: bc16 233d 6418 86bd 0cee f5bb a617 37bc
00000200: 0e0f fcbc 850f 7a3d df30 dfbc c5cf bfbd
00000210: 7633 7cbd 6d5a dfbc 99d8 7c3d 67ad 18bb
00000220: 459e 403d e7a6 6b3c a41c 603d d26f 77bd
00000230: ba9d 7b3d 850f bfbc d8ff a63d 1548 b9bd
00000240: 8d5d e13c c5c3 4d3d 0af8 3d3d effb 483d
00000250: 3491 853d 6ef4 943d b26b 893d d48b ab3d
00000260: efce 88bb 675a 4d3c 36fe a8bc c287 a23d
00000270: 6320 55bd a912 473d 3f31 713c a554 91bd
00000280: e119 3abc a554 86bc 4a27 483c 9758 6a3c
00000290: f8b8 ab3d 721a e3bc b3b3 72bd b136 8cbd
000002a0: b969 b13d 3cf6 823d e5f5 0d3c fefd 63bc
000002b0: e49d 4c3d 8bf5 9ebd 7234 a2bd c6ea bbbd
000002c0: 7f0d a33d 30ad 7e3d 3348 ca3d 5660 fd3c
000002d0: 82af 33bd 3e9d a13c 24fa 5cbc 4002 5abd
000002e0: 7714 813d 13d8 e2bc d0bd 703d 77a2 f83c
000002f0: 4ffa 403d e72a dcbb ed42 37bd a3d4 763d
00000300: 3a1e 4ebd 5d44 8f3d 3313 b33d cd10 f4bc
00000310: fb6d 393d 480d a2bd 6135 3a3d 6a3f 8d3d
00000320: 4cd7 843c e4f4 b1bd b0ca 92bc 0b37 f13c
00000330: 41ed 6cbd f0d6 c43c 8624 123c f76d 173d
00000340: e7a8 aebc e6d7 b0bd 2a45 043d f491 403d
00000350: 536c 37bb c116 24bd 537b be3d 0e86 a739
00000360: c0c7 33bd 6d06 25bd 5e42 10bd d06c 69bd
00000370: 3700 35bb dc8d c43d 680c 473d 700a be3d
00000380: 23b2 7abd 5350 a63b c170 c5bd 6809 c23d
00000390: 6f91 3b3d f973 793d 2018 8a3c f67b 8dbd
000003a0: 5170 b23d 6991 c6bd 6cbf 9bbd 9203 643d
000003b0: f411 7d3d dbe7 993c a7e5 793d d5fd 0cbd
000003c0: 2daf babd 21fd c3bd f2a3 bebd 76fa 13bd
000003d0: ce71 9dbd 2891 0f3d b969 69bd 4631 6fbd
000003e0: 96ed 3d3d ff02 a8bd 6c9b 1abd b663 303d
000003f0: 6573 a3bd b01c 81bc 7ac5 3bbd 11c6 77bd
-0.025500694 -0.0035635957 0.07277577 -0.042555317 -0.053437248 0.029517774 -0.08837044 -0.014357648
0.05019217 0.053500015 -0.00017067212 0.027022755 0.031408366 0.01687076 -0.000700933 0.08376011
0.060160395 -0.04317408 -0.08743652 -0.04174527 -0.03250288 -0.06280382 -0.081553966 0.05793115
0.062359724 0.09019723 -0.09729662 -0.10304482 -0.025422802 0.06457096 0.055503875 -0.039584756
0.0726556 0.09169568 0.058114022 0.011830844 -0.05193081 -0.004098399 -0.025833525 -0.04395474
0.0101016 -0.035485025 0.07456963 -0.055499 0.053941842 0.055134926 -0.048053093 0.0022775105
0.100995295 0.03037522 -0.08059815 -0.008470416 0.02652326 -0.06510687 -0.06920454 0.09677276
-0.081985466 0.04630424 -0.0426153 0.033992775 0.07903694 -0.060810294 0.051299997 0.08438947
-0.09789502 0.02343731 -0.025616327 0.03443298 0.071471035 -0.036742054 -0.07524485 -0.045949977
0.038101804 0.08298406 0.019783068 -0.013620678 0.0009237571 0.09032854 -0.0530775 -0.020697013
-0.074926734 -0.027433416 0.059660763 0.080387354 -0.024137432 0.0049124453 -0.020404898 -0.08410122
0.035426527 0.09317348 0.04875652 -0.03611847 0.005619726 -0.031059934 0.061082568 -0.056397922
0.06768011 0.020885712 -0.01944664 -0.09232338 0.055410758 0.10110122 -0.0046272106 -0.08303922
-0.034691878 0.015155645 -0.01773352 -0.0129892025 -0.09209194 0.05744455 0.09311255 0.02250419
0.0008245964 -0.033136204 -0.05585368 -0.006928336 0.10024767 0.08529688 -0.08208761 -0.06805882
0.04000987 0.03362814 -0.032531284 0.077050865 0.039816603 -0.06547621 -0.007505184 -0.011175072
-0.030768897 0.061049957 -0.027244983 -0.09365801 -0.061572514 -0.027264798 0.06173 -0.0023296715
0.047025938 0.014383054 0.054714814 -0.060409375 0.061429717 -0.02332283 0.08154267 -0.09046952
0.027510429 0.05023553 0.046379127 0.049068388 0.06521836 0.07273184 0.067099944 0.083762795
-0.004175059 0.012533761 -0.02062903 0.0793605 -0.05203284 0.04860178 0.014721214 -0.07096223
-0.011358709 -0.016397784 0.0122163985 0.014303348 0.08384889 -0.027722571 -0.059253406 -0.06846369
0.08662743 0.06394622 0.008664583 -0.013915537 0.049955264 -0.07761677 -0.079201594 -0.09175639
0.079615586 0.062176883 0.09877052 0.030929726 -0.04386855 0.0197283 -0.013487373 -0.053224802
0.063027315 -0.027690923 0.05877477 0.030350907 0.047113713 -0.0067189815 -0.04474156 0.06026138
-0.050321795 0.06995461 0.08743896 -0.029793167 0.0452709 -0.079126894 0.045461062 0.06896861
0.016215943 -0.08689287 -0.017918915 0.029445192 -0.05784345 0.024028271 0.008919841 0.036970105
-0.021320773 -0.08634929 0.032292522 0.04701419 -0.002798815 -0.040060762 0.09300866 0.000319526
-0.04389167 -0.04028933 -0.035219543 -0.056988537 -0.0027618536 0.0959737 0.048595816 0.092793345
-0.06120504 0.0050754934 -0.09640647 0.0947445 0.045792993 0.060901616 0.016857207 -0.06908409
0.08712829 -0.096957035 -0.0760487 0.055667467 0.0617847 0.018787315 0.06101003 -0.03442176
-0.091154434 -0.09569765 -0.09308614 -0.03612753 -0.07687722 0.03505054 -0.05698559 -0.0583966
0.046369158 -0.082036965 -0.037745878 0.04306384 -0.07980994 -0.01576075 -0.045842625 -0.060491625

enc_f.lstm.weight_hh_l0 f4 [384, 96]
00000000: d70e 76bd d625 903d 1b9c 4a3d e3ce 423d
00000010: 1505 a9bd 9424 57bc 1bc3 36bd 94b3 573d
00000020: 1f9f ce3d 81d1 c2bd 3733 bd3c 37c3 bd3d
00000030: 1bc7 8cbd 758f e1bc 7a41 2fbd c622 b83d
00000040: d09b 863d 10a6 813b ef5b 283c 0886 73bd
00000050: eeff 2fbd c451 a43d 6863 293d dcac 2fbd
00000060: bb4e a1ba d260 af3d 3e8d cd3d ed0e a1bd
00000070: 94fc cb3a 96e3 1a3d 5537 83bd 0355 97bd
00000080: 32c9 48bd a2c6 78bc e1d0 7ebd 6259 26bd
00000090: c689 1e3c 1e74 1a3d 6bb8 adbd 80f6 ea3c
000000a0: 72ee a63d 3a78 853d 2668 aebd 968f 6a3c
000000b0: 61eb 21bd 1f64 cd3d a715 ca3c 796f 963d
000000c0: 3adb 893d 7ce0 2ebd c3de 96bd 9e7d 333b
000000d0: 0dcb 393d 718d 57bc b9f6 563d 237e d23d
000000e0: ee28 983d cfcd fc3c a27a b63d b054 2b3d
000000f0: 2649 a8bd f8ad f13c 114b d53d 4938 7f3d
00000100: 3989 be3c 0f31 5b3d 0c70 c43d 4264 ca3d
00000110: 714e be3c 01d1 b03d 3ab6 a2bd d5d3 773d
00000120: 285e 143d 9c7f 9abd 6512 80bd 94c7 51bd
00000130: 1b75 b63c 7d21 2dbd 55fc b73c 8c75 953d
00000140: 4d32 a7bd 592d b1bc 440a c0bc ac4a b13d
00000150: d8aa 4cba b7ab ce3d a7f2 8f3d d40c 1b3d
00000160: 7a51 863c 81af 73bd da0c 9dbb 0d4b 853d
00000170: b50e f3bc 7dc6 9f3b 6b6f 70bd 6156 79bd
00000180: 940f 9e3d 1487 c1bd de80 39bd 4e4c 373d
00000190: 916b 5fbd 2c48 25bd 148e 28bd 5e78 a73d
000001a0: 44d1 d6bc fd5d ac3d a191 af3b ad8c 133d
000001b0: 71e7 263d 845f 00bd c823 a1bd 06b6 a53d
000001c0: 143c e73c 23ac 3cbd 53c5 c3bc 5ef6 bcbc
000001d0: b756 84bd 37e2 b43d fbbd 59bd 18f9 e63c
000001e0: 2c38 8d3d 7d9a fa3c ee87 24bd c793 9b3a
000001f0: 6187 86bd a3f6 37bd b28e 953c cfb3 cfbd
00000200: f6e2 b5bc a894 6e3d fdc2 b93d 168d 85bd
00000210: 4ebd 23bd cbda fabc 7cba 683d dddb c33c
00000220: cc0b c2bb 21d5 aa3d 58bd a8bc e087 e139
00000230: 6eb8 7ebd f77e 833c 455a ddba 55b8 c9bd
00000240: 9ed5 063b f7f8 7cbd 99be b8bd ceef 9c3d
00000250: e170 fcbc e87a 4a3d 762d 5dbd 1f85 bdbd
00000260: c390 b7bc ebb0 cc3d 8e4a a13d 82f9 413d
00000270: 2d4a 3e3b 4663 b83d e29b 463d 9b02 d6bc
00000280: 563c f5bc 4f73 9ebd 6a44 9b3d d505 663d
00000290: 3ffd 7ebd 1493 c73d 9ff2 c7bc 7eb3 9c3d
000002a0: 2f98 72bd 1538 a23d dad4 c8bd 9895 b23d
000002b0: c11f 773d 3f9a b03d 3300 bfbd f131 cf3c
000002c0: d31e ccbd 5125 97bd a225 483d fcc3 073d
000002d0: c722 973d 6b51 8d3d 303a 6bbd d358 aebc
000002e0: 36d1 a0bd 640d a33d b6aa 37bd c921 873c
000002f0: bf2d 113d 02a2 e43c 8ee4 313d 1931 b03d
00000300: 1a8b 9a3d 5e53 b6bd 6eff a03d 04e6 ce3d
00000310: 51bb 39bc 173e ed3b 535e 88bd 0c5d 64bb
00000320: d7a1 913d 08da b2bb 6b98 c03b a133 ac3d
00000330: af78 6b3c c964 4b3d f632 a63d 3e57 33bd
00000340: b0b9 8c3d 76f8 403c 29dd bebd 2766 b137
00000350: 8b79 813d 097a ca3c de51 d83c 78cf bf3d
00000360: 96a3 2cba 14e0 c5bc 9a7a f93c 68b5 70bc
00000370: 3cde 2fba 4358 b33d c4ba a43d e268 be3d
00000380: 1e78 02bd 5a4b 02bd 072f 0e3d b760 593c
00000390: b4fa 373d dd76 9abd 55ec a13d dfbf b33b
000003a0: 0038 c5bc b5c4 2b3d dd41 f7bc e503 69bd
000003b0: c1dd 52bd 5b13 1a3d 8ce5 44bd 78f4 4ebd
000003c0: c27d c2bd 367a 82bc 65d2 8f3d 3026 453d
000003d0: e96f f33b c589 8a3c cbcf a43b 6d72 a83d
000003e0: 9dab c33d 781a 36bc ccc2 a03c 19e1 c73d
000003f0: 454c 293d 14b6 223c 1696 bd3d 68e0 3bbd
-0.060072746 0.07038467 0.04946528 0.047560584 -0.082529224 -0.0131312795 -0.04461966 0.052661493
0.10088944 -0.09512616 0.02309571 0.0926575 -0.06873914 -0.027534226 -0.042787053 0.089910075
0.065726876 0.003956564 0.010275825 -0.059453994 -0.042968683 0.08023408 0.041354567 -0.04288946
-0.0012306789 0.08563389 0.100367054 -0.07864175 0.0015562945 0.0378147 -0.06407038 -0.073892616
-0.04902 -0.0151840765 -0.06221092 -0.040612586 0.009676402 0.037708394 -0.084824406 0.028681993
0.081509486 0.06517072 -0.085159585 0.01431646 -0.039531115 0.10028862 0.024668528 0.073454805
0.06731267 -0.042694554 -0.07366707 0.0027388106 0.04535966 -0.013156281 0.052481387 0.10277965
0.07429682 0.030859856 0.08910109 0.04182881 -0.08217077 0.0295019 0.104147084 0.062309537
0.023258792 0.053513583 0.09591684 0.09882404 0.023230763 0.08633614 -0.07944913 0.060504753
0.036222607 -0.07543871 -0.062535085 -0.051215723 0.022272637 -0.042268265 0.022459188 0.07297811
-0.08163891 -0.021628069 -0.023442395 0.08656821 -0.000780744 0.10091346 0.07028704 0.03785403
0.016396273 -0.059493545 -0.004792792 0.065084554 -0.029670099 0.0048759566 -0.058700006 -0.060873393
0.07717815 -0.09449592 -0.045288913 0.044750504 -0.054545943 -0.04035203 -0.04115112 0.08177255
-0.026222833 0.08416364 0.0053579365 0.03602283 0.040748063 -0.03134109 -0.07868153 0.08091359
0.02822689 -0.0460626 -0.023897802 -0.023066696 -0.06461852 0.088322096 -0.053159695 0.028194949
0.068954796 0.030591244 -0.040168695 0.0011869603 -0.0656879 -0.044912945 0.018256519 -0.10141718
-0.02220295 0.05824724 0.09070394 -0.06521051 -0.039975457 -0.030621907 0.05681847 0.02390855
-0.0059218165 0.08341432 -0.020598099 0.0004301658 -0.062187605 0.016051752 -0.0016887864 -0.09849612
0.0020574103 -0.06176087 -0.090207286 0.076629266 -0.030815544 0.04943362 -0.053998433 -0.092539065
-0.022407895 0.09994682 0.07875548 0.04735709 0.0029035911 0.0900331 0.048488505 -0.02612429
-0.029935997 -0.07736837 0.07581408 0.056157906 -0.062253233 0.0974485 -0.024407683 0.07651423
-0.059227165 0.07920853 -0.09806223 0.08719939 0.060333017 0.0862317 -0.0932621 0.025292369
-0.09966817 -0.073801644 0.048864014 0.03314589 0.0737968 0.06900295 -0.05742854 -0.021282589
-0.07852404 0.079615384 -0.044840537 0.016495602 0.035444017 0.027909283 0.043430857 0.08603115
0.07546063 -0.0890262 0.07861219 0.10102466 -0.011336164 0.0072400677 -0.06658616 -0.00348455
0.071109466 -0.0054581203 0.0058775446 0.08408285 0.014372035 0.049656663 0.08115189 -0.043784373
0.068713546 0.011777988 -0.09319527 2.1147613e-05 0.063220106 0.024716394 0.026406225 0.093657434
-0.00065856555 -0.0241547 0.030453969 -0.014691688 -0.0006708836 0.08757069 0.08043435 0.092973486
-0.031852834 -0.031810142 0.034712818 0.0132676875 0.044916824 -0.075422026 0.07906405 0.0054855193
-0.024074554 0.04193564 -0.030182773 -0.05688848 -0.051481012 0.037616115 -0.048070475 -0.050526112
-0.09496643 -0.015927415 0.070225514 0.04813212 0.007429112 0.016911397 0.0050296537 0.0822495
0.09554217 -0.011114709 0.019624136 0.09759731 0.041332502 0.009931106 0.09257142 -0.045868307

enc_f.lstm.bias_ih_l0 f4 [384]
00000000: e143 963d 7e66 1bbd 8c4f b83d 8e47 043d
00000010: e37d 9fbd 6c29 923d 840e babd ac45 103d
00000020: fbdf 523d f79b 12bb 24b7 93bd f404 1f3c
00000030: 8aae ce3d 9f00 8b3d 43ff 6abd 0abd 1abc
00000040: fa26 42bd 40aa 9b3c 2135 703d 20bb f0bc
00000050: c21c 95bd d641 a13c 0f0e c6bd ea17 99bd
00000060: 9923 ad3d fee0 14bd e526 32bd 8fd6 863c
00000070: 06a6 0f3d 8a3f e8bb 4909 32bc bb6c c7bd
00000080: c072 493d 5bc9 c23d d99c a73c fc76 51bd
00000090: 3e0c 8fbd 6013 493d 4219 973d 9f29 4ebc
000000a0: 0112 92bc 818c eebc 763a bf3d 4a8d c23b
000000b0: 22aa 4b3d 9c3a b03c 162e c5bd 5f11 a7bc
000000c0: bdbf 073c 1a9e c2bd 9c4f 8abc 4fc1 3fbd
000000d0: f0b8 0bbc 3ec0 b3bd b5ec 9d3d 558f c6bd
000000e0: 8689 1ebd 50de eabc 982b 8e3d fd8f 1a3d
000000f0: 1bdf aebd 9a83 823c f014 1abd 3c1b 9a3c
00000100: be2d 2e3d b57a 6dbd 6072 49bc 17f2 923d
00000110: c9c6 aebc 0573 35bd 7b41 7a3d 7d04 b53d
00000120: 235e 5fbd 94e5 f8bc 9273 b13d 359c d7bc
00000130: 4b1e c43d 1ca9 6d3c 492d 683d 59d1 c13d
00000140: 801b 0b3d 5b0a 5e3b 3333 b73d 5d38 91bd
00000150: ac5b 06bd 6360 93bd e708 81bd 21af 3bbd
00000160: 2385 a0bd e021 ce3d 32b9 12bd ec6d 113c
00000170: 1343 133d 4b5f 413d b6a1 863d 08c6 213c
00000180: 4d0b 9d3d 5190 09bd a27a 69bd 0d73 18bd
00000190: 2119 a9bc 83b5 9e3d f753 5fbd d315 8f3d
000001a0: d9da 3ebd 1c81 b0bd cca0 fc3c ecef 5ebc
000001b0: 9e76 a03d 365f 9dbd 29f3 d0bb 6dcd 9dbd
000001c0: 2660 92bd 1d1f 463d 43f0 d2bc 2751 b3bc
000001d0: f304 c73d f05c f73c 3c65 f13b d2b6 98bc
000001e0: b646 4bbc 6b04 83bd bdfa 3abc cac0 7e3d
000001f0: d6da 33bd 59f8 b63d 586a b1bc 5bd6 3c3d
00000200: 14e4 823c 7cca a4bd 4c2f bbbd 5ece 3c3d
00000210: 7843 39bd ac37 983d 9ef6 b8bd 38d4 21bd
00000220: 42a0 61bd dd6f 013d 18c0 c1bd db1d 98bd
00000230: 39e6 9cbd 414f c83d a02b 8e3d e8fc 32bd
00000240: 44eb f83c 9624 3ebc 1f84 c7bd 0435 8dba
00000250: 549b 48bd 1e14 c4bd 67df edbc a742 b2bd
00000260: 2b72 bdbc daff cfbd 4ab8 27bd 32f4 c0bc
00000270: 1275 93bd 4e0c 65bd 5dd6 1d3d 31f0 8d3d
00000280: 2857 85bd 6abf a3bd a86a 913b ab6d b23d
00000290: c45d 38bd 5324 6f3b d3bf ac3b 37a2 b4bd
000002a0: 2953 02bd 23bc 01bd 47c4 c9bd ceda 97bd
000002b0: 31ef a7bb b2fd c6bd e6bd a1bd e535 f13c
000002c0: 748b a8bd a928 cfbb 4fa8 a93d a79a 7c3d
000002d0: fb40 793d 4392 83bd cfd6 d83c 86cd dcbc
000002e0: 2df1 613d d8e6 cc3d 874f d9bb f4c7 403d
000002f0: e326 55bd ef26 46bc 68ca 193d ac91 bd3c
00000300: 3878 45bd 8fd8 b4bd 4a43 afbd 12a8 563c
00000310: ffac e5bc e8e6 0cbd 82a1 3dbd cd7d 843d
00000320: 116d bb3d e1e9 0fbd 5b81 6c3b 202f 6bbd
00000330: b87b 8abd b482 743d cc80 9c3d 860b a83d
00000340: 0f44 90bd 8469 1c3d 7f50 81bd 6857 b53d
00000350: 7451 283d e3a0 5a3c 4d61 a1bc 6f4b 6bbc
00000360: 1a07 55bd e7bf 0cbc 1d85 acbc 93b2 0eb9
00000370: 6de0 683b cf1c a63c e670 623c 2ae8 943b
00000380: 3853 0ebc 0374 babd dd45 cb3b 5cc5 b8bc
00000390: 9754 f3bc bc7a 943d 2769 ea3b 6b78 a9bd
000003a0: fcea acbb a44d 923d 4f4c cbbd 671f 5cbd
000003b0: b975 743d 912e 953d 80fe 683d 2ee6 45bc
000003c0: 936a 113c c621 c5bd 8600 c9bd 5b13 a0bc
000003d0: 0d1b d8bd 750a cfbb de29 b13d 7488 e3bc
000003e0: 56f1 3b3d 52f7 8b3d f985 bebd 7e00 b8bc
000003f0: 79b3 83bd 0374 ca3d b4aa 903d d30e b3bd
0.073371656 -0.03793954 0.08999547 0.032294802 -0.07787683 0.07136807 -0.090848 0.035222694
0.051483136 -0.0022370794 -0.07212666 0.009705771 0.100918844 0.06787228 -0.057372343 -0.0094444845
-0.047400452 0.01900208 0.058644418 -0.029386103 -0.07280876 0.019684713 -0.0967065 -0.07475264
0.08454055 -0.03634738 -0.043494124 0.016459731 0.03507044 -0.0070876526 -0.010866472 -0.097375356
0.0491817 0.09511062 0.020460533 -0.051138863 -0.06984757 0.049090743 0.073778644 -0.012583165
-0.01783085 -0.029119732 0.093373224 0.005937253 0.0497228 0.021512322 -0.09627931 -0.020394025
0.00828546 -0.09502812 -0.016883664 -0.046815213 -0.008527979 -0.08776902 0.07711164 -0.09695307
-0.03870537 -0.02867046 0.069419086 0.037734974 -0.08538648 0.015931893 -0.037617624 0.018811814
0.042524092 -0.05797835 -0.0122953355 0.07175081 -0.021335023 -0.044299144 0.061097603 0.08838747
-0.054533135 -0.030382909 0.086646214 -0.026319603 0.095760904 0.014505651 0.056683812 0.09463758
0.033961773 0.0033880684 0.08945312 -0.070908286 -0.03280227 -0.07196119 -0.06300526 -0.045821313
-0.07837894 0.10065055 -0.035821147 0.008876305 0.03595264 0.04721002 0.06573813 0.0098738745
0.07668171 -0.033584896 -0.057001717 -0.037219096 -0.020641865 0.07749464 -0.054523434 0.069865845
-0.04659543 -0.08618376 0.030838393 -0.0136070065 0.078351244 -0.07684176 -0.006376643 -0.077051975
-0.07147245 0.048369516 -0.025749331 -0.021889282 0.09717741 0.030195683 0.0073668044 -0.018641863
-0.0124069955 -0.06397327 -0.01141232 0.062195577 -0.04390987 0.08934087 -0.021657154 0.046102863
0.015977897 -0.08046433 -0.091398805 0.046095245 -0.04523036 0.074324936 -0.090314135 -0.03950903
-0.055084474 0.03160082 -0.09460467 -0.074275695 -0.07661099 0.097807415 0.069419146 -0.04369822
0.03038562 -0.011605402 -0.09741997 -0.0010773246 -0.048976257 -0.095741495 -0.02903719 -0.08704119
-0.023125729 -0.10156222 -0.040947236 -0.023553941 -0.07200064 -0.055919938 0.03853451 0.069305785
-0.06510764 -0.07995494 0.0044377632 0.08712324 -0.045011297 0.0036490157 0.0052718907 -0.088200025
-0.03181759 -0.03167356 -0.0985189 -0.074147806 -0.0051249494 -0.09716357 -0.078975484 0.029444644
-0.082297236 -0.0063219857 0.082840554 0.061670925 0.060852986 -0.064243816 0.026469616 -0.02695347
0.055161644 0.100049675 -0.006631795 0.04706569 -0.05203904 -0.012094243 0.037546545 0.02314075
-0.048210353 -0.08830368 -0.08557756 0.0131015945 -0.028036593 -0.034399897 -0.046296604 0.06469307
0.09151662 -0.035135154 0.0036087844 -0.05741799 -0.06761879 0.05969496 0.076417536 0.08205323
-0.07044231 0.038186565 -0.063141815 0.08854562 0.041093305 0.013344022 -0.019699717 -0.0143612465
-0.052008726 -0.008590675 -0.021059567 -0.000136087 0.0035534159 0.020277409 0.013820862 0.0045442777
-0.008686833 -0.09104159 0.0062033967 -0.022555046 -0.029703422 0.07249972 0.0071536484 -0.08274921
-0.0052770358 0.07143715 -0.09926664 -0.053740885 0.05968258 0.072842725 0.056883335 -0.012078805
0.008875507 -0.096255824 -0.09814553 -0.01954048 -0.105520345 -0.0063183852 0.08650564 -0.027775027
0.045884453 0.06834282 -0.09302897 -0.022461172 -0.06430716 0.09885409 0.07063809 -0.08743062
