_train/_models/20250912/SK(034730)_20250912.pt (torch, 832799 bytes, 20 tensors)

enc_p.lstm.weight_ih_l0 f4 [384, 6]
000000 5d 2d 75 3d 71 a4 8c bd bb 80 f1 3c aa 36 55 3d
       0.059857715 -0.06867302 0.029480329 0.052054085
000010 1a 93 c9 3d 4f 75 bf 3d 6c 55 59 3d 56 2e 65 bd
       0.098425105 0.09348547 0.05305998 -0.055952393
000020 2d 19 a2 bd 7a ab 19 bc 07 99 43 3d 16 dd e0 3b
       -0.07914958 -0.009379262 0.04775336 0.006862293
000030 56 40 79 3b 4a f2 45 3d 10 33 8c bd 82 19 45 3d
       0.0038032732 0.048326768 -0.06845677 0.04812003
000040 cf f0 9b 3d 75 d1 82 3c c4 e6 ba bd 12 11 7d bb
       0.0761429 0.015969018 -0.09126046 -0.003861491
000050 57 d9 a0 3d 57 34 6f bd 4e 16 9b 3d 44 ee b4 3d
       0.07853954 -0.058399525 0.07572614 0.08834508
000060 0a 9f b5 3d 7c 9f db 3b cc 11 55 bd ee 5a 3f bc
       0.08868225 0.0067023616 -0.052018926 -0.011679394
000070 34 b8 b3 3d 25 0c c1 3d 5e 2e b9 3d 85 39 99 3c
       0.08775368 0.094261445 0.09042047 0.018704185
000080 f5 54 ca bd 4d a2 49 3d ff fd a1 3d ca c8 0f 3d
       -0.098794855 0.049227048 0.07909774 0.035103597
000090 79 7d 90 3d e5 ad bf bc 26 26 56 bd 3c 98 69 3d
       0.07055182 -0.023398349 -0.052282475 0.057029948
0000a0 23 1e bd 3b d2 91 88 3c 3e d0 de bc 8f cc c7 bc
       0.005771415 0.016671095 -0.027198907 -0.024389533
0000b0 10 16 a7 bd 6e 66 0a bd 0d 75 76 3d f5 88 70 bd
       -0.08158505 -0.03378909 0.060170222 -0.058724362
0000c0 8f ff 31 3d 25 dc be 3d 1a 2d af bb 82 8e 10 bd
       0.04345661 0.09319333 -0.0053459527 -0.035292156
0000d0 f5 8f 2b 3d f8 3b 88 bd d7 f8 b4 3d 99 bd 1a 3d
       0.041885335 -0.06652063 0.08836525 0.03777847
0000e0 c4 c6 58 bd c1 01 59 bd 17 e1 40 bc f0 fc 92 bd
       -0.052923933 -0.05298019 -0.011772416 -0.0717715
0000f0 ec 40 e6 bc b5 38 9b 3d 33 06 4f 3d 87 60 28 3d
       -0.028107129 0.075791754 0.05054302 0.04110768
000100 39 bc 21 3c 9f 9e c9 bd 02 3f ff 3c 82 90 3b 39
       0.009871536 -0.09844708 0.031157974 0.00017887543
000110 13 c1 be bd 50 c0 ce 3b 6e 26 7e 3b df 3f 9d 3d
       -0.0931417 0.0063095465 0.003878023 0.07678198
000120 ea f1 cc 3d 96 ce 4c bc 7b e3 cd 3b 7e 81 b8 bd
       0.10007079 -0.012500426 0.0062832213 -0.09009074
000130 5e 69 b2 bc 2a ea ba bd 5e ca aa bd cd 4e 6d bd
       -0.021778759 -0.091266945 -0.0833938 -0.05793648
000140 d4 82 38 bd f2 1c 63 3c 61 cc 96 bd 5b 43 91 3d
       -0.045046642 0.013861882 -0.07363201 0.07092925
000150 b3 1c 5a bd d3 c3 a9 3d 2f d8 35 bd a8 a6 da bb
       -0.053250026 0.08289304 -0.044395622 -0.006672699
000160 d5 36 9f bd c7 ab 07 bb 0b 1a 3f bd 82 fc 4e bd
       -0.0777413 -0.0020701753 -0.046655696 -0.05053378
000170 3c 3e 34 3d 25 39 39 bd 2b 5e 07 3d e3 3d f6 3c
       0.044004664 -0.045220513 0.03304879 0.030058807
000180 fa a5 4a 3b 91 e9 81 bd 35 28 34 bd 60 cc 3f bd
       0.0030921684 -0.063433774 -0.043983657 -0.046825767
000190 17 96 67 bd ff c6 9c 3d 50 3a 54 3a db 06 dc bc
       -0.05653962 0.07655143 0.00080958474 -0.026858738
0001a0 ff f9 80 bd 48 f8 7d 3b 4d 07 49 bd 70 fa 4d 3d
       -0.06297683 0.0038752723 -0.04907923 0.050287664
0001b0 9b 66 39 bd ae 76 ce 3c d0 70 08 3d fb dd 6c bc
       -0.045263868 0.025203075 0.03331071 -0.014457221
0001c0 d3 97 23 3c 45 0e 94 bd ed 8b af 3d 02 d1 93 3d
       0.009984928 -0.07229284 0.085716106 0.072175995
0001d0 18 af 5a 3c ce 1c 49 bd d1 3c 89 bd ab 10 c5 3c
       0.01334741 -0.049099736 -0.06701053 0.0240558
0001e0 f7 cc 3b 3d b9 48 c9 bd 5c 25 b8 bd a2 37 3e bd
       0.045849767 -0.09828324 -0.08991501 -0.046439774
0001f0 df cc 3b 3b f7 bc a1 bd 1a 4b a1 bd 62 fb cf 3c
       0.0028656048 -0.0789737 -0.078756526 0.025388423
000200 b1 ff 7e bd 88 c8 06 bc 14 21 a9 bc 3e 0e 6d 3d
       -0.062255565 -0.008226521 -0.020645656 0.05787491
000210 1a c8 87 bd 48 92 33 bd 8e 34 a5 bc 54 9a 01 bc
       -0.06629963 -0.043840677 -0.020166662 -0.00791033
000220 2d 3c 00 bc 89 34 a0 3d 6e 24 af ba b4 48 d4 bc
       -0.007826847 0.0782252 -0.0013362297 -0.025913574
000230 c7 66 71 bd e1 43 14 3d 03 43 5c bc a5 f2 9b bc
       -0.058935907 0.036197547 -0.013443711 -0.0190366
000240 c2 3f ce 3d 28 ae 18 3d 30 ba d2 3c 0a 7f 79 bd
       0.100707546 0.037275463 0.025723547 -0.06091217
000250 76 2e 90 bd 01 85 af 3d 1f 8f 92 3d 61 31 6b bd
       -0.07040112 0.0857029 0.071562044 -0.05742014
000260 19 31 65 bd 3c e3 a0 3d 25 ac cf 3d 11 71 1d bd
       -0.055955026 0.078558415 0.10140256 -0.038437907
000270 4d d3 84 bc 0c 0c 7f 3d 1f a7 41 bb 8c 76 b4 3d
       -0.016214037 0.06226735 -0.0029549075 0.088116735
000280 f7 f9 d6 bc 2c 21 7e bc 45 35 74 bd 90 fb 93 bd
       -0.02624224 -0.0155108385 -0.059621114 -0.07225716
000290 b7 6a 12 3c 36 ab c4 bd 99 a3 af bd b5 ab 99 3d
       0.008936576 -0.096029684 -0.08576126 0.07503454
0002a0 37 09 75 3c 1d 5a 54 bd 6d b4 4d bc 54 8a 99 bd
       0.01495581 -0.05184375 -0.012555224 -0.07497087
0002b0 6e 2f 52 3d e0 2f c6 bd 4b aa c3 bd 19 b7 b1 3d
       0.051314764 -0.096771 -0.09553965 0.08677501
0002c0 d8 84 55 3d c6 bf 6c 3d 5e f7 47 3d 65 fb c8 bd
       0.052128643 0.057800077 0.048819892 -0.09813575
0002d0 0b 54 80 bd f8 04 a6 3d c1 6e f6 bc 2e 73 b2 3d
       -0.0626603 0.081064165 -0.030082108 0.08713375
0002e0 67 de a0 bd 00 7d 49 bd 7f 00 64 bd dc 0c bd bd
       -0.0785492 -0.049191475 -0.055664536 -0.09230968
0002f0 e8 42 2e bd 8a cd d5 bc 70 ff 93 3d 68 a3 13 3d
       -0.042544276 -0.026098985 0.07226455 0.03604451
000300 d0 c7 81 bc 3c 9e 4a 3d c5 f8 56 bd da 74 ba 3c
       -0.015842348 0.04946731 -0.05248334 0.022760797
000310 23 1b 18 3c 21 56 9d 3d 60 3f 86 3d 39 2b a6 3d
       0.009283814 0.076824434 0.065550566 0.08113713
000320 ac 2f 8c bc 53 19 70 bd a5 76 cd 3b fe 26 fc 3c
       -0.017112575 -0.0586179 0.006270247 0.030780312
000330 5a 09 3a bd b6 b6 cc 3d 7f a4 04 bd 96 11 7b 3a
       -0.045419075 0.09995787 -0.03238344 0.00095775106
000340 8e 63 36 bc 42 61 5f 3c d4 ca b4 3c 7c 28 1c 3d
       -0.011132134 0.013634028 0.022069372 0.038124546
000350 31 74 4b bd 73 99 0c bd 73 fb 86 3d 7c 4c b5 bd
       -0.049671356 -0.034326028 0.06590929 -0.08852479
000360 66 64 af bd 80 22 b2 3d 91 92 f6 3c c3 e6 b9 3c
       -0.08564071 0.086979866 0.030099185 0.022693044
000370 70 bd b7 bd ee 64 64 bd a1 69 64 bd 27 70 bc 3d
       -0.08971679 -0.055760317 -0.055764798 0.09201079
000380 09 38 b9 3c 1a 8b 80 3d 2d d0 b7 3d 5c ef fa bc
       0.022609727 0.062765315 0.08975253 -0.030631714
000390 67 fa 1a bd 1c 40 85 3c 49 0d 9e bd 6b 1b 55 3d
       -0.03783646 0.016265921 -0.07717378 0.0520281
0003a0 87 22 24 3d f3 b5 0c 3d 88 70 00 bd 34 e3 1f 3d
       0.04007199 0.034353208 -0.03135732 0.039035037
0003b0 31 17 27 3a 12 fc a9 bd ad b6 97 3d 1d a6 de 3c
       0.0006374 -0.08300032 0.074078895 0.027178818
0003c0 a2 c0 dc 3c b6 b2 60 bd 7f ef b6 bd 8f 39 48 3d
       0.026947323 -0.054857932 -0.08932399 0.048883017
0003d0 55 6c 52 3d 3c 72 7b 3d aa 03 02 3d 49 05 ef bb
       0.051372845 0.06138824 0.031741776 -0.007294331
0003e0 ac 6b 80 3d 88 71 7e 3d c7 4f c6 3d ec 21 99 3d
       0.06270537 0.06211999 0.09683185 0.07477173
0003f0 93 75 81 3c a7 14 c5 bd c2 aa 87 bd 44 ca ae 3d
       0.015803134 -0.0962308 -0.06624366 0.08534673

enc_p.lstm.weight_hh_l0 f4 [384, 96]
000000 4c 9e db 3b 93 63 84 3a d4 1c 25 bd bf 53 6a bc
       0.00670222 0.0010100476 -0.040310696 -0.014302193
000010 97 ae ae bd 19 52 ba 3c a3 38 c3 bd 3f 5c 0b 3d
       -0.08529394 0.022744225 -0.09532287 0.03402352
000020 fa e5 be bb 3f 06 3a 3d 96 7f 9a bc 5d 9d 68 bd
       -0.005825755 0.045416113 -0.018859666 -0.0567907
000030 af 0f d1 bb 02 90 9e 3d 73 19 74 3c 02 ce 0c 3d
       -0.0063800435 0.07742311 0.014898646 0.03437615
000040 f1 4c 86 bd b8 5c 38 3c 6c 02 04 bd d1 8c 01 bd
       -0.06557644 0.011252575 -0.032228872 -0.031628434
000050 65 68 23 3d 91 da 84 3c 83 6f 31 bd 37 3f bf bd
       0.03989448 0.016217502 -0.043319236 -0.09338229
000060 f0 45 74 bd 34 21 80 3d 87 be 03 3d 1a e2 fb 3c
       -0.05963701 0.06256333 0.032164123 0.030747462
000070 39 04 47 3d ca b3 bb bd e8 6f b2 3d c7 d6 e1 3c
       0.04858801 -0.091651514 0.08712751 0.027568234
000080 e5 38 51 bd c3 80 a9 3d 99 a5 12 bc f4 1f a1 bc
       -0.05107965 0.082765125 -0.008950614 -0.019668557
000090 59 56 88 bb 05 0a 7e bd 34 9f 6d bc dc 1b c6 3b
       -0.004160684 -0.062021274 -0.014503289 0.0060458016
0000a0 8d b6 6d 3d c2 db b4 3c 32 dd 0e 3d b7 1e bc 3c
       0.058035422 0.022077445 0.034878917 0.022963865
0000b0 e3 6b 29 bb cf 2f 51 bc 62 5e a4 bc f2 25 7b 3d
       -0.002585166 -0.012767746 -0.020064536 0.061315484
0000c0 dd 42 33 3d 79 65 30 3d aa 2f 21 3d 2e 36 8b bd
       0.043764938 0.043065522 0.039352097 -0.06797443
0000d0 5b cc 7c bd 7f fb 2b bd ec 6f bc 3d 37 d1 02 3d
       -0.061718326 -0.041987892 0.09201035 0.031937804
0000e0 b3 c5 9e bb f3 86 af 3d 94 d0 40 bd 74 44 84 bc
       -0.004845345 0.085706614 -0.047073916 -0.016145922
0000f0 0b 07 13 bd bb f7 dd bc e5 77 cb bd e2 b0 c0 3d
       -0.03589539 -0.027095666 -0.099349774 0.09408738
000100 7d b8 88 bb 60 67 ca 3d 20 80 5d 3d e8 72 56 3d
       -0.0041723833 0.098829985 0.054077268 0.052355677
000110 f2 f5 a9 bd 46 4b 6a 3d 9e 26 73 3c eb 72 51 bd
       -0.082988635 0.057200693 0.01484075 -0.051134985
000120 a5 7d 2f bc de cd 09 bd e8 d1 9e 3d bd 62 9c 3d
       -0.010711108 -0.033643596 0.0775488 0.0763602
000130 ba 68 89 bd fe f5 07 bc cf 29 2e bd b7 d4 3a 3d
       -0.06709428 -0.008298395 -0.04252034 0.045613017
000140 3e 34 22 bd 19 cc 4d bd f0 7e 44 3d dd c7 52 bc
       -0.039600603 -0.05024347 0.04797262 -0.012865034
000150 66 c8 ce bc c1 be 9c bd 3e e7 8e bc 85 3e ae bd
       -0.025242042 -0.07653571 -0.01744425 -0.085080184
000160 f1 2c 50 3d 3e e2 03 bd 8a 70 60 bd 98 7b c3 3d
       0.05082411 -0.032198183 -0.054794826 0.09545058
000170 bc b1 ab bd 0b d3 a9 3d 7c d6 97 3d 33 31 a7 3d
       -0.083835095 0.082922064 0.074139565 0.08163681
000180 bf 91 69 3d 13 12 14 bc 0a 15 01 3d 4e 7e 2a bb
       0.05702376 -0.009037512 0.031514205 -0.0026015225
000190 65 14 b9 3d ef 33 c4 3d 86 12 d8 3c 69 be 68 3d
       0.09037093 0.09580218 0.02637602 0.056822214
0001a0 57 9a e0 bc 81 01 b1 3d 10 7b 08 bd 9d a2 1f 3d
       -0.027417345 0.08642865 -0.033320487 0.03897344
0001b0 cf 9b 4d 3d bf de a5 bd ab 31 26 bc e2 1c b2 3d
       0.05019742 -0.08099126 -0.010143678 0.08696915
0001c0 34 47 d2 bb ad 13 05 bd b2 0a ed 3c 69 07 32 3d
       -0.0064171795 -0.032489467 0.028935764 0.043464098
0001d0 09 67 70 3c 30 e7 1b bd 24 f1 9a 3d 4d 20 00 bd
       0.014673003 -0.038062274 0.07565525 -0.031280804
0001e0 e1 00 2d 3d 79 8d 61 bb 41 78 dd bc 98 9b 81 bc
       0.042237166 -0.00344166 -0.02703488 -0.015821263
0001f0 c8 10 3e 3d fb ae 24 bd 6c 0c 87 bc b2 4a 8f 3d
       0.046402723 -0.040205937 -0.016485415 0.06996669
000200 36 10 a0 bb e0 a0 30 3d 24 e3 c6 bd c6 50 49 3a
       -0.004884745 0.043122172 -0.097112924 0.00076795777
000210 2a f6 da 3c 21 f4 04 bd 09 d9 18 3d 14 ba 05 3d
       0.026728708 -0.032459382 0.037316356 0.03264816
000220 23 4b 2b 3d 1c 4d ba 3d 41 28 c4 3d 91 5b 40 bd
       0.041819703 0.09096739 0.0957799 -0.046962325
000230 1b a0 7a bc 5d 67 2d bd 48 8d 86 3d ee 0e c2 bd
       -0.015296961 -0.042334903 0.06569916 -0.09475504
000240 88 37 e9 3c 03 05 ac bd 29 d8 b8 3c 6b 8e 22 3d
       0.028468862 -0.083993934 0.02256401 0.0396866
000250 e2 ac 34 3c 98 18 89 bc 99 97 f9 bc 90 30 9b bd
       0.011027547 -0.01673536 -0.030467795 -0.07577622
000260 f3 dd 7f 3d b7 e6 35 3b 14 ba 16 bd ea 95 de 3c
       0.062467527 0.0027755925 -0.03679855 0.027171094
000270 a6 f0 48 3c 4e 67 cc bd 77 74 a8 3d 93 bb a2 3d
       0.012264406 -0.09980641 0.08225339 0.07945933
000280 c6 91 05 bd 42 18 13 bc 05 5f 3f 3d 87 fd 4e 3d
       -0.032609724 -0.0089779515 0.046721477 0.05053475
000290 fc 8b 5c 3d 10 a9 92 bc a3 2f 80 3d 82 92 2a bd
       0.053844437 -0.01790288 0.06259086 -0.041643627
0002a0 ae 14 9e bd bf 02 a2 3d 0a 0d fa bc d7 07 23 bd
       -0.07718788 0.0791068 -0.030523796 -0.0398024
0002b0 65 71 c1 3d 67 91 9b bd 78 fc aa bd 07 3b c8 bd
       0.094454564 -0.07596093 -0.08348936 -0.097768836
0002c0 c9 67 16 bd c7 54 4c 3d c7 b2 4c 3c d7 b8 c5 bd
       -0.03672007 0.049885537 0.012493796 -0.09654396
0002d0 00 f8 cc 3d ed 2c 88 3b d0 37 94 bd 43 87 17 bd
       0.1000824 0.004155746 -0.07237208 -0.03699423
0002e0 a5 0a 74 3d 95 ca ae 3d d8 28 a1 3d 4b ee 4e 3d
       0.059580464 0.08534733 0.078691185 0.050520223
0002f0 90 f7 3e bd d0 59 64 3d 0e da 79 bd 29 72 ae bd
       -0.046622813 0.055749714 -0.06099897 -0.08517868
000300 34 c2 2c bd 16 66 36 3d b6 e8 9e bc 28 76 b6 bd
       -0.042177394 0.04453095 -0.019398075 -0.08909255
000310 1c 2d a8 3d e4 04 a9 bc eb 2f ac 3c 72 2c 92 3d
       0.08211729 -0.020632215 0.021018943 0.071373835
000320 7f 03 bd bb 61 b2 1f bb 24 57 28 3d 41 dd 88 3d
       -0.005768239 -0.0024367797 0.04109873 0.06682826
000330 01 16 64 3d bc 97 31 bd 4e 06 b3 3d 14 b4 99 3c
       0.055685047 -0.043357596 0.08741437 0.018762626
000340 43 ef cc 3c c3 ed 78 3d 78 36 93 3c 50 c4 95 3b
       0.025016433 0.060773622 0.017970309 0.0045705214
000350 42 6a 74 3d e9 47 f8 3c be 5d 00 3d 53 bb b1 3d
       0.059671648 0.030307727 0.0313394 0.086783074
000360 d1 46 1e 3d 54 1b a6 3d 43 37 a6 3b 78 5e 7a bd
       0.038641755 0.08110681 0.0050725057 -0.06112525
000370 f6 a0 bb bd f3 65 21 bd b4 a8 b1 3d 3b 31 d6 3d
       -0.0916156 -0.039403867 0.08674756 0.10458609
000380 62 77 7c bd d9 d6 24 bd 07 11 b8 bd ee 06 51 bd
       -0.06163729 -0.040243957 -0.08987623 -0.051032
000390 70 3e 9b 3d 86 2f 92 bd 78 9f 33 bc da d6 b4 3d
       0.075802684 -0.071379706 -0.010963313 0.08830042
0003a0 28 30 1c bd 68 51 d6 3c 3f b9 b2 3c a0 f3 69 3d
       -0.038131863 0.026161864 0.021816848 0.057117105
0003b0 d9 a1 99 bd 15 9d e7 bc 62 0b 04 3d 2a e4 89 bc
       -0.07501573 -0.028273145 0.032237418 -0.01683243
0003c0 33 11 8a 3d f1 11 c9 3d 2b e2 df 3c 3a 84 54 bd
       0.06741562 0.09817875 0.027329525 -0.051883914
0003d0 0b ae 4c bd 23 a1 96 bd 5f fd 90 3d 88 23 5e 3d
       -0.049970668 -0.07354953 0.07079577 0.054233104
0003e0 a2 c8 23 3d 68 9c e5 3c 3d cc 89 bd d9 86 9f bc
       0.03998626 0.028028682 -0.067284085 -0.01947348
0003f0 12 a3 65 bc 08 e0 ab 3d e0 32 99 bd 35 5e e0 3c
       -0.01401593 0.0839234 -0.07480407 0.027388671

enc_p.lstm.bias_ih_l0 f4 [384]
000000 d1 fc 93 bb 05 c1 ae 3d 13 7c bb 3d 51 d0 81 bd
       -0.004516222 0.08532909 0.09154525 -0.06338561
000010 25 a4 c4 bd c0 af c8 bd 84 43 a4 3d b9 f6 c6 bd
       -0.096016206 -0.09799147 0.0802069 -0.09715027
000020 a4 2c 80 bc 08 10 4d 3d a9 27 69 3d e9 02 bc bd
       -0.015646286 0.050064117 0.05692259 -0.091802426
000030 f3 53 8e bd 8e 00 14 bd 0a ca 36 3d e2 29 96 bd
       -0.06949606 -0.03613334 0.044626273 -0.07332207
000040 42 63 52 bd f0 e1 b2 bd 66 81 6d 3d cb 28 6e 3c
       -0.05136419 -0.087345004 0.057984732 0.014536093
000050 ee 7e 03 3b 92 a0 b3 bc ee 6c 13 bd b2 d2 bd 3d
       0.002006467 -0.021927152 -0.035992555 0.092687026
000060 1b 21 41 3a e8 bf 18 3d 11 d9 a5 bd 3f 94 b7 bc
       0.0007367299 0.03729239 -0.08098043 -0.022409556
000070 00 b2 fe bc 26 ec 33 bd 9a 31 c0 3d 2f 59 6f 3d
       -0.031090736 -0.04392638 0.09384461 0.05843466
000080 d2 17 ae 3d cb 8d 7e bc 89 69 3e 3c 39 6f f1 ba
       0.08500637 -0.015536736 0.011621841 -0.0018419988
000090 99 31 65 bd 7d f1 33 3c 76 4d c0 bd 35 c1 cf 3d
       -0.055955503 0.010982868 -0.093897745 0.10144273
0000a0 c2 ae 05 bd 8a fa 1f bd 7f 4b 9b 3c 8e 68 34 bd
       -0.032637365 -0.039057292 0.018956898 -0.044045024
0000b0 22 5a d9 3a 54 22 9c 3d 50 e3 84 3d 7c 27 8b bd
       0.0016582648 0.07623735 0.06488669 -0.067946404
0000c0 36 87 62 3d 52 2a b7 3d 64 4b 8a 3d 02 82 b5 3c
       0.05530473 0.08943619 0.06752661 0.02215672
0000d0 ab b3 80 bd 38 ba 5b bd 13 1d 29 bd 3f f5 84 3d
       -0.06284269 -0.05364439 -0.041287493 0.064920895
0000e0 ef 8c 53 3d c8 5d dc bc 0e 1a 39 3d 6d 16 cd bd
       0.051648077 -0.026900187 0.045190863 -0.10014043
0000f0 d7 fd 96 bd 21 08 69 3d f0 30 7f bd 26 79 89 bc
       -0.07372635 0.056892518 -0.06230253 -0.0167814
000100 ec 82 c2 3d 65 77 eb 3c c8 d9 81 3d df 60 a2 3c
       0.094976276 0.028743455 0.063403666 0.019821582
000110 5d 6f dc 3c e9 85 25 bd fc e5 db 3c ef 80 19 3d
       0.02690857 -0.04041091 0.026843064 0.037476476
000120 89 00 21 bd f5 c3 50 3d e9 02 8c bd 14 a7 b1 3c
       -0.03930715 0.05096813 -0.068364926 0.021686114
000130 8a 2c b6 bd 12 a4 cc 3d 3b 54 af b8 5f 2c bb bd
       -0.08895214 0.099922314 -8.3603394e-05 -0.091393225
000140 c3 46 98 ba 01 04 4c 3d 5f 39 a2 3d 0c 7d a1 3d
       -0.0011617768 0.049808506 0.07921099 0.07885179
000150 81 f8 cd bc ec e5 4d bd 06 47 9d bd 44 29 e5 3c
       -0.02514291 -0.0502681 -0.07679562 0.027973779
000160 79 9d a4 bd 6a 9d e7 bb 83 a3 b6 bd 9c 34 b1 bd
       -0.08037848 -0.0070683258 -0.08917906 -0.086526126
000170 c1 05 70 bd 61 99 c4 3c 3a 63 e9 3c 16 90 95 3d
       -0.058599237 0.023998918 0.028489698 0.07302873
000180 bc 76 94 3d 38 07 a5 bd a1 27 89 3d f1 20 59 bd
       0.07249209 -0.080580175 0.06697012 -0.05300993
000190 43 3d ab bc a6 e9 c2 bd 58 b4 6b bd cd af 25 bc
       -0.020903235 -0.09517221 -0.057545036 -0.010112715
0001a0 ef 92 40 3d b5 d2 fe 3c ce d1 86 3d 91 53 93 bd
       0.047015127 0.031106332 0.06582986 -0.071936734
0001b0 ea f2 c9 bd 4e f4 e3 3c 61 91 5f 3d 31 11 20 3d
       -0.09860785 0.027826454 0.054582004 0.039078895
0001c0 c1 a1 51 3d d0 50 36 3d a4 8b 56 3c 53 4c b6 3c
       0.05117965 0.044510663 0.013094816 0.022253191
0001d0 4e c3 1e bd 3f 30 b8 3c 9d f3 64 3d b0 ff 98 bd
       -0.038760476 0.022483943 0.05589639 -0.074706435
0001e0 1e d6 8c 3d 51 b8 61 bd ed a8 c3 3d 67 a9 20 bd
       0.06876777 -0.05510742 0.095537044 -0.039224055
0001f0 cf 9c c6 bd 9d 2e 40 3d b3 c8 e0 bc ef ea b4 3d
       -0.096978776 0.046919454 -0.02743945 0.088338725
000200 28 08 46 bd 43 13 4f bd ab ac cf bb 7b 07 0d bd
       -0.048347622 -0.05055548 -0.0063377223 -0.034430962
000210 80 30 3d 3d 38 c6 07 bd f9 33 aa bd f9 6f 8c 3c
       0.04618883 -0.03314802 -0.08310694 0.017143236
000220 ec 87 53 bd 5d 01 46 3d b0 0e 6d 3d 6e 62 83 3c
       -0.051643297 0.048341144 0.057875335 0.016038146
000230 d1 90 20 3d 60 92 d1 bc 56 c0 43 3d 46 e9 92 bd
       0.039200608 -0.025582492 0.047790848 -0.071733996
000240 b3 12 1a 3d 9f 56 40 bd 8c 1c 53 3c b5 76 65 3d
       0.03761549 -0.04695761 0.012885224 0.05602141
000250 96 0d fe bc c0 83 b2 bd 1c 17 8b bd e0 f5 3f 3c
       -0.031012338 -0.087165356 -0.06791517 0.011716336
000260 a4 1a 85 bc 21 b1 fd bc f1 4c 16 3d 35 62 0b 3d
       -0.016248055 -0.03096825 0.03669447 0.034029204
000270 95 c1 79 bd bf b3 bd bc f6 59 52 bd 76 c5 b7 bd
       -0.06097563 -0.023156999 -0.051355325 -0.089732096
000280 5a af be bc a9 e6 b8 bd 99 ed b3 bd 7b 4e 39 bd
       -0.023276974 -0.0902837 -0.087855525 -0.04524086
000290 66 a4 25 bd 88 4d 5c 3c 92 3b 77 3d 67 4e c1 3d
       -0.040439986 0.013446219 0.060359545 0.09438782
0002a0 82 c5 8e bd d7 0d 40 bd 94 9f 80 bd c3 fd b7 3d
       -0.069712654 -0.0468882 -0.06280437 0.08983948
0002b0 31 36 98 3d ad ed 29 bc ae 04 bd 3c e8 8c c8 3d
       0.07432211 -0.010371608 0.02307352 0.09792501
0002c0 f2 eb b1 bb 6a c9 36 bc 9b ed 14 bb a6 fd 90 bd
       -0.005429738 -0.011156419 -0.0022724632 -0.070796296
0002d0 16 0e a6 bd 35 c3 01 3c 25 0e b4 3c 93 d9 cc bd
       -0.081081554 0.007920076 0.0219794 -0.100024365
0002e0 3f 4b a0 bd 42 05 6a 3d e4 4c 90 bd 0b 2a 07 3d
       -0.07826852 0.05713392 -0.07045916 0.03299908
0002f0 b6 6f bb bc 4e b8 b9 3d 52 f0 0f 3d 67 01 1f ba
       -0.022880416 0.090683565 0.035141297 -0.00060655776
000300 ed 16 3e 3d c5 76 80 3d 08 6d c2 bd 8c 0b c0 bd
       0.046408582 0.062726535 -0.09493452 -0.093772024
000310 60 1a 7f bd 41 9d 89 bd 79 ed 6f bd 9e 91 d1 3d
       -0.062281013 -0.06719447 -0.05857608 0.102328524
000320 35 3d 3e 3d f6 2c aa bd 65 4d c8 3d 1b 7c 21 3d
       0.04644509 -0.08309357 0.09780387 0.039424997
000330 07 e0 08 3d 9e c6 0b bc 50 d9 43 bd 46 7f 1d 3d
       0.033416774 -0.008531241 -0.047814667 0.038451456
000340 e2 63 bb bd fd d7 1e 3d c6 fb ad 3d 7a 0d 63 bd
       -0.091499105 0.0387802 0.084952876 -0.055432774
000350 c3 28 7c bd af 4b 8b 3d 16 58 a3 3c 6e 8a b1 bd
       -0.06156231 0.06801545 0.019939464 -0.086689815
000360 71 3a 14 3c c8 de 9e 3d c1 22 df bc 57 4a 68 bd
       0.009047137 0.07757336 -0.027238252 -0.05671152
000370 24 ca a4 3a 27 ba d3 bd 66 ad 43 bd 12 23 ce bc
       0.001257245 -0.1033824 -0.047772788 -0.025163207
000380 3f f6 4a bd 5f 53 2c bd c9 dd 89 bd b9 b2 94 3d
       -0.049551245 -0.042071696 -0.06731755 0.07260651
000390 8f 13 bf bd 9f 57 0a bd 47 f4 34 3a 8e 30 32 3d
       -0.093299024 -0.03377497 0.0006902855 0.043503337
0003a0 e6 f3 65 3d ee a9 b1 3d b2 85 8d bd 3e e6 80 3c
       0.056140803 0.0867499 -0.06910266 0.015734788
0003b0 d7 76 ac 3a 4f 00 c6 bd 3b 6c 4b 3b 88 db e3 3c
       0.0013157976 -0.096680276 0.0031039852 0.027814642
0003c0 72 3d 87 bb f6 ed 4f 3d 6a 45 7a bc b9 62 9a 3d
       -0.004127198 0.050764047 -0.015275339 0.07538361
0003d0 df fe c2 3d 1a 12 a3 bb a5 af dd bb ca 69 c7 3d
       0.09521269 -0.004976523 -0.006765323 0.097369745
0003e0 10 74 28 bd 17 60 7b 3d cd ba af bd c1 2f af 3d
       -0.04112631 0.061370935 -0.08580551 0.0855403
0003f0 cc fc 36 3d d8 41 42 3d f0 92 a6 3c b0 b4 69 bd
       0.04467468 0.047426075 0.020333737 -0.057057083

enc_p.lstm.bias_hh_l0 f4 [384]
000000 dd 8c 9f bc 1f 3a 8a bd 73 c5 a7 ba eb 8e 6d 3d
       -0.019476349 -0.06749367 -0.0012799933 0.057997625
000010 c9 b7 c1 3d 09 81 f1 3c 36 15 c3 3d cd c2 73 bb
       0.09458882 0.029480474 0.0952553 -0.0037194968
000020 2a 3a 98 3b 53 7c 3c 3c 9b b1 4e bd 83 fa 7c 3d
       0.0046456056 0.011504251 -0.050462347 0.061762344
000030 a1 a4 19 3c 96 a7 b6 bd 28 b8 61 bd 29 56 33 3d
       0.0093776295 -0.08918683 -0.055107266 0.04378334
000040 7d 16 cd 3b 6d a4 a5 3d 8e c2 64 3d 46 85 c7 3d
       0.0062587843 0.08088002 0.055849604 0.09742217
000050 8e 9d 4c bd d3 fd a3 3d 26 12 ab 3d 47 8f 46 bd
       -0.049954943 0.080073975 0.08353071 -0.048476484
000060 1a 0f 3d bc 45 2d 47 bd 61 2a 93 3d 7c 37 8b 3b
       -0.011539245 -0.048627157 0.071858175 0.0042485576
000070 19 9c 1c bd 64 39 85 3c d6 04 87 3d 2b dd 40 3d
       -0.038234804 0.016262718 0.06592719 0.047085922
000080 26 1d dd 3c 5a d9 b9 3d dc f1 86 3d 81 e2 ba 3d
       0.026991438 0.0907466 0.065891 0.091252334
000090 a6 1b 9c bc fe 2d a4 3d bc 51 a3 3b f0 12 4c bd
       -0.019056153 0.08016585 0.0049841087 -0.049822748
0000a0 1a b7 88 bd b6 35 89 3d 19 e1 9c bc 69 dd 93 3c
       -0.06675549 0.06699698 -0.019150304 0.018049913
0000b0 1a 97 86 3c c9 32 4c bd 80 d4 6b 3b bd f1 59 3c
       0.016429473 -0.04985312 0.0035984814 0.013302264
0000c0 b8 47 c1 3d 6c 10 94 3c a2 54 84 3d bc f4 38 3d
       0.094375074 0.018074237 0.06461455 0.045155272
0000d0 98 e6 c2 3d 17 ae ed b9 b4 42 b6 bd d7 d3 d0 3c
       0.095166385 -0.0004533387 -0.08899441 0.025491638
0000e0 ad 25 18 bd f0 53 bf 3c 57 3c bf bd 86 e9 36 3d
       -0.037145305 0.023355454 -0.09337681 0.0446563
0000f0 f5 e4 9b bd 5f f8 56 bc a5 3c 01 3d e2 eb 57 3c
       -0.076120295 -0.01312074 0.031551976 0.013178797
000100 9c 5b a2 3d b5 d4 cb 3d 7e d5 72 bd d3 b7 d0 3c
       0.07927629 0.0995268 -0.059285633 0.02547828
000110 d0 e5 bc bd 12 bc 04 3c 9c d8 d0 3c a3 13 27 3d
       -0.09223521 0.00810148 0.025493912 0.04079021
000120 04 2d 83 3d 01 dd 6e 3d a2 e3 94 bb a4 b7 b1 bc
       0.064050704 0.058316234 -0.0045437375 -0.021694012
000130 08 fd 72 3d 47 1e 76 3c ba a4 a6 bd 9d 95 1b bc
       0.05932334 0.015021867 -0.08136888 -0.00949612
000140 65 d2 30 3d 6f 7e 9d bd 91 23 18 bd 58 32 80 bd
       0.043169398 -0.07690131 -0.037143294 -0.06259602
000150 46 ab 2e 3d 25 20 5f 3d 0c 8e 03 3d 8c 1c e0 bc
       0.042643808 0.054474015 0.03211789 -0.027357362
000160 85 43 a7 3d ca c2 21 bd 43 b1 3a bd bf 95 cd bc
       0.08167175 -0.039492406 -0.045579206 -0.025095819
000170 69 fb 69 3d 77 89 5b bd 3a ca 90 3c fb 5d 59 3b
       0.05712453 -0.053597894 0.017674554 0.003316759
000180 84 84 c2 3d a4 e9 d3 3c ef dc 57 bd 45 bb 2b 3d
       0.094979316 0.025868244 -0.052700933 0.04192664
000190 b1 2d 4f bd c8 3d c3 3d 25 df 96 bb ae 05 a9 bc
       -0.050580684 0.09533268 -0.0046042376 -0.020632591
0001a0 f2 6d c2 bd fb ee 17 3d 80 74 0a bc 9f 26 29 bd
       -0.09493627 0.037093144 -0.008450627 -0.041296598
0001b0 2e 36 a6 bd 98 48 9e bd e5 b5 89 bd 69 a8 82 3d
       -0.08115803 -0.0772869 -0.06724147 0.06379778
0001c0 cd b5 a1 3d d3 c0 4a bd c4 b5 1a bd 57 10 98 3d
       0.07896004 -0.049500298 -0.037771 0.074249916
0001d0 e4 82 88 3d c0 fa 99 3d 69 27 cf bd a8 3a 5a 3d
       0.066655904 0.0751853 -0.10114939 0.053278595
0001e0 60 7a c6 3d f0 61 34 3c 6d e5 1c bd d9 7b c2 bd
       0.0969131 0.011009678 -0.038304735 -0.09496278
0001f0 45 03 95 bb ad 39 80 3d 63 99 31 3d 75 25 91 3d
       -0.004547509 0.06261001 0.04335917 0.070872225
000200 3d c0 41 3d 46 31 af 3d 9d 9d a6 bd 9d 64 d3 3d
       0.047302473 0.0855432 -0.08135531 0.10321925
000210 3a d7 40 bd f7 a7 47 3d 8f d9 81 3c 83 64 2e bc
       -0.047080256 0.048744168 0.01585081 -0.010644081
000220 1c 2c e4 bc cc 1d 92 3d 9c 2d 78 3d 68 62 3b 3d
       -0.027853064 0.071345896 0.06059037 0.045748144
000230 16 3e 76 bd af ee 4d bd 4c 70 ad 3d c2 73 89 bd
       -0.060117804 -0.050276455 0.084686846 -0.06711532
000240 17 53 94 bd 82 05 94 3d f7 d3 c3 bd d0 85 74 bd
       -0.07242411 0.07227613 -0.095619135 -0.059697926
000250 6c 41 25 3c 37 33 d4 bc 8d 30 f8 bc 22 43 07 3d
       0.010086399 -0.025903327 -0.030296588 0.033023007
000260 b1 91 be 3d 56 3e c4 bd 5d 0e 4f 3d ac 0a df 3c
       0.09305132 -0.09582202 0.050550807 0.027226768
000270 66 ea 92 3d 31 be c9 bb 3a 5e cd bb 03 49 49 bd
       0.07173614 -0.006156706 -0.006267336 -0.049141895
000280 39 c1 ae 3d 6f b1 0e 3d 81 71 1d bd 42 0c 14 bd
       0.08532948 0.034837183 -0.038438324 -0.036144502
000290 04 4a c3 3d 03 14 b0 bd fc 7e d2 3d 0a 45 c0 bd
       0.09535602 -0.08597567 0.102781266 -0.09388168
0002a0 bc e1 c3 bc 02 79 5c 3d 1d 36 a4 3d 70 c6 04 3d
       -0.02391135 0.05382634 0.08018134 0.032415807
0002b0 db 77 8e bd d2 84 4e 3d 35 fb a7 bd 61 3d 6d 3c
       -0.06956454 0.050419636 -0.08202211 0.014479966
0002c0 c9 a9 ef bc 84 8d 4f bd 3c 4e 65 3c db 03 6e bc
       -0.029255765 -0.05067207 0.013995703 -0.014527286
0002d0 94 1d 5c 3d 12 78 31 bd de 65 bd 3d 8d 47 2d bd
       0.053739145 -0.0433274 0.09247945 -0.042304564
0002e0 93 5a cd 3c 91 b2 8a bd f1 5f cd bd 4b 5b 8c bd
       0.025067603 -0.0677234 -0.10028065 -0.0685335
0002f0 42 4b 33 bc b2 2b 99 3c 4a e8 2c 3d f7 22 1c 3d
       -0.010943236 0.018697593 0.042213716 0.038119283
000300 98 0e 86 bd 09 3c b9 bd d4 e6 9f 3d 77 16 c4 3c
       -0.06545752 -0.09044654 0.07807699 0.023936493
000310 41 53 ca bd 13 d8 2c 3d d5 63 8b bd 30 9c 00 3d
       -0.09879161 0.042198252 -0.06806151 0.031398952
000320 a7 07 a5 bd 26 86 92 3d 08 19 dc bc ed 2f 62 bd
       -0.080581 0.07154493 -0.026867405 -0.055221487
000330 d7 fb 48 bc 9c 6b 77 bc 97 0e 5d 3d f5 1d 73 bd
       -0.012267075 -0.01510134 0.053968992 -0.05935474
000340 2c 00 25 bc 5b 7f 4f bd 15 b4 4b bd eb 88 98 3d
       -0.010070842 -0.050658565 -0.049732286 0.0744799
000350 83 4e 87 bd e4 95 f0 39 a2 2e c5 39 55 33 43 bd
       -0.06606772 0.00045888044 0.00037609512 -0.047656376
000360 9c 3c 80 3d 66 4c 1b 3c 3d 2e 1a bd 7e fd 36 bc
       0.0626156 0.009478664 -0.037641753 -0.011168836
000370 4a 6b be 3d d8 1a 9f bd 72 da f0 bc 05 5b 95 bd
       0.092978075 -0.07768792 -0.029401038 -0.07292751
000380 3d a6 81 bc 92 68 b8 bd a3 f3 88 bc 0d d1 a5 3d
       -0.015826339 -0.0900432 -0.016717738 0.08096514
000390 f3 39 2c bd 0e 63 d3 bd a8 c8 d4 3c 3b 87 82 3d
       -0.042047452 -0.103216276 0.025974587 0.063734494
0003a0 a0 1e e4 ba 9c 33 bc bd 18 a7 1f bd 4b 32 96 bc
       -0.0017404146 -0.09189531 -0.038977712 -0.018334528
0003b0 a0 65 b5 bd 99 85 aa 3d d4 19 62 bd 88 6f a1 bc
       -0.08857274 0.08326263 -0.055200413 -0.019706503
0003c0 d0 56 08 3d 62 a4 24 bd eb aa 2d 3d af e9 bb 3d
       0.033285916 -0.04019583 0.04239933 0.09175431
0003d0 83 dd 8d 3d 34 9d 80 bd 05 36 93 3c 64 76 d2 bc
       0.06927016 -0.06279984 0.017970094 -0.025691219
0003e0 3d 70 90 bb fe 2a a3 bd 10 af 25 bd ed e3 9a 3d
       -0.004407911 -0.079671845 -0.040450156 0.07563005
0003f0 80 15 77 3d fb 8f 74 bb 22 46 9e 3d fd f1 29 bd
       0.06032324 -0.0037317264 0.077282205 -0.041490544

enc_f.lstm.weight_ih_l0 f4 [384, 4]
000000 8a ce 51 bd 6a e0 45 bb 75 7b c8 bd de 65 73 3c
       -0.05122236 -0.0030193576 -0.097891726 0.01485583
000010 33 73 6c 3d bf 0c 2b bc c7 3b df 39 f8 24 89 3d
       0.05772705 -0.010440051 0.00042578412 0.06696504
000020 ef 81 4e 3a 26 2e 92 3d 96 6d ba bd 90 df 9e 3d
       0.0007877638 0.07137708 -0.09102933 0.07757485
000030 70 07 ab bd 36 ad 74 3d 32 8d 18 bd 2b 3c 90 bc
       -0.08351028 0.0597355 -0.03724403 -0.017606815
000040 8b e3 26 39 da 32 b5 3d 93 b1 59 3c 03 0e be 3d
       0.0001591576 0.0884759 0.013286966 0.09280016
000050 e8 3e 15 3d 02 95 7d 3d c6 60 c8 bd 60 d0 29 3d
       0.036436945 0.061909683 -0.09784083 0.041458488
000060 1a 66 c4 3d 24 af 88 bc 83 e6 69 bb 15 09 8c bc
       0.09589787 -0.016685076 -0.0035690374 -0.017094174
000070 8d 98 ae bd 5e 4b ac bd 1b 76 fd bc e5 e9 8a bd
       -0.085251905 -0.08412813 -0.030940106 -0.06782893
000080 cd 07 b4 3a 61 84 8b bd e5 a8 77 3d 74 22 bb 3c
       0.0013735235 -0.06812359 0.060463805 0.022843577
000090 e4 a9 fc 3c 54 6b 4a bd 50 f9 98 bd 67 ec 9d bc
       0.030842729 -0.049418762 -0.074694276 -0.019277764
0000a0 fe ec e0 3c fc 62 48 bc a5 ba b1 3d a5 48 03 3d
       0.027456757 -0.012230631 0.08678178 0.0320517
0000b0 81 4a 49 bd 72 f6 b2 3d c2 4d 4c 3b 03 a3 b7 3d
       -0.049143318 0.08738412 0.0031174277 0.08966639
0000c0 d1 07 80 bd 1b b9 aa bd 14 b7 c5 3c 66 a2 14 3d
       -0.06251491 -0.08336087 0.02413515 0.036287688
0000d0 3d b6 7c bc db 6b b6 3d 89 f4 56 bd ce c2 55 3d
       -0.015424308 0.089072905 -0.0524793 0.052187733
0000e0 e0 e1 34 3d e3 49 b2 bd 85 b4 b6 bd 88 3d a5 bd
       0.044160724 -0.08705499 -0.0892115 -0.08068377
0000f0 83 b6 c7 3d 3b 22 b0 3c c3 ac 23 bd a4 8c 73 3c
       0.09751608 0.021500697 -0.03995968 0.014865074
000100 57 2e 8b bd 9a 07 fa bc fe 5d 8d bd ae c2 03 bd
       -0.06795948 -0.030521203 -0.06902693 -0.032168083
000110 5e 06 fe bc 04 fd 93 bd 4d fe ae 3c ff 9d ac bd
       -0.031008895 -0.07225993 0.021361494 -0.08428573
000120 e4 83 2a 3d de 17 0b 3d 5f 3c f3 bc 2f f9 50 3d
       0.041629687 0.03395831 -0.029691873 0.05101889
000130 0a 7e 8f 3d 37 e0 8d 3d 6e 56 8a 3d 63 2b 6a 3c
       0.07006462 0.06927531 0.067547664 0.014292571
000140 d0 61 a4 3d 11 aa 47 3d 0e 10 99 3d f3 5a 71 3d
       0.08026469 0.048746172 0.07473765 0.058924627
000150 47 d1 8f bd f2 1b ae bc 60 6e b4 3d cd 70 b1 bd
       -0.07022338 -0.02125356 0.08810115 -0.08664093
000160 2f 2b 92 3d 32 ac 54 bd 15 3d 57 3c c4 fa 11 3d
       0.07137143 -0.05192203 0.013137122 0.03563954
000170 9b fe 50 3d f1 09 a8 3d ca f7 7a bb ac 3e 84 bd
       0.05102406 0.08205021 -0.0038294666 -0.06457266
000180 27 ed 99 bc 05 4d b8 3d a5 9b 1b bd c5 58 ac 3d
       -0.01878984 0.08999065 -0.03799023 0.08415369
000190 b0 65 f5 bc 83 f5 81 3d 24 7a e2 bc 83 e8 a4 3d
       -0.029955715 0.06345656 -0.027646132 0.080521606
0001a0 69 3c 96 3c 96 ff 50 bd 5d e2 99 3d dc 55 98 3d
       0.018339353 -0.051024996 0.075138785 0.074382514
0001b0 28 6f 6a 3d 6d ea 2b bd 56 5a 2d 3d 4a 67 a1 bd
       0.057234913 -0.041971613 0.04232248 -0.07881029
0001c0 74 1d 81 3c 4f 15 3d bd 2c 72 ad bd 7e 52 c3 3d
       0.015761115 -0.0461629 -0.08469042 0.095372185
0001d0 a3 cd a3 bd 54 6e 1b bc 70 36 e7 3a 94 02 d2 3d
       -0.079982065 -0.0094867535 0.0017640125 0.10254398
0001e0 19 19 a6 bd 76 8e 2e 3d 09 98 a5 bc c8 ef 65 bd
       -0.08110256 0.04261633 -0.020214098 -0.056136876
0001f0 f4 ce 87 bd 6b ee 5f 3d 6b 00 d0 3d d1 0f d1 bb
       -0.0663127 0.054670732 0.1015633 -0.0063800593
000200 0f 42 a6 3d a4 a3 9d 3b 7d 6f c0 3c 4c f1 27 bd
       0.081180684 0.0048107672 0.023490662 -0.041001603
000210 32 a1 9b bd 59 3e b2 3c 39 d3 7b 3d 51 39 af 3d
       -0.07599105 0.021758245 0.061480734 0.08555854
000220 cf cd 78 3d 09 fa 6d 3d 40 e5 a6 3d 3b 47 a5 bd
       0.06074315 0.05809978 0.08149195 -0.08070227
000230 fd e7 c6 3d 92 be b4 bb 67 59 80 bc 40 81 c8 3d
       0.09712217 -0.005515882 -0.01566763 0.097902775
000240 de dd 66 bd bc 94 1e bd 0d 92 9f 3d 0b 1a b9 3d
       -0.056363933 -0.038716063 0.07791529 0.090381704
000250 00 d2 4f 3c db 6f 99 3c 31 2e b1 3d 1d ba 80 3d
       0.012684345 0.018730095 0.086513884 0.06285498
000260 eb 57 f7 3a 4a 9a 8c bb 85 3f aa 3d fe 04 57 bd
       0.0018870806 -0.0042908536 0.08312897 -0.052494995
000270 6e df af 3c d2 8b a4 3d 22 15 aa bd 14 9c cf bb
       0.021468844 0.08034481 -0.08304812 -0.0063357446
000280 0e 5c 65 3d 42 b4 3d bc d5 8f d4 bd c4 a7 52 3d
       0.055995993 -0.011578621 -0.10378996 0.051429525
000290 d6 e9 7c 3d f3 64 26 bd 07 ad f2 3c 12 35 18 3c
       0.06174644 -0.040623616 0.029623521 0.009289997
0002a0 2e 53 82 bd 02 61 d0 3d 3f 4d 11 3d 86 2a 30 3d
       -0.063635215 0.10174753 0.03547406 0.043009304
0002b0 45 34 7b 3d 94 6a e7 3a bd ba 38 3d 5b 15 e9 3c
       0.061329145 0.0017655664 0.045099963 0.028452566
0002c0 4d 64 a8 3d 1c ff aa 3d dc d2 8b bc 23 ce b7 bd
       0.08222256 0.083494395 -0.017068319 -0.08974864
0002d0 c1 8e 98 3d 37 d5 c3 bd 4d 64 85 bd 55 47 46 3b
       0.07449103 -0.09562152 -0.065132715 0.003025492
0002e0 de 78 55 3c c6 4b b0 bd 43 b4 7f 3c d2 cb 92 bd
       0.013029305 -0.08608203 0.015606943 -0.07167782
0002f0 eb 4c 84 bd c1 64 73 bd 0b 10 40 bd 53 93 b7 3c
       -0.064599834 -0.05942226 -0.0468903 0.022409117
000300 60 59 59 3c 8e dd b5 bd e7 ec 82 bd 63 92 65 bd
       0.013265938 -0.08880149 -0.06392842 -0.05604781
000310 1a db 9f bc 42 08 13 3d 65 ea 73 3d aa 1c 9f 3b
       -0.019513655 0.035896547 0.059549708 0.004855712
000320 45 ad 86 3d 99 61 41 3d c2 3f 90 3d 17 d9 cb bd
       0.06576017 0.047212217 0.07043411 -0.09953516
000330 d0 4f c4 3c 49 08 6f 3d 96 61 61 bd ed e8 80 bc
       0.023963839 0.05835751 -0.055024706 -0.015736068
000340 34 59 c8 3c b7 b1 49 bd ca 4e 93 3d f7 9c 69 bd
       0.024456598 -0.049241748 0.07192762 -0.05703446
000350 a7 4c 0f 3d e4 33 c8 bd 0d 5a af bd f6 f2 54 3d
       0.03498521 -0.09775522 -0.08562098 0.051989518
000360 9f 3b 12 3c 8e 35 c6 3d 63 d1 be 3d 1c 89 ef bc
       0.008925348 0.096781835 0.09317281 -0.029240184
000370 df c0 a5 3d fa 5b 6d bd 29 8b 02 bd aa 07 4f 3c
       0.08093428 -0.057949044 -0.031870995 0.012636105
000380 91 87 93 3d cf 46 73 bc 73 9d 49 3c b2 81 9d bd
       0.072035916 -0.014848425 0.012305605 -0.07690753
000390 f2 dc ea 3c 94 1f b6 bc f0 e0 7a 3d c3 39 ac bd
       0.028669808 -0.022231854 0.061249673 -0.08409455
0003a0 36 0b d0 bc a3 52 80 3d 8d 4a 97 bd ff 0a 2d bd
       -0.02539597 0.06265762 -0.07387266 -0.042246815
0003b0 15 65 18 3d f3 56 5a 3c c4 98 8d 3c 99 46 ba bc
       0.037205774 0.013326394 0.017284758 -0.022738742
0003c0 04 7a ab 3d d4 80 27 3d bb f5 b4 bd 1f b1 c1 bc
       0.08372882 0.040894344 -0.08835932 -0.023644028
0003d0 0c 0b 04 3d b6 d2 6b bd ee 22 a7 3d e7 ef e5 bc
       0.032237098 -0.057573996 0.08160959 -0.028068496
0003e0 e2 b6 9f bd 45 be 86 ba 16 df 04 bd b2 af 0f 3d
       -0.07798554 -0.0010280093 -0.032439314 0.035079665
0003f0 0b f0 ba 3d 99 f6 4a 3d 9f 7e c9 bd 56 54 96 bd
       0.09127816 0.04955158 -0.09838604 -0.073403046

enc_f.lstm.weight_hh_l0 f4 [384, 96]
000000 7a c1 85 bd d2 c5 c8 3d 5b 0a 90 bc 78 15 d1 bd
       -0.06531043 0.09803356 -0.017583063 -0.10209173
000010 15 29 21 3c 3e df 04 3b fb 57 1f 3b 8a c3 8f bc
       0.009836455 0.0020274664 0.0024313915 -0.017549295
000020 0e 47 f5 bc e5 c7 a8 3d 68 1a 44 bd 21 d6 41 3c
       -0.029941108 0.08241252 -0.047876745 0.0118308375
000030 26 28 7a bd 54 1d cb bd 73 f3 52 3d f5 25 c8 bb
       -0.061073445 -0.09917703 0.051501703 -0.0061080405
000040 a9 08 8b bb 14 4c 51 bd 60 d8 2c bd d1 7a e7 3c
       -0.0042429757 -0.051097944 -0.04219854 0.028256806
000050 30 27 2b bd 15 1b 13 bd 6f 55 92 bd 1f 49 d1 bd
       -0.04178542 -0.0359145 -0.071452014 -0.10219025
000060 43 d3 cf 3d a2 8b 16 3c 0a 7a a1 3d 1a 2c f4 3a
       0.10147717 0.0091885645 0.07884605 0.0018628866
000070 f0 5d 81 3c f0 58 b6 3c ae 8c b5 3d 10 c1 ee 3b
       0.015791863 0.022259206 0.08864723 0.0072861984
000080 a8 c6 d0 3d f6 a6 78 3c cb 53 8c bd a4 2a 97 3d
       0.10194141 0.015176525 -0.0685192 0.0738118
000090 2e af f1 bc c3 f7 31 bd af 11 81 bd db bc e8 bc
       -0.029502477 -0.043449175 -0.06302201 -0.028410366
0000a0 a7 c8 8b bd 66 24 14 bd c1 a6 8a bd 02 6a cd bd
       -0.06825381 -0.036167525 -0.06770087 -0.10029985
0000b0 9c 21 08 3d 31 49 22 bc dd be 83 3d 35 f5 09 3b
       0.033235177 -0.0099051455 0.06432889 0.0021050696
0000c0 30 1a d2 bc 21 18 47 3d e5 f8 86 bd 96 c8 86 3c
       -0.025647253 0.048606995 -0.065904416 0.016453069
0000d0 3f 21 af bd 7b d5 d2 3d d6 94 b7 3d bb 1f a2 bc
       -0.08551263 0.102946244 0.08963935 -0.01979052
0000e0 27 70 34 bc e1 d8 2a bd 89 f3 c3 bd 22 16 e4 3c
       -0.011013067 -0.041710738 -0.09567935 0.027842585
0000f0 d8 bc 98 bd 14 f0 e4 bc 24 85 2e bd 88 df 9b bd
       -0.07457894 -0.02794651 -0.04260744 -0.076109946
000100 2b 4f 15 3d 9c 76 66 bd 6d f9 53 bd 2a 13 84 3d
       0.036452454 -0.05626546 -0.051751543 0.06448968
000110 d1 6e 45 3d a3 64 c4 3d 17 62 bb 3c 01 7d b2 bd
       0.048201386 0.095895074 0.022873921 -0.08715249
000120 50 06 e1 bc 83 7e 9e bd 90 65 98 bd e9 20 ed bc
       -0.02746883 -0.07738974 -0.074412465 -0.028946357
000130 3b f2 b2 3d d5 41 b9 bd 19 a2 08 3d 19 fb 9a 3b
       0.08737608 -0.090457596 0.033357713 0.00472964
000140 d6 58 c4 bd ea dc f8 bc 0d bb 42 3d 88 b1 b9 bc
       -0.095872566 -0.030378778 0.047541667 -0.022667661
000150 21 05 ca 3d 29 9e 08 3d 00 d7 ac 3d 41 20 c7 bd
       0.098642595 0.03335396 0.084394455 -0.09722949
000160 b8 38 c0 3d be 3b 4f 3d 13 fb 0c 3d 0c e5 c7 3d
       0.09385818 0.050594084 0.03441913 0.09760484
000170 3a 79 1c bd cb d8 9b bc ad bd e5 3c 8f 4d a4 bd
       -0.03820155 -0.019024273 0.028044546 -0.08022606
000180 d7 39 3a bc d3 d0 3f bd ca 2b 9e bb ed 47 b6 bd
       -0.011366329 -0.04683001 -0.0048269974 -0.089004375
000190 f1 8c 9c 3d cf cd 85 bd 21 70 58 3b d0 85 a4 bd
       0.0764407 -0.065333955 0.0033025818 -0.08033335
0001a0 23 32 b9 bd 5f de 8e bc 54 4f ac bd f3 80 c6 bd
       -0.09042766 -0.01744002 -0.08413568 -0.09692564
0001b0 5b bb 7a 3d ae 89 bd bd f6 f8 9c 3d e4 59 6e 3d
       0.061213832 -0.09254776 0.07664673 0.058191195
0001c0 85 7f c6 bd a4 4c d1 bd b9 38 e3 bc da 80 45 3c
       -0.09692291 -0.10219696 -0.027737008 0.012054646
0001d0 86 3a 8f bd c9 1c 10 3b 3d 4d c2 bd e6 c8 c8 bd
       -0.06993584 0.0021989814 -0.09487388 -0.09803943
0001e0 2f 8d f8 ba f3 5c 73 3c 6d 9d a8 bd 4a cc be bd
       -0.0018962974 0.014853704 -0.082331516 -0.09316309
0001f0 f5 1c a3 3d ea ba 7c bc b3 c7 7c 3d 6f ee e4 bc
       0.079645075 -0.015425423 0.061713886 -0.027945725
000200 0e 51 a6 bd 8b 8c ad bc 94 35 99 ba fd f4 6e bd
       -0.08120929 -0.02118518 -0.0011688941 -0.058339108
000210 80 43 c6 bd f5 8f 9b bd 07 a6 9b bd e7 4f b0 3c
       -0.09680843 -0.07595817 -0.076000266 0.021522475
000220 de fc 37 3d 8e 09 8b bd 18 be 96 3d 5c 17 81 3d
       0.044918887 -0.06788932 0.07360476 0.063032836
000230 75 05 eb bc cd 02 77 bd c0 18 56 3d 57 ac c5 3d
       -0.028689126 -0.060305405 0.052269697 0.09652012
000240 18 6f 5f bd 66 c3 2c bc 01 ff a0 bd e7 98 ac 3d
       -0.054549307 -0.0105446335 -0.07861138 0.08427601
000250 c6 fb 3e 3c 6d d6 5a bd f8 49 7a 3d 8e 96 52 bd
       0.011656707 -0.05342715 0.0611057 -0.05141311
000260 a2 46 a9 bd f9 24 a7 bd 7b e7 91 bd 1a 54 44 bc
       -0.08265425 -0.08161349 -0.071242295 -0.011982942
000270 d2 73 c0 3d c1 0d 20 3c 4a 2b ed bb 36 c6 a5 bd
       0.09397091 0.009768904 -0.0072378265 -0.08094446
000280 c5 53 7f 3d c8 3a bd 3c aa 27 d6 bc 93 5e 81 3d
       0.06233575 0.023099318 -0.02614196 0.06316867
000290 66 46 91 bd 16 f1 fc bc 8c e5 1f 3d 1d 77 27 3d
       -0.070935056 -0.030876677 0.039037272 0.04088508
0002a0 ed fc 3b 3d 07 0c a0 3c 6c f0 3a bd 6d 2c 51 3d
       0.045895506 0.019536985 -0.04563944 0.05106776
0002b0 51 2f 62 3d 8d 3d 28 bd 5a 4c e6 bc d4 82 c3 bc
       0.055220906 -0.041074324 -0.02811258 -0.023866095
0002c0 3e 9b 0e 3d ff 83 39 3c d9 cc 12 3d 94 0d 0c bd
       0.03481602 0.011322974 0.03583989 -0.034192637
0002d0 c4 dd bf bd a7 f0 43 3d 37 43 94 3d e3 ba 0c bc
       -0.0936847 0.047836926 0.07239383 -0.008589479
0002e0 f4 9e be bd bf c3 ae bd c4 de 19 bd 1f 7e df 3b
       -0.09307662 -0.08533429 -0.03756596 0.0068204547
0002f0 87 ca 8b 3c ed 38 ae bd 2b fc cd 3d 98 11 d8 3c
       0.017064346 -0.085069515 0.10057863 0.026375577
000300 25 6e b1 3d c9 19 64 bd 16 a0 9a bd 4b 9a 8b bd
       0.086635865 -0.055688653 -0.07550065 -0.068165384
000310 30 2b 03 3c 76 23 c8 3d 9f 11 94 3d 66 7b 36 bd
       0.008005902 0.09772389 0.072299235 -0.044551276
000320 94 35 2a 3d 0f 54 b1 3d 44 0f 21 3c 4d 6f 1b bd
       0.041555002 0.08658611 0.0098303 -0.03794794
000330 19 de 36 bd f4 f7 2b 3d 8d 54 82 bd 72 c1 3c bd
       -0.044645403 0.041984513 -0.06363783 -0.04608292
000340 bf 3c 16 3d 99 bc 8d 3c 61 21 b6 bd f0 af 9c 3c
       0.036679026 0.017301844 -0.08893085 0.019126862
000350 f4 99 40 bd e7 c9 a7 3c b2 63 57 bc 67 50 2e bd
       -0.04702182 0.020482017 -0.013146328 -0.042557146
000360 c7 c8 d4 bd 0c 55 91 3c 1a b5 9d bd 84 df 95 3d
       -0.10389858 0.017740749 -0.07700558 0.07318023
000370 77 ab 40 3c ef 73 7c 3d 73 57 44 3d 62 28 8d 3d
       0.01175963 0.061634 0.04793496 0.06892468
000380 21 ec c9 bd 3d a3 c6 bc aa 8e 87 3d ea 4b 4d 3d
       -0.09859491 -0.02424776 0.06619008 0.050121225
000390 f3 1b af 3d 73 70 c6 bc b4 a2 d0 3d b8 78 bc 3d
       0.08550253 -0.024223542 0.10187283 0.09202713
0003a0 56 05 85 3d 8a 57 b2 3d 96 ea 35 3c 11 94 a9 3d
       0.064951584 0.08708103 0.011103293 0.082801946
0003b0 c1 43 3c 3d a1 0f 94 bd 44 35 96 bc 7b 35 0f 3c
       0.045963053 -0.072295435 -0.018335946 0.008740778
0003c0 28 53 b1 3d 66 4a 73 3c b3 49 1d bd df 77 7d 3c
       0.08658439 0.014849281 -0.038400363 0.015470474
0003d0 ee cc f3 3c 32 db 85 bc ac 57 5a 3d a4 c0 4a 3d
       0.029760804 -0.016339872 0.053306267 0.049500123
0003e0 16 56 8c bd cc 4d be 3d fc b3 b0 3d 6c 65 25 3d
       -0.06852357 0.09292182 0.08628079 0.040379927
0003f0 0f 4f 8b 3b 0e 4c a1 3d 49 56 70 3b aa 8a 88 bd
       0.004251368 0.078758344 0.0036672524 -0.06667073

enc_f.lstm.bias_ih_l0 f4 [384]
000000 fb 74 13 bd df b5 cd bc 12 11 35 bc ae 0d 32 bd
       -0.036000233 -0.025111137 -0.011051433 -0.043470077
000010 2c 55 a2 bd 73 f4 5d 3d b7 0f 5b 3d 32 68 96 bc
       -0.079264015 0.054188203 0.053481784 -0.018360231
000020 82 0c 6f bc a2 fd ca bd 07 e5 12 bd 7d 4f 44 bd
       -0.014590384 -0.09911658 -0.03586295 -0.04792737
000030 ec 9a 9e 3d aa c2 03 3d ba ac f4 3c 01 a8 aa bd
       0.07744393 0.032168068 0.029867519 -0.083328255
000040 84 f1 d1 bd 26 00 3f bd 9c 73 e8 bc 9e 30 c6 bd
       -0.102511436 -0.046631 -0.02837544 -0.09677242
000050 a7 7d b3 bd 71 dd a8 3d e5 51 39 bd 74 6c 74 3b
       -0.08764201 0.082453616 -0.045244116 0.0037296088
000060 54 c3 a2 bc 10 99 4c bd 0f 1e 90 3c 08 f6 73 3d
       -0.01986853 -0.04995066 0.017592458 0.059560806
000070 4a 93 b5 3d 5f 84 7b bd 46 53 06 3d 10 7c c0 3c
       0.08865984 -0.061405536 0.03279426 0.023496658
000080 2a 39 35 3d 1e 8c 1f bd 36 0a b4 bd c3 f3 49 bc
       0.04424397 -0.038951986 -0.0879101 -0.012326184
000090 f8 5f b7 3d 6e 53 84 3d ee bb c0 3d fc 3a 8c bc
       0.089538515 0.064612255 0.09410845 -0.01711797
0000a0 0a a5 0c 3d a2 4f 4b bd 98 5e b3 bd 5b 54 76 3d
       0.03433708 -0.04963649 -0.08758277 0.06013904
0000b0 e0 59 1d 3c eb ac 9d bd 91 94 43 bc 68 f2 81 3d
       0.009603947 -0.07698997 -0.011937276 0.063450634
0000c0 cc f2 82 bd b2 eb 89 3d 6b 28 9a bd 76 67 8c 3d
       -0.06393966 0.067344084 -0.0752724 0.06855671
0000d0 88 be ab 3d 10 c3 49 3d d2 00 2f bb 03 98 b4 3d
       0.0838595 0.04925829 -0.002670337 0.088180564
0000e0 21 3c cb 3d 4a b5 8d bc 08 e2 9a bd 3d 1c 86 3d
       0.09923578 -0.01729836 -0.07562643 0.06548355
0000f0 8a f0 81 bc 79 a1 af 3d 02 69 02 bd c7 cf 8a bd
       -0.015861768 0.0857572 -0.031838425 -0.06777912
000100 e6 f7 35 3d aa c6 2d 3c d2 9d 91 bd 1a f0 16 bd
       0.044425867 0.010606447 -0.0711018 -0.036850072
000110 0d e3 2c bd ab 84 22 3c c2 3a 85 bd 69 50 15 bd
       -0.04220872 0.009919326 -0.06505348 -0.03645364
000120 ac 09 67 3c a3 de 2b bd d3 40 84 bd 37 41 9d 3d
       0.014101427 -0.04196037 -0.06457677 0.07678454
000130 60 1a 38 3d 52 7e a8 3c b0 d7 ad bd ad db 2c 3c
       0.04494703 0.020568047 -0.08488405 0.010550422
000140 4a 54 aa bc c1 e5 17 bd 65 91 ab 3b 1e 1f 82 bd
       -0.020792145 -0.037084345 0.0052358382 -0.063535914
000150 be b0 77 bd 12 60 19 3b 33 a1 d2 3d f8 8d 70 bd
       -0.06047129 0.002340321 0.102846526 -0.058729142
000160 59 80 41 ba 9a 91 bf bd 0c 68 ec bc e3 ae ba bd
       -0.0007381491 -0.09353943 -0.028858207 -0.09115388
000170 5c bc 8e 3d 37 a6 94 3d 8f 60 9b 3d a9 7d 17 bc
       0.069695204 0.072582655 0.075867765 -0.009246268
000180 e0 9b bc bd bb f0 83 bd ad e8 a6 bb 32 0f 18 3c
       -0.09209418 -0.064424 -0.005093655 0.009280967
000190 b9 2b b2 3d 38 73 42 bd 68 33 12 3d 82 a3 bc 3c
       0.08699746 -0.047473162 0.035693556 0.023027185
0001a0 0f 6f 95 3c 1a 37 8b 3d bf 1c b4 3c e5 bb bf bd
       0.018241433 0.06797619 0.021986363 -0.0936201
0001b0 3b 48 09 3b f9 28 b4 3b cd fd 11 3d f7 e7 89 3d
       0.0020947594 0.0054980484 0.035642434 0.06733697
0001c0 3a 3c 27 bd 13 8f 9d bd 33 56 b9 bd c5 36 7e bb
       -0.04082892 -0.07693305 -0.09049644 -0.003878997
0001d0 d4 7a 26 3c 9a 44 cf 3d 10 62 8a bd bb 5c bb 3d
       0.01016112 0.101205066 -0.06756985 0.09148546
0001e0 c6 c0 8b bd 75 bb b6 bd f0 0f 45 bc 55 fc be 3d
       -0.06823878 -0.08922473 -0.012027726 0.09325472
0001f0 b4 3b 2c bd 65 f3 73 3c f1 e7 50 bc ac 1d 65 bd
       -0.042049125 0.014889573 -0.012750612 -0.0559365
000200 6a 46 c8 bc bb 04 f6 bc 31 ec 87 bd 1f c6 2d bd
       -0.024447639 -0.030031553 -0.06636847 -0.04242527
000210 19 2b 95 3d 7a 90 93 bd 2c 16 e3 bc 86 97 df bc
       0.07283611 -0.07205291 -0.027720533 -0.027293932
000220 68 13 18 3d a4 94 2c bd 0c 63 b3 bd 02 78 2e bd
       0.037127882 -0.042133942 -0.08759126 -0.042594917
000230 7d e2 49 3d b6 61 d3 3d 3e 43 b6 bd 99 a6 94 3d
       0.04928826 0.10321371 -0.08899544 0.072583385
000240 28 5d 78 ba 64 35 57 3d 53 e5 47 bd f5 72 94 bc
       -0.00094743306 0.05254115 -0.048802685 -0.018121222
000250 5b d0 58 3d a5 af 85 bb 26 c1 bd bd 28 e4 3b bd
       0.05293308 -0.0040797764 -0.09265356 -0.045871884
000260 b9 76 86 bd 87 e0 ad 3c 49 f6 b2 bd bb c2 7b 3d
       -0.06565613 0.021225227 -0.087383814 0.061465006
000270 35 17 53 bd e4 82 2d 3d 63 48 1a 3d af 26 8f bd
       -0.051535804 0.042361155 0.03766669 -0.069898
000280 45 21 cb bd d7 b5 51 3d a3 49 b5 b9 e9 23 ac bd
       -0.09918455 0.051198807 -0.00034577874 -0.08405287
000290 b0 5e 3d 3d 77 d9 ad bd 75 5c b4 bd c3 e2 a1 3d
       0.04623288 -0.08488744 -0.08806697 0.079045795
0002a0 5f 5d 7b 3b 5f 86 93 3d 1a 98 8a bd ae f7 5f bd
       0.0038355214 0.072033636 -0.06767292 -0.054679565
0002b0 15 e4 19 bc 4e 5b 8b bd b5 c7 91 3d 36 d5 a6 3d
       -0.009392758 -0.06804524 0.07118169 0.081461355
0002c0 8d ae dc bc 7a 0e 3d bd 25 fa 68 3d cb c2 80 bd
       -0.026938701 -0.046156384 0.05687918 -0.06287154
0002d0 2b 75 9a bd a4 8e 82 bd b7 7a ab 3c 29 65 b1 3d
       -0.07541879 -0.06374863 0.020932538 0.08661873
0002e0 7b 13 7b 3d 45 97 1b bd 3c e8 05 bd 75 0f 82 3d
       0.061297875 -0.03798606 -0.03269218 0.063506044
0002f0 d9 49 69 3d 3c 66 4f 3d 15 ae ff bb 5d 3f b2 3d
       0.056955192 0.050634608 -0.0078027346 0.08703492
000300 8b 9f e4 3b 45 38 1b 3d 41 f7 2a 3d f9 7c e4 3c
       0.006977027 0.03789546 0.041739706 0.027891623
000310 38 73 a2 3d 43 5b 90 bd 4c 12 07 bd dc 1a ef bb
       0.079321325 -0.07048657 -0.032976434 -0.007296903
000320 48 cf cc 3d b1 0b 8b bd b2 d1 35 bc 03 60 98 3d
       0.10000473 -0.06789339 -0.011097359 0.07440188
000330 24 a0 50 bc ef 50 9f bd 7c 3b 5a 3d 01 f3 25 3d
       -0.012733493 -0.07779109 0.053279385 0.04051495
000340 d5 33 86 3c 46 27 98 bd 51 91 94 3c b0 ae bb bd
       0.016382137 -0.07429366 0.018135699 -0.09164178
000350 6e 10 69 bd 68 3c 15 bc 9e a2 d6 bd fb bb d4 3b
       -0.056900434 -0.00910864 -0.104802355 0.0064921356
000360 b5 05 22 3d 27 a7 98 3d 56 4a d2 3d 13 39 49 3c
       0.039556224 0.07453757 0.10268085 0.012281674
000370 40 a2 9c 3d 69 76 79 bd c4 24 36 3d f8 c1 6b bd
       0.07648134 -0.06090394 0.044468656 -0.05755803
000380 17 00 17 bd 71 f7 84 bc 02 fc 9d bc c3 32 47 bd
       -0.03686532 -0.01623127 -0.019285206 -0.048632395
000390 b1 41 95 bd 77 66 39 3d db f3 f5 3c 39 90 2d 3d
       -0.0728792 0.045263734 0.030023506 0.04237387
0003a0 c4 f7 ce 3b 73 6c c6 bd 36 07 be 3d ad 0c 91 bd
       0.006316157 -0.09688654 0.09278719 -0.07082496
0003b0 60 1e 8b 3d 64 d5 71 3d c2 8a 55 bd 8b b6 87 3d
       0.06792903 0.059041396 -0.052134283 0.06626614
0003c0 d8 4d d1 3d f0 d5 a3 3d 2f dc 81 bd cd 96 22 bd
       0.10219926 0.0799979 -0.06340825 -0.039694596
0003d0 34 94 3c 3d ee 93 b3 3d 84 67 83 bd c5 fe 2e 3b
       0.046039775 0.0876845 -0.064162284 0.0026702147
0003e0 80 ac a2 3d 20 bd 08 bb de 27 96 ba 5d 7b ca bc
       0.07943058 -0.002086468 -0.0011455973 -0.024717027
0003f0 bf 0e cf bd 67 00 88 3d 38 25 63 3d cf c6 aa bd
       -0.101102345 0.06640702 0.055455416 -0.08338701
