_train/_models/20250912/삼성에스디에스(018260)_20250912.pt (torch, 831847 bytes, 20 tensors)

enc_p.lstm.weight_ih_l0 f4 [384, 6]
00000000: 6acd b43d 79c1 903d effa a83d d0c0 84bd
00000010: 37b6 8fbc d42a 98bd 6f8a 10bd e529 afbc
00000020: 8eb8 103d 8afc b0bd c33b 06bc 5efe 883b
00000030: acb0 48bc c4db 22bd ab11 0fbd eda3 aebd
00000040: 1b27 893c e112 a13d 692b 80bd 9a37 773d
00000050: b2b0 c03d 41b0 323c b90e 5d3d af6e f4bc
00000060: db6b 5f3d d31a b3bd 5bc8 b4bd ddc9 863d
00000070: 165d cc3d 9298 a93d 68eb 0f3d 2aac 0dbd
00000080: 196d be3d d9a5 a83c ee8f 453b 588a 84bd
00000090: 2800 853d 5c18 5c3d 5f96 e6bb ec9e 99bd
000000a0: 6fd6 d23c f9aa 973c e8a1 81bb 381b 173d
000000b0: 92ab b0bd 93e9 44bc 2a92 873c 4a9f 5fbd
000000c0: 43bb 323d 83f5 863d db0f 7a3d 1efd 80bc
000000d0: ce67 783d db7e ba3d 1222 033d b1f0 88bc
000000e0: 22f7 0abc afdd 28bd efb0 6abd 80c0 8bbd
000000f0: 5394 a9bd 7dff d03d 253c a13c 28b0 67bc
00000100: e4c3 dfbc 2544 a0bd 4833 a5bd e31c 913d
00000110: 00fb 2fbd 322d a5bd 6864 59bd fcf7 c83d
00000120: 196f 77bd a3a1 9cbd 2b93 a93b 5ff9 a23d
00000130: 3803 243d de0b 9c3d b685 7f3d 096a 233c
00000140: 8141 553d 5d86 8e3d 6ff4 d43c 0b57 c1bd
00000150: 925f c0bc 8411 993d 6eb5 513c 6a40 b6bd
00000160: 8edd 1ebd 92d6 873c 1ef3 97bb 80f0 0f3d
00000170: 61de 9abd 0379 96bd 1b0f 10bd 6b2b 653d
00000180: 31ad 953c 37fa 2bbd 2e7f aebd b84f 65bd
00000190: 7690 813d 594f 663d 6828 063d 1c41 3cbd
000001a0: 1c82 12bd b470 b53d 7fc9 f23a 9e2f 11bd
000001b0: ea28 593c 8c63 023b 491b 65bd c830 2a3d
000001c0: 8d19 9f3d def5 86bd cee4 c83d 9cac a4bd
000001d0: 4aaf 3fbd 2ffe b8bd 405e b8bd 9b79 703d
000001e0: 0931 93bd 3e01 83bd 59b7 8dbd bbac d13d
000001f0: a551 ef3c ab52 1d3d 7336 70bd 9b6b b8bd
00000200: 29b7 ee3c b8b6 b13d d778 943d fde8 8abd
00000210: 37cd 5c3d b163 8bb9 37af a53c 6273 bebd
00000220: c6b3 adbd d029 123c b1d6 babd f4b0 853d
00000230: 7833 61bd d4fc 1b3d 4e4b bfbc 3d58 f23c
00000240: d167 fcbc f175 5d3d 05a5 a73d fd81 92bd
00000250: 8870 bbbc 1656 833d f84f b0bd fff1 6ebc
00000260: 92d0 7dbd 2584 4a3d 7f96 b33d 5739 fa3c
00000270: 06c8 aa3d cf9b dc3c 7f3b a3bc f3d7 2cbd
00000280: d9bc ac3d 0f52 cebc d546 aa3d 206e cc3c
00000290: eb5c 253d c3a3 8dbd c154 7abd fcb3 b73d
000002a0: 48ac 74bd 0ddd a2bd b6fa 67bd cb70 153c
000002b0: 829c 40bd 57ca e5bc 14d3 cbbb b30d 503d
000002c0: fc98 bc3b b9f8 b73d 3285 ab3d e076 c13d
000002d0: d514 4b3d d162 643d 93ce adbc d1cc 7b3b
000002e0: 168d 85bb 7b48 8a3d ddb7 a6bc 0d61 94bd
000002f0: be85 bebd 00b5 95bd 657e b83c b913 26bd
00000300: 722e 383d 1924 65bd f504 9c3d 64ad b83c
00000310: 16d0 d2bd 7400 22bd 20c3 e13b a0bf f7bc
00000320: 99c4 9abc 3e48 983c 4e3a a03d f189 8a3d
00000330: 1469 81bd fcb6 723c 26cd 9fbd 4084 0a3d
00000340: 72a6 a4bd 2ea9 b4bd d41b 863d 1972 ab3d
00000350: 302e 793d 96d3 a3bd 1f67 a4bd abb7 a93b
00000360: 5fba 613d bcf8 82bc 1c1d 4abd 8121 413c
00000370: 5136 9bbd 0224 a2bc e11c 85bc 9955 b9bb
00000380: e2da 89bd 2edd ae3d 88fc ab3d 2832 633d
00000390: 9b67 b2bd d60c 8a3d 57a5 023d 060b 49bd
000003a0: 3c25 9abc 3202 623d d19e 31bd 3a0b 893d
000003b0: 7ea6 b6bd cecb 733d 262c e63a 6edc cdbd
000003c0: 0ea9 39bc 841b 87bd 82fe 90bc 42a5 b53d
000003d0: c07f 3e3d f82b a4bd 9ab6 a0bd d0ee 153d
000003e0: 7f35 393d 3321 143c 1bbf 90bd af8b b93d
000003f0: 7f13 89bc 6093 a6bd 3e82 62bc a191 99bd
0.08828242 0.07068152 0.08250987 -0.064820886 -0.017542941 -0.07430044 -0.03528827 -0.021382282
0.035332255 -0.08641918 -0.008192959 0.0041807136 -0.012249153 -0.039760366 -0.03492896 -0.0852736
0.01674228 0.07864929 -0.0625828 0.06035576 0.09408702 0.01090628 0.05396912 -0.029837934
0.05454622 -0.08745351 -0.08827277 0.06581471 0.09978692 0.082810536 0.03513661 -0.034588017
0.092981525 0.020586895 0.0030145603 -0.064716995 0.064941704 0.05373417 -0.0070369686 -0.07501015
0.025737016 0.018514143 -0.0039560683 0.036891192 -0.086264744 -0.012018579 0.016549189 -0.05459527
0.043635618 0.065897964 0.061050277 -0.015745696 0.06064587 0.09106227 0.032014914 -0.016716333
-0.008481773 -0.04122704 -0.057297643 -0.06823826 -0.08280244 0.102049805 0.019682 -0.01414112
-0.027315088 -0.078254975 -0.08066422 0.07085588 -0.04296398 -0.08065261 -0.05307427 0.09812924
-0.060408685 -0.07648017 0.0051750145 0.0795772 0.040042132 0.07619451 0.062383376 0.009974011
0.052064423 0.069592215 0.025995461 -0.0944043 -0.023483071 0.07474044 0.012799604 -0.08899005
-0.03878551 0.016581807 -0.004637136 0.035141468 -0.07561947 -0.073473 -0.035170656 0.05594961
0.01827106 -0.04198667 -0.08520351 -0.05598423 0.06326382 0.056228016 0.03275338 -0.04596053
-0.035768613 0.08859387 0.0018523185 -0.035445802 0.013254384 0.001989576 -0.055934224 0.041550428
0.07768545 -0.06589864 0.09809266 -0.08040735 -0.046798028 -0.09032857 -0.09002352 0.058709722
-0.07187087 -0.06396721 -0.069197364 0.10238024 0.029213736 0.038408916 -0.058645677 -0.09004899
0.029140072 0.08677429 0.07249611 -0.0678272 0.053906646 -0.00026586422 0.02022515 -0.09299351
-0.08481555 0.008921102 -0.091229804 0.06527892 -0.054980725 0.038082913 -0.023351338 0.02958309
-0.030811222 0.054067556 0.08185772 -0.071536995 -0.022880808 0.06412904 -0.08609003 -0.014584064
-0.061966486 0.04944243 0.08768939 0.03054492 0.08338933 0.026929764 -0.01992583 -0.042198133
0.08434457 -0.025185613 0.083142914 0.024954855 0.040371817 -0.06916001 -0.061115984 0.08969876
-0.059734613 -0.07952318 -0.05663558 0.00912113 -0.047024257 -0.028050585 -0.006220231 0.050794315
0.005755542 0.08982987 0.08375014 0.09446502 0.049580414 0.0557583 -0.021216666 0.003842164
-0.0040756566 0.06752106 -0.020351345 -0.072450735 -0.09302853 -0.07309914 0.022521207 -0.040546153
0.04496617 -0.05594263 0.07618133 0.022543617 -0.102935955 -0.039551213 0.006889716 -0.030242741
-0.018892573 0.018589135 0.07823621 0.067645915 -0.0631887 0.014814135 -0.07802801 0.03381753
-0.080395594 -0.08821331 0.065482765 0.08371372 0.060835063 -0.07999341 -0.08027481 0.0051793656
0.055109378 -0.015987746 -0.049344167 0.011787773 -0.075787194 -0.01979256 -0.016249122 -0.005655956
-0.06731202 0.085382804 0.08397776 0.055467755 -0.087111674 0.067407295 0.03189596 -0.04908278
-0.018816583 0.055177875 -0.04336435 0.066915944 -0.089184746 0.059520535 0.0017560765 -0.10051809
-0.01133181 -0.06597045 -0.017699484 0.08869411 0.04650855 -0.08016199 -0.078473285 0.036604702
0.045217033 0.009041118 -0.070677005 0.09059846 -0.01673293 -0.08133578 -0.0138249975 -0.0749848

enc_p.lstm.weight_hh_l0 f4 [384, 96]
00000000: 2812 023d 120a 43bd 66ba 303d 3529 42bd
00000010: bc24 a63c b15e aabd a9b7 c9bc 7f44 e6bc
00000020: 198c 75bc a733 b7bd 24fc 82bb c39e 303d
00000030: 10e0 c1bd ce5e bfbd 4911 3cbc f1fd a33d
00000040: fff3 9fbd 4183 5c3d f8dd a0bd c867 c63d
00000050: 2799 d2bc d1b0 a83c 0f42 23ba 440d c1bd
00000060: e661 b2bd 299d 22bc 38bb 963d 8bd9 cfbd
00000070: 1455 07bd 7738 80bb 3e5b b6bd 7eac 14bd
00000080: b18b b33d 94c0 babd 890b 823d 975d 91bd
00000090: 39ad 63bd 7201 4e3d 0abe 87bd 6b38 6abd
000000a0: b39a 373b c61c 5dbd d276 023d 14e4 1f3d
000000b0: bc9f 48bd f36f c239 b9ac 603d ff8f 933b
000000c0: c6a7 153c caf1 b83c 4de7 a93d 404b 983d
000000d0: af0c 823d d867 4bbc 3eb4 b03d ffbf 293d
000000e0: 3578 2e3d 00c3 b73d 1c4f a13d 3ed8 523d
000000f0: 1b13 543d 2840 00bd 74c6 163c c855 7a3d
00000100: 8b04 b2bd 65e3 90bd 74db be3d cbe7 053d
00000110: 9fdc b63d be90 b8bc 5952 b13d 5551 08bd
00000120: 5d99 80bd 757f 8d3d 2c2e ec3c e4e6 bfbd
00000130: 8b75 4b3d d8de a53d 6d99 8dbd 494f b7bc
00000140: f54c 58bd 781c c3bc f115 9ebc 3b50 0ebd
00000150: 3802 1abc 73c6 91bd 6514 59bd 390e 87bd
00000160: d7ae 3f3d a8a8 c53d 300c e0bc ddf7 0ebd
00000170: 16af fbbc 4fd4 ad3d 4d6c 4f3b 7a4a 14bd
00000180: b2df 96bd 8feb 0ebc d9d3 54bd 7e0b 2a3c
00000190: f0b0 933c 4f7e f4bc 60f5 e63c a8e0 4abd
000001a0: 9195 9a3d cff8 90bd 20b0 9f3b 19a6 32bd
000001b0: d261 a3bd 734a d83c b8f0 963b cbd0 cebd
000001c0: 3972 c93d ce8d a2bd 4ac0 b2bd c974 adbd
000001d0: b411 2c3d 2731 b6bd 1912 2cbd 6ce5 d43c
000001e0: 6d2f ca3d e8cc bc3b e708 873d 7462 b13d
000001f0: 5457 223d 3724 9d3d 50c4 063d f7ee 30ba
00000200: aa77 31bd a4c9 d63c b49f c03c 3183 ec3c
00000210: 7362 76bd 6e36 10bd d45d cc3b 871d 44bd
00000220: ac19 42bd 1f7e bfbc b491 703d e7e5 59bd
00000230: 59b6 50bd faa5 a33c 177c 3fbb 1414 87bc
00000240: bff4 bebb 1e16 3dbd 473b ca3d f0f7 01bd
00000250: 93aa e0bc 0262 773c 2b5f a63d 69f6 a83d
00000260: 46d1 403d 6e28 dcbc e2a3 813c 69a5 65bd
00000270: 6c9e aa3d df96 c9bc 6b9a 8dbb c48f 0d3d
00000280: 6d67 9cbb 2df0 79bd e3d8 9abd bc39 8d3d
00000290: d408 93bd a7ce 57bc 595c 38bd 839d 463d
000002a0: a3b4 b63d c7dc 92bc 0789 75bd c8f8 47bc
000002b0: 7fdd bcbb 60e5 b6bd 119d 943c d263 6f3d
000002c0: 2a9e 0d3c bd3c 74bd 7c6e 803d 862c 3dbd
000002d0: 5f4c a73c 5218 a73c a112 dabb 4326 ac3d
000002e0: bb93 b73d cc31 c03d cbb3 5ebd 166a 6cbd
000002f0: 8066 f0bc e6b4 cd3c fef1 9f3d ea02 0dbd
00000300: 11ed aa3d 5fb0 53bd 4aad e6ba c564 68bd
00000310: 149b 37bc 0583 c9bd 3bcb b9bd df35 df3b
00000320: ce54 e6bc 14e8 cabc d78a 9d3d 3008 8abd
00000330: ea3d 793d 8cf2 3f3d add4 c63d 9792 303b
00000340: 42e9 22bb 0819 14bc 251d abbd c258 87bc
00000350: ab4f bcbc 2e50 c1bd 4bac 693d 68c2 573c
00000360: f154 613d b85f b9bd 94ff bb3d e59d a1bc
00000370: bd1f 83bd f4e3 03bd 1cc7 0ebc 5d10 09bd
00000380: a1b6 4cbd b38b d339 0cba 473d 51c8 8d3c
00000390: 3639 b7bd d2e4 893d 1b3d 9f3d eb79 d8bc
000003a0: 1e78 8cbd 5d97 583d 3ca4 cc3d 3333 18bc
000003b0: 18a4 87bd 97b2 b83d ea3c 31bd 53a1 a43d
000003c0: 0619 383d 7553 823d a406 413d 4b64 923d
000003d0: 98e3 bd3b 319e 943d 006a bfbd 6a5a 9bbd
000003e0: bffc babd d8ea 403a 535d 17bd 8552 46bd
000003f0: 939f 983c 071b 4f3b dcc0 bd3d b3e9 993d
0.031755596 -0.047617026 0.043146513 -0.04740258 0.020281188 -0.08318842 -0.024623709 -0.028108833
-0.014987015 -0.08945399 -0.0039973427 0.043120157 -0.09466565 -0.093442544 -0.0114787305 0.0800742
-0.078102104 0.05383611 -0.07854837 0.096877635 -0.025707794 0.020592125 -0.00062278 -0.09426358
-0.08710079 -0.009925165 0.07359928 -0.10148915 -0.03304012 -0.003912981 -0.08904122 -0.036297314
0.087668784 -0.091187626 0.063498564 -0.07097929 -0.05558512 0.050294347 -0.06628044 -0.05718271
0.0028015792 -0.05398252 0.031851597 0.03903587 -0.04898046 0.00037085972 0.05485222 0.0045032497
0.009134239 0.022576232 0.0829607 0.07436228 0.063500755 -0.012414895 0.086281285 0.041442867
0.042595107 0.0897274 0.07876417 0.051475756 0.051776033 -0.031311184 0.009202588 0.061116964
-0.08692273 -0.07074622 0.09319201 0.032691758 0.08928799 -0.022529956 0.08658285 -0.03328069
-0.06279252 0.06909076 0.02883061 -0.09370211 0.049672645 0.08099145 -0.06914029 -0.022376673
-0.052807767 -0.023817286 -0.019297572 -0.034744482 -0.009399943 -0.07117929 -0.052997965 -0.0659451
0.0467976 0.09651309 -0.027349561 -0.03490435 -0.030723136 0.0848776 0.0031650246 -0.03620384
-0.07366885 -0.008723154 -0.051959846 0.0103787165 0.018028706 -0.029845385 0.028193176 -0.049530655
0.07548059 -0.070787065 0.0048732907 -0.043615434 -0.07977642 0.026402688 0.0046063326 -0.10098418
0.09836239 -0.07937203 -0.087280825 -0.084695406 0.04200907 -0.08896094 -0.042009447 0.025988303
0.09872327 0.0057617314 0.06593495 0.086613566 0.039634064 0.07672923 0.032902062 -0.0006749476
-0.04332701 0.026219197 0.023513652 0.02887115 -0.060152482 -0.03520816 0.006236771 -0.047879722
-0.047387764 -0.023375569 0.058732703 -0.053197768 -0.05095515 0.019976605 -0.002921825 -0.016489066
-0.005827516 -0.04616367 0.098745875 -0.031730592 -0.027425086 0.0150990505 0.081236206 0.08250124
0.04707458 -0.026874747 0.015825216 -0.05606595 0.08330998 -0.024608074 -0.0043213866 0.034560934
-0.0047730715 -0.061020065 -0.07560899 0.068957776 -0.07179418 -0.013171828 -0.045009945 0.04849006
0.089211725 -0.01792754 -0.059945133 -0.01220531 -0.005763709 -0.089304686 0.018141301 0.058444805
0.008643666 -0.059628237 0.06271073 -0.04618504 0.020422159 0.020397339 -0.006655053 0.08405735
0.08963724 0.09384498 -0.054370683 -0.05771836 -0.02934575 0.025110673 0.07809828 -0.034426607
0.08345998 -0.051681872 -0.0017599252 -0.056736726 -0.011206407 -0.09839443 -0.09071966 0.006811842
-0.02811661 -0.024768867 0.07692497 -0.06739843 0.06085006 0.04686217 0.097085334 0.0026942843
-0.002485827 -0.009039171 -0.08355168 -0.016521815 -0.022987207 -0.09439121 0.057049077 0.013168909
0.055012647 -0.0905146 0.09179607 -0.01972861 -0.06402538 -0.032199815 -0.008714464 -0.03346287
-0.049978856 0.0004034914 0.048761413 0.017307432 -0.08946459 0.06733097 0.07775327 -0.026425323
-0.06858848 0.052878726 0.09992263 -0.009289551 -0.06623095 0.09018438 -0.043270983 0.08038583
0.04494574 0.063635744 0.047125474 0.071480356 0.0057949536 0.07256735 -0.0934639 -0.075856045
-0.09130239 0.0007359213 -0.036954235 -0.04841854 0.018630778 0.0031601803 0.09265301 0.07515278

enc_p.lstm.bias_ih_l0 f4 [384]
00000000: 98fa b03c cf4a cf3d 2b71 66bd 6584 cc3b
00000010: b372 54bc d1e9 97bd 0823 bd3c e227 a03d
00000020: d0b0 c8bd 89cc cabd 4efd 023d f749 be3c
00000030: 220e ff3c 5240 68bd 3940 983d 57c6 c5bc
00000040: 8c46 13bd ad53 803d 934d 9c3d b9f9 4ebd
00000050: 8542 9e3d 9158 733c 4e70 eebc c9d7 bfbd
00000060: 0e75 bbbd b1fe b6bd d8fe 4fbd 33d8 d03d
00000070: 8e89 74bd c934 a73d 71c3 093d 6332 cd3d
00000080: 522a a63d 9704 6a3d 58b4 18bc fad1 c7bd
00000090: a220 a33d 45db 4ebc 51e4 a13c 2c66 ad3d
000000a0: d3fd 113b b0f0 883d 10c1 bd3d 3150 973d
000000b0: a70e b13d 4dc3 86bd b061 d3bd 2483 513d
000000c0: d4a3 4abd ad38 bbbd 191e 88bb 5e80 eebb
000000d0: 464f 2e3d 4ebc 30bd a073 c13d 135a 9e3d
000000e0: 60c8 e73c 5e3f 1f3b a839 823d a246 f93c
000000f0: 0d26 edbc d029 0b3c f9b7 56bd a3ab d5bd
00000100: a2b3 d03c 2bb7 98bc cbf8 b43d 2a69 d6bb
00000110: a6bc 94bd 424a 0bbd 591d 86bd b9ba b2bd
00000120: 0888 6a3d d417 3fbd 9c43 c73d f2ac 6c3c
00000130: 4fd2 833d 1a05 f7bc 78c6 863d aa49 f0bc
00000140: a7d3 2abd 1027 863d 116b 36bc d61b c3bd
00000150: db98 463c 519b bdbd cf5c 7fbd 3112 8f3d
00000160: f055 a83c 9cfb a6bd 1e83 88bd b59b 4abc
00000170: 6ab9 a0bd a309 a7bd 6d15 473c 84f5 2bbd
00000180: 64e7 8abd f39a ce3d 8d99 59bd 9dab a1bc
00000190: 5c5e a33d e705 fc3b aedf ad3c 59f8 80bd
000001a0: 0a48 32bd 6063 b73d 18da 2cbd 76ef a0bc
000001b0: 3495 77bd 72da 70bc f815 ad3d 4fa5 293c
000001c0: f884 083b da82 3dbd 3be7 a5bd 2efc b1bd
000001d0: 2854 5cbb 0c85 c23d d00e b7bd d43f 82bd
000001e0: 1ef7 c33d e0b9 823d 887d 613d e5fb 763d
000001f0: 96eb b83d 319b 673d 3c2a 233d c4af b13d
00000200: 6a69 c93d f58d ae3b c78c 6d3d a8b4 1a3d
00000210: 0414 87bd 14b4 6bbd 43ed 20bd ae7f 6d3c
00000220: ed00 413d 28ba bd3c 62bc b7bd 971b cabc
00000230: 2c7f 2cba 6a5a 863c 24a6 3cbd 385d 81bd
00000240: 2dbd eabc fae6 fc3b b025 253c bc4b 06bd
00000250: 50b7 b7bd 8d4d f1bc 2641 c03c e575 783c
00000260: 5874 7c3d a797 b93c caa1 32bd 6e8b c63d
00000270: 0239 7abc 1c8c b73c 98cf a2bd 3bb0 b4bd
00000280: 1185 793d 88cc 9d3d e6c1 b93d a6dd b6bd
00000290: 6f57 c93d d921 113d 048c 49bd b04b ee3c
000002a0: 4fee c7bd 602b bf3d 9482 34bb 7e0e 363d
000002b0: 777a 863d 40ae 15bd f197 603d 9cc2 a73c
000002c0: ab7c 4bbc 2d25 e63c bfce b53c 465a 44bd
000002d0: 5970 a9bd 02e3 bfbc f3c2 ee3c 1174 0a3d
000002e0: 0a5e 093d 33ab 493d 5d8d 40bd cdbd 213d
000002f0: 2964 cd3d 0108 8d3d a748 d23d 82ae 203b
00000300: 407c 79bd f476 94bd 1181 8d3d 0960 c1bd
00000310: 452c 57bd a2a5 a5bd 97a7 2d3b 6f36 67bd
00000320: 88ed b13d 371a 0a3d 56a9 973d 4419 cc3d
00000330: bfff f63c 2095 873d f8cd c23d 9750 493d
00000340: 1701 83bd e6aa 703c c179 c8bd 7e21 4cbd
00000350: ef99 b6bc efaf 883c 8ccd 57bb 6e14 27bd
00000360: 39ab b8bd 3caa 9ebd 81be 6e3d 89f1 45bd
00000370: d353 65bd eb88 c1bd afbb 71bd 3ebf 14bc
00000380: 95bd 89bd 049b b83d 0ade 40bd 0145 4dbc
00000390: 832f a7bd 086f acbc 425a b63d 1422 9cbd
000003a0: 2608 abbc 9d98 aebd add9 bb3d e27f b93d
000003b0: 0d81 303d 540f 9d3d 5440 af3c b054 b3bd
000003c0: 1425 a2bd 217d 4c3d 6524 d13c 32e0 d0bd
000003d0: 4aba 973d 03c5 98bb f1ff ecbc 1816 11bd
000003e0: f1ce 7cbd 0464 57bd 605e 683d 9c3c 333d
000003f0: 0eb5 a6bd 8dd2 c2bd 62d5 04bd b28c a2bb
0.021603867 0.101216905 -0.05626027 0.0062413686 -0.0129668 -0.07417644 0.023087993 0.07820107
-0.09799349 -0.09902293 0.03197985 0.023228629 0.031134669 -0.056701966 0.074341245 -0.024142427
-0.03595595 0.0626596 0.076319836 -0.050531123 0.07727531 0.014852659 -0.029106285 -0.093673296
-0.09153186 -0.08935297 -0.050780147 0.10197487 -0.059701495 0.08164365 0.033633653 0.10019376
0.08113541 0.057133283 -0.009320341 -0.09756847 0.079652086 -0.01262552 0.01976219 0.08466753
0.0022276535 0.066865325 0.092653394 0.07388342 0.08645373 -0.065802194 -0.10321367 0.051150456
-0.049472645 -0.091416694 -0.0041539785 -0.007278486 0.04255607 -0.04314833 0.09445882 0.07732024
0.028293788 0.0024299244 0.06358653 0.030429188 -0.028948808 0.008493856 -0.052421544 -0.10433128
0.02547628 -0.018642029 0.08836516 -0.0065432983 -0.07262544 -0.034006365 -0.06548566 -0.08727021
0.057258636 -0.046653584 0.09729692 0.01444553 0.064365976 -0.0301538 0.06580824 -0.029332
-0.041705754 0.06550419 -0.011133925 -0.09526794 0.0121214045 -0.0925814 -0.06234437 0.069858916
0.02054879 -0.081534594 -0.066656336 -0.012366225 -0.07847865 -0.08156135 0.012151104 -0.04198219
-0.067824155 0.10088148 -0.053124953 -0.019735152 0.07976982 0.0076911333 0.021224823 -0.062973686
-0.043525733 0.08954501 -0.042200178 -0.019645434 -0.060445026 -0.014700519 0.08451456 0.010354354
0.0020831209 -0.046267368 -0.08100744 -0.086906776 -0.0033619497 0.09498033 -0.08938372 -0.063598305
0.09568618 0.06383109 0.055051357 0.06029882 0.090293095 0.056544486 0.0398352 0.08676103
0.09834559 0.005326981 0.057995584 0.037769943 -0.065956146 -0.057544783 -0.03928877 0.014495773
0.047120024 0.023160055 -0.08971478 -0.024671359 -0.00065802294 0.016400535 -0.04605688 -0.06316608
-0.02865466 0.0077179642 0.010079786 -0.03278707 -0.08970511 -0.029455924 0.023468565 0.015164827
0.06163439 0.022655321 -0.043611325 0.09694563 -0.015272381 0.022405677 -0.079497516 -0.08822676
0.060917918 0.07705027 0.09070186 -0.08928995 0.0983113 0.03543267 -0.049205795 0.029088825
-0.09762251 0.09334445 -0.002754365 0.044447415 0.06566327 -0.03654313 0.054832403 0.02047854
-0.01241986 0.028093899 0.02219331 -0.047937654 -0.08273382 -0.023423675 0.029145693 0.033802096
0.03353695 0.049235534 -0.047009815 0.03948765 0.1002887 0.06886292 0.102677636 0.0024518077
-0.06090951 -0.07249251 0.06909383 -0.094421454 -0.052532453 -0.080882326 0.0026497596 -0.056448396
0.086878836 0.033716407 0.07405345 0.099657565 0.030151246 0.0662024 0.09511942 0.049149122
-0.06396692 0.014689183 -0.09788848 -0.04983663 -0.022290198 0.016685454 -0.0032928912 -0.040790968
-0.09017033 -0.077473134 0.058287147 -0.04832605 -0.055988144 -0.09449943 -0.05901688 -0.009078799
-0.06725613 0.09013942 -0.047086753 -0.012528659 -0.08163359 -0.021049038 0.08903934 -0.076236874
-0.020877909 -0.085252024 0.09172378 0.09057595 0.043091822 0.07668939 0.021392979 -0.08756387
-0.07917228 0.04992402 0.02553005 -0.10199012 0.07408579 -0.0046621575 -0.028930636 -0.03542146
-0.061720792 -0.052585617 0.056730628 0.043758973 -0.08140002 -0.095128156 -0.03243006 -0.00496062

enc_p.lstm.bias_hh_l0 f4 [384]
00000000: f21e 94bd e44e 273c 2af3 703d e9a1 b73d
00000010: 24aa c13d 6bba 9abd b2f0 5bbd 14a1 c63d
00000020: 68ea c6bd a47b 77bd 4e65 b3bd 0f26 c1bd
00000030: fa77 ebbc 4ef9 01bd 3fca c6bb 198a ae3a
00000040: 1784 533c 2f21 19bd 2236 adbd 1ce8 9e3d
00000050: acbe 5b3c 5800 943d 5a30 45bb 69ea 9d3d
00000060: edd0 40bd c2b7 bcbc e62a aa3d 3dc5 2fbc
00000070: 19ad 6fbd 5198 413c ce0d b73d 65d8 8ebd
00000080: ad65 b23b f4a9 203c 92ee 39bd 5b0b b93d
00000090: b628 b93c 9f86 64bd e62f 93bd 26b7 c53d
000000a0: 2ab2 9d3d b9e2 5e3a 94ce 543d 3b9c c13d
000000b0: 41d5 b83d 67c1 aabd bd5c f93c 0784 b1bd
000000c0: 7658 a3bd 4685 54bd a8bb 753d 8160 8d3c
000000d0: af13 babc 2e5e 92bd 860b b8bc e3c1 d03d
000000e0: 4986 c5bd d465 8fbd c67e 30bd 9163 acbd
000000f0: 3d6f b33d a135 9e3d 1a5e a63d fdd5 d4bd
00000100: 1c5f bb3d b9b9 813d 8f43 c53c 7ed8 b53c
00000110: f4d4 88bd c50f 8ebd 4e8a 44bd b079 543c
00000120: 7f6a 123c 9788 8f3d 8e27 83bd 6590 5d3d
00000130: e14c 743d 2dde 72bd 2a38 123d b2e2 56bd
00000140: a1bb 443d a046 64bd ab2e 43bd aafd 5d3d
00000150: 76df 833d c411 76bd 792d 0e3d a564 a13d
00000160: d52b 783d 31f9 c53c 95f9 25bd 7bb0 303c
00000170: ad4d 6abd e40e cabd 5c1a 3cbd 5f8a ca3c
00000180: d301 eaba 359f cdbc 5648 fd3c 021e 4c3d
00000190: 807b 33bd b93d 49bd 42e2 a63d f0eb 9e3d
000001a0: ee97 27bd 5179 45bd 9ffd b33d add4 d23d
000001b0: 7ca8 cf3d a5e9 eebc 89bd 29bc 00ed 91bd
000001c0: 7525 c7bc bb83 51bc 1474 9fbd d3e9 ccbd
000001d0: f03b b93c 30db 993d 0d54 c73d eae8 5f3d
000001e0: 59e0 a3bd 5488 3bbd 7952 94bd 6fe9 98bd
000001f0: 1ca3 b93d d7e4 eabc 284c 0c3d 17ee 0bbd
00000200: 06cf 563d d7d7 89bd b204 f7bb 949f ef3c
00000210: 6238 ba3c 41ce e03c a625 febc c909 50bd
00000220: 7c50 4abd 6ed9 8a3d 942a cbba c3da f8bc
00000230: cb1c 553d 333c b4bd 63a0 9c3d 2bed 50bd
00000240: 3c67 1c3d ef53 753d 9e2d 953c 7635 083d
00000250: c142 aabc 3454 86bd 5232 ea3c d483 aabd
00000260: 5461 cebd 03eb 74bd 1851 753d 9ac5 483c
00000270: 27b2 99bd a058 0d3a 939b dcbc 8c9b 9abd
00000280: 2ab3 b2bd f546 37bd 0d58 c3bc ab85 793d
00000290: 2aa3 efbc cd9b a1bb c83e 1cbb 16aa c33d
000002a0: 76c2 ad3d c6e2 9d3d ef25 1e3d 1520 d3bc
000002b0: bc2a 5f3d 66d7 09bd 86fb a53d f96b 9fbd
000002c0: 94fd ee3c fb23 d8bc 8bea c73d 45d0 aeba
000002d0: b1e5 74bc 99b2 ac3d 2435 b73d c50d 6dbd
000002e0: f42a 963d 19b0 19bd 8298 5a3d 83a4 c2b9
000002f0: b556 f23c 1b1c b23d bb4c 8dbd af5e f33c
00000300: b9e1 f93c e659 243d e652 6c3d 5e00 12bd
00000310: 52a4 cbbd 31e9 50bd 2c3f 233d 5d46 90bd
00000320: 387e 22bd 33fc 75bb 1493 c83d eb50 7fbd
00000330: e3ae f0bc 3211 913d 0e5a 093d 8f00 cebc
00000340: 2d9e e0bb 0fdb 393d 8fd4 b9bd 1d8a cb3a
00000350: e358 4c3d c4b6 73bd 7a22 593b 4ea8 213d
00000360: e9bf 133d 9a82 813d a184 0e3d 29db 99bb
00000370: 5408 df3c 3458 55bb 28e6 10bd b615 373b
00000380: 1063 e03c f32b b1bd 99e5 8b3a 5515 823d
00000390: 4a6d c73d 036b c13d 509d c5bb 1648 843d
000003a0: 7339 853b 65d5 a73c fd65 8fbd e47a 60bd
000003b0: c374 27bd c14f 92bd 454c 0bbd 761b 8f3d
000003c0: fca5 543c 53f0 c7bc f62a 8bbd d0e0 efbc
000003d0: 744e 32bb a3ca adbc eb1c c13c 9f8d 85bd
000003e0: 60b9 a5bd 9cf1 a4bd 7173 9e3d 37bb d23d
000003f0: 75ae e13c 277f d1bd fd32 1ebc 77a5 9d3d
-0.07232465 0.01021168 0.05882565 0.08966429 0.0945628 -0.07555088 -0.05369634 0.09698692
-0.09712678 -0.060420647 -0.08759557 -0.09431087 -0.028743733 -0.031731896 -0.00606659 0.0013316303
0.012909911 -0.037385162 -0.08457591 0.07759115 0.013412159 0.07226628 -0.0030088634 0.07710726
-0.047074247 -0.023036841 0.083089635 -0.010728178 -0.05851469 0.0118161 0.0893818 -0.06974868
0.0054442496 0.009806145 -0.045393534 0.09035369 0.02260242 -0.055792447 -0.0718687 0.096540734
0.07699998 0.0008502412 0.05195482 0.09453627 0.0902505 -0.0833767 0.030439729 -0.0866776
-0.07975857 -0.051884912 0.059993416 0.01725793 -0.022714464 -0.071468696 -0.022466432 0.10193231
-0.096447535 -0.07001844 -0.04308965 -0.08417428 0.087614514 0.07725073 0.08123417 -0.103923775
0.09149 0.06334252 0.024080066 0.022197958 -0.066812426 -0.069366015 -0.04798346 0.012968466
0.008936523 0.07008474 -0.06404029 0.054092783 0.05964363 -0.059293915 0.035698093 -0.052462287
0.0480305 -0.055731416 -0.047651928 0.05419699 0.06439106 -0.060075536 0.034711335 0.078805245
0.060588676 0.024166675 -0.040521223 0.010784264 -0.057202984 -0.098661214 -0.045923576 0.024724184
-0.0017853327 -0.02510033 0.030918282 0.049833305 -0.04381895 -0.04913113 0.08148624 0.07759845
-0.040916376 -0.0482114 0.08788609 0.10294471 0.10139558 -0.029164145 -0.01036013 -0.07125282
-0.024309853 -0.012787755 -0.07785812 -0.10005536 0.022611588 0.0751251 0.09732828 0.054665484
-0.08001775 -0.04578431 -0.07242293 -0.07466399 0.09064314 -0.028673572 0.034252316 -0.034162607
0.052443527 -0.06730621 -0.0075384015 0.029250897 0.022731964 0.0274421 -0.031023812 -0.05079058
-0.049393162 0.06779753 -0.001550036 -0.030377751 0.052029412 -0.088005446 0.07647779 -0.05100743
0.03818439 0.0598945 0.018210229 0.03325411 -0.020783784 -0.06559029 0.028588448 -0.083259255
-0.100771576 -0.059794437 0.05989179 0.012254143 -0.07504683 0.00053919293 -0.026929652 -0.075491995
-0.08725579 -0.044745404 -0.023845697 0.06091849 -0.029252607 -0.004931903 -0.0023841131 0.09553926
0.08484356 0.07709269 0.038610395 -0.025772134 0.054484114 -0.033652686 0.08104615 -0.07784266
0.02917365 -0.026384344 0.097615324 -0.0013337216 -0.014947341 0.08432502 0.08945683 -0.05787446
0.073324114 -0.037521455 0.0533681 -0.00037125134 0.02958236 0.08696767 -0.06899401 0.029708235
0.03050314 0.040124796 0.057696246 -0.03564488 -0.09943451 -0.05100364 0.039855167 -0.07044671
-0.039671153 -0.0037534356 0.09793678 -0.06233303 -0.029380267 0.07083358 0.03353315 -0.02514675
-0.0068547935 0.045374926 -0.090737455 0.0015528832 0.049889456 -0.05950047 0.0033132122 0.03946715
0.03607169 0.063237384 0.034794454 -0.0046953154 0.02722565 -0.0032553794 -0.035375744 0.0027936525
0.027390987 -0.08650961 0.0010673284 0.06351725 0.09737642 0.09444239 -0.006030716 0.06459062
0.0040656864 0.020487497 -0.070018746 -0.054804698 -0.040882837 -0.07144118 -0.034008283 0.0698766
0.012979027 -0.024406588 -0.067953035 -0.029282004 -0.0027207406 -0.021214789 0.02357336 -0.06521153
-0.08091998 -0.08053896 0.077368625 0.10289615 0.027549008 -0.102293305 -0.009655711 0.076975755

enc_f.lstm.weight_ih_l0 f4 [384, 4]
00000000: 3622 743d 6f74 883d 3cf4 fa3c 6df1 c03d
00000010: 9eeb aebd 2798 37bc 4245 fc3c fd2b a13d
00000020: d6de 85bc b7c0 cbbd 20a4 203b e3cc 7ebd
00000030: a61a 97bd 8899 30bd e45b 6b3d 6b7d c53c
00000040: 3d06 863c fe03 bebd 4694 a63d f5cd bd3d
00000050: 3ada bbbd 8496 babd 6727 29bc 9a58 9c3c
00000060: e01a 45bd b49b 683b 6c6e de3c e676 debc
00000070: f828 8bbd e04f 9d3d ca23 a3bd ab74 adbd
00000080: 71c4 54bb dea0 803d 55df 203d 94b4 46bd
00000090: 34fc fd3c 7a3b c93d 952b c63c 179e 9bbc
000000a0: 708e 403d db4b 7cbd 7016 a2bd 87a8 b53c
000000b0: db06 443d 8e7d 30bd 9ef0 d7bc 82c1 ce3b
000000c0: f2d0 823d c079 bd3b 7571 f8bc 355c a6bd
000000d0: 5682 a4ba f015 8ebd 6e19 873d a8fd 9b3d
000000e0: f794 bdbd ca6f 8bbd 2146 b4bd 8048 2fbd
000000f0: b76b e43b c518 3cbd c8d5 a3bc 36b2 66bd
00000100: 1d5d 913d e684 053d 4fa9 d0bd fbef c73d
00000110: 1777 8e3d 014e c63d c911 513c e543 ba3d
00000120: ecbc 033d 483b 94bc f89d 0abd 49d1 0e3a
00000130: 938e 3abd 479f a2bd c60c 72bc b0c2 3cbd
00000140: 358b a83d 98f7 803d 5fb8 893d aa9e 7d3d
00000150: e222 8c3b 9ff9 c43c bd25 08bd 46ed 11bd
00000160: 5b58 29bd b876 b13d c469 b13d 51f6 a5bd
00000170: 2d84 43bd b377 8dbd 12dc c0bd 5f39 b0bd
00000180: b21a c33d f27b 9fbd b60d b3bd 9230 b93c
00000190: 8cbd aabd ff7a 83bd 5755 cd3d 7484 953b
000001a0: e999 03bd a61e 94bd ae58 383d 490f c6bd
000001b0: 971a 4a3d 590d ac3a b62d b83c 5796 883d
000001c0: 7dea 05bc 74d5 de3c ca6d 193c 6c64 c63d
000001d0: 520f 81bd ff0b a9bd fd99 3cbc dbfb 87bd
000001e0: 5b24 923c 0bde ca3d e1a4 b03d 8f34 b4bc
000001f0: af05 79bb c4f8 f0bb 9a6e 1abd 64ea 833d
00000200: 7d05 93bd 7d29 6cbd 31c3 aabd d4d2 183d
00000210: f9e5 793d 7157 883d b73f 2a3d 6d4b cabd
00000220: 0add 083d 36c0 673d 017b a93d a81a d63c
00000230: 4820 c33d 2161 903c e575 1c3c 752a 96bd
00000240: 2d0c 383d 443b 223d 6f19 173d 777b 423d
00000250: d3cb d53c c8bb 11bd bbd9 18bd 33b3 88bd
00000260: d103 c7bd 2bd0 85bd 3195 86bb d52e bd3d
00000270: a247 ec3c b8dd 833d 6d82 bbbd 1eb7 0e3d
00000280: d068 71bd a26e c93b 9d73 81bd e525 1bbd
00000290: 1db9 d03d 1797 d7bb 34f5 babd ef5b 64bd
000002a0: 8bb8 60bd 58b6 84bd 33bb 523d 2225 b0bd
000002b0: 0241 4a3c d7b0 c9bd 3ade 44bd d6fe b83d
000002c0: 4646 cbbb 9838 663d bbeb 27bd 2cff b23c
000002d0: 8a65 903d ef4f 77bd 6aec 92bd 0e9b 99bd
000002e0: 3d2b b23d 9b7c 6ebd f3f6 113b 90c6 903d
000002f0: bdb4 bb3d f946 9d3d e65c cc3d ecea b1bc
00000300: b0a6 bf3c 9208 a43d 0db6 bd3c 56a7 333d
00000310: e2a9 9f3d 1f6d 813d 42b2 093d 8cb0 62bd
00000320: a045 963d 7419 893d 6b54 973d a798 d93b
00000330: 6555 063c 0c21 293d 13eb b5bd 50ec ebbc
00000340: e722 953d 267c 41bd 9cc8 823d df60 33bd
00000350: 2dca 0a3d db9c 42bc b7e5 8e3c d50e 773d
00000360: af88 a93d 2e4c 643d b80b 153d b4d4 493d
00000370: 80e3 07bd 5456 123d dec2 0d3d 153f dd3c
00000380: ad2d 4a3d 9b3a 8f3d 8dc9 c33d 270b be3d
00000390: 40ee 32bc a9e5 c93c 1772 1cbd 52ba 99bd
000003a0: 347a 7bbc 3cab 453d dfae 823d 9bde 60bc
000003b0: 27a9 b13d 84ba c63d c6f7 9d3c 23a7 0f3d
000003c0: 0dc7 71bd c8f1 9e3d d2db 15bd 8b27 6a3c
000003d0: 6e2b 843d cb19 aebd 8fd9 bdbc ec0c b1bd
000003e0: c33e 923c 7e1e 8bbd c573 21bd 953b 2ebd
000003f0: c77a f0bc a3f0 d03c 5634 3f3d ab38 b2bd
0.05960294 0.06662833 0.030634038 0.09421048 -0.08541034 -0.01120571 0.030794743 0.07869718
-0.016341608 -0.09948867 0.0024511889 -0.062207114 -0.0737813 -0.04311517 0.05746068 0.024107656
0.016360397 -0.09278105 0.0813375 0.09267799 -0.09172483 -0.0911074 -0.010324336 0.019085217
-0.048121333 0.0035493197 0.027152263 -0.027156305 -0.067949235 0.076812506 -0.079658106 -0.08469518
-0.003246572 0.06280683 0.039275486 -0.048512056 0.031004049 0.098257974 0.024190703 -0.018996282
0.04701084 -0.06159578 -0.07914436 0.022175087 0.0478581 -0.04308849 -0.026359852 0.006309689
0.063875094 0.005782336 -0.030327538 -0.08123056 -0.001255105 -0.06937778 0.06596647 0.076167405
-0.092569284 -0.068084314 -0.088024385 -0.04279375 0.0069708484 -0.04592206 -0.0199994 -0.0563223
0.07097838 0.032597445 -0.10188543 0.097625695 0.06956308 0.09682847 0.012760588 0.09094981
0.03216259 -0.018094674 -0.033842057 0.0005448056 -0.045546126 -0.07940536 -0.014773553 -0.046084106
0.08229677 0.06297225 0.06724619 0.061918892 0.0042766193 0.02404481 -0.033239115 -0.035626672
-0.041344028 0.08665222 0.08662751 -0.08103622 -0.047733475 -0.069075964 -0.09416975 -0.08604693
0.09526576 -0.077873126 -0.087428495 0.022606168 -0.083369344 -0.06419944 0.10026043 0.004562909
-0.032129202 -0.07232408 0.045006447 -0.09670884 0.049341764 0.0013126537 0.022482734 0.066693
-0.008173582 0.027201392 0.009364555 0.09687123 -0.0630175 -0.08254241 -0.011511323 -0.066398345
0.017839601 0.099056326 0.08625198 -0.021997718 -0.0037997772 -0.007353874 -0.037703134 0.06441191
-0.07178781 -0.057656754 -0.08338011 0.037310436 0.061010335 0.06657303 0.04156467 -0.098776676
0.033413924 0.05657979 0.08275414 0.026135758 0.095276415 0.01762444 0.009549593 -0.07332317
0.044933487 0.0396073 0.03688949 0.047481027 0.026098168 -0.035579473 -0.03731702 -0.066748045
-0.09717525 -0.065338455 -0.0041071405 0.09237448 0.028842751 0.06438774 -0.09155736 0.034842603
-0.058937848 0.0061472217 -0.063208796 -0.037877936 0.101915576 -0.0065792906 -0.091288 -0.055751737
-0.054863494 -0.06480092 0.05144806 -0.086008325 0.012344601 -0.09848183 -0.048063494 0.09032981
-0.0062034456 0.056206316 -0.040996294 0.021850191 0.07050617 -0.060378965 -0.07173999 -0.075002775
0.08699653 -0.0582243 0.0022272437 0.07069123 0.091653325 0.076795526 0.099786565 -0.021718465
0.023394912 0.08009447 0.023158098 0.043860756 0.077960745 0.06319641 0.033617266 -0.05534415
0.07337499 0.06694308 0.07389148 0.006640512 0.008199071 0.04129128 -0.088827275 -0.028799206
0.07282048 -0.047237538 0.063859195 -0.043793555 0.033884216 -0.011878218 0.017443521 0.06031688
0.082780235 0.055736713 0.03638813 0.049275115 -0.033175945 0.03572686 0.034609668 0.027007619
0.049359966 0.069936 0.09559927 0.09279471 -0.010921061 0.024645643 -0.038194742 -0.07506241
-0.01534896 0.048259005 0.0638101 -0.013724948 0.086748414 0.09703544 0.019283187 0.035071503
-0.05902772 0.0776096 -0.03658659 0.014291654 0.06453596 -0.08501013 -0.02317503 -0.08645043
0.017852193 -0.06792925 -0.039417047 -0.04253729 -0.02935542 0.02550537 0.04668077 -0.08702215

enc_f.lstm.weight_hh_l0 f4 [384, 96]
00000000: 2dd0 b03d d85d 7d3c b2c6 10bd ad9e 773d
00000010: 4f89 b8bc a7ec 4c3d 1d85 883d a00c 4cbd
00000020: 0b20 a4bd 6a39 9cbd d467 96b8 eb42 c53d
00000030: 08bd 8c3d 90c3 c0bd 356e 4d3c 3307 c03d
00000040: fada efbc da16 333c c16c 1abd b4d6 b23d
00000050: c4e4 143d a7f0 90bc 505f 4a3d 23be c6bc
00000060: ddc7 c93d af42 753d 3327 453d 70f2 a7bd
00000070: 6d54 9a3d f575 5abd 9368 0dbd 890f 7abd
00000080: 7b2e a3bd 94e3 a63d 27e6 a3bd f015 6bbd
00000090: 5d35 afbd 874f 7b3d 2262 7a3b c1d6 bcbc
000000a0: 3240 5c3c f3e3 223d e80a c3bd 2106 4c3b
000000b0: f842 c83d 469f c63d d4e7 b0bd 80a5 a23d
000000c0: fbe8 c8bc 4051 b9b8 d151 35bc 74bb ccbd
000000d0: 61ce 843d bd21 6bbd 42b0 ca3d 3e22 38bd
000000e0: 212b dbba 3c61 49bc 5937 8b3d 24f3 483d
000000f0: 1302 95bd 5b61 cbbd bc6c 343d b978 533d
00000100: 9096 80bd de0f 533d fa42 d83a b996 63bd
00000110: afb7 4c3d 3f40 e6bc 8878 4a3d 664b 94bd
00000120: 34b5 46bd 9a61 c3bd eb43 0abd b5e5 81bb
00000130: 0fae a5bd ae1e c0bd 5fc5 dbbc fe79 993c
00000140: 2b0d 933b cf48 2dbc 37fa d6bc c800 d5bb
00000150: 9cad 983d 03d8 223d d1be 4a3d d8ce 0cbd
00000160: 208f 093d e089 f63c c5f1 b43d 3edf 963d
00000170: 5e43 553d d8b6 b0bd e4af c6bd a935 2bbc
00000180: 64bd 583d 6ce7 86bd 7a2d 8b3d 154e 75bd
00000190: 07a0 d13b 943f 733c 6a4d 3fbc 0a5e 373d
000001a0: d56d 873d 8ed9 bfbd 25a9 c43d a9f2 ccbc
000001b0: 8526 8bbd 8b3f 263d 3f42 b13d 217f 58bd
000001c0: b73e 06bd be02 2cbd 0e33 853d 32b9 16bd
000001d0: 8cc8 c8bd ce1e 753d c20b 2d3d 0c37 ac3d
000001e0: cd96 bebd 40f9 09bd 64b1 7abc 0c10 c63d
000001f0: 8560 49bd 309f 813d c682 22bd a3be 823d
00000200: 8524 bbbb c87c 5a3c 81a4 6f3c d83f ab3d
00000210: 10e9 e9bc 4d3a a93d 9ba7 1bbd e31f e1bc
00000220: 0293 ccbd 8102 52bc 271a 34bd 070e ce3d
00000230: a9bc a93d 46dc 12bd 3744 74bd 8099 5fbd
00000240: c526 14bd 7b7e b0bd 85ea 613d 1dce 903d
00000250: b41f be3d ec07 b03d bf03 9a3d 787e 93bd
00000260: e802 82bc a844 3b3d d3af 273d 183c 1abd
00000270: 9fec c3bd ff62 d8bb 64cf b9bb aa1e ae3c
00000280: 3daf d33c e180 743d 498e 56bd 3b0a 61bd
00000290: 4883 263d 2aa4 86bd f77d 9a3d 53a0 08bd
000002a0: 4d9d 7bbd 27c2 b23d 3efc 1bbd 3b8f c73d
000002b0: c769 773d 78d6 72bd 47cd adbd 36d6 f83c
000002c0: 36c5 283b c58a 903d 7463 fabc 3772 0abd
000002d0: 0873 21bc 0b32 11bd 95fa 863d ec9b b1bc
000002e0: 7252 323d 689a a23d 989f 82bd 5141 803d
000002f0: f48b 823b 9846 4ebd 705f 94bd 1f93 a23c
00000300: abb3 dcbc 924d a9bd 51a6 c3bd 66c8 d3bd
00000310: 7782 ce3d d460 a6bd 0714 533d 415d 34bd
00000320: 1133 8dbc 7585 c93d b1c2 f33c 6b4c 993d
00000330: ee54 15bd c04c b6bb 687e 7ebc 8b55 0e3d
00000340: eef8 6e3d 36cc cc3d 0499 aebd 0e90 593d
00000350: d90e 07bd 0fb7 b2bd 793a 8a3d b8da 8a3d
00000360: eb06 7c3d e17c 8abd 4514 c83d 4dfa 973c
00000370: a199 c4bc 599a 8cbd 7819 06bd 2fbd bebd
00000380: 9a2a 87bc 0912 babd e376 933d 1abb 033d
00000390: 2808 51bd f43f 4ebc 076d 473b d9b8 5d3d
000003a0: 154b b73d e40d c0bd bcfe 98bd f89a 55bd
000003b0: af50 133d 8df2 5abd d7b6 b83d dbc3 f0bc
000003c0: cb76 6bbd c4db 94bc 3eb6 a8bc e9fb 81bd
000003d0: 9223 67bd 12fd 97bd d491 26bd edc0 313d
000003e0: 2ca1 47bd 40a5 5fbd bf7a ac3c 5a92 18bd
000003f0: 75a5 513d f5a9 74bd c0b1 3dbd a26e 8a3d
0.086334564 0.015464269 -0.03534574 0.06045406 -0.022526411 0.050030377 0.06666014 -0.049816728
-0.08013924 -0.07628138 -7.171897e-05 0.09631904 0.06871992 -0.094123006 0.012538482 0.09376373
-0.02927922 0.010930741 -0.037701372 0.087323576 0.03635098 -0.017692877 0.049407303 -0.024260586
0.09852574 0.059878048 0.048133086 -0.08200538 0.07535634 -0.05333515 -0.034523558 -0.06104997
-0.0796785 0.08148876 -0.080028825 -0.057393968 -0.085551 0.06135514 0.0038205464 -0.023051621
0.01344304 0.03976817 -0.095235646 0.0031131583 0.09778398 0.09698348 -0.08637968 0.07941723
-0.024525156 -8.8366214e-05 -0.01106687 -0.09996691 0.06484676 -0.057405222 0.098969 -0.04495453
-0.0016721227 -0.012291249 0.06797666 0.049060002 -0.07275786 -0.099306785 0.04404901 0.051628802
-0.062787175 0.051528804 0.0016499453 -0.055563662 0.04997986 -0.028106807 0.049431354 -0.072409436
-0.048512653 -0.095401004 -0.033756178 -0.003964151 -0.0808984 -0.09380852 -0.026827512 0.018734928
0.0044876537 -0.010576441 -0.026242359 -0.0065003373 0.07454988 0.039756786 0.049498383 -0.03437695
0.03358376 0.03009504 0.088351764 0.07366799 0.0520662 -0.08628625 -0.09701517 -0.010449805
0.052914992 -0.06587109 0.06795783 -0.059888918 0.0063972506 0.014846701 -0.011676172 0.044767417
0.06612746 -0.09367667 0.09602574 -0.025018053 -0.067944564 0.040587943 0.086552136 -0.052855615
-0.032774653 -0.041994803 0.065038785 -0.03679771 -0.09803876 0.05984383 0.04224754 0.08408937
-0.09306107 -0.03368497 -0.015301082 0.096710294 -0.049164314 0.06329191 -0.039675497 0.06384017
-0.0057111406 0.013335414 0.014626623 0.083617866 -0.028553516 0.08263073 -0.038001638 -0.027481025
-0.09988977 -0.01281798 -0.043970253 0.10061269 0.08287937 -0.0358546 -0.059635367 -0.05458975
-0.036169786 -0.08617874 0.055155296 0.07070563 0.09283391 0.08595261 0.07520246 -0.072018564
-0.015870526 0.045719773 0.040939163 -0.037654966 -0.09566616 -0.006603598 -0.005670475 0.021254856
0.025840396 0.05969322 -0.052381787 -0.054941397 0.040652543 -0.065742806 0.07543557 -0.033356022
-0.06142931 0.08728438 -0.038082354 0.09744116 0.06040361 -0.059286565 -0.08486419 0.030375581
0.0025752313 0.07057718 -0.030565001 -0.03380033 -0.009854086 -0.035448115 0.065907635 -0.021680795
0.043535657 0.07939607 -0.06378096 0.06262458 0.003983969 -0.050360292 -0.07244766 0.019845543
-0.026941141 -0.082667485 -0.09553207 -0.10340957 0.10083478 -0.08123937 0.05153277 -0.044034246
-0.017236264 0.09839908 0.029755922 0.07485279 -0.03645795 -0.0055633485 -0.015533067 0.03474955
0.058342867 0.09999888 -0.08525279 0.053115897 -0.032973144 -0.08726322 0.06749434 0.067799985
0.061530035 -0.067621 0.09769491 0.01855197 -0.023999037 -0.06865377 -0.032739133 -0.09313428
-0.016499806 -0.09085471 0.0720041 0.032160856 -0.05103317 -0.01258849 0.0030429976 0.054131363
0.08949868 -0.093776494 -0.07470462 -0.052149743 0.035965618 -0.05345397 0.09019249 -0.029390266
-0.057486337 -0.018171199 -0.020594712 -0.06346876 -0.056430407 -0.07421316 -0.040666416 0.04339688
-0.04873769 -0.054600954 0.021054624 -0.037248947 0.051183183 -0.059732396 -0.046312094 0.06759383

enc_f.lstm.bias_ih_l0 f4 [384]
00000000: 9b84 b43d f767 923c 8812 3a3c 5b72 98bd
00000010: cfda bb3c a10f fe3c 14e7 bd3b 6942 8ebd
00000020: d15b 9e3d b007 6bbd ae3a 893a 020a 42bd
00000030: 7051 eebc 5690 a9bc c82a 8fbd abdc b43d
00000040: b62a c6bd 5be2 223d 26ec 99bd 82a3 b53d
00000050: 24ed 2d3d c666 233d 70ef a63d 87ad 1e3d
00000060: bcf4 9abd ae67 27bd 0d36 b9bc 827f 583d
00000070: 5c56 c33d e9ce da3c a16b c23d 79b6 963d
00000080: ab9b 213d 41f8 923c 0d93 113c 2133 b93d
00000090: 4553 bcbc 7558 bfbb 9897 6a3d 2a80 c9bd
000000a0: 7efd 7c3c ee71 763d a6e8 7abd cc0d ad3d
000000b0: 8857 63bd 8bf8 aa3d 177b 803d 1c0b 80bd
000000c0: bb0c 58bc 9599 9d3d 1930 b23c 3b36 c7bd
000000d0: 080e 00bd 1ba0 0abc 12a4 b03d 583d 9c3c
000000e0: 2c54 b3bb 41fa 87bd ef88 bebd f699 67bd
000000f0: 242a 36bd ee1d 733d 6d6d 74bd c892 b5bd
00000100: dc77 92bb 0bfc 953d ef9a 99bd 51fe aebc
00000110: 3bc9 d1bd b83a 6dbd 229a 0dbc f375 943d
00000120: 2917 b73d fdce 5b3d 82da be3c a3cf 65bd
00000130: 16d4 b0bd 4cd3 313d d71b 59ba 8e63 13bd
00000140: fef8 c53d e9e0 c93d d120 11bd 2b68 ba3d
00000150: 1c8e 8c3d 70d0 8f3d 9304 31bd 5838 8dbd
00000160: 4567 1d3b b2f7 023d ab1d 1abc ab0b bbbd
00000170: 3d9f 0abc 1432 5f3d 27a1 81bc 5c61 63bd
00000180: d583 67bd 033e b93c c289 623d dd96 8b3d
00000190: 690b 99bd 5b45 7ebd 17be a03d 0454 943d
000001a0: c191 a8bd 4ee3 9f3d 80e4 6f3d b87e cf3d
000001b0: 5e2c 8dbc 5035 7bbc a0f0 af3c 239e 4db9
000001c0: 58ab b9bc 775f 143d a81b 41bd 3cb2 b73c
000001d0: 1b4c 883d 51b9 383d 244b 8fba d13f 9a3d
000001e0: 0ba9 b43d 242e 743d d6b8 603d d800 b2bb
000001f0: 7e7e 2f3d 2100 99bc c02e b6bc 1725 1e3d
00000200: a2bf af3d 9ccf 85bd 4256 b23d ba27 81bd
00000210: 105e c8bd df7b dc3c 0e39 d13c c624 96bd
00000220: a03d 663d 9637 8a3c 8ea9 86bc b004 a4bd
00000230: 16b6 9c3c 3b97 953d cffb 6d3c 3f76 99bc
00000240: f5ed b63d 3f8f 87bd 31b1 27bd 680d b43d
00000250: 7c27 e43a ae19 47bd 2197 963d 1e65 0b3d
00000260: b193 c7bd bf16 50bd 557c 03bc f0dd 35bb
00000270: 34dc 8b3d 17c8 9d3c 1f1a 923d f735 56bd
00000280: 0d57 f6bb 033c abbd 34b3 213c d500 b1bd
00000290: a02b 2fbd 4eb2 b53b 8a05 583d d98c 363d
000002a0: 8b1f dcbc c478 c93d 545b 363d 0bee 193d
000002b0: 1215 833d f656 a1bb 9305 823d f878 12bd
000002c0: 4801 e23c ebc2 04bd 6b85 f139 6fe5 8fbd
000002d0: 2ea6 713c f0cb 29bd cc4f a03d 3194 5fbd
000002e0: 3345 9d3c a7be d43d d180 88bd 1fc7 54bd
000002f0: e797 153d 14fa ebbc 3a40 343d 2df8 2c3c
00000300: 91b3 c7bd c4af 223c b2d4 75bd 47c0 9bbd
00000310: fe98 0e3d 7af8 8dbd 71d1 23bd 86d4 81bd
00000320: 0c7e c93d ce24 33bd f3be fbbc 1a64 bfbd
00000330: 3baa 4abc f0d7 263c c26e bd3d 33ad 483d
00000340: 0680 a5bd d42e 933d 213f 0cbd 84a7 8b3d
00000350: cecd 36bc f194 b6bd 3fc0 a73d b984 9cbd
00000360: ee4e 3c3d f764 bfbd 91a6 c23c 96dd dd3c
00000370: a067 11bd a1e5 0fbd 8a93 c33d a938 8e3d
00000380: 06c1 76bd db3f 99bd 74c0 983d 3d56 e8bc
00000390: a833 053c ae28 b13d 59cb 8abd ff26 ce3d
000003a0: 9b3e 54bd d0bc 91bd 4f3b e73c 1f44 a2bd
000003b0: 6897 a2bd 529b 073d 2031 32bd 8f7e 9e3c
000003c0: 123a 693d 318a 20bd 1d01 553d 3da2 b2bc
000003d0: 3009 9fbd d0ff 9d3d 4eaf 983c 8611 14bc
000003e0: deaf 4e3a 0b7a cabd 3125 a13d 02fd 73bc
000003f0: 3930 c8bd bd16 b73c e828 1e3d 5bea 13bd
0.08814355 0.01787184 0.011356957 -0.074436866 0.022931485 0.031013312 0.005795369 -0.069462605
0.07732356 -0.05738038 0.0010469758 -0.047372825 -0.029091567 -0.020698708 -0.06990582 0.088311516
-0.09676115 0.03976665 -0.07515745 0.08869077 0.042462483 0.039892934 0.08151138 0.038739707
-0.07566211 -0.04087036 -0.022608781 0.052855976 0.09537956 0.02670999 0.09493185 0.07359023
0.039455097 0.017940642 0.008885157 0.09042955 -0.022988925 -0.0058394023 0.057273477 -0.098388985
0.015441297 0.060167246 -0.061257027 0.08449897 -0.0555034 0.08348187 0.062734775 -0.06252119
-0.013186629 0.07695309 0.02175145 -0.097271405 -0.03126338 -0.008461024 0.08625044 0.01907222
-0.0054726806 -0.06639529 -0.09303462 -0.056543313 -0.044473782 0.059354715 -0.05967467 -0.08865887
-0.0044698548 0.07323464 -0.07500254 -0.021361502 -0.1024346 -0.057917327 -0.008642705 0.072490595
0.08939964 0.053664196 0.023297552 -0.05610622 -0.08634202 0.0434144 -0.00082820415 -0.035983615
0.09666632 0.09857351 -0.035431687 0.091019 0.06863043 0.07022178 -0.043217253 -0.06895512
0.0024017852 0.031974502 -0.009406487 -0.09133085 -0.008460817 0.054491118 -0.015823914 -0.05551277
-0.05652221 0.022612577 0.055307157 0.06815884 -0.074728794 -0.06207786 0.07848757 0.07242587
-0.08230925 0.07807027 0.058567524 0.101315916 -0.01723307 -0.015332535 0.021477044 -0.00019609234
-0.02266471 0.036223855 -0.047145516 0.022423856 0.06655141 0.045098606 -0.0010932428 0.07531703
0.08821305 0.059614316 0.054863773 -0.0054322295 0.04284524 -0.01867682 -0.022239089 0.03860959
0.08581473 -0.06533739 0.087078586 -0.06306405 -0.09783566 0.026914535 0.025539901 -0.07331233
0.056211114 0.016872209 -0.016438272 -0.080087066 0.019129794 0.073042355 0.014525368 -0.018733142
0.089321055 -0.06619119 -0.040940467 0.087916195 0.0017406787 -0.048608474 0.07353044 0.03403198
-0.09744967 -0.050802942 -0.008025249 -0.0027750693 0.0682911 0.01926045 0.071338885 -0.05229756
-0.0075177015 -0.08361056 0.0098693855 -0.08642737 -0.042766213 0.005544937 0.052739657 0.044567917
-0.02687051 0.09837487 0.04452069 0.03758053 0.06400503 -0.0049236966 0.063487194 -0.035759896
0.027588502 -0.03241245 0.00046066506 -0.07026183 0.014749093 -0.041454256 0.0782772 -0.054584686
0.019198036 0.103879265 -0.06665195 -0.05194771 0.03652182 -0.02880577 0.044006564 0.010557217
-0.097510464 0.009929601 -0.060017295 -0.07605033 0.034813873 -0.06932159 -0.03999466 -0.06339364
0.09838495 -0.04373627 -0.0307307 -0.09345265 -0.012369688 0.010183319 0.09249641 0.0489933
-0.08081059 0.07186666 -0.034239892 0.068190604 -0.011157466 -0.08915127 0.08190965 -0.07642502
0.04597371 -0.093454294 0.023761066 0.0270832 -0.035499215 -0.0351311 0.09549625 0.06944401
-0.060242675 -0.074828826 0.074585825 -0.028361434 0.008129992 0.08650337 -0.06777067 0.10066032
-0.051817518 -0.07116091 0.028226523 -0.07923149 -0.07939035 0.03310711 -0.04350388 0.019347457
0.056940146 -0.03919429 0.052003015 -0.021805877 -0.07765424 0.07714808 0.01863828 -0.009037381
0.00078844826 -0.09886559 0.07868422 -0.014891865 -0.09774823 0.02234971 0.03861323 -0.03611217
